lab5/models/final_model_2.pth (torch, 156887 bytes, 10 tensors)

weight_ih_l0 f4 [192, 1]
00000000: 1f13 01bd e83f b33d 7001 c4bd 5e0b 94be
00000010: 814f efbc 1b6b 1f3e 8f34 f13e ea07 8a3d
00000020: 8298 903c 733f 363e 9991 28bd f1ca 3cbb
00000030: 1ad6 dabd 149b 203e deae 953d bd55 353e
00000040: ae22 203e 119c 0c3e 85d8 a3bd ceaf f3bd
00000050: f846 973d e882 ea3d 5986 ba3e 12fd 5dbe
00000060: b589 493c 6f24 2c3e c1fe e8bd 2cb9 97be
00000070: 7100 793d d6b7 013c e745 133e b2f7 ae3e
00000080: ac5e ba3d 55f5 35be 6354 1fbd 4e38 e73b
00000090: a026 2e3d 5e75 95bd 3918 2abd fab6 a83e
000000a0: fbb7 ad3b c611 b93e 3609 50be dc3d 80be
000000b0: ebf1 5abd 03dc db3d ecab 193d c61c 823d
000000c0: a720 063f 7da4 18be 5725 0bbe bb0e 923e
000000d0: 3780 ad3e 7094 38bc 1e1b b23d 3be3 7b3e
000000e0: c68a 0fbe 0bb7 c23e d6b3 02bd cd2e 923e
000000f0: ae67 633d 4fb9 203e 83ca d63e bc19 d53c
00000100: 1d49 2d3e 3156 5a3d 49e4 a0bd 4c0d 223e
00000110: 6c10 14be fc03 0a3d 5e6b 333d b4a0 74be
00000120: a445 0f3e 8c1f ae3d 8a25 3bbe b1b4 92bd
00000130: 32bd 9dbc 1d02 bb3d fea5 333e 5df8 c83d
00000140: 4572 363b 91de b63d 4791 113c bd71 e13d
00000150: 2ec3 0abe 36a6 4e3d a777 30bc d096 adbe
00000160: 58ae 663d 52b1 293d 8284 ba3d 02d4 c9be
00000170: ed9e 26be f41e c3bc f773 c53d 39b4 01be
00000180: 38a8 f63d 13b3 3cbe 4bed 30ba b952 fbbd
00000190: 1063 21b8 9623 7abc 95af 353e 8278 80be
000001a0: a2fb 90bd b8c7 173e db34 c5be 5a0e 86be
000001b0: 2ead 9ebd f08a 793c c259 6cbe 36e2 d2bd
000001c0: 32b0 1c3e e76d e13d 3cf4 503e a6b7 84be
000001d0: 4ee4 003d d60d 5a3c 3d27 a53c 8f34 ce3d
000001e0: 3a6b ee3b f532 b33c 0e8b a2be bb74 0bbb
000001f0: d902 de3d 3e2f cf3d 8fb7 f3bb 0c71 87ba
00000200: d7b1 bf3d 7172 adbd a394 423e 2cda b1be
00000210: c124 a93e 9893 023e 6d61 08bf 5dea e0bd
00000220: 8606 bf3c e0c0 04be 2c01 9a3d 3c28 08bd
00000230: ed8a 67bc cecb 47bd 918a 57be 1370 38bd
00000240: 1ae7 c0bd 184e 45be 169d 723e 8c7d 903d
00000250: 5fb4 703e ecbb f33d 5034 92be 725f a03e
00000260: 4750 7e3b 40ce 74bd fe34 77bd a938 92be
00000270: 8af7 c3bc da53 82bc fab8 623d 39d5 1c3d
00000280: 5486 ea3d e4ef 16bc 4f07 7a3c cc3e 0a3e
00000290: e1ea 293c 82fd 86bd 634f 91bd f466 b73d
000002a0: 5b9b 4b3e 4605 5cbe 3402 a3be a4fe 923e
000002b0: 974f 0d3d e64e 8dbd 3f8f 8abe fa22 b33c
000002c0: 8994 71bd da15 29be 0ed1 fb3d bc4a 723e
000002d0: 8aa9 443e b0b5 0fbe 2b0e 4bbd 1a8f bf3c
000002e0: b2a7 d33c 6fdc 9abd 6734 093d 37e8 92be
000002f0: 5036 763d e8b4 a83d c071 e3be 4701 1cbd
-0.031512376 0.087524235 -0.09570587 -0.28914922 -0.029212715 0.15568201 0.47110412 0.06739791
0.017650846 0.17797641 -0.041154478 -0.0028807486 -0.10685368 0.15684158 0.07308744 0.17708488
0.15638229 0.1373141 -0.08000282 -0.118987665 0.07386583 0.1145075 0.36430624 -0.2167857
0.012300898 0.16810773 -0.113767155 -0.29633462 0.060791437 0.007917365 0.14382134 0.34173352
0.091000885 -0.17769368 -0.038898837 0.0070562726 0.042517304 -0.07297777 -0.041527007 0.329521
0.005301473 0.36146373 -0.20316014 -0.25047195 -0.053453367 0.10735323 0.037517473 0.06353144
0.52393574 -0.14906497 -0.13588463 0.28526863 0.33886883 -0.011265859 0.086965784 0.245984
-0.14017782 0.38030276 -0.031909786 0.2855133 0.0555188 0.1569569 0.4195138 0.026013248
0.16922422 0.053304855 -0.07856042 0.15825385 -0.1445939 0.033695206 0.043803565 -0.23889428
0.1399141 0.08502111 -0.18276039 -0.071633704 -0.019255254 0.091312625 0.1754379 0.098129965
0.0027839106 0.0892917 0.0088847345 0.11008022 -0.13551018 0.05045148 -0.010770715 -0.33904123
0.05631861 0.04142887 0.09107305 -0.39419562 -0.16271563 -0.02381847 0.09641259 -0.12666406
0.12043804 -0.18427686 -0.00067492266 -0.122716375 -3.847765e-05 -0.015267273 0.1774276 -0.2509194
-0.07079245 0.1482228 -0.38516888 -0.26182824 -0.07747875 0.015230879 -0.23081115 -0.102970526
0.15301588 0.1100729 0.20405668 -0.25921363 0.03146773 0.013308963 0.020160312 0.100686185
0.007275966 0.021874884 -0.31746715 -0.0021279294 0.10840387 0.101164326 -0.0074376534 -0.0010333373
0.09360092 -0.084690936 0.19002013 -0.34736764 0.33035854 0.12751615 -0.5327366 -0.10982201
0.02331854 -0.12964201 0.07519755 -0.033241495 -0.014132244 -0.048778348 -0.21048953 -0.045028757
-0.09419079 -0.19268072 0.23692736 0.07055196 0.23506306 0.11901078 -0.28555536 0.3132282
0.0038805173 -0.059767008 -0.06035327 -0.28558853 -0.023921747 -0.015909124 0.05535219 0.038289282
0.11451402 -0.009212468 0.015260532 0.13500518 0.010370941 -0.065913215 -0.0709522 0.089551836
0.19883482 -0.21486387 -0.31837618 0.287099 0.03449973 -0.06899814 -0.27062413 0.021867264
-0.058979545 -0.16512242 0.122957334 0.23661321 0.19205299 -0.14034152 -0.04957406 0.023383666
0.0258368 -0.075615756 0.03349724 -0.2869279 0.06011039 0.0823763 -0.44422722 -0.038087156

weight_hh_l0 f4 [192, 64]
00000000: 779b e5bd c773 0bbd 077d a43c 7d52 143d
00000010: 9e48 a13d 397e 85bd 4740 abbd 4542 483d
00000020: 6138 24bc 5d58 04be 2e97 a8bd 63a6 f0bc
00000030: 60dc d6bd a19d 69bd 6b90 fdbd 4aae 4ebd
00000040: 0fda 71bd 8a70 77bd fc77 f03d 65ab 38bd
00000050: 1b9b 2bbd 0134 e63d 4309 35bd e86b 0b3e
00000060: f508 0dbd 2bd0 86bd 50a1 f0bc ab46 46bd
00000070: 4a42 4dbc cd9f 9ebd feae 89bc fae5 7dbc
00000080: fc19 0dbe c569 cbbd df99 803b 45db 2f3e
00000090: 1b69 76bd 6d69 20bc b9c1 993b 6a6b 5cbd
000000a0: 226b 4b3d df27 a4bc c0bf 18be e7d9 2c3e
000000b0: c1b0 fe3d 01e5 34be 3e0a 19be c2b3 983d
000000c0: 992b 8b3d f757 abbd f2d0 2bbe bd93 3abd
000000d0: 5553 93bd 41d5 3bbc ea79 9fbd e815 7c3d
000000e0: 5fe6 35bd 92b3 20be 1520 273e bfb4 13be
000000f0: 543f d93d d628 d8bd 3e4c a9bd 47f9 f8bd
00000100: fe28 20bd 8540 c53d ad4b 713d ef45 c0bd
00000110: 465d 8dbd 220f 0d3e 2953 efbd e433 89bd
00000120: bafb 003e ef2d 903d b812 823d 6008 ff3c
00000130: 88a6 e7bd c7e5 de3c d882 fcbb f77d 4bbd
00000140: f334 edbd 52f7 8abd b7e2 c83d 6600 9b3c
00000150: 5237 023e 40a7 933d 3c97 dcbd f8c8 463e
00000160: 59d5 30bd 9dff 293e af44 f6bc 2c3c b2bd
00000170: 1f41 71bd af5d 3b3c b389 4f3c a9e7 683b
00000180: 72be b53d 479f eebd 8ee0 7b3d 3c61 2c3e
00000190: 9c85 533c 9be7 4a3b d58d 48bd 03ed c4bd
000001a0: 11e4 0e3d efd4 debd 5265 10bd 3c38 a93d
000001b0: 9a15 1a3c 75f7 923d 5819 a1bd de05 09bd
000001c0: ece1 f3bd 35e2 5fbc 3f26 92bd cd77 2a3e
000001d0: 4683 1b3d dfb5 e2bb 7e58 1fbd 4aea 8fbc
000001e0: b2f2 3d3e 2080 e5bd 5fbb 843d e246 f13c
000001f0: d3a3 c33c b859 073c 8398 0cbd 0903 41bd
00000200: 573f 11be 95a8 363e 5865 4bbd 33b9 62bc
00000210: 7d36 be3d 10e7 bd3d 1cdd 6d3d 831c 30be
00000220: b128 213e 127f e1bd 56b8 123d 6eac 06be
00000230: 62f1 b8bd dca7 c63d 74bb e3bd aee0 d33b
00000240: 6595 ae3d 540d 37be d7a6 643d 91c8 18be
00000250: 8d21 b13d 03af d83b 390a 85bd 93d4 87bd
00000260: c1b5 f73c 5962 3b3d 3f9a 913d a852 03be
00000270: aebf cd3d 6a87 8f3c e4ef 2cbe 5244 5a3e
00000280: a86f a03d f5b2 fcbd 37ca 03bd 2edb 263e
00000290: c25d 923d 8b6d debd 7589 27bd 0c2f 573b
000002a0: 0642 143d 5509 89bd c6a1 73bd 6aa8 e4bd
000002b0: 1a5b 253e cf7e 00be 8f27 c2bc b25a 723d
000002c0: e51e a3bd 6dea b63d 0d42 35be 7580 8f3d
000002d0: a994 cf3d 9330 28bd e263 403d 4a20 06bd
000002e0: 7b6a 88bd 3382 5fbe 6501 6e3c e8df e93c
000002f0: e08d 7fbd f659 4abe 28ce 36be 5ab5 0bbd
00000300: 8c38 39bd 6cf2 0c3e a4b9 253e 1cde 7e3c
00000310: 86cc 433e 1ce8 b13d c2cd df3d 9d03 dfbd
00000320: 69fd 9c3d 550e 153c cffc f0bc b336 16be
00000330: f586 dbbc 5202 b0bd b2eb 893d 1eb2 b7bd
00000340: d7bb 0d3d e740 9cbd 32df 283e 8b13 933c
00000350: d62d 1bbd 608b 573b 925f 93bd 0604 06bd
00000360: a4cf e4bd 5cf6 0f3d 1f6d 0cbe 2929 593d
00000370: e63f fc3d ff71 da3c 6af4 ed3d e67e 7fbd
00000380: 1125 6c3d a797 2f3d 87bf 6bbd 7d6e 79bb
00000390: d7dd 00be 4b7d 9fbd eae1 34bc 6807 8fbd
000003a0: 6d1a a23d 17c7 95bb 64f1 2dbd 83d4 4c3c
000003b0: f90c 863d 6862 bfbd 8163 1ebd aac2 03bb
000003c0: 64c9 a5bd 3261 b5bd 7b5a 253e 01c5 133d
000003d0: 8105 93bd 0072 1cbd 0cf7 83bc ff3d a73c
000003e0: 6c84 d93c 4bce 82bd e067 45bd 19d3 f7bc
000003f0: e6b9 6fbd 0b0f 9b3d 9813 823d 2df8 d03d
-0.11211293 -0.03404596 0.020079149 0.03621148 0.07875179 -0.06518216 -0.08361869 0.048891325
-0.010023207 -0.12924333 -0.0823196 -0.029376214 -0.10491252 -0.057035092 -0.12381061 -0.050459184
-0.059045848 -0.06041006 0.11741635 -0.04508533 -0.041895967 0.11240388 -0.044198286 0.13615382
-0.03443237 -0.06582674 -0.029373795 -0.048407238 -0.012528012 -0.07745323 -0.016807076 -0.015496725
-0.13779444 -0.09932283 0.003924593 0.17173488 -0.06015883 -0.00979076 0.004692283 -0.053813376
0.049662717 -0.020038543 -0.14916897 0.16879998 0.12436057 -0.17665483 -0.14945313 0.07456161
0.06795425 -0.08366387 -0.16778925 -0.04555105 -0.07193629 -0.011464418 -0.07786925 0.06154433
-0.044409152 -0.156935 0.16320832 -0.14424418 0.10607782 -0.10554664 -0.08266495 -0.12156921
-0.039101593 0.09631447 0.05891006 -0.09388339 -0.06902556 0.13775304 -0.116857834 -0.066993505
0.12596026 0.07040011 0.063512266 0.031131923 -0.1131106 0.027209176 -0.0077060275 -0.049680676
-0.11582365 -0.06785454 0.098088674 0.018921088 0.12716416 0.07209635 -0.10771033 0.19412601
-0.043172214 0.16601415 -0.030062048 -0.08702883 -0.058899995 0.01143591 0.012667107 0.003553847
0.08874215 -0.116514735 0.06149345 0.16833967 0.012910273 0.0030960802 -0.048963387 -0.09615519
0.03488547 -0.108804576 -0.035252877 0.08262679 0.009404564 0.07176105 -0.07866162 -0.03345286
-0.119083256 -0.013664772 -0.07136201 0.16647263 0.03796699 -0.0069186534 -0.038902752 -0.017567772
0.18549612 -0.112060785 0.06481051 0.029452745 0.023881828 0.008261137 -0.034325134 -0.047122035
-0.14184318 0.17837746 -0.049657196 -0.0138381 0.092877366 0.09272587 0.058072194 -0.17198376
0.15738179 -0.11010565 0.035820328 -0.13151714 -0.09030415 0.096999854 -0.11119738 0.006465993
0.085245885 -0.17876178 0.055823173 -0.1492026 0.086489774 0.00661266 -0.064960904 -0.06632342
0.030238034 0.04574809 0.07109498 -0.128245 0.100463256 0.017520625 -0.16888386 0.21315125
0.07833797 -0.12338821 -0.03217527 0.16294548 0.07146789 -0.108607374 -0.040902574 0.0032834439
0.036195777 -0.06691233 -0.05948045 -0.11164935 0.16148034 -0.12548374 -0.023700504 0.059168525
-0.07964877 0.08931432 -0.17700978 0.07006923 0.101357765 -0.04106195 0.046970256 -0.032745637
-0.066609345 -0.21827011 0.0145267 0.02854915 -0.062391162 -0.1976088 -0.1785208 -0.034108497
-0.045219943 0.13764352 0.16184098 0.015555885 0.19120988 0.086868495 0.10927917 -0.10889361
0.07665522 0.009097655 -0.029417424 -0.14669304 -0.026797751 -0.085941926 0.067344084 -0.0896952
0.034602966 -0.07629567 0.16491392 0.017953655 -0.03788551 0.003288947 -0.07195963 -0.03271868
-0.11172417 0.035147056 -0.13713501 0.05301777 0.12316875 0.026665686 0.11618884 -0.06237688
0.057652537 0.042869236 -0.0575557 -0.003806024 -0.12584625 -0.077875696 -0.01104019 -0.069838345
0.079151966 -0.0045708525 -0.042466536 0.012501839 0.06545443 -0.093449414 -0.038669113 -0.0020105042
-0.08095053 -0.08856429 0.16147797 0.03607655 -0.07178784 -0.038194656 -0.016109012 0.020415304
0.026552401 -0.063870035 -0.048194766 -0.030252026 -0.058526896 0.075712286 0.063513935 0.10203586

bias_ih_l0 f4 [192]
00000000: 8d0d d43c ad66 773d 84d8 a23d 55df f13d
00000010: 1691 0fbd 938d 9c3d a15c bd3d 575a 51bd
00000020: 1e30 29bd 5ced 05bd e4cf 063e d9d7 8f3d
00000030: 366a 8e3d 84a2 65bd f407 b63c 9d04 bbbb
00000040: 06c6 1e3e 2c2d 01bd db78 373e de99 cfbc
00000050: 5b82 45bc dca9 e1bd 49c1 6f3e f432 b03d
00000060: ad0d b43d b860 4c3d 9f79 063e c90a 9fbd
00000070: c8b9 103e 8f0c 80bd a30b 16bd 40c8 133e
00000080: ad93 4a3c c617 bf3c 49f0 91ba 3482 90bd
00000090: 6170 713d a510 b5bc 00a5 a93c a882 533e
000000a0: 57dd 243d f60f ebbc ef97 7fbb b4af c83d
000000b0: a839 e83d 067a 7dbd 3f67 b23d 3550 123e
000000c0: 89b3 263d a801 be3d 5865 df3d 8807 b83d
000000d0: 2169 653d b1f9 a03b 92d7 263e 1549 823d
000000e0: c493 9abd fde5 c13d 8743 1f3d 854d 693c
000000f0: 75b9 153e 821e 8cbd 356f ccbb bf01 76bc
00000100: 2163 973c a174 8ebd 0767 323b 4967 9abd
00000110: c6bf 5a3d 003e 073e 5974 5abe 2aa8 68bc
00000120: a10d 093d 64bb 83bc 4154 03be 14d4 5e3d
00000130: 9bb3 02be 8c62 a73d 23f1 913a b3ae 103e
00000140: 7faa 283e a841 523d 3f1c b4bd 8528 2d3c
00000150: 481b 2abe 448b 283d 7e19 0ebe a42c 03be
00000160: 1344 253e 28c4 dfbd 0e33 04be 452c 9ebc
00000170: f078 cd3b 62d5 493e b321 72bd 5099 683d
00000180: f722 fd3d b5f0 e1bd 156e 8e3d a44c 573d
00000190: 6bde c13d db5c 30be a8d4 73bd a792 c33d
000001a0: 36e1 11be 231a f4bd 08f6 4bbd 1e5f 023d
000001b0: 549c e33b d58e 243c 69d0 8fbd 4bc9 06be
000001c0: 3261 183e 102c 79bd 1088 a4bd 5f5c 73bd
000001d0: a007 4c3e e94c 90bd 7a53 7f3d 272f c73d
000001e0: 7738 86bd 0f3c 6dbd 89ee 8c3c 3ba7 ccbd
000001f0: 0d0c 3b3d 9de5 90bb 80ff abbe 700d f43c
00000200: 8cd4 f8bd ea82 333e 8217 0e3e fe3d 86b9
00000210: 8ea3 783d 8ec8 003e 65cc 833d f421 9fbc
00000220: 056a a13d dc20 613d 8c9b 0c3d 0550 78be
00000230: 1f22 13be 8884 5b3d 7e39 da3c d01f 5abb
00000240: 4cb0 9cbd e415 da3d 2590 923b a857 703c
00000250: a12d 793d 0418 2abd 6491 68bd 0433 a2bd
00000260: aa42 45bd 2b08 9b3d 96f6 e03d 870e fbbd
00000270: 6419 20bd 6fe8 823d 4ab7 20be b172 09bd
00000280: cf0c 71bc c2fe 2ebd 0679 d3bd 9ea7 e83d
00000290: e33f ddbd 8952 573e 98d4 c8bd 04ff 18be
000002a0: 5035 5c3d 3df2 bd3d 209a 03be fb84 9cbc
000002b0: 8215 693b a51e d1bd ab25 c53d fab8 b3bd
000002c0: 9387 e7bd 4acf 1ebd 44ec 483d 3bd7 263e
000002d0: 2b8d 233e 6801 e0bd eed9 ed3d d8df 03bc
000002e0: ee5a 0ebe 0934 36be 34cc 043d 05ba 28be
000002f0: a7ac be3c 908e c3bd 8154 01bd ab3e 003e
0.025885368 0.060400654 0.07951453 0.11810175 -0.035050474 0.07644191 0.09246183 -0.051111545
-0.041305654 -0.032697067 0.13165241 0.070235915 0.06953852 -0.05606319 0.02222059 -0.005707337
0.15505227 -0.03153722 0.17917196 -0.025341924 -0.012055005 -0.11018726 0.23413576 0.086034685
0.08791671 0.049896926 0.13132332 -0.07765729 0.1413337 -0.06252395 -0.03663219 0.14431858
0.01236431 0.023326766 -0.0011134233 -0.07056084 0.058945064 -0.022102663 0.020708561 0.2065531
0.04025015 -0.028694134 -0.0039000472 0.09799138 0.11339122 -0.06188395 0.08711099 0.14288409
0.04069856 0.0927766 0.10908002 0.089858115 0.056008462 0.004912578 0.16293171 0.063615955
-0.07547715 0.09467695 0.03888276 0.0142396735 0.14621527 -0.068417564 -0.006238843 -0.015015065
0.018479886 -0.06955839 0.0027222054 -0.07539231 0.053405546 0.13207245 -0.21333446 -0.01420025
0.033460263 -0.016080566 -0.12825109 0.054401472 -0.12763827 0.08173093 0.0011134486 0.14129142
0.16471289 0.051332146 -0.0879445 0.010568743 -0.1661197 0.04114844 -0.13876912 -0.12809998
0.1613925 -0.10926086 -0.12910101 -0.019308219 0.0062705204 0.19710305 -0.05911417 0.056786835
0.12360185 -0.11032239 0.0695459 0.052563325 0.09466251 -0.17222922 -0.059528977 0.09549456
-0.14246067 -0.11919048 -0.04979518 0.031828992 0.006946126 0.010043819 -0.07022173 -0.13162725
0.14880827 -0.060833037 -0.08033764 -0.059414264 0.19924784 -0.070459194 0.06233547 0.097257905
-0.065537386 -0.057918604 0.017203586 -0.09992834 0.04566579 -0.0044219033 -0.3359337 0.029791564
-0.12149915 0.17530409 0.13876155 -0.0002560466 0.060702853 0.12576506 0.064354695 -0.01942537
0.0788155 0.054962978 0.03432803 -0.24249275 -0.14368485 0.05359319 0.026638743 -0.0033283122
-0.076508135 0.106487066 0.00447275 0.014669336 0.06083453 -0.04152681 -0.05677928 -0.07919887
-0.04815928 0.07569917 0.109845325 -0.1225863 -0.039086714 0.063919894 -0.15694919 -0.033556644
-0.014712526 -0.042723425 -0.10325818 0.113600954 -0.10803201 0.21027578 -0.09806174 -0.1494103
0.05376178 0.09274719 -0.12851763 -0.019106379 0.0035565798 -0.10210923 0.09626325 -0.08775516
-0.113051556 -0.038771905 0.049053445 0.16293041 0.1597182 -0.10937768 0.116138324 -0.008048974
-0.13901874 -0.17793287 0.032421306 -0.16477211 0.023275686 -0.09548676 -0.03157473 0.12523906

bias_hh_l0 f4 [192]
00000000: 827d 7abc ae1f 0f3e 61e2 103e fb70 393e
00000010: 9a8d d6bc 0f13 0a3e 32a8 2e3d ca08 d83d
00000020: 5484 89bd 7801 ae3d a6ee 123e 5aa6 0bbd
00000030: 6b1b 6f3c ef9a 05bc b93f 8d3d f228 c33c
00000040: 7e02 333e 6c39 6e3d 5b6b 153e 7d85 18bc
00000050: ec76 a53b 700f 99bd 3e9e 623d 7874 203e
00000060: 478e ed3d c563 8f3d 8cd1 5a3d 3be6 5bbd
00000070: 65d2 5e3e e515 c93d 36a3 313e c36b c8bc
00000080: 0396 293e 604b 213d a58b 513e a07b 9a3d
00000090: 797e 8dbd 3248 353e 4248 d73d d3ff 723e
000000a0: 8c13 c43b 0a4c 96bd 85ac c7bd ba56 6d3c
000000b0: 8545 dc3d 2501 013e 0771 ab3d 5a66 0d3d
000000c0: 0183 0c3d 1622 8a3d 9a62 81bc c848 553e
000000d0: cde3 483e b195 c93d f87e 583c cc51 063d
000000e0: baf6 8c3d bece d53d 3840 2c3e e4bd 023c
000000f0: b154 5b3d 8947 123e 7d2c 883d 8889 d5bc
00000100: 0c3b bc3d d143 943d cc74 1b3c 04ea a43d
00000110: ef35 1bbe ab04 253e 245f b53a 1533 6a3d
00000120: 2c89 153e dfdf 1cbd 21b3 953d e7cf 0f3e
00000130: f561 7c3d 57ee 00be a379 0bbd 754b e33d
00000140: 1a20 e83d dca5 4d3d 8283 893d 5a59 0d3d
00000150: 898c 0bbe 521d c63d 179e 28bd f12d 58be
00000160: 56ef f83d 7c02 1a3d fdf9 203d dff6 baba
00000170: fb74 18be f943 3c3e f017 fa3c 1d41 c5bd
00000180: 3711 ed3d 667c 63bb 3218 15be fffd 2b3c
00000190: 4d59 6cbd 17e8 31be bf10 0c3c ab82 f03a
000001a0: 35c2 04be 2d00 5bbc bf39 1fbe 01c6 fbbd
000001b0: f505 0a3e ed98 0f3d 5b09 6abc f51f c8bd
000001c0: b425 923d aeaf 233d 4273 6abb 5726 54bd
000001d0: c994 603e 93aa e03c c3ab 383d 34d3 463b
000001e0: 69e5 cc3d d788 19be 4ce2 8c3d 858d efbc
000001f0: 35a1 c83c acde 763d 3b83 21be bc39 54bb
00000200: 4296 073d c0e5 163d 7b69 6b3d 5a14 c6bd
00000210: 404c 7fbb 452e c53d 7c05 813c 987d 0d3e
00000220: 3c85 93bc 2788 7c3d 10da e4bd bbed d7bd
00000230: 69c1 03be b158 0cbc 03ed a73d 8c58 db3d
00000240: a8c0 8fbc f878 033d e1b8 2fbe bcb0 9e3d
00000250: 2bde 463d 4913 993d d931 e7bb 2d28 0bbe
00000260: 811f d0bd ba10 45bd 487a 54bd eebf 02bc
00000270: 35a4 8d3d 3c4d 0fbc 296f e7bd fb85 a1bd
00000280: 1b21 cd3d 3335 37be bf3b 2abe 7cf5 6fbd
00000290: bfbf af3d ac68 833e 2e30 5c3d 717f 87bd
000002a0: 9533 6cbc 7053 07be b00b 213c d75b af3d
000002b0: 7069 f6bc eb2e 923d 762a 5dbb 96e4 38bd
000002c0: b5f9 e83d 851a 11bd 902c e23d 0511 903d
000002d0: fdf8 e93d bb4d 923d 30f0 1d3e 86fa fabd
000002e0: 7dc5 8abc a509 81bc 3b60 a8bd c301 f7bd
000002f0: eaa6 9fbb 4e2a 5abd c09b d9bd 80d4 3b3e
-0.015288712 0.13976929 0.14148857 0.18109505 -0.026190568 0.13483833 0.042640872 0.105485514
-0.06714693 0.08496374 0.1434885 -0.034094192 0.014593939 -0.008154615 0.0689692 0.023823235
0.1748142 0.05816023 0.14591734 -0.00930917 0.005049577 -0.074736476 0.055326693 0.1566943
0.11599403 0.070014514 0.053422496 -0.05368636 0.21759947 0.09818629 0.17347416 -0.024465447
0.16561131 0.039378524 0.20463426 0.07543111 -0.06908888 0.17703322 0.10511829 0.23730402
0.0059837755 -0.07338722 -0.09749702 0.014486009 0.10755447 0.12598093 0.08371168 0.03452144
0.034304623 0.067447826 -0.015794087 0.20828545 0.19618149 0.098430045 0.013213865 0.03279285
0.06882997 0.104398236 0.16821373 0.007979844 0.053547565 0.14285101 0.066491105 -0.026066557
0.0919095 0.072394975 0.009488296 0.080524474 -0.15157293 0.16115062 0.0013837558 0.057177622
0.14603108 -0.038299438 0.07309557 0.14044152 0.061616857 -0.1259092 -0.03405155 0.11098377
0.11334248 0.050207004 0.06714536 0.03450904 -0.13627829 0.09673561 -0.04116639 -0.21111275
0.12155025 0.037600026 0.039300907 -0.0014264247 -0.14888375 0.18385305 0.030528992 -0.0963156
0.11575549 -0.0034711598 -0.14560011 0.010497569 -0.05770235 -0.17373691 0.008548914 0.0018349489
-0.12964709 -0.013366741 -0.15549372 -0.122936256 0.13478835 0.03505795 -0.014284457 -0.0977172
0.071360976 0.039962463 -0.0035774265 -0.051794376 0.21931757 0.027425086 0.04508568 0.003033829
0.10004694 -0.14993607 0.068791 -0.029242286 0.024490932 0.06027095 -0.15772717 -0.0032383045
0.03310228 0.0368402 0.05747364 -0.096718505 -0.003895536 0.09627966 0.015749685 0.13817441
-0.018007867 0.061653282 -0.111744046 -0.1054339 -0.12866749 -0.008566068 0.08199503 0.10710248
-0.01754792 0.032097787 -0.1716037 0.07748553 0.04855172 0.074743815 -0.007055503 -0.13589545
-0.10162259 -0.048111655 -0.05187443 -0.00798033 0.06916086 -0.008746441 -0.11300499 -0.07886883
0.1001608 -0.17891388 -0.16624354 -0.05858372 0.085814945 0.25665796 0.053756885 -0.066161044
-0.014416595 -0.13215423 0.009829447 0.08562439 -0.030079573 0.07137855 -0.0033747233 -0.04513987
0.11375753 -0.03542568 0.11043656 0.07034496 0.11424444 0.07143732 0.15423656 -0.12254815
-0.016939873 -0.01575167 -0.082214795 -0.12060883 -0.0048721926 -0.053263 -0.1062541 0.18342781

weight_ih_l1 f4 [192, 64]
00000000: 19db 313e 20b3 31be c434 f8bb 1f75 bcbd
00000010: 7286 fdbb 3e11 d93d 6049 17be 50d4 c63c
00000020: 8ae1 043d 5928 7abe 8c4b 793c dd68 fe3b
00000030: 0c58 583d ba94 c1bd 4716 fbbd 9351 e7bb
00000040: ee7b fdbc e70f 1cbe b439 623e 0cd8 533d
00000050: c0d4 b2bb a98e b73c a6cc 9b3c ea58 9f3b
00000060: b41c 063e 2522 eebd 2d82 20bc efac 713d
00000070: 7e23 643d 7ae2 3a3c 8ec1 a7bd 3dae 8b3d
00000080: 3459 01bc 1371 87bd c3cf 02be adf2 013e
00000090: ac2d 2e3d 4672 04be 4099 a1bd feb1 993c
000000a0: e7d3 bdbc dc7a 50be 48ad 84bc cdd9 283e
000000b0: ff1d 273e e897 35be caa1 ccbd f7f3 e43d
000000c0: cccf cd3d 4882 d23c 1723 593d 0a01 fe3d
000000d0: 56d3 a53d 9f30 833c 419c 15bd ee35 5d3e
000000e0: e0dc 203e 41b8 20be 9851 3a3d 3d95 febd
000000f0: 75b3 94bb 20fe dbbc c728 40be 9108 1abe
00000100: 4e10 37be 954e 433c 0f0f e13d 47a6 143d
00000110: 0058 fa3d 1fbe 7f3c 517f f43b 0a85 21be
00000120: 395d aa3d 1546 11bd 852a 42bc 7b86 c2bd
00000130: b862 41be 441e 2abc 93a4 95bd 2475 aa3d
00000140: d411 e9bd 57fd 27be 642c 243d 5b05 2fbd
00000150: 8fe1 75bc 6532 2e3e 7c5d 2abe 1d0a 34be
00000160: 64e4 6e3c 730f a1bd 4e8b 843d 293b 96bd
00000170: 436a 15bd 9e9f 4dbd 3884 07be c6f2 2d3e
00000180: a173 123c 9461 6ebc 3478 713d 2044 23bd
00000190: 693f 273e b37d 973c e1dd 11be 15ce 173e
000001a0: 6e2c 96bd 588c 52bd f707 edbc d735 e4bd
000001b0: 19f5 4f3e 0d4d 21bd 629c f5bd 1e7d 28bd
000001c0: 1ae7 093e edb4 ad3c ddd0 a63d e2a2 0a3d
000001d0: 0c4b b93d bf49 42be 6561 c7bc 3ea9 2e3e
000001e0: 9e92 a33d 7cf9 9fbd 9764 f23d abdd eebd
000001f0: d8f0 4a3d e85c 41be d252 983d 8138 d53d
00000200: bb13 2d3e 2179 a93d 80ca 633d 09c8 87bd
00000210: c3ef 3b3d b42b 1d3d 6bc5 1c3d 4006 4abe
00000220: a80b 433e 4ea9 c2bd 470b f73d 3c98 3cbd
00000230: 1daf f6bd b29b c5bc 66e3 5bbd 9ac2 83bd
00000240: 1522 e6bc e7b8 9d3d 790e 713e fba3 273e
00000250: 7b89 b2bc fe62 2b3d 83f2 453d 9c06 733e
00000260: b410 75bd f9ad 513d 7c07 ba3d 9e57 2abe
00000270: df60 e5bd 6785 43bd 318b cb3d d533 4d3d
00000280: e60d 093b 1a6b 773d 0b3c 1d3e 52ee 653d
00000290: c6a8 20bd e2b6 a2bd e6be cf3c f75a 153e
000002a0: c466 bc3d 4c52 05be ca26 68be ca6b 663e
000002b0: 1a0a 1fbd e7ee 53bd 5b67 17be caee 163e
000002c0: 45e1 9a3c 6179 4cbc e46a 9c3d 89d2 163d
000002d0: 0727 50bc 1fdb b63d 2eb5 1abe ef40 c23d
000002e0: 11fe 46bd e448 b1bd db35 f13d 9af5 0ebe
000002f0: a13f c23d a0e6 8e3d e901 cabd 8e37 24be
00000300: 222f 6d3d 86ec 0e3e c23c b9bd 3780 1dbe
00000310: 84f5 883d 9653 503c 06a9 0fbd f661 20bc
00000320: 64e2 c43d 7f1c c6bc 480b d3bd 978e 9d3d
00000330: de53 86bc fa86 0c3e b92f 2cbe 6b36 8cbc
00000340: 412e a9bd 3c73 b1bd e3f9 043e a8d6 45be
00000350: 9bce a33b f249 893c 0014 b23d 0f46 66bd
00000360: c1f2 8f3d b4ac bb3d a5a2 053e ddef 08be
00000370: 4327 b83d d231 13bc c10c 44be e962 a43d
00000380: ccad 09be ea42 ac3d 33c9 c93c eb2d 21bd
00000390: fa08 1ebd be10 35bd 19e8 3a3e 19b2 323d
000003a0: 033b 503d 3e35 ebbc 6e20 bf3d 302d 3a3d
000003b0: d016 063e 5fea a33b 4535 333d ecd4 0fbc
000003c0: 2445 4e3d d888 28be 50e5 7c3e a211 79bd
000003d0: 25ba db3c e077 d4bd 84ad 8c3d 5b3d a5bd
000003e0: ec7b a0bd 6513 49bd 6bdb 013d 3204 8fbc
000003f0: f692 f03c db55 91be 8e25 b73c dfba 7d3c
0.17368735 -0.17353487 -0.0075746495 -0.092020266 -0.0077369744 0.10598992 -0.14774084 0.02427116
0.032441653 -0.24429454 0.015215766 0.0077639655 0.052818343 -0.094521955 -0.122601084 -0.007059285
-0.030942883 -0.15240441 0.22092324 0.05171971 -0.0054574907 0.022406893 0.019018482 0.0048628943
0.13096887 -0.11627606 -0.009796661 0.059002813 0.05569791 0.011406535 -0.081912145 0.06820343
-0.007894803 -0.06613364 -0.12774567 0.1269023 0.042524025 -0.12934217 -0.07890558 0.018761631
-0.023172332 -0.20359367 -0.016195908 0.16489334 0.16320036 -0.17733729 -0.09991796 0.11179345
0.100494 0.025696889 0.05301198 0.12402542 0.0809695 0.016014395 -0.03652597 0.21602604
0.15709257 -0.15695287 0.04548797 -0.12430809 -0.0045379945 -0.026854575 -0.18765555 -0.1504233
-0.17877313 0.011920591 0.109892 0.036291387 0.12223816 0.015609293 0.0074614664 -0.15773407
0.08318562 -0.035467226 -0.011850958 -0.09498306 -0.18885314 -0.010383192 -0.07306781 0.08323124
-0.113803536 -0.16405235 0.040081397 -0.042729717 -0.015007391 0.17011411 -0.16637224 -0.17581983
0.01458082 -0.07864275 0.06471883 -0.07335503 -0.036478292 -0.05020105 -0.13234031 0.16987142
0.008938701 -0.014549632 0.058952525 -0.03985989 0.16332783 0.018492555 -0.14244796 0.14824708
-0.07332693 -0.051403373 -0.028934462 -0.11143082 0.20308341 -0.039380122 -0.11992718 -0.041134946
0.13467064 0.021204436 0.08145306 0.033846743 0.09047517 -0.18973444 -0.024338434 0.17056748
0.079869494 -0.07811257 0.11835592 -0.116633736 0.049546093 -0.18883097 0.07437672 0.10411168
0.16902058 0.08275057 0.05561304 -0.066299506 0.04588295 0.038371757 0.03827421 -0.19728947
0.19047415 -0.095049486 0.12062698 -0.04604362 -0.12045119 -0.024122093 -0.05368366 -0.06433602
-0.028092423 0.07701283 0.23540677 0.16371147 -0.021794071 0.041842453 0.04832698 0.2373299
-0.059830382 0.051191304 0.09083459 -0.16634986 -0.11200117 -0.047734644 0.09938658 0.05009826
0.0020912825 0.060404874 0.15354936 0.056135483 -0.039223455 -0.079450384 0.025359582 0.14585482
0.091992885 -0.13019675 -0.22671047 0.22502056 -0.038827993 -0.051741507 -0.1478552 0.14739528
0.018906245 -0.012480111 0.07637575 0.036821876 -0.012704617 0.08928513 -0.15108177 0.09485041
-0.04858214 -0.08656481 0.1177785 -0.13960877 0.094847925 0.06977582 -0.098636456 -0.16036817
0.057906277 0.13957414 -0.09044792 -0.15380941 0.066874534 0.012715241 -0.035073303 -0.009788981
0.09613493 -0.02418351 -0.10304886 0.076932125 -0.016397413 0.13723364 -0.1681508 -0.017115792
-0.08260775 -0.08664557 0.12985949 -0.19320166 0.0049989945 0.016758893 0.08695221 -0.056219157
0.070287235 0.091638 0.13050325 -0.1337275 0.089918636 -0.008984046 -0.1914549 0.08026678
-0.13445204 0.084112 0.024632072 -0.03935043 -0.03858278 -0.04420542 0.182526 0.04362688
0.050837528 -0.028711911 0.09332357 0.04545325 0.1309464 0.0050023044 0.043751974 -0.008778792
0.050358906 -0.16458452 0.24696851 -0.06080783 0.026822159 -0.10374427 0.06869033 -0.08068343
-0.07836136 -0.04909076 0.031703394 -0.017458055 0.029366951 -0.28385815 0.022356775 0.015486448

weight_hh_l1 f4 [192, 64]
00000000: e0bd bcbd cb2d 42be 98d0 133e 06b5 9cbd
00000010: 72cf e33d 85d6 043c e6ae 37be 396a cbbc
00000020: ecbd 103e b89c 86bd 0a94 bc3c 5334 1c3c
00000030: 321c 98bd e65e ffba 2ea2 c0bd e2a0 29bd
00000040: ec69 3d3e d052 093e 8f8a dfbd efde 45bc
00000050: c989 a33e 1114 2e3d 8696 213e d430 423e
00000060: 0ea8 26be b20f 59bd bac2 ab3c 1125 123e
00000070: 2582 bfbd ef07 853e fb3a a13d 217e 243e
00000080: 17f4 a4bd 9005 2bbd 3494 b6bc 7fd8 dfbd
00000090: 0b98 0ebe 2969 52be d834 a43c 7bfe c5bd
000000a0: 89ef 9abe 6b38 9a3d 96a0 313e c58b 553e
000000b0: 3235 293c 9032 3d3c 6a51 ffbd 42e1 60bc
000000c0: f36c 9abd 6477 50bc a9a4 54bd 4cee 7bbd
000000d0: 23c1 8abd 170a 23bd 510e abbe 0b6c 463e
000000e0: abde 72be 81fe 1cbc de91 74be 2e4d 473e
000000f0: bf5d e0bd cd83 813d 5d89 aabe 1d78 69bc
00000100: 30bb 96bd 85f8 91bd 057c f5bc c8d6 aa3d
00000110: 19e3 583d 34cc b4bc ad7e 41bc c939 973b
00000120: 6cbd ffbd 0fe8 79bd a2df a93d 9524 2abe
00000130: 8260 d1bd 2216 c7bd 779d e53d 31f2 043d
00000140: 81d1 f93d c5a5 5a3e 52b9 d53d 7cb7 1e3e
00000150: 1b54 6f3d df40 63bc 69b1 f23d a57a 9b3d
00000160: cd84 09be 84d5 303e 1522 8f3c 863d dc3b
00000170: 8abc a6bd d31c 60bd 2db9 5b3d 0315 59bd
00000180: 078a 34bc 0e0d aebd 6f71 843d e94b 1f3b
00000190: 9072 a23d 9cd6 6fbc 7ab4 71bd 3ec4 b0bd
000001a0: 373a 14bb c5fe 89bd 5dcd 143d 0c69 5bbd
000001b0: ae73 fd3d 5cb5 97bd 7f94 83bd ecf8 323d
000001c0: 978c 523d d599 04be 06f0 87bc 2208 2c3d
000001d0: b2ee be3d f3cb 1bbe f201 9bbd e677 0ebc
000001e0: 0199 2fbc 1a38 923c 3acd a23d 7989 953d
000001f0: 2068 27be 4b14 083e e0a2 0dbe cd51 323d
00000200: b626 1a3e a095 4e3e e9b2 8abd 6670 763b
00000210: 928e 7d3e 04bf 92bd 1df0 ee3d a1e4 ed3d
00000220: 9021 68bc 6fee 3e3e 53d8 95bb c8e1 013e
00000230: d02b d0bd b122 78bd 2be5 3cbe f55b f4bd
00000240: 6687 afbd bd72 963d 7db7 a13b 15ae 753d
00000250: 736b 0dbe fc90 58be b25e 05bc 077c 1e3d
00000260: ac0a 79bc 6c1a 8bbd d8c6 f73d ae37 f0bc
00000270: 9240 d8bd 67e5 30bd 4119 9bbc 1494 d1bd
00000280: 2bdc 0b3d 888f b53b e995 43bc 80fc 9f3e
00000290: 775a 07be dee2 ebbd f4f4 2d3e b7d0 65be
000002a0: b06a cabc 9a4d ccbd e0a5 ffbd 4b2c 15be
000002b0: 4e0f 4b3c 1be3 363d 020c 34be 744d 353b
000002c0: dd8d b9bd b393 a63c 069f 863d cb87 c7bd
000002d0: 544b babd 8a0c a53d df0f eb3d 5ea4 44be
000002e0: 417d 293d 9a14 fbbd 7650 fc3d 0878 f3bd
000002f0: cdf0 25be 7339 2ebd 4753 8a3c 348b 93bd
00000300: e638 c13d 6740 c43d 8801 9fbc ad94 aabc
00000310: 586e c4bd 0bc3 783c f952 843c 6fdc 5b3e
00000320: 9c87 833c 0ff5 463c 7f2d 8f3e 6a82 0f3d
00000330: 4cb7 9bbd 9906 02bd ed43 cd3d 0b00 603e
00000340: 8d83 f23d d1da 2cbd 0fd7 45bd 0bd9 6b3d
00000350: 8076 eebd 5581 75bd 793f 01be 9216 17be
00000360: 5825 c8bd 4af0 d13d d9bb 85bd 5f6c 653e
00000370: f3eb 013e b39f bd3d 2165 ab3c e1f2 0f3e
00000380: ea89 af3c c5d2 2b3d a7fd abbd b794 ba3a
00000390: 28a6 823c a135 c13d a97a a13d ae5c 0dbd
000003a0: e337 00bd 9b64 14bc 2004 183e a045 543d
000003b0: f6c8 dc3c 08e6 ac3d c522 243e b7a7 95bd
000003c0: 7a5d f2bd 7779 b3bd 6645 923d 9192 90be
000003d0: 7295 8d3b dd03 a3bd c2b0 3d3d 3228 0d3e
000003e0: cdb8 90bc 4cfc 0fbe 7934 81bb 1f88 0c3e
000003f0: 0802 313d dcee 1b3d 9edc c03d 7e48 d83d
-0.09215903 -0.18962781 0.14435041 -0.07651715 0.111235514 0.008107786 -0.17937812 -0.024830924
0.1413495 -0.065728605 0.02301981 0.009533959 -0.07427253 -0.0019483238 -0.09405933 -0.041413195
0.18497437 0.13410497 -0.109151 -0.012077077 0.3194106 0.042499606 0.15780076 0.18963939
-0.16275045 -0.052993484 0.020966876 0.14271952 -0.09350995 0.25982615 0.07872578 0.1606374
-0.08054369 -0.04175335 -0.022287466 -0.10929965 -0.13925187 -0.20547928 0.02004473 -0.09667679
-0.30260876 0.07530292 0.17346415 0.20854099 0.010327624 0.0115477 -0.124667004 -0.013725581
-0.07540312 -0.012723777 -0.051914845 -0.061506554 -0.06775119 -0.039804544 -0.3340936 0.19377153
-0.23717754 -0.009582163 -0.23883769 0.19463035 -0.10955381 0.06323967 -0.33307925 -0.014249829
-0.07359922 -0.071274795 -0.029966364 0.083417475 0.052950952 -0.022070028 -0.011809987 0.004615043
-0.12487301 -0.061012324 0.08294608 -0.16615517 -0.102234855 -0.097210184 0.11211675 0.032457534
0.12198163 0.21352299 0.10435738 0.15499681 0.05842982 -0.013870447 0.118502446 0.07591752
-0.13429566 0.1726895 0.017472306 0.0067212014 -0.0814143 -0.05471499 0.053643394 -0.052998554
-0.011019236 -0.08498584 0.06466948 0.002430672 0.07932007 -0.014638569 -0.059010006 -0.0863118
-0.0022617707 -0.067380466 0.036328662 -0.053566977 0.1237558 -0.074076384 -0.06424808 0.04369442
0.05140361 -0.12949307 -0.016593944 0.041999944 0.09322871 -0.15214519 -0.075687304 -0.008695578
-0.010717631 0.017849017 0.079493 0.073016115 -0.16348314 0.13288991 -0.13831663 0.043535043
0.1505383 0.20174265 -0.06772406 0.0037603616 0.24761418 -0.071653396 0.11666892 0.11615873
-0.014168158 0.18645643 -0.004572907 0.12683785 -0.101646066 -0.06057996 -0.18446796 -0.11931602
-0.08570747 0.07346103 0.0049352036 0.05998047 -0.1381052 -0.21149057 -0.008140253 0.0386925
-0.015200298 -0.06792149 0.12098473 -0.029323425 -0.10559191 -0.043187525 -0.01893294 -0.10233322
0.034145515 0.005540792 -0.011937597 0.3124733 -0.13218103 -0.11517881 0.16987973 -0.224429
-0.024709076 -0.09975739 -0.1248281 -0.14567678 0.012393786 0.04465018 -0.17582706 0.0027664574
-0.090602614 0.0203341 0.065733 -0.09742697 -0.09096399 0.08059032 0.114776365 -0.19203326
0.041379217 -0.12259789 0.12320034 -0.118881285 -0.1620514 -0.042535257 0.016885413 -0.07204285
0.09434681 0.09582596 -0.01940991 -0.020822847 -0.09591359 0.015183221 0.016152846 0.21470807
0.016055875 0.012143387 0.27964398 0.035036482 -0.076033205 -0.031744573 0.100227214 0.21875016
0.118414976 -0.042200867 -0.0483008 0.057580035 -0.11643696 -0.059937794 -0.12621869 -0.14754704
-0.09772748 0.102509096 -0.0652997 0.22404622 0.12687664 0.09258976 0.020922245 0.14057495
0.021428067 0.041949052 -0.0839799 0.0014234994 0.01594837 0.09434057 0.07884724 -0.034512214
-0.031303298 -0.009057189 0.14845324 0.051824212 0.026951294 0.084423125 0.16028889 -0.0730738
-0.118342355 -0.08763402 0.07142143 -0.2823682 0.004320794 -0.07959721 0.046311148 0.13784865
-0.017666245 -0.14061087 -0.003943023 0.13723801 0.043214828 0.03806959 0.094170794 0.10560702

bias_ih_l1 f4 [192]
00000000: 065e 003d e3c9 a23c 8164 b13b a4bc 453d
00000010: a48c e63d fb23 223e 0275 983d 5a09 263e
00000020: 6e4c d33d bea0 c5bd f9e7 b03d f2f0 643d
00000030: c72d 8e3c 9067 333e 29f1 f73d a723 413d
00000040: cfcf 403e 0938 863d 95f3 313b da82 5f3c
00000050: 76b9 043e 70b5 0b3e 4448 1fbc 855e 293c
00000060: d4da 103e 2db4 7cbd d6c0 d53c 2caa 4f3e
00000070: 31d0 9f3a 9c07 3d3d fb5c f33d f141 f13c
00000080: 3574 6b3d 18ce 903c 69b4 25bd 936f 96bd
00000090: af21 8fbd d87f a43d 6265 043e 0049 adbc
000000a0: c0df 943d c36c 973d ec2f 533e 3a0a 0c3d
000000b0: 7ca1 c1bc 7f6f 073d 5d90 bf3c face a03d
000000c0: c2aa 883d 6fd0 db3d ed86 493c 17ed eabc
000000d0: f580 e73d 8bed d13d 0ca8 163e c54f 793d
000000e0: 3d78 203e 8983 2cbb 3b0a 0b3e 42bf 0a3e
000000f0: dd10 1e3e f258 e43d f0dc 8abd 97e6 f8b7
00000100: 28f4 4d3e 554d b13c d963 b7bd 4453 8cbd
00000110: b3f9 243d 7637 2d3e 6950 8fbd 8769 7cbe
00000120: 1a61 f9bd 8523 1dbd 02ba da3c 17c3 203c
00000130: d1f7 f03d d28d c83b cd6b 59ba f6a4 a3bd
00000140: d090 aebc 30bf 073e fef8 cd3d 2c08 623a
00000150: a346 0c3e 2c37 d0bd 8341 8f3d 47e4 4d3d
00000160: de27 d3bd e476 ce3d 1c89 433d c887 c0bc
00000170: 892e acbd 0cd3 963c 6cbd 343e e865 2b3c
00000180: 3042 31be 4407 a1ba b511 49bc bf13 f33d
00000190: aae0 64bd ff76 0e3d 010d bd3b 336b 0a3e
000001a0: 5d4d b6bc 82ce 033e 9b60 213e 88e6 513d
000001b0: 53fd 01be 9af0 8d3d dd83 423e e310 13bd
000001c0: ea6e f43d c232 d7bb 0179 6abd 65b4 63bd
000001d0: 59ad 73bd d4ee 213d 8f94 ae3d 0535 143d
000001e0: 1367 e33d e1f1 03bc a3c9 493c af5f c4bc
000001f0: 38b1 2a3e cc6e 1c3e 05d8 103d a291 70bc
00000200: f18a 343d fcef 003e abf9 9f3b 387d 76bd
00000210: bf50 49bd 6942 e2bc 5ce2 e33d 4e1f 1b3d
00000220: 6abc 65bd f1df ca3d 9448 953c c859 c1bd
00000230: b23c a2bc 09ca 9e3d bf08 e13d 75e2 9a3d
00000240: 23a6 223d b6c7 9ebd 1033 603d ad62 0dbd
00000250: 497c fb3c 7777 5bbd d62e 06bd fbec debd
00000260: 46d1 18bc 8266 013e afac 3f3d a487 cd3c
00000270: 379d b4bd 76a3 9f3a d6b2 e43d 73d7 013d
00000280: b8bd dbbd 6c4b cbbd 6dda e13d a7e1 6d3d
00000290: d22b a83b ac06 b03b 4ba0 a3bd d881 b7bd
000002a0: e9b0 f0bc 51da e5bc b147 8ebd 11cc ac3a
000002b0: 32ea 3cbd 8798 0c3e 13c8 cb3d 2a97 a23d
000002c0: 8ddb f2bd 8c8e 59bc 8761 14bd 0d0c a03d
000002d0: 7d8a 963d 3227 cb3c 3e7c e13c b742 f8bb
000002e0: f5da d7bd 0ccf 003d 70f1 6f3c cbdf d73c
000002f0: 1cdc 80bd 1fdc 103d 8162 bcbc d832 35bd
0.031339668 0.019871658 0.0054135923 0.048275605 0.11257294 0.15834038 0.074441925 0.16214505
0.10317312 -0.096498 0.08637995 0.055893846 0.017355813 0.17519975 0.121065445 0.04715314
0.18829273 0.065536566 0.0027153243 0.013642037 0.12961373 0.13643432 -0.009721819 0.010337477
0.14145976 -0.061695267 0.026092928 0.20279759 0.0012192783 0.046149835 0.11882969 0.029450389
0.05748387 0.017676398 -0.040455256 -0.073455 -0.069888465 0.08032197 0.129293 -0.021152973
0.072692394 0.073937915 0.2062375 0.03418944 -0.023636572 0.033065315 0.023384267 0.07851978
0.066731945 0.10733115 0.012300235 -0.028677506 0.113038935 0.10250386 0.14712542 0.06086709
0.15670867 -0.0026323518 0.13578121 0.13549522 0.1543612 0.111497775 -0.06780422 -2.967128e-05
0.2011267 0.02164332 -0.08954591 -0.06851819 0.040277194 0.16915688 -0.06997759 -0.2464963
-0.12176724 -0.038363952 0.026700024 0.009812138 0.11766017 0.006120422 -0.00082939566 -0.07990448
-0.021309286 0.13256526 0.10057257 0.00086224335 0.13698821 -0.10166773 0.06994917 0.05026653
-0.103103384 0.1008127 0.04773818 -0.023502246 -0.084073134 0.018411182 0.17650384 0.010461308
-0.17310405 -0.001228549 -0.012272288 0.11869001 -0.05587832 0.034781452 0.0057693725 0.13517456
-0.022253687 0.12871745 0.15759508 0.051245242 -0.12694292 0.06930657 0.18995614 -0.035904776
0.11935218 -0.00656733 -0.057244305 -0.05559196 -0.05949149 0.039534405 0.08524429 0.036183376
0.11103644 -0.008053274 0.01231614 -0.023971407 0.16669166 0.1527664 0.035362262 -0.014683159
0.044077817 0.12591547 0.0048820577 -0.06017801 -0.04914927 -0.027619557 0.11127159 0.03787165
-0.05608789 0.09905995 0.018223085 -0.094409525 -0.019804332 0.07753379 0.10987996 0.075627245
0.03970922 -0.077529356 0.054736197 -0.034517933 0.030698912 -0.053580727 -0.03275951 -0.10885044
-0.009327238 0.1263676 0.046795543 0.025089093 -0.08819049 0.0012179452 0.11166923 0.03169961
-0.10729545 -0.09926495 0.110279895 0.058076527 0.005132177 0.005371889 -0.07989558 -0.089603126
-0.029381232 -0.028058203 -0.06947268 0.0013183375 -0.046121784 0.1373006 0.099502705 0.079389885
-0.11858282 -0.013278615 -0.03622582 0.078147985 0.07350633 0.024798963 0.027525064 -0.0075763124
-0.105398096 0.031447455 0.0146449655 0.02635183 -0.062919825 0.035366174 -0.02299619 -0.04423794

bias_hh_l1 f4 [192]
00000000: 8fda 9ebd 6fc7 4c3e af43 6a3d d86b cb3d
00000010: cafa f33d 4509 e73d 9cb0 e53d a9d3 1abd
00000020: db1f 033d 6e97 85bd abbc d63d 51e5 003d
00000030: ba40 053e 4600 3b3e 1aa0 ebbc e435 ff3d
00000040: 9f3a c33d dd3f ce3d 307f dc3b 0a8e e43c
00000050: df32 1b3e 2365 36bd bde7 803d 669e 2e3d
00000060: 7392 e63d 9958 11bd a67c 003e 85ae d83c
00000070: a19a 13bd 0ed7 413d e027 5a3e f5e9 e1bc
00000080: e26e febc 7d25 c13d 782e 82bb 40ac 0a3e
00000090: 24e3 adbd b59e 9b3d 3a72 293e c1f6 2f3e
000000a0: 5d59 673e d563 303c 2b09 d03d 2548 e93d
000000b0: f44d 2d3c d1be 24bc f898 ee3d 8eda e83c
000000c0: 307a 89bd 6083 0c3e 8459 6c3c fa0e fc3d
000000d0: 6b73 053d ef7d 7dbc 1d08 8c3d 89c4 293e
000000e0: 51f3 063d e44a 1c3e b5b4 4a3d 4a34 df3d
000000f0: 12b6 093d 94a6 fb3d acce 5c3d 41f7 2c3e
00000100: f2c3 873d 38fd 463d aa60 70bd 9aa9 ff3d
00000110: ae7c d13d 2d54 063e 542a 5abd 0b1c 25be
00000120: ef9d a3bd e913 6bbd 5a91 ebbd 8e9e 7f3d
00000130: 2ebe 593e e46f ee3d 4450 223e b2d1 06bd
00000140: ff39 6cbd 5e45 613e 943a f5bd fcbf 503c
00000150: e2f4 863b 9574 b8bd 4d42 cc3d d99b 95bc
00000160: 46d1 67bd 9a3d 833d a2ff f13d 4176 cfbd
00000170: 218c 27be 58cc 603c 078e 233e ec11 853d
00000180: 5866 73bc 8c48 903d c8db 85bc 95db 9d3d
00000190: bb17 823d dc91 a73d 7bae a8bd 586e eb3d
000001a0: 4ae4 893d 5d9e b33d e1bb 053d 82fd d83d
000001b0: 5f76 96bd 44b5 a4bd ded6 0d3e 5923 963d
000001c0: d9d6 18bd ae85 7e3d 84d8 bfbc 1092 05bd
000001d0: 82a2 96bd 01cb 3d3d e84d f0bd ec1a 703d
000001e0: 4cd7 83bd f7d3 6e3d 07ed 583d d897 403d
000001f0: 279a 98bc 21d1 9dbd 1f93 2bbd c4fb 003d
00000200: f2fb b73d 317e 243d 0f9c fdbd 9921 0e3d
00000210: a50d 9dbd fd9c e0bd cec8 ecbc 8415 16be
00000220: 2ff9 24be d0fa 56bd db32 e63c 127c 723c
00000230: 673d b73d e778 3ebc 3684 fdbd 9669 153d
00000240: 8e27 8b3d 66e2 98bd 13cd 673c 7867 a43d
00000250: fff0 9cbd 59fe 9bbd b93c d53d 99e4 063d
00000260: 7f66 b8bd e6e0 583d 2fe9 fb3c 4a7c 9fbd
00000270: 86e6 5a3d ab45 19bd 9b4c a1bd fed9 3abc
00000280: d6c2 3bbd 3afc c33d 3856 dfbc 1451 a8bd
00000290: af0d b3bd 3f12 0abe 5b96 823c 7a9d 9e3d
000002a0: c0ff 9a3d 8daf 373d 2aa6 00bd 5f31 363c
000002b0: 8194 1abc 5024 acbc a4f9 413d ef40 debd
000002c0: d98b a43d 6d89 54ba c8d0 043e 0f65 ab3d
000002d0: be68 01bd 5828 83bd afab 94bd 2ad3 5dbd
000002e0: 6402 8b3c 3e83 e53d 9b66 fb3d 1456 e73c
000002f0: 1cb1 02bd 80e5 c1bd 8a8a 953d 14cf 4ebd
-0.077565305 0.19997953 0.057193454 0.09932679 0.119130686 0.11281065 0.11215326 -0.03779951
0.0320128 -0.065230235 0.10485204 0.031468693 0.13012972 0.18261823 -0.028762866 0.12461451
0.095326655 0.10070775 0.006729029 0.02789976 0.15156125 -0.044530045 0.062942006 0.04263153
0.11258402 -0.035484884 0.1254755 0.026450405 -0.036036137 0.047324233 0.21304274 -0.02757738
-0.031058732 0.094309784 -0.0039728247 0.1354227 -0.08490589 0.0759863 0.1654748 0.17183973
0.22592683 0.010765989 0.10157999 0.113907136 0.0105776675 -0.01005526 0.1165027 0.028424527
-0.067127585 0.1372199 0.014425639 0.12307544 0.032580774 -0.015471919 0.06837485 0.16578878
0.03294689 0.15262944 0.049488742 0.10898645 0.0336209 0.12287632 0.053908035 0.16891195
0.066291705 0.048581332 -0.058685936 0.12483521 0.10228859 0.13118048 -0.053263023 -0.16123979
-0.07989108 -0.057392035 -0.11502333 0.06240707 0.21263954 0.11642435 0.15850931 -0.032914825
-0.057672497 0.21999118 -0.119740635 0.012741085 0.004118548 -0.09006611 0.09973583 -0.01826279
-0.056596063 0.06408234 0.11816336 -0.10129977 -0.16362049 0.013720594 0.15972148 0.06497559
-0.014855944 0.07045087 -0.016340151 0.077078976 0.063521825 0.08182117 -0.082364045 0.11495656
0.06732996 0.0877044 0.03264988 0.10595228 -0.07346796 -0.08042386 0.13851497 0.07330961
-0.03731427 0.062139206 -0.023418672 -0.03261 -0.07355215 0.046336178 -0.117336094 0.058619425
-0.06437549 0.058307614 0.052960422 0.04701981 -0.018628193 -0.07705904 -0.041888352 0.031490102
0.08983602 0.040159408 -0.123832814 0.03470001 -0.07668618 -0.10967443 -0.028904345 -0.14656645
-0.16110681 -0.052485287 0.028100422 0.0148000885 0.089472584 -0.011625505 -0.12378733 0.036477648
0.06794654 -0.07465057 0.014148015 0.080275476 -0.07663154 -0.07616872 0.104119726 0.03293285
-0.090039246 0.052948855 0.030750839 -0.07787378 0.0534425 -0.037419956 -0.078759395 -0.011404512
-0.045840107 0.09569593 -0.027262792 -0.082185894 -0.08742844 -0.13483523 0.015940836 0.0774488
0.07568312 0.044845153 -0.031408466 0.011120169 -0.00943482 -0.021013409 0.047357216 -0.10852229
0.08034486 -0.0008107636 0.12970269 0.08368885 -0.03159403 -0.06404179 -0.072593085 -0.05415646
0.016968913 0.11206673 0.1227543 0.028239287 -0.031907186 -0.09467602 0.07301815 -0.050490454

weight f4 [5, 64]
00000000: 887f 88be 68a4 3ebe bb75 a33d b315 373e
00000010: dfc4 eebd 2d4d 1f3d 9e06 88be 38fb 47bd
00000020: a4b9 cebc 2d71 b3be e0ad 3abd 25cf 11be
00000030: 92fc 36be 7fcd 58be c3f0 bcbd 3a73 98bd
00000040: cbcc 2c3e d574 d63d d45f 533e 0163 8a3d
00000050: 674c b73c ca96 ab3e 40a3 67be c141 c83d
00000060: 4cb6 cf3c 611a e83d ecd5 193e 25fb 8a3c
00000070: f34b c1bd 242c 2b3d 57ce 443e b0ad 0c3e
00000080: 5501 6a3d b8ed 08be 2751 bdba 1392 663d
00000090: d89c c2bd dc10 37bd e8f4 0b3d 4f38 3a3e
000000a0: e163 9dbd 12d3 4e3e 390a c13c e6fe f53d
000000b0: 52e7 8ebd 4941 1bbd 77d4 6a3d 9923 14bc
000000c0: 6849 0cbe 5d03 42be 206c cc3d 23fa c2ba
000000d0: 47ce 5e3e fa52 1abe 7107 f1bd 9832 2cbd
000000e0: 0ea5 1cbe 335d a73d 63fc 45be aed4 c83d
000000f0: 25b2 afbd 4657 203e 3853 34be 6464 55be
00000100: 29ab a63d 0104 183e f86b 9cbe cd06 273e
00000110: 139f 993d e0ba 4b3e 4071 4c3e 3660 0cbe
00000120: 5e3f 1ebe af15 313e d034 953e 79ea ea3d
00000130: b934 b0bd 22a4 37be 863c 173e 99c4 b73b
00000140: dbb3 293e cf70 633d 4b80 8ebc df99 18be
00000150: de10 36bd 2cfd 8ebe 41ab 85bd f93b 7dbe
00000160: 486d f33c 0816 a93c e293 2a3e 3735 253e
00000170: 2a9b 7d3e 53e8 2abc cf95 663d 1394 9f3d
00000180: 8f21 0dbe 43e5 b63d e61f b0bd e898 c03d
00000190: e956 903e 633a 533d 1eb5 223e fa15 d83d
000001a0: 2ab7 e3bc ce54 15be 0a35 093c a504 07be
000001b0: 9bb7 1b3e 17b5 653e bf69 003d 95f2 fbbd
000001c0: 6143 04be 7b70 f53d 8fb8 0e3e cca0 dcbc
000001d0: 03b0 2b3d e53a 42bc 7b0c 5abd 39f7 85be
000001e0: 3cf8 36be 93a1 8cbe 3bac d93d c58d b53d
000001f0: 0312 09be b38a d83d 0c2e 76bd 338b 3cbd
00000200: ebd4 e0bc 4651 4a3e 8bbc 933d 05fe 693d
00000210: b9d3 4c3e 599f 51be 8268 9b3e a543 0b3d
00000220: f9c3 d6bd 46f8 793e a26f 843d 5ea2 ecbd
00000230: 6001 1ebd db68 093e d37a ccbd bd50 b93c
00000240: 170e 30be cf32 8a3d b074 d03d 44dd f9bd
00000250: 6f98 4ebe b8c9 46bd 9616 5bbe 9bb6 32be
00000260: 37a9 223e c71b c53d d30a c7bd c805 02be
00000270: 81b8 48bd 0f60 98be cfa7 94be ddf9 4ebc
00000280: 693d 7e3d a0ce 16be a0fa 5a3d 3c82 463e
00000290: 00b3 edbc 7bfe fe3d 218d 273e ceb8 0f3e
000002a0: a4e2 383d 3793 5cbe beb0 f0bd bb91 1dbe
000002b0: f141 9e3d fbea 84bd 5fe8 b9bd c43e 2c3e
000002c0: 6fce e1bc c4b2 bdbd 59d6 0a3d c292 30be
000002d0: 9705 6e3d f39e 073e ea8d 9a3e 6ff7 73be
000002e0: 58aa 623e 6542 033d 1d50 6c3e 0778 9cbe
000002f0: ea89 743d 8771 27be de8e 2f3e d849 04be
00000300: 0d94 3a3e 0c6a 343d e001 c53d d627 6f3d
00000310: bc15 cb3d 4bf6 05be 0bc5 413d 257f 71be
00000320: ddae 22bc 36bd 213e f7f8 abbe e778 c13c
00000330: 0f6a 923d bbec 693e 81bd dfbd 52ab 46be
00000340: 3ef9 1cbe 2555 e83d c258 3dbd bf4b 623d
00000350: c055 83bd 885b a7bd 140d 1a3e 779d 593e
00000360: d202 643e e9e6 88bd b294 963c 7c25 abbe
00000370: 76e0 4ebe afc6 11bd e1bd 04be 554d ccbe
00000380: c4ce 9abd 2139 ebbd 4410 1c3c fcb0 a0bd
00000390: e064 3dbe 0d4b 42bd 7a24 bebd b586 3dbe
000003a0: 96cd 54bd 60b8 85bc c4ce cebc bd73 8cbd
000003b0: 810b 7dbe c70c c6bc a975 edbc a3ce 50be
000003c0: caec e23d 3afa b9bc 6cc9 51be c6fb 4b3e
000003d0: eb83 c7bd 76b6 1d3e ad1d 85bd fb69 043e
000003e0: 5b0e dabc c070 f13d ffcf 5f3e f440 e4bd
000003f0: 44d9 0e3d c18f 24be e5c8 b0bc 14f2 f6bb
-0.266598 -0.18617404 0.0798144 0.17879371 -0.11658644 0.03889196 -0.2656755 -0.048823565
-0.025235005 -0.35047284 -0.045575976 -0.14239176 -0.17869785 -0.2117214 -0.09225609 -0.07443853
0.16874997 0.10471503 0.20642024 0.06757165 0.022375299 0.3351348 -0.22620869 0.097781666
0.02535548 0.113331564 0.15023011 0.016965458 -0.09438314 0.041790143 0.19219337 0.13738132
0.057130177 -0.13371933 -0.0014443741 0.05629165 -0.09502572 -0.044693813 0.034169108 0.18185543
-0.07685066 0.20197704 0.023564445 0.12011509 -0.069777146 -0.037904058 0.05733153 -0.00904169
-0.13699877 -0.18946595 0.09981561 -0.0014875572 0.21758376 -0.15070716 -0.117689975 -0.042040437
-0.15297338 0.08172073 -0.19334559 0.098061904 -0.085789 0.15658292 -0.1760987 -0.20839077
0.08138115 0.14845277 -0.30551124 0.16311188 0.07501044 0.19895506 0.19965076 -0.13708577
-0.1545386 0.17293428 0.29141855 0.11470503 -0.08603806 -0.17933705 0.14769182 0.005608153
0.16572516 0.055527505 -0.01739516 -0.14902447 -0.04444968 -0.2792753 -0.06526805 -0.24729909
0.029715195 0.020640388 0.16657975 0.16133581 0.24766222 -0.010431367 0.056295212 0.07791915
-0.13782333 0.08930447 -0.08599834 0.094041646 0.28191307 0.051569354 0.15889403 0.10551067
-0.0277973 -0.14583132 0.008374462 -0.13185365 0.15206759 0.22432362 0.031350847 -0.12302128
-0.12916328 0.119843446 0.13937591 -0.026932143 0.041915905 -0.011854862 -0.05323456 -0.26165178
-0.17868131 -0.2746702 0.106285535 0.08864931 -0.13385777 0.1057333 -0.060102507 -0.04603119
-0.027445277 0.19757566 0.07213696 0.057127018 0.20002641 -0.20470943 0.3035317 0.034000058
-0.104865976 0.24411115 0.06466605 -0.115544066 -0.03857553 0.13418905 -0.09984364 0.022621507
-0.17192875 0.06747972 0.101785064 -0.12200406 -0.20175336 -0.048532218 -0.21395335 -0.17452471
0.15884863 0.09624439 -0.097188614 -0.12697518 -0.04900408 -0.29760787 -0.29034278 -0.012632814
0.062070284 -0.14727259 0.05346167 0.19385618 -0.029016018 0.12450882 0.1636243 0.14035341
0.045138016 -0.21540533 -0.11752461 -0.15387623 0.07727421 -0.064901315 -0.090775244 0.16820818
-0.027564256 -0.092626125 0.033895824 -0.17243484 0.0581108 0.13244228 0.30186397 -0.23824857
0.22135293 0.03204574 0.23077436 -0.30560324 0.059701838 -0.16351901 0.17144343 -0.12918794
0.1822054 0.044046447 0.09619498 0.0583876 0.09916255 -0.13082235 0.047307055 -0.23583658
-0.009929386 0.15794834 -0.33588383 0.023617221 0.07149135 0.22844212 -0.10924817 -0.19401291
-0.15329453 0.11344365 -0.046227224 0.05524802 -0.0641284 -0.08171755 0.15044051 0.21251474
0.22266701 -0.066846676 0.01838145 -0.33427036 -0.20202813 -0.03558987 -0.12963058 -0.3990275
-0.07558969 -0.11485506 0.009525362 -0.07846257 -0.18495512 -0.047434855 -0.09284301 -0.18508418
-0.051953875 -0.016323268 -0.025245078 -0.06858013 -0.2471142 -0.024176015 -0.028986769 -0.20391326
0.1108032 -0.022702325 -0.20486993 0.19920263 -0.09741958 0.15401635 -0.06499801 0.12931053
-0.026618173 0.117890835 0.21856688 -0.11145201 0.03487517 -0.16070463 -0.021580169 -0.007536182

bias f4 [5]
00000000: 122e 9f3d ba26 b73d 9782 cdbc 2b1d 0dbd
00000010: 1a63 40bc
0.07772459 0.089429334 -0.025086684 -0.034451645 -0.011742378
