lab5/models/final_model_0.pth (torch, 604375 bytes, 10 tensors)

weight_ih_l0 f4 [384, 1]
0	0x3cf7e069	0.030258374
1	0x3da7464e	0.081677064
2	0x3f563ee9	0.83689743
3	0x3c875c67	0.016523553
4	0xbef96b7a	-0.4871481
5	0xbdd75fed	-0.10516343
6	0x3e43b82b	0.19113223
7	0xbd8d62f5	-0.0690364
8	0x3e38381e	0.17990157
9	0xbc69056f	-0.014222487
10	0xbd221b3d	-0.039576758
11	0x3dcac8d4	0.09901586
12	0xbe089433	-0.13337784
13	0x3e054f9d	0.13018651
14	0x3e9cce80	0.30626297
15	0xbd57852e	-0.052617244
16	0xbe2fe27f	-0.17176245
17	0x3e9866af	0.2976584
18	0x3f0d27cb	0.55138844
19	0x3f0c534d	0.54814607
20	0xbbde1c15	-0.00677825
21	0x3de91094	0.11380115
22	0x3e3bcebb	0.1834058
23	0x3da5357e	0.080668435
24	0xbecfd4f8	-0.4059217
25	0x3cbf049a	0.023317624
26	0xbe0d5d01	-0.1380501
27	0x3e54df0f	0.20788215
28	0xbe9dbe15	-0.30809084
29	0xbe420078	-0.18945491
30	0xbe1250e3	-0.14288668
31	0x3e221aba	0.15830508
32	0x3c595857	0.013265691
33	0x3eef3a92	0.46724373
34	0xbdc5bb23	-0.09654834
35	0x3f21c753	0.6319477
36	0xbebcd504	-0.36881268
37	0x3cc0e74a	0.023547787
38	0xbd881b63	-0.066458486
39	0xbd61d824	-0.05513777
40	0x3da94e5c	0.08266899
41	0xbd3359e1	-0.043786887
42	0xbda9b483	-0.08286383
43	0xbd376ed7	-0.04478344
44	0x3e961ca3	0.29318723
45	0x3e470e1f	0.1943898
46	0xbe45dca9	-0.19322456
47	0x3da0e821	0.07856775
48	0xbdfd17eb	-0.123580776
49	0x3d7eec9b	0.062237363
50	0x3e32fc53	0.17479067
51	0x3d8b40a2	0.06799437
52	0xbe680e78	-0.2266177
53	0xbc667616	-0.01406624
54	0x3ebc9ba4	0.36837494
55	0xbe3302dd	-0.17481561
56	0xbeb49a09	-0.3527377
57	0x3cc55b13	0.02409128
58	0x3f2fab75	0.68621
59	0xbe03def1	-0.12878014
60	0xbefb60db	-0.49097332
61	0x3e9297d7	0.2863147
62	0xbed398cb	-0.4132751
63	0x3dfef25e	0.124485716
64	0xbc68e30c	-0.014214288
65	0xbd248766	-0.04016819
66	0xbe825f3d	-0.25463286
67	0x3ce41bbf	0.027845262
68	0x3f0c5705	0.5482028
69	0xbd940332	-0.07227172
70	0xbe79ea07	-0.2440568
71	0x3e6dfc1e	0.23240706
72	0xbeb67d7a	-0.35642606
73	0xbe62bf5c	-0.2214331
74	0xbe859f55	-0.26098123
75	0xbe03a0a0	-0.12854242
76	0x3ebbdceb	0.36691985
77	0x3e819643	0.25309953
78	0xbcd87c11	-0.026426347
79	0x3d4f645e	0.050632827
80	0xbde5906a	-0.112091854
81	0x3eaa30c2	0.33240324
82	0xbd8dc010	-0.06921399
83	0xbdd9080e	-0.105972394
84	0xbe444cb8	-0.19169891
85	0xbe0e1401	-0.13874818
86	0xbdc9144e	-0.09818326
87	0xbee4bb7a	-0.44674283
88	0x3b316ccc	0.0027072905
89	0x3e88ed90	0.26743746
90	0xbd4bfec8	-0.049803525
91	0x3eb4cbfb	0.35311875
92	0x3eb45444	0.3522054
93	0x3e985b5c	0.29757202
94	0x3ef55779	0.479183
95	0xbe5744cc	-0.21022338
96	0x3e765176	0.24054512
97	0xbe2bf688	-0.16793263
98	0x3eb222d7	0.34792206
99	0xbe5ee6eb	-0.21767776
100	0x3d1c9ecd	0.03823738
101	0xbdb51959	-0.08842725
102	0xbe1b31b3	-0.15155677
103	0xbe45a81f	-0.19302414
104	0x3e4a992b	0.19784991
105	0xbda0ad25	-0.07845525
106	0xbe3d1092	-0.18463352
107	0x3e0822ef	0.13294576
108	0x3f82d14a	1.022012
109	0x3ec7722b	0.3895429
110	0xbe5f28ba	-0.2179288
111	0xbdd6043d	-0.10450027
112	0x3e574611	0.21022822
113	0xbde11b79	-0.10991568
114	0xbde9e055	-0.11419741
115	0xbda46e17	-0.080288105
116	0xbe6d0642	-0.23146918
117	0xbeb75fa0	-0.35815144
118	0x3deac6f1	0.11463726
119	0x3ed6dea8	0.41966748
120	0xbe61cd53	-0.22050981
121	0x3d80a249	0.062809534
122	0xbe45dc0c	-0.19322222
123	0xbea6e932	-0.3259979
124	0xbe929a4a	-0.28633338
125	0xbeda5318	-0.4264152
126	0x3c97a846	0.018512856
127	0xbda0d85e	-0.07853769
128	0x3e1edbf4	0.15513593
129	0xbc0c1c8c	-0.008551728
130	0xbdd752db	-0.1051385
131	0xbd50dc1e	-0.05099117
132	0x3e500f0b	0.20318238
133	0x3e2626a9	0.16225685
134	0xbdbc4740	-0.09193277
135	0xbb50462a	-0.0031780102
136	0xbea1a43c	-0.31570613
137	0xbef4e943	-0.47834215
138	0x3d8f965b	0.070111
139	0x3e052355	0.1300176
140	0x3db4cc30	0.08828008
141	0x3d5e359a	0.054250337
142	0xbe887bed	-0.26657048
143	0x3e30f8fa	0.17282477
144	0xbef8ca46	-0.48591822
145	0x3a8ef5c2	0.0010906982
146	0xbe70b4ca	-0.23506466
147	0xbda52826	-0.08064298
148	0xbd97262b	-0.07380327
149	0x3e1bd195	0.15216668
150	0x3e4d58f7	0.20053469
151	0x3dde4b11	0.108541615
152	0x3d0b4e16	0.034010015
153	0xbe9d7f40	-0.30761147
154	0xbe8da7c4	-0.27667058
155	0xbf1aca4b	-0.60464925
156	0x3e41bba8	0.18919241
157	0xbdf2044e	-0.11817227
158	0x3dcbf763	0.09959295
159	0xbcce1d8b	-0.025160572
160	0x3dd6872e	0.10475002
161	0xbe1b5cca	-0.15172115
162	0x3d6ce814	0.057838514
163	0xbe375735	-0.1790436
164	0xbebce8fa	-0.36896497
165	0xbf009954	-0.5023396
166	0x3dd5d78c	0.10441503
167	0xbed8c3c0	-0.42336845
168	0x3dde92ef	0.10867869
169	0xbd283af0	-0.041071832
170	0x3da172ef	0.0788325
171	0x3e65f58e	0.22456953
172	0xbe3196ff	-0.17342757
173	0xbebbe4ad	-0.36697903
174	0x3de899ba	0.11357446
175	0xbc96f22a	-0.01842602
176	0xbe86bae0	-0.2631445
177	0xbe2a87bc	-0.16653341
178	0x3d8bd0f6	0.068269655
179	0xbe3db34e	-0.1852543
180	0x3e4ced14	0.20012313
181	0x3e72d076	0.23712334
182	0xbee7b8e3	-0.45258245
183	0x3d972c36	0.073814794
184	0x3e7aa707	0.24477778
185	0xbc896901	-0.016773703
186	0xbd464f0c	-0.04841523
187	0xbe0e39f3	-0.13889293
188	0xbec6e335	-0.3884522
189	0x3df261e9	0.11835081
190	0xbe989212	-0.29798943
191	0xbd7ad64c	-0.061239526
192	0x3af122ed	0.001839725
193	0x3e3a2461	0.1817794
194	0x3e8e792b	0.2782682
195	0xbe13da84	-0.14438826
196	0xbcfdb253	-0.03096882
197	0x3b699d22	0.0035646637
198	0x3db0e19e	0.08636783
199	0xbdd16e33	-0.10226097
200	0xbf40828d	-0.75199205
201	0x3abe14ce	0.001450205
202	0xbeaad19c	-0.33363044
203	0xbf06ff99	-0.5273376
204	0xbeeadb63	-0.45870504
205	0xbd8ab2f7	-0.06772416
206	0x3e5e8730	0.21731257
207	0xbdda95e2	-0.10673119
208	0xbdd37b2a	-0.10326226
209	0xbe0135fb	-0.12618248
210	0x3de9b62d	0.114117004
211	0xbe820bfd	-0.2539977
212	0x3d8df838	0.069321096
213	0x3dd66495	0.10468403
214	0xbb856dfb	-0.0040719486
215	0x3e886e03	0.26646432
216	0x3d9b35c0	0.075786114
217	0xbe72528c	-0.23664302
218	0x3e4eac72	0.2018297
219	0xbef52a83	-0.47883996
220	0xbd522d53	-0.051312756
221	0xbd3760db	-0.044770103
222	0xbce5d194	-0.028054036
223	0x3dd3bd2c	0.10338816
224	0x3e88ecab	0.26743063
225	0x3df959cd	0.12175331
226	0xbee36b3a	-0.44417745
227	0x3e1a50f9	0.15069951
228	0xbe53b9f2	-0.20676401
229	0xbd87f0bc	-0.06637713
230	0x3db4c062	0.088257566
231	0xbe737a0c	-0.23777026
232	0xbe08e4ee	-0.1336858
233	0xbe3a3bc6	-0.18186864
234	0x3df82d71	0.12118042
235	0xbe1b247f	-0.15150641
236	0x3e546147	0.20740233
237	0xbe240994	-0.16019279
238	0xbe537812	-0.20651272
239	0xbe256500	-0.1615181
240	0x3e1f55b1	0.15560032
241	0x3d9d1032	0.07669105
242	0x3db1ae4c	0.086758226
243	0x3dcc51d6	0.099765465
244	0x3e4a3d1c	0.19749874
245	0x3eb3e3e8	0.35134816
246	0xbdddf27c	-0.10837266
247	0x3e3ac83e	0.18240449
248	0xbe0f685a	-0.1400465
249	0xbddf4fb6	-0.109038755
250	0x3d580daa	0.052747406
251	0x3e4ca68b	0.19985406
252	0x3e0c1179	0.1367854
253	0x3e83eaac	0.25764978
254	0x3e5319bf	0.2061529
255	0x3dfc8014	0.123291165

weight_hh_l0 f4 [384, 128]
0	0xbee125be	-0.43974108
1	0xbdb5b339	-0.08872075
2	0xbd26b133	-0.040696334
3	0xbd66a367	-0.056308176
4	0x3c9bdd76	0.0190265
5	0x3dd01453	0.101601265
6	0xbd8756e5	-0.06608371
7	0x3d94fcdd	0.07274792
8	0xbdd83eeb	-0.10558876
9	0x3df1afaa	0.118010834
10	0x3d2a9656	0.041647278
11	0xbd4ed937	-0.05050012
12	0x3c0449fe	0.008074282
13	0xbeb5eee0	-0.3553381
14	0x3d91f739	0.07127232
15	0x3daba3f0	0.08380878
16	0x3e3d78d5	0.18503125
17	0xbe2f03e3	-0.17091326
18	0xbdcf1d54	-0.10113016
19	0x3c92cd13	0.017920053
20	0xbde41ff5	-0.11138908
21	0x3c8e28e7	0.017353488
22	0xbbe7bf28	-0.007072348
23	0xbe7461fd	-0.23865505
24	0xbd96eb2c	-0.07369074
25	0xbcf87ed0	-0.030333906
26	0x3e8038df	0.2504339
27	0x3e098a61	0.13431694
28	0xbe8b0892	-0.27154976
29	0x3de1cc5a	0.11025305
30	0x3c44dea0	0.012015969
31	0x3d9153af	0.070960395
32	0x3da7a8da	0.08186503
33	0xbd189119	-0.03724775
34	0x3ea802ce	0.3281464
35	0x3e413a92	0.18869999
36	0xbdd83c68	-0.105583966
37	0xbe103e4a	-0.14086261
38	0xbe0b7a86	-0.13620958
39	0xbced3a00	-0.02895832
40	0xbcf7ca9a	-0.030247975
41	0x3e59b3ed	0.21260042
42	0xbd9ed331	-0.07755125
43	0xbd935aa6	-0.07195024
44	0x3d990bc0	0.07472944
45	0xbe405acf	-0.1878464
46	0x3e4f3af4	0.20237333
47	0xbbfd7400	-0.0077347755
48	0x3d554d61	0.052075747
49	0xbd436807	-0.04770663
50	0xbdffedac	-0.12496504
51	0x3dcfe48a	0.10151012
52	0xba8715b4	-0.0010306151
53	0x3e42ae2a	0.19011751
54	0x3d4c7d7c	0.04992436
55	0x3e2743c0	0.16334438
56	0xbe1a0e96	-0.15044627
57	0xbe04b9f5	-0.12961562
58	0x3dbdd58d	0.09269247
59	0xbd977e09	-0.07397086
60	0x3d9b7a01	0.0759163
61	0x3a972ee6	0.0011534363
62	0xbe24e53d	-0.16103072
63	0xbd42e3eb	-0.04758064
64	0x3d102694	0.03519304
65	0x3e57f93e	0.21091172
66	0x3e88b375	0.26699415
67	0xbdbae7e1	-0.09126259
68	0xbe15cad9	-0.14628161
69	0x3dfcf09c	0.1235058
70	0x3cad38f1	0.021145316
71	0xbda3875d	-0.07984803
72	0xbd890db0	-0.06692064
73	0xbd4acf1f	-0.049513932
74	0x3db974f1	0.09055508
75	0xbe210d68	-0.1572777
76	0x3e923893	0.28558788
77	0xbe0d3716	-0.13790545
78	0xbd9a772e	-0.07542263
79	0x3e3fa112	0.18713787
80	0xbd97d1a0	-0.0741303
81	0x3db4659f	0.08808445
82	0xbd02b004	-0.031906143
83	0x3df50827	0.119644456
84	0xbe212f31	-0.15740658
85	0xbe2a4c9e	-0.1663079
86	0x3e3c324d	0.18378563
87	0x3e44208b	0.19153039
88	0xbe408893	-0.18802099
89	0xbdba3d6d	-0.09093747
90	0x3e5ebb35	0.21751101
91	0x3e2ca9dc	0.16861671
92	0xbd9fb589	-0.07798297
93	0x3cc7078d	0.024295593
94	0xbd3a4504	-0.045475975
95	0xbd51dcae	-0.051235847
96	0xbdb421a7	-0.08795481
97	0xbdbdae7b	-0.09261795
98	0xbb014414	-0.0019724416
99	0x3ccacf13	0.024756944
100	0xbd3cd4bb	-0.046101313
101	0x3cd0f548	0.025507584
102	0xbca91f91	-0.020644935
103	0xbdd2a7be	-0.102859005
104	0xbdf68f35	-0.12039033
105	0xbd12d58f	-0.035848197
106	0x3d7f1c27	0.062282708
107	0xbe3d5319	-0.1848873
108	0x3ddc930b	0.10770234
109	0xbe778a9d	-0.2417397
110	0x3d018334	0.031619266
111	0xbd9756e8	-0.07389623
112	0x3d80f961	0.06297565
113	0xbe328e39	-0.17437066
114	0xbd9dff17	-0.0771467
115	0x3e35d521	0.17757083
116	0xbea2cd29	-0.3179715
117	0x3e2c3aa7	0.16819249
118	0x3d408a1a	0.047006704
119	0x3dd3ae99	0.10336036
120	0x3ceb15a9	0.028696852
121	0x3dc0449f	0.093880884
122	0x3cd19de6	0.025587987
123	0x3c503e34	0.012710143
124	0x3d87d4a6	0.06632356
125	0x3e798064	0.24365383
126	0x3d553ac3	0.052057993
127	0xbb08b57d	-0.0020860129
128	0x3de48f50	0.11160147
129	0xbe0213fc	-0.12702936
130	0xbd71cb8b	-0.059032004
131	0x3d687a03	0.056756984
132	0xbdd5c1ed	-0.10437379
133	0xbd73ee5f	-0.0595535
134	0xbdcee96a	-0.10103114
135	0xbd7ebe64	-0.06219329
136	0x3d99a373	0.075018786
137	0xbe554654	-0.2082761
138	0xbe034448	-0.12819016
139	0xbd12da24	-0.035852566
140	0x3ed0a017	0.4074714
141	0xbdaa52f4	-0.08316603
142	0xbd36669c	-0.04453145
143	0x3a1a9394	0.00058966246
144	0xbd6d05a0	-0.057866693
145	0x3e600520	0.21876955
146	0xbda2274a	-0.0791765
147	0xbdcea7dd	-0.10090611
148	0x3e42313a	0.18964091
149	0xbe0f0aec	-0.1396901
150	0xbd3dde05	-0.046354312
151	0x3d9ef679	0.07761855
152	0x3e30f140	0.1727953
153	0xbe9a3519	-0.30118635
154	0xbbfe5258	-0.007761281
155	0x3e6d77d4	0.23190242
156	0xbd8be17c	-0.06830117
157	0xbdcf272d	-0.10114894
158	0x3cd69db3	0.026198244
159	0xbb88bbc9	-0.0041727764
160	0xbda33a2f	-0.07970082
161	0xbd484a1a	-0.048898794
162	0xbd92bd07	-0.0716496
163	0xbe5757a2	-0.21029523
164	0x3e44c297	0.19214855
165	0x3d67c574	0.05658479
166	0x3d4cdc49	0.050014768
167	0x3d652bdc	0.05595003
168	0xbcebd104	-0.02878619
169	0xbe45a8ef	-0.19302724
170	0xb9e801c9	-0.00044251818
171	0xbd1011ad	-0.035173107
172	0x3e24e593	0.161032
173	0x3eab79ca	0.33491355
174	0xb980a38f	-0.00024535923
175	0x3da1474d	0.07874928
176	0xbe1d5f9a	-0.153685
177	0x3de13b5c	0.1099765
178	0xbdc732b3	-0.09726467
179	0xbecff91c	-0.40619743
180	0x3a59a06b	0.0008301797
181	0x3c9d836b	0.019227704
182	0xbddc9d54	-0.107721955
183	0x3d45a4f2	0.048253007
184	0x3d90ee6e	0.07076727
185	0x3e65778d	0.22408886
186	0x3e1b3a51	0.15158965
187	0x3e6c0bc1	0.23051359
188	0x3def3351	0.1167971
189	0xbd4b798f	-0.049676474
190	0xbe1ad2b7	-0.15119444
191	0x3e391d41	0.18077566
192	0xbdd965ae	-0.10615097
193	0x3c569fcc	0.013099622
194	0x3d3ef24a	0.046617784
195	0x3e637eb6	0.22216305
196	0x3dd745c3	0.10511353
197	0xbe175876	-0.14779839
198	0xbb7bc7aa	-0.003841857
199	0x3eb6a490	0.35672426
200	0x3e16763a	0.14693537
201	0x3eab7201	0.33485416
202	0x3cca1e1b	0.024672559
203	0x3decb419	0.115577884
204	0xbdcea7c8	-0.100905955
205	0x3e089e57	0.13341652
206	0x3d0ef25e	0.034899108
207	0xbdbdef28	-0.09274131
208	0xbe0a940c	-0.13533038
209	0x3cf1afe4	0.029502816
210	0x3c84d9ad	0.016217077
211	0xbc29558c	-0.010335337
212	0xbdbbcf46	-0.09170394
213	0x3e14c957	0.1452993
214	0xbdbf7e24	-0.09350231
215	0xbe47abb1	-0.19499089
216	0xbd336330	-0.043795764
217	0xbebe2ab1	-0.37141946
218	0x3bf655b8	0.0075175427
219	0xbe3a5a5e	-0.18198535
220	0xbe06b378	-0.131544
221	0xbe6df73d	-0.23238845
222	0x3c94bb7b	0.018155804
223	0xbc8b7b7b	-0.017026654
224	0x3c3d5da0	0.0115579665
225	0x3dd61907	0.10453992
226	0x3e999d7c	0.30002964
227	0x3c89b15c	0.016808204
228	0x3e03a1fe	0.12854764
229	0x3b61e170	0.0034466647
230	0xbd6315ff	-0.0554409
231	0x3e2a0bbd	0.1660604
232	0x3e307d2f	0.17235254
233	0x3d30a230	0.043123424
234	0x3de7ffbf	0.113280766
235	0x3d80fadc	0.06297848
236	0x3c46b95a	0.012129152
237	0x3dd2ed3d	0.10299156
238	0xbe0223ee	-0.12709019
239	0xbd5ebd32	-0.05437965
240	0xbe2f6eb6	-0.17132077
241	0x3cf0c964	0.029392906
242	0x3d7d59ff	0.061853405
243	0x3d8ffcbd	0.07030628
244	0x3d02eefa	0.031966187
245	0xbb24d714	-0.002515261
246	0x3d4ce6b9	0.05002472
247	0x3d0a219b	0.033723455
248	0xbe3d9bfd	-0.18516536
249	0x3dc9517e	0.098299965
250	0xbe3933d8	-0.18086183
251	0x3be169e7	0.0068790796
252	0xbce28988	-0.02765347
253	0x3bb48d75	0.005510027
254	0xbdde35a2	-0.108500734
255	0xbdf0d36f	-0.11759078

bias_ih_l0 f4 [384]
0	0xbcee063c	-0.029055707
1	0x3d4b6193	0.0496536
2	0xbe0c154b	-0.13679998
3	0x3dc9a144	0.09845212
4	0x3d93be42	0.07214023
5	0x3e8b073f	0.27153966
6	0xbe03255b	-0.12807219
7	0xbc476835	-0.012170841
8	0x3e1c1782	0.15243343
9	0x3d64f425	0.055896897
10	0xbe16a358	-0.14710748
11	0xbe27b8f9	-0.16379155
12	0x3d62d11b	0.0553752
13	0x3eb27c08	0.34860253
14	0x3b7dd2ca	0.0038730376
15	0xbd2a9a91	-0.041651312
16	0xbd2e040e	-0.042484336
17	0xbdc343d5	-0.09534422
18	0x3dfddf4a	0.12396105
19	0x3e03d842	0.12875465
20	0xbd016669	-0.031591807
21	0xbc7f0a61	-0.015566439
22	0xbdb9b722	-0.09068133
23	0xbc36a6f9	-0.011148208
24	0x3e0be976	0.13663277
25	0x3dcdbaf9	0.10045428
26	0x3cdc4d5d	0.026892358
27	0x3e7ca862	0.24673608
28	0xbc8435d2	-0.016138945
29	0xbbcea002	-0.0063056955
30	0xbdf3324d	-0.118748285
31	0x3d85075c	0.06495544
32	0xbdc2e55d	-0.09516404
33	0xbd4b9d07	-0.0497103
34	0x3a9d8a65	0.0012019394
35	0x3da0f713	0.07859626
36	0x3e0467de	0.12930247
37	0x3dac2348	0.08405167
38	0x3d6eab88	0.058269054
39	0x3e054d7c	0.13017839
40	0xbd525662	-0.051351912
41	0x3db90e11	0.09035886
42	0xbd4800ef	-0.048829015
43	0x3d9549ed	0.07289491
44	0xbd3c6386	-0.04599335
45	0x3e960660	0.2930174
46	0x3dc50401	0.09619904
47	0x3e29911d	0.16559263
48	0xbc68839d	-0.014191535
49	0x3aa00cb5	0.0012210818
50	0xbe0d842d	-0.13819952
51	0x3e10de29	0.14147247
52	0x3d2a4008	0.04156497
53	0x3c9d5fec	0.019210778
54	0xbb004882	-0.0019574468
55	0x3db164ec	0.086618274
56	0x3dac0dcb	0.08401068
57	0x3d0266a8	0.031836182
58	0xbdae6620	-0.085155725
59	0x3d13cd82	0.03608466
60	0xbe05485a	-0.13015881
61	0x3d54b7d6	0.051933132
62	0x3d00a4d1	0.03140718
63	0x3dc84855	0.09779421
64	0x3d177118	0.03697309
65	0x3e1c594e	0.15268442
66	0xbdb43650	-0.08799422
67	0x3d31aa1a	0.043375112
68	0xbbc49e3c	-0.0060003083
69	0x3e085cf2	0.13316706
70	0xbde7fd2d	-0.11327586
71	0x3e198a9e	0.14994285
72	0x3ca4ec04	0.020132072
73	0xbdeb0e43	-0.114773296
74	0x3da0f785	0.078597106
75	0x3e240e4e	0.16021082
76	0x3d7e3218	0.062059492
77	0x3d289fb3	0.041167926
78	0x3d22fab9	0.03978989
79	0xbe1749b4	-0.1477421
80	0x3dede138	0.11615223
81	0xbe18a7be	-0.14907739
82	0xbbfec5a5	-0.007775026
83	0xbc670ced	-0.014102203
84	0x3d867980	0.06566143
85	0x3d8f580c	0.069992155
86	0x3e3417b3	0.17587166
87	0x3c72ca67	0.014818764
88	0x3d8e909c	0.06961176
89	0x3e673000	0.22576904
90	0x3de6ea93	0.1127521
91	0x3daf2b9c	0.0855324
92	0xbe7cbd79	-0.24681653
93	0x3e8a3ecf	0.27001044
94	0xbaa98eee	-0.0012936273
95	0xbde8089b	-0.11329766
96	0xbd630623	-0.055425774
97	0x3dc1ca48	0.0946241
98	0x3c8b25a7	0.016985727
99	0xbd70178b	-0.058616202
100	0x3dc14a05	0.09437946
101	0x3e2cfd9d	0.16893621
102	0xbdd83428	-0.10556823
103	0xbd186cd1	-0.03721315
104	0x3e111ee9	0.14171948
105	0xbd3b7ed0	-0.045775235
106	0xbdbcc7a8	-0.09217769
107	0xbc73bdb9	-0.014876776
108	0xbcd313fc	-0.025766365
109	0x3d204ef2	0.039137788
110	0xbd861ac2	-0.065480724
111	0xbcfe9eae	-0.031081524
112	0x3dff89c7	0.12477451
113	0x3da2588d	0.07927046
114	0x3d6f2a06	0.058389686
115	0x3de59a67	0.112110905
116	0x3c6c793a	0.0144332
117	0xbc7a3cce	-0.015273286
118	0xbe8c1cfe	-0.2736587
119	0xbcf23109	-0.029564397
120	0x3d5fcbe6	0.054637812
121	0x3aaa4bd2	0.0012992567
122	0xbdea9b9b	-0.11455461
123	0xbd93dbe1	-0.07219673
124	0xbc3cae74	-0.011516202
125	0xbd24da67	-0.040247347
126	0x3dbe3f16	0.092893764
127	0xbd426259	-0.047457073
128	0x3e8573fa	0.26065046
129	0x3da27397	0.07932203
130	0xbebd5e53	-0.36986026
131	0x3d6578e5	0.056023497
132	0x3c42a581	0.0118802795
133	0xbbca2b22	-0.0061696926
134	0xbda6d3d7	-0.08145874
135	0xbdc8720b	-0.09787377
136	0xbd8c424b	-0.06848582
137	0xbe21d74d	-0.15804787
138	0x3e862ca8	0.26205945
139	0x3dc9113d	0.09817741
140	0x3cc9b768	0.024623588
141	0x3e27ad13	0.16374616
142	0x3c822317	0.015885873
143	0x3d55aebe	0.0521686
144	0xba9a62eb	-0.0011778747
145	0x3cb05186	0.021523248
146	0x3c86a592	0.016436372
147	0xbf004ce1	-0.5011731
148	0xbe49e3b2	-0.19715765
149	0xbd405e8e	-0.046965174
150	0x3ddfc7e1	0.10926796
151	0xbbe94a1f	-0.0071194316
152	0xbe468d37	-0.19389807
153	0x3cc8b5f6	0.024500828
154	0xbc21ee9d	-0.00988355
155	0x3e120855	0.14260991
156	0xbccebc3f	-0.025236247
157	0xbe32a3de	-0.17445323
158	0x3e51487c	0.20437807
159	0x3dda47f6	0.10658257
160	0x3dff9b1c	0.12480757
161	0xbe29135b	-0.1651129
162	0xbd6e9098	-0.058243364
163	0xbdcab1b8	-0.098971784
164	0xbe2098cb	-0.15683286
165	0x3e106ce1	0.14104034
166	0xbd8a0ed9	-0.06741113
167	0x3d921d9c	0.07134554
168	0x3ddb3bc9	0.107047625
169	0xbe2525de	-0.16127726
170	0x3e04372e	0.12911674
171	0xbb2c14f1	-0.00262576
172	0xbe7f6dcf	-0.24944232
173	0x3a12db13	0.00056021026
174	0x3e6f22b9	0.2335309
175	0xbd2f010e	-0.042725615
176	0xbb45499a	-0.0030103684
177	0xbdead307	-0.114660315
178	0x3d47df15	0.048796732
179	0x3d057da5	0.032590527
180	0x3e6335be	0.2218847
181	0x3e819a24	0.25312912
182	0xbe9ecad8	-0.31014132
183	0xbdbd6e5d	-0.09249566
184	0x3e255ce0	0.1614871
185	0xbc07ccd2	-0.008288579
186	0xbe9781fd	-0.2959136
187	0xbe28e8b7	-0.16495024
188	0xbd406ef3	-0.04698081
189	0xbe29cd1e	-0.16582152
190	0x3d033d18	0.032040685
191	0x3d9138d7	0.070909195
192	0xbd4012be	-0.046892874
193	0xbd783a48	-0.060602456
194	0x3e032c76	0.12809929
195	0xbd788eca	-0.06068305
196	0xbe7e0277	-0.24805628
197	0xbe082376	-0.13294777
198	0x3ebf5b60	0.373744
199	0xbe0499da	-0.12949315
200	0x3d259a1e	0.04043018
201	0xbdaaa952	-0.083330765
202	0xbdd5247d	-0.1040735
203	0x3d945507	0.0724278
204	0x3d5490a9	0.05189577
205	0x3d3c6591	0.0459953
206	0xbd761d9f	-0.060086843
207	0xbe89bf0d	-0.26903573
208	0xbe354c43	-0.17704873
209	0xbe976ef4	-0.29576838
210	0xbdd66292	-0.104680195
211	0xbe20c060	-0.15698385
212	0x3e05316c	0.13007134
213	0xbd58e8dc	-0.052956447
214	0x3c707018	0.014675163
215	0xbda787de	-0.081802115
216	0x3e006ffc	0.12542719
217	0xbe1e5662	-0.1546264
218	0x3e0c2e34	0.136895
219	0xbdaab396	-0.083350345
220	0xbe2f1e39	-0.17101373
221	0xbe90d449	-0.2828696
222	0xbe5878bd	-0.21139808
223	0x3e3bedbd	0.18352409
224	0xbd1abc3b	-0.037777167
225	0x3d40f24d	0.047106076
226	0x3d8d4dea	0.068996266
227	0xbbe29b4d	-0.006915486
228	0xbe41b146	-0.1891528
229	0xbe06cca4	-0.13164002
230	0x3ed56de6	0.41685408
231	0xbd6c017e	-0.05761861
232	0x3e15df1a	0.14635888
233	0xbeab4f13	-0.33458766
234	0x3d483f08	0.048888236
235	0x3e37b4b5	0.17940028
236	0xbe5fd03c	-0.21856779
237	0xbdb7be20	-0.0897181
238	0xbd85ad64	-0.06527212
239	0xbd8b6d2d	-0.06807933
240	0xbe7dbe37	-0.24779592
241	0xbc4dcd45	-0.012561147
242	0x3d8eb4c3	0.06968071
243	0xbd8b44ec	-0.06800255
244	0x3deadf1d	0.11468337
245	0x3d3eb7e7	0.0465621
246	0xbe68f083	-0.22747998
247	0x3d4ac873	0.04950757
248	0xbdb34f15	-0.08755318
249	0xbe200b24	-0.1562925
250	0x3dcf16d8	0.10111779
251	0x3c5b5fe8	0.013389565
252	0xbc3f47e4	-0.011674855
253	0xbc5f6132	-0.013634013
254	0x3dd48f50	0.10378897
255	0xbe207e0a	-0.1567308

bias_hh_l0 f4 [384]
0	0xbd6541e2	-0.055971034
1	0x3dbeaa4a	0.09309824
2	0xbde285e0	-0.11060691
3	0x3d37b431	0.04484958
4	0xbac528a9	-0.0015042025
5	0x3e5a9b9b	0.21348421
6	0xbda09733	-0.07841339
7	0xbc0b61eb	-0.008507232
8	0x3d8521b0	0.06500566
9	0x3d778d40	0.06043744
10	0xbdbd40c4	-0.09240869
11	0xbd8cd4ea	-0.06876548
12	0x3cb9ceeb	0.022681674
13	0x3e6d2930	0.23160243
14	0xbd2b2723	-0.04178537
15	0xbd711dbc	-0.058866248
16	0x3da195b2	0.0788988
17	0xbe10f75b	-0.14156859
18	0x3cb92972	0.02260277
19	0x3d42d14f	0.047562893
20	0xbe211227	-0.15729581
21	0x3cf53626	0.029933047
22	0xbcb8eebc	-0.022574775
23	0xbcf7865f	-0.03021544
24	0xbc588bfa	-0.013216967
25	0x3c0ccfe1	0.008594484
26	0xbb76f156	-0.0037680469
27	0x3ec0d84e	0.37665027
28	0x3d2d4c29	0.04230896
29	0x3d08938a	0.03334383
30	0xbdd52aa0	-0.10408521
31	0x3e1022d8	0.14075792
32	0xbd06dba0	-0.032924294
33	0xbda5f335	-0.08103029
34	0x3de8d0ea	0.11367972
35	0x3e695bdd	0.2278895
36	0x3e143b9d	0.14475866
37	0x3e24d24c	0.16095847
38	0x3d58cdfe	0.052930824
39	0x3e4dfb6b	0.2011544
40	0xbd685445	-0.05672099
41	0x3e0ca313	0.13734083
42	0xbd9a0f5a	-0.07522459
43	0xbad0885c	-0.0015909779
44	0xbe250b9a	-0.16117707
45	0x3e2a328a	0.16620842
46	0xbb77a67d	-0.0037788444
47	0x3e685d3e	0.22691819
48	0xbc11e392	-0.008904355
49	0x3d0b1d5f	0.033963557
50	0xbd805da2	-0.06267859
51	0x3d524d46	0.051343225
52	0xbcb61a06	-0.022229206
53	0xbce06b5f	-0.027394949
54	0x3b837bd7	0.0040125656
55	0x3d8af820	0.06785607
56	0x3cbbfcf2	0.022947762
57	0x3d18a1cb	0.037263673
58	0xbde50524	-0.11182621
59	0x3e28eca8	0.16496527
60	0xbcc81f81	-0.024429085
61	0x392b8b32	0.00016359685
62	0x3d843e7e	0.06457232
63	0x3e561cd4	0.20909435
64	0xbce89af3	-0.028394198
65	0x3d96e930	0.07368696
66	0xbd908404	-0.0705643
67	0xbcc8b9b9	-0.024502622
68	0xbc91ec36	-0.01781283
69	0x3dda5893	0.106614254
70	0xbe319e3e	-0.17345521
71	0x3d86b894	0.06578174
72	0x3d9f29a5	0.07771615
73	0x3c93ff18	0.018065974
74	0x3e0e1130	0.13873744
75	0x3d5f4229	0.054506455
76	0x3db6de03	0.08929064
77	0x3d427843	0.04747797
78	0xbc9cbf94	-0.01913432
79	0xbcbea006	-0.023269664
80	0xbc378c9b	-0.011202957
81	0xbca9a704	-0.020709522
82	0xbd126395	-0.0357395
83	0xbd1070af	-0.035263713
84	0xbd92ddc6	-0.07171206
85	0x3e545f5b	0.207395
86	0x3e11393b	0.14181988
87	0x3db421af	0.08795487
88	0x3d18b799	0.037284467
89	0x3e69efc3	0.22845368
90	0x3dd2116c	0.10257229
91	0xbd15a22c	-0.036531612
92	0xbe69a981	-0.22818567
93	0x3e864b3b	0.2622927
94	0xbd8b5820	-0.06803918
95	0xbe2f4edc	-0.17119926
96	0xbc99d9a2	-0.018780533
97	0x3c4fff1a	0.012695098
98	0xbcde8030	-0.027160734
99	0x3d96ea9a	0.073689654
100	0x3e21ec40	0.15812778
101	0x3e1dbbc3	0.15403657
102	0xbe1cab0f	-0.15299629
103	0xbdb9290e	-0.09041034
104	0x3d4c3f26	0.04986491
105	0x3c00ab6f	0.007853373
106	0x3d0495fa	0.03236959
107	0x3d113755	0.03545316
108	0xbcd28a36	-0.02570067
109	0x3cdabd2c	0.026701532
110	0xbe32c32f	-0.17457269
111	0xbc97d4f0	-0.018534154
112	0x3d8f00ef	0.069826
113	0x3e0d3ce4	0.13792759
114	0x3d87d9e8	0.06633359
115	0x3d1320c9	0.03591994
116	0x3cf9f153	0.03051058
117	0x3c99ced4	0.018775381
118	0xbe709628	-0.2349478
119	0xbd489db4	-0.048978522
120	0x3da7bcc5	0.08190302
121	0x3d242de7	0.04008284
122	0xbc0cf100	-0.008602381
123	0x3ca9f9bc	0.020748965
124	0xbdddbf63	-0.1082752
125	0xba134be7	-0.00056189153
126	0x3c2cfd3d	0.010558424
127	0xbd26c944	-0.040719286
128	0x3e89d3ce	0.26919407
129	0xbcc85556	-0.024454754
130	0xbeb253e0	-0.34829617
131	0x3c3db22e	0.011578126
132	0x3ddd88b3	0.10817089
133	0xbdf1e511	-0.11811269
134	0xbe0b479d	-0.13601537
135	0xbba44483	-0.00501305
136	0xbd491e85	-0.04910137
137	0xbddc76e9	-0.10764868
138	0x3e701d4a	0.23448673
139	0x3e0c8aa4	0.13724762
140	0xbd17b0b0	-0.037033737
141	0x3e5d3cb9	0.21605195
142	0xbdd3e788	-0.103468955
143	0x3ba86bd3	0.005139807
144	0xbddd6dd4	-0.10811964
145	0xbd9e5fd5	-0.07733122
146	0x3d8aaa93	0.06770816
147	0xbf085184	-0.5324938
148	0xbdde3c48	-0.108513415
149	0x3b8db519	0.004324567
150	0x3e1e2173	0.15442447
151	0xbe296f7d	-0.16546436
152	0xbdb1b031	-0.08676184
153	0x3dd90648	0.10596901
154	0xbd6125fb	-0.05496786
155	0x3d2509e6	0.040292643
156	0x3d8af300	0.0678463
157	0xbe50e643	-0.20400338
158	0x3e3f30ec	0.18671006
159	0x3e4e328e	0.20136473
160	0x3e25c999	0.16190185
161	0xbe0d5fb3	-0.13806038
162	0xbe14c804	-0.14529425
163	0xbdc10e5e	-0.094265684
164	0xbc9d9293	-0.019234931
165	0x3e17e210	0.1483233
166	0xbc357e27	-0.01107744
167	0xbcf7a78b	-0.030231258
168	0x3de96a3b	0.11397215
169	0xbdec12aa	-0.115269974
170	0xbc8fc216	-0.017548602
171	0x3ad840f4	0.001649885
172	0xbda43003	-0.0801697
173	0xbcfaa54a	-0.030596394
174	0x3e0dae2b	0.13835971
175	0xbce3f484	-0.027826555
176	0xbd31a32b	-0.0433685
177	0xbdcc71e5	-0.09982661
178	0xbd493f28	-0.049132496
179	0xbde88a6a	-0.113545254
180	0x3e011ef6	0.12609467
181	0x3e423023	0.18963675
182	0xbe726fb0	-0.23675418
183	0xbd29260c	-0.04129605
184	0x3d905514	0.07047477
185	0xbd4083d3	-0.047000717
186	0xbe80cce2	-0.25156313
187	0xbdf84654	-0.12122789
188	0xbd4165db	-0.047216278
189	0xb9b43951	-0.0003437498
190	0xbd2d9d81	-0.042386536
191	0x3d7c9271	0.061663095
192	0x3d8268f8	0.063676775
193	0x3c9f6bf9	0.019460665
194	0x3dcc5bc3	0.0997844
195	0xbd2b2e2d	-0.041792084
196	0xbdfee1c0	-0.12445402
197	0x3cc7a5f2	0.024371121
198	0x3e950dfb	0.2911223
199	0xbdf26836	-0.11836283
200	0xbd89a6cc	-0.06721267
201	0xbe774365	-0.24146803
202	0xbdcc1302	-0.09964563
203	0x3dbc48cf	0.09193575
204	0x3e112d7f	0.14177512
205	0xbd1bd798	-0.038047403
206	0xbdaf2465	-0.085518636
207	0xbe2bad8d	-0.16765423
208	0xbe2b0f39	-0.16705026
209	0xbe5d21df	-0.21594952
210	0xbe1ef459	-0.15522899
211	0xbe32bdd3	-0.17455225
212	0x3e440049	0.19140734
213	0xbddd7ec2	-0.10815193
214	0xbd9b14f1	-0.07572354
215	0xbd132652	-0.035925217
216	0x3e2736d9	0.16329516
217	0xbe309849	-0.17245592
218	0x3e12b45e	0.14326617
219	0x3d16fd95	0.03686293
220	0xbe4277da	-0.18991032
221	0xbe6f1a90	-0.23349977
222	0xbe5e6007	-0.21716319
223	0x3e455a89	0.19272818
224	0xbe2fdf98	-0.17175138
225	0x3e363abb	0.17795841
226	0xbd10c476	-0.03534361
227	0xbd92fe29	-0.071773835
228	0xbe51b560	-0.20479345
229	0xbe0ff2f0	-0.14057517
230	0x3e98ef60	0.2987013
231	0xbd004f9e	-0.03132593
232	0x3e5f29d6	0.21793303
233	0xbe8dd270	-0.27699614
234	0x3dad577e	0.084639534
235	0x3ded7687	0.11594873
236	0xbe58d247	-0.21173964
237	0xbe49e83e	-0.197175
238	0x3ccbd2a8	0.024880722
239	0xbc3ead62	-0.011638017
240	0xbe0bd44a	-0.136552
241	0xbbc6b52b	-0.0060640774
242	0x3cb6a82c	0.022296987
243	0xbdee29ba	-0.116290525
244	0x3db07d78	0.08617681
245	0x3c247517	0.010037682
246	0xbe6f1d51	-0.23351027
247	0x3db82383	0.08991148
248	0xbdf4900f	-0.119415395
249	0xbcc80815	-0.024417916
250	0x3dacbfff	0.08435058
251	0x3d362864	0.044472113
252	0x3d84fbdf	0.06493353
253	0xbd1da35e	-0.038485877
254	0x3c5b5d6f	0.0133889755
255	0xbddaafcd	-0.106780626

weight_ih_l1 f4 [384, 128]
0	0xbd2ac092	-0.041687556
1	0xbc12347a	-0.008923644
2	0x3d7d5086	0.06184437
3	0x3dd3c97e	0.10341166
4	0x3e478d93	0.194876
5	0x3d64c143	0.05584837
6	0x3c82aa4c	0.015950345
7	0x3dddaf21	0.10824419
8	0x3d41338c	0.0471683
9	0x3e04958d	0.12947674
10	0xbcbd0586	-0.023073923
11	0x3d346981	0.04404593
12	0x3c0a839d	0.008454231
13	0xbdb9ab05	-0.090658225
14	0xbcc2d227	-0.02378185
15	0xbe9fe114	-0.31226408
16	0xbcc6b5fc	-0.024256699
17	0x3db83e7c	0.08996293
18	0xbd939840	-0.07206774
19	0x3d03828c	0.03210692
20	0x3c386ef8	0.011256926
21	0xba388281	-0.00070384896
22	0x3d36cc02	0.04462815
23	0x3cf68d37	0.030096633
24	0xbe0aba86	-0.13547716
25	0xbe3ee82f	-0.18643259
26	0x3e03cd39	0.12871255
27	0x3bbb7c0e	0.0057215756
28	0xbd5dff4e	-0.054198556
29	0xbdee8ddb	-0.116481505
30	0x3db559d0	0.08855021
31	0xbe1f1f31	-0.15539242
32	0xbe200877	-0.15628229
33	0x3cd254b7	0.02567516
34	0x3a8c19b6	0.0010688815
35	0xbdf6d7d6	-0.12052886
36	0xbdde575e	-0.10856508
37	0xbd551d26	-0.05202975
38	0x3c9376d7	0.018001003
39	0xbd31e3bc	-0.043430075
40	0xbe8a8719	-0.27056196
41	0x3cfa8f7b	0.030585995
42	0x3cca73bd	0.024713391
43	0xbd87a0f8	-0.06622499
44	0x3d9e7eae	0.07739006
45	0xbe30b054	-0.17254764
46	0xbe1248bb	-0.14285557
47	0xbde40e9a	-0.111355975
48	0x3d04cba3	0.032420766
49	0xbd5cc3c1	-0.053897623
50	0x38baeee0	8.913665e-05
51	0x3d897fab	0.06713804
52	0xbde810c9	-0.113313265
53	0x3d9c5c22	0.076347604
54	0x3d2bcd0b	0.04194359
55	0x3b0971f5	0.0020972465
56	0xbcc58147	-0.024109496
57	0xbe86ae5e	-0.26304907
58	0xbe1346a2	-0.14382413
59	0xbe2d1549	-0.16902651
60	0x3d01a7b5	0.03165408
61	0xbd89c975	-0.06727878
62	0xbce11f8e	-0.027480867
63	0xbd182ffe	-0.037155144
64	0xbd3bc0db	-0.04583822
65	0xbe186c52	-0.14885071
66	0x3e631667	0.22176515
67	0xbdf28a66	-0.11842804
68	0x3dd9e3ad	0.10639129
69	0x3d0b0261	0.033937816
70	0x3d98f34a	0.07468279
71	0x3db65c72	0.08904351
72	0xbb53bb85	-0.0032307815
73	0x3a1978ba	0.00058544765
74	0xbdb32233	-0.08746757
75	0x3dbca030	0.09210241
76	0xbcb6622d	-0.02226361
77	0x3d35f9ed	0.0444278
78	0x3e1db280	0.15400124
79	0x3e058900	0.13040543
80	0xbd9222b6	-0.07135527
81	0xbb2ec905	-0.002667011
82	0xbdfcb8a3	-0.12339904
83	0x3be0c58f	0.0068594883
84	0x3e146017	0.1448978
85	0x3dcd30d6	0.1001908
86	0xbdbf2011	-0.09332288
87	0x3e14ee46	0.14544019
88	0x3e530573	0.20607547
89	0x3e1de7a7	0.154204
90	0xbdf3c5b6	-0.11902945
91	0x3cac6325	0.02104337
92	0x3d3465f2	0.044042535
93	0x3e4a643f	0.19764803
94	0xbd432a6a	-0.04764787
95	0x3e120675	0.14260276
96	0x3e77bed1	0.24193884
97	0xbcb7b165	-0.022423455
98	0x3df9b1bf	0.121921055
99	0xbd6530d6	-0.055954777
100	0x3dd93af0	0.106069446
101	0x3dbcbecd	0.0921608
102	0xbd25527f	-0.040361878
103	0xbd70ace8	-0.058758646
104	0x3c3dd796	0.011587044
105	0x3d1cbfc8	0.038268834
106	0x3e2689e4	0.16263539
107	0x3dcd141d	0.10013602
108	0xbe0efabe	-0.13962838
109	0xbdcb425f	-0.09924769
110	0x3e1a5540	0.15071583
111	0xbd23bf0c	-0.03997712
112	0x3e02f05d	0.12787004
113	0xbd4aba90	-0.049494326
114	0x3e766c82	0.2406483
115	0x3d8dd943	0.06926205
116	0x3cce22f4	0.025163151
117	0xbd50c9aa	-0.05097357
118	0x3ca20dac	0.01978191
119	0xbe5e24f4	-0.21693784
120	0x3dea3238	0.1143536
121	0xbd384fcf	-0.044997986
122	0xbc6285e4	-0.013825867
123	0x3ec0eb7c	0.3767966
124	0x3e27a9c2	0.16373351
125	0x3d205660	0.039144874
126	0x3ddb23c4	0.10700181
127	0xbddbe689	-0.107373305
128	0x3c200283	0.009766224
129	0xbe688a50	-0.22709012
130	0x3c230f03	0.00995231
131	0x3dab7e26	0.0837367
132	0x3da9c9f9	0.08290476
133	0xbd2b4ef2	-0.041823335
134	0xbd59ac62	-0.053142913
135	0x3e2be802	0.16787723
136	0x3d9aa60d	0.07551203
137	0xbd5722e6	-0.052523516
138	0x3dfd34c7	0.12363582
139	0x3e0a6bd4	0.13517696
140	0x3d687956	0.05675634
141	0x3e120a09	0.1426164
142	0xbe560cdb	-0.20903341
143	0xbdbba48b	-0.091622435
144	0xbdb89f8e	-0.09014808
145	0xbd0f3912	-0.034966536
146	0xbda7dd26	-0.081964776
147	0x3d277173	0.040879678
148	0xbc4019dd	-0.011724916
149	0x3e12f20b	0.14350145
150	0x3e95ea12	0.29280144
151	0xbe877a91	-0.26460698
152	0xbca350d1	-0.019935997
153	0x3da1e0b4	0.07904187
154	0xbd1b48db	-0.037911277
155	0x3e6f1179	0.23346509
156	0xbe99d728	-0.30046964
157	0xbd9e2474	-0.07721797
158	0xbe2aa8bf	-0.16665934
159	0x3d106aec	0.03525822
160	0xbd41f5f8	-0.047353715
161	0xbdb4dd6b	-0.088312946
162	0xbe43783a	-0.19088832
163	0xbe5d811e	-0.21631286
164	0x3da2c537	0.07947772
165	0xbd3398ca	-0.043846883
166	0xbebdd406	-0.37075824
167	0x3d0490e9	0.03236476
168	0xbcf707d6	-0.030155104
169	0x3c4d7eab	0.012542407
170	0x3d37900b	0.044815104
171	0xbdacff27	-0.08447104
172	0x3d9a3a13	0.07530608
173	0x3dec1262	0.11526944
174	0x3d31b638	0.043386668
175	0x3e022a03	0.12711339
176	0x3c90d059	0.017677473
177	0xbcefe159	-0.029282259
178	0x3d3e6555	0.046483357
179	0x3d2baeeb	0.04191486
180	0x3e120058	0.14257944
181	0x3e34efc3	0.17669587
182	0xbd833711	-0.064069875
183	0xbe659df0	-0.2242353
184	0xbedaf731	-0.42766717
185	0xbd8bdd71	-0.06829346
186	0xbd3b749f	-0.045765515
187	0xbd0e3623	-0.034719598
188	0xb9ae25b0	-0.00033215946
189	0x3e1e16ee	0.15438434
190	0x3cf42f63	0.029807752
191	0xbc54e6bd	-0.012994465
192	0xbe70d365	-0.2351814
193	0x3dd73bf3	0.10509481
194	0x3ed2e9ac	0.41193902
195	0x3d1bbd31	0.038022224
196	0x3d03edc1	0.03220916
197	0x3deed9d0	0.11662638
198	0x3c943ec2	0.018096332
199	0x3e8b71cd	0.2723526
200	0x3de99f35	0.114073195
201	0xbe069223	-0.13141684
202	0x3da49c14	0.08037582
203	0x3d2d35d9	0.04228768
204	0x3d8dad0b	0.06917771
205	0x3e27ef50	0.16399884
206	0xbcac0a14	-0.0210009
207	0x3d5cb5cf	0.053884324
208	0xbbc185cb	-0.005905842
209	0xbcc5f774	-0.024165846
210	0xbdb158a2	-0.086594835
211	0xbc0facb7	-0.008769206
212	0xbdc3eaa1	-0.09566236
213	0x3c95bc95	0.0182784
214	0x3e149bd0	0.14512563
215	0x3e169406	0.14704904
216	0x3ced9fed	0.029006923
217	0xbe19e7c4	-0.15029818
218	0xbe5939ac	-0.21213406
219	0xbc3a1677	-0.011357895
220	0xbc70f18f	-0.01470603
221	0xbd07b328	-0.03312984
222	0xbd6c24c6	-0.057652257
223	0x3e23b1a9	0.1598574
224	0x3e6aaa0b	0.22916429
225	0xbd64bb9f	-0.055842992
226	0x3e022b5e	0.12711856
227	0xbe2b1363	-0.16706614
228	0x3dc1bf13	0.09460273
229	0xbe386275	-0.18006308
230	0xbe2e895d	-0.17044587
231	0x3c685b2e	0.014181895
232	0x3dccc435	0.09998361
233	0x3cbda576	0.023150187
234	0x3de0a872	0.109696284
235	0x3e5cc39f	0.21558999
236	0xbd4ae126	-0.049531125
237	0x3d979bb6	0.074027464
238	0x3b92e76f	0.0044831554
239	0xbd6cceb9	-0.057814334
240	0x3e0fdd4b	0.1404926
241	0x3e0736dd	0.13204522
242	0x3e228333	0.15870361
243	0x3d176d84	0.036969677
244	0xbe6ea3ac	-0.23304623
245	0x3eaa2c11	0.33236745
246	0xbd0b69dd	-0.034036506
247	0xbd477551	-0.048695866
248	0x3da85240	0.08218813
249	0x3c973344	0.018457063
250	0xbdcb1027	-0.0991519
251	0x3ddf67c0	0.109084606
252	0xbd3625c8	-0.044469625
253	0x3e40a7a4	0.1881395
254	0x3deb355f	0.11484789
255	0xbc6e9a91	-0.014563219

weight_hh_l1 f4 [384, 128]
0	0x3e5cf6f8	0.21578586
1	0xbdaf4b8a	-0.0855933
2	0x3e57081f	0.20999192
3	0xbdb875ff	-0.09006881
4	0x3b7f83f0	0.0038988553
5	0xbda9b33d	-0.0828614
6	0xbda761af	-0.081729285
7	0xbcbc947d	-0.023020023
8	0xbd8e7309	-0.06955535
9	0x3d297547	0.04137161
10	0x3d257bc8	0.04040125
11	0x3d74fabf	0.059809443
12	0x3da449c0	0.08021879
13	0x3ce37ca7	0.0277694
14	0xbe20acc1	-0.156909
15	0x3e0a8a86	0.13529405
16	0x3d9abe96	0.07555883
17	0xbe03100a	-0.12799087
18	0x3cd47991	0.025936874
19	0x3a6ad1a3	0.000895763
20	0x3e1d1916	0.15341601
21	0x3d1a34c3	0.037647974
22	0x3da656bb	0.08122011
23	0x3e04f169	0.12982716
24	0xbd661fc7	-0.05618265
25	0xbd6c990d	-0.057763148
26	0x3c9431d3	0.018090164
27	0x3dd933be	0.10605572
28	0x3db06ea9	0.08614857
29	0xbb408939	-0.0029378666
30	0xba8ef425	-0.0010906501
31	0x3c5ed011	0.013599412
32	0x3c999f4e	0.01875272
33	0xbd915c9d	-0.07097743
34	0x3e3e8c4d	0.18608208
35	0xbd8d757b	-0.06907173
36	0xbabe9a56	-0.0014541845
37	0x3de1995a	0.110155776
38	0x3dbad9a1	0.09123541
39	0xbc4f2961	-0.012644143
40	0x3d9fda66	0.07805328
41	0x3e5793b8	0.21052444
42	0xbcda9b2c	-0.02668532
43	0x3e1a9388	0.15095341
44	0x3d91ebe6	0.07125072
45	0xbc6391fa	-0.013889784
46	0xbd4af3bb	-0.049548846
47	0xbdbc51a1	-0.09195257
48	0x3d911194	0.07083431
49	0x3e90d9a6	0.28291053
50	0x3db4f166	0.088351056
51	0xbd8086c9	-0.06275708
52	0x3e0c2146	0.13684568
53	0x3d1c9385	0.038226623
54	0x3d2b6811	0.041847292
55	0x3d2ec421	0.04266751
56	0x3cc2b7b0	0.02376923
57	0x3e94ea83	0.29085168
58	0x3d2ec286	0.04266598
59	0x3e382aec	0.17985123
60	0x3bc6d308	0.0060676374
61	0xbccc0468	-0.024904445
62	0x3e2b21bb	0.16712086
63	0xbc6b2c27	-0.014353788
64	0x3e0fdfb5	0.14050181
65	0xbe0d25cf	-0.13783954
66	0x3dac9438	0.08426708
67	0x3e093ae2	0.13401368
68	0x3d870faa	0.065947846
69	0xbd87a227	-0.06622725
70	0x3e556945	0.20840938
71	0xbd194862	-0.037422545
72	0x3dd45415	0.103676
73	0x3e192665	0.14956053
74	0x3dbcfa72	0.09227456
75	0x3de2c713	0.11073127
76	0xbe0a9d52	-0.13536575
77	0xbd8a4b99	-0.067527
78	0x3c8bfcd8	0.017088339
79	0xbe03f447	-0.12886153
80	0xbdbd0f01	-0.092313774
81	0x3bf8653c	0.0075804275
82	0xbd8cd482	-0.0687647
83	0x3e24812b	0.16064899
84	0xbc9b6e7d	-0.018973583
85	0xbdb26faf	-0.08712708
86	0x3d0b9bff	0.034084316
87	0x3e855068	0.26037908
88	0x3de878bf	0.113511555
89	0xbe26b067	-0.1627823
90	0xbd56c2ae	-0.052431755
91	0xbd8bbcf4	-0.06823149
92	0x3d05a3ed	0.032627035
93	0x3e323bc1	0.17405607
94	0xbdd2d5fd	-0.10294721
95	0x3cd997d4	0.026561655
96	0x3dbd32bf	0.09238195
97	0x3df626c4	0.12019113
98	0x3d61f4c5	0.05516507
99	0xbe935644	-0.28776753
100	0x3e85540a	0.2604068
101	0x3dad54a1	0.08463407
102	0xbc851e0c	-0.016249679
103	0xbdf608ef	-0.12013423
104	0xbe3b04c6	-0.1826354
105	0xbd910997	-0.07081907
106	0x3c29f32d	0.010372919
107	0xbdcf6206	-0.10126118
108	0xbcf030eb	-0.0293202
109	0x3d91ffb6	0.07128851
110	0x3d79104c	0.060806558
111	0x3d038691	0.032110754
112	0xbd7b101c	-0.06129466
113	0x3c429ff6	0.011878958
114	0xbe212348	-0.15736115
115	0xbd46c546	-0.04852798
116	0x3df2f3f6	0.11862938
117	0xbceb6240	-0.028733373
118	0xbd01866a	-0.031622328
119	0xbc3319ee	-0.010931475
120	0x3e57ce1c	0.21074718
121	0x3e84ecaf	0.25961825
122	0xbd38bd02	-0.045102127
123	0xbd393bf5	-0.045223195
124	0x3d884524	0.066538125
125	0xbb729162	-0.0037012924
126	0x3d8eeafe	0.06978415
127	0x3d2add71	0.04171509
128	0xbdf4aeba	-0.11947389
129	0x3e0185da	0.12648717
130	0xbcccdf29	-0.025008755
131	0x3e2e4bcd	0.17021103
132	0x3d03dc9b	0.032192808
133	0xbdc1ffa6	-0.09472589
134	0xbe9463af	-0.28982303
135	0x3d17c603	0.037054073
136	0xbde897a0	-0.11357045
137	0x3e811fda	0.25219613
138	0xbe0b658b	-0.13612954
139	0xbe21c2b6	-0.15796933
140	0x3dde4a0a	0.108539656
141	0xbb6bc26c	-0.0035974039
142	0xbd2ff463	-0.042957675
143	0x3df0c6e0	0.117566824
144	0x3d68239b	0.05667458
145	0x3e077e95	0.13231881
146	0xbdbbc3eb	-0.09168228
147	0x3e5c92bf	0.21540354
148	0x3cd03e58	0.025420353
149	0x3d8bf661	0.068341024
150	0xbde19e36	-0.110165045
151	0x3cdc202b	0.026870808
152	0xbe3637df	-0.1779475
153	0x3a95f896	0.0011441882
154	0xbb71a01c	-0.0036869114
155	0x3db55856	0.08854739
156	0x3d3ebf22	0.046568997
157	0xbb96d521	-0.0046030437
158	0x3cab2785	0.020892868
159	0xbe23bf3d	-0.1599092
160	0xbcd8e3be	-0.026475783
161	0xbe14e170	-0.14539123
162	0x3db7918f	0.0896331
163	0xbd94309b	-0.07235833
164	0xbe6828ba	-0.22671786
165	0x3ddd0df7	0.10793679
166	0xbd82a89d	-0.06379817
167	0x3ea24c04	0.3169862
168	0xbd6113bd	-0.054950465
169	0x3d00a277	0.03140494
170	0x3a33620f	0.000684292
171	0xbe2d0f5f	-0.16900395
172	0x3cce6894	0.025196351
173	0xbe067822	-0.13131765
174	0xbd14f06c	-0.036362097
175	0xbdb3ac89	-0.08773143
176	0xbe64dde6	-0.22350273
177	0x3cd0747b	0.025446167
178	0x3d22fc8f	0.03979164
179	0x3d1b24bf	0.03787684
180	0xbe1f4e98	-0.15557325
181	0xbe1c355a	-0.15254727
182	0x3d8436e9	0.06455786
183	0x3d0ea0f5	0.03482147
184	0x3bd6498c	0.006539529
185	0xbd12d805	-0.035850544
186	0x3d52785c	0.051384315
187	0xbdf06088	-0.11737162
188	0xbdbd6681	-0.09248067
189	0xbe368454	-0.17823917
190	0x3dfdfcd6	0.1240174
191	0xbcd1881a	-0.025577594
192	0xbe3c7af3	-0.18406276
193	0xbd9f65e3	-0.07783105
194	0xbdd8dad9	-0.10588617
195	0x3d359a56	0.04433664
196	0x3d0b283f	0.03397393
197	0x3b0e32ec	0.0021697832
198	0x3d45e56d	0.0483145
199	0xbd8a09ff	-0.06740188
200	0xbd2df863	-0.04247321
201	0xbb527056	-0.0032110414
202	0x3d1ee5e0	0.038793445
203	0x3da650b6	0.08120863
204	0x3d34946c	0.04408686
205	0xbe69b0c6	-0.2282134
206	0x3dc1993a	0.09453054
207	0x3dc0106d	0.09378133
208	0xbd23dc77	-0.040005174
209	0xbdaff5f6	-0.08591835
210	0x3c90f9ff	0.017697332
211	0x3db89abb	0.090138875
212	0xbd74b36e	-0.05974143
213	0xbd82382b	-0.063583694
214	0x3d116e8d	0.03550582
215	0x3b46d672	0.0030340222
216	0xbe65b24d	-0.22431298
217	0xbdf916e7	-0.121625714
218	0xbcec5809	-0.028850572
219	0x3cc969c6	0.02458657
220	0xbcd7aecf	-0.026328472
221	0x3dce3fa4	0.10070732
222	0x3cdc8c74	0.026922442
223	0xbdd60929	-0.10450966
224	0xbdf6ef41	-0.12057353
225	0xbc911f1d	-0.017715031
226	0x3e2cf9e5	0.16892202
227	0xbe6b8f49	-0.23003878
228	0xbdf81953	-0.12114205
229	0x3d9640a7	0.0733655
230	0xbdec6180	-0.11542034
231	0x3e1232b8	0.1427716
232	0xbe2bfa48	-0.16794693
233	0x3e147ae1	0.145
234	0xbdd827f4	-0.105544955
235	0x3cbc4358	0.02298133
236	0xbd942b10	-0.07234776
237	0x3cc045de	0.023470815
238	0xbbe03d43	-0.0068432405
239	0x3d2c9255	0.04213174
240	0xbc9b6970	-0.018971175
241	0x3d1c5866	0.03817024
242	0xbe9efb6d	-0.31051198
243	0xbe3f51d9	-0.18683566
244	0x3d6a0c8e	0.05714088
245	0x3e89e798	0.26934505
246	0x3d8228e7	0.06355458
247	0xbe483b61	-0.19553901
248	0x3e863f42	0.26220137
249	0xbce72a3d	-0.028218383
250	0xbdf5cd5d	-0.120020606
251	0x3daad77f	0.08341884
252	0xbc18942d	-0.009312672
253	0xbcccae10	-0.024985343
254	0x3cbe329c	0.023217492
255	0x3e846785	0.2586023

bias_ih_l1 f4 [384]
0	0x3cbcf196	0.023064416
1	0xbcaa204c	-0.020767353
2	0x3b79d82e	0.0038123238
3	0x3d0f1f28	0.034941822
4	0x3e1597ba	0.1460866
5	0xbdcc4fea	-0.0997618
6	0x3ac2b7ad	0.0014855765
7	0x3dd22fe2	0.10263039
8	0xbc1d5422	-0.009602578
9	0xbd5445cb	-0.051824372
10	0x3cfe7b43	0.031064635
11	0x3dbf3566	0.09336357
12	0xbd1a0fca	-0.037612714
13	0x3d836890	0.06416428
14	0xbdafaaca	-0.08577497
15	0x3c442d1c	0.011973646
16	0x3ccf82b5	0.02533088
17	0xbdc64393	-0.096808575
18	0xbdfbca9d	-0.12294505
19	0x3d52097f	0.051278587
20	0xbdb68e10	-0.08913815
21	0x3e2957d4	0.1653741
22	0xbd25b643	-0.04045702
23	0xbd687ad8	-0.056757778
24	0x3d010c46	0.031505845
25	0x3da5b958	0.08091992
26	0x3c798c69	0.01523123
27	0xbc5d6f4d	-0.013515306
28	0x3d1b3e9f	0.037901517
29	0x3d46cde7	0.048536208
30	0x3e28bc7e	0.16478154
31	0xbe3f42a3	-0.18677764
32	0x3da6f55d	0.08152268
33	0x3c1a4796	0.0094164815
34	0x3e09b1c6	0.13446721
35	0xbdca4221	-0.09875894
36	0x3d852450	0.06501067
37	0x3db7d2b3	0.089757346
38	0x3c83a249	0.016068595
39	0x3d99d5db	0.07511493
40	0x3de79cb8	0.113091886
41	0x3dc2892f	0.09498822
42	0xbcd4e9da	-0.025990415
43	0xbdbd0014	-0.092285305
44	0x3d390257	0.045168247
45	0xbbb101f3	-0.0054018437
46	0x3c874e0a	0.016516704
47	0x3cb6d56a	0.02231856
48	0xbcb2f509	-0.021845357
49	0x3c64667f	0.013940453
50	0x3d552aed	0.05204289
51	0x3c81e43a	0.015855897
52	0xbdd57d1e	-0.10424255
53	0x3ca3400f	0.019928006
54	0xbda7026e	-0.0815476
55	0xbcab9e8e	-0.020949628
56	0x399baacb	0.00029691154
57	0x3e2f4ff1	0.17120339
58	0xbcebeb81	-0.02879882
59	0x3e0e2093	0.13879614
60	0xbca397da	-0.01996987
61	0x3cb91478	0.022592768
62	0x3da95c51	0.08269561
63	0xbda13072	-0.07870568
64	0xbd15be0a	-0.03655819
65	0xbdaaf347	-0.08347183
66	0x3db3ee7e	0.08785723
67	0x3d7f2bc0	0.062297583
68	0xbbf03692	-0.007330724
69	0x3db6d83b	0.089279614
70	0x3e2b9c8d	0.16758938
71	0x3cae47d0	0.021274477
72	0x3e0cbb01	0.13743211
73	0x3db90203	0.09033587
74	0x3dc455ff	0.09586715
75	0x3d1d9b63	0.038478266
76	0xbbf785b1	-0.007553779
77	0x3b84a614	0.0040481184
78	0xbd31c8eb	-0.0434045
79	0x3d5a72ac	0.053332016
80	0x3dd3496e	0.1031674
81	0x3c93efd3	0.018058693
82	0x3e0aa49f	0.1353936
83	0x3db8de7e	0.09026812
84	0xbd8cb7d2	-0.068709984
85	0xbda30866	-0.07960586
86	0x3d9b897f	0.07594585
87	0xbc68fdb8	-0.0142206475
88	0x3c5db104	0.013530973
89	0x3d9f3245	0.0777326
90	0x3dc7aae0	0.09749389
91	0xbd022c18	-0.031780332
92	0x3dd78d20	0.10524964
93	0x3d39e8fb	0.045388203
94	0x3d2cd467	0.04219475
95	0x3c5d6cf2	0.013514744
96	0xbd9c7f16	-0.07641427
97	0xbdb9e12b	-0.090761505
98	0x3df47397	0.119361095
99	0x3ca898ac	0.020580612
100	0x3dbdd021	0.09268213
101	0xbda7fc75	-0.08202449
102	0xbcb5427b	-0.022126427
103	0xbc43496c	-0.011919361
104	0x3c3f0e57	0.011661134
105	0xbdaa95de	-0.08329366
106	0xbd3a4d5d	-0.045483936
107	0xbc054bcc	-0.008135747
108	0x3c1917bf	0.00934404
109	0x3c398459	0.011323058
110	0xbd433fc8	-0.04766825
111	0x3d370a15	0.04468735
112	0xbddfd01b	-0.10928365
113	0xbc2f5580	-0.010701537
114	0x3e04f319	0.1298336
115	0xbc9bfa39	-0.019040214
116	0x3d8c2a10	0.0684396
117	0x3b76398f	0.0037570929
118	0x3d99ca22	0.07509257
119	0xbba0cabf	-0.0049069817
120	0x3d6cdc80	0.057827473
121	0x3e228637	0.15871511
122	0x3bc9e69c	0.006161524
123	0x3dfbf8bb	0.12303301
124	0x3dceac10	0.10091412
125	0xbdf1efd9	-0.118133254
126	0x3db427f4	0.08796683
127	0xbb843a58	-0.0040352754
128	0xbbf6227b	-0.0075114346
129	0x3df89dcc	0.12139472
130	0x3e208f33	0.15679626
131	0x3e1bdf57	0.15221916
132	0x3e010406	0.12599191
133	0x3d117f07	0.035521533
134	0x3d47ba67	0.04876175
135	0x3d7e710b	0.062119525
136	0x3e477f8a	0.19482246
137	0x3da35a0d	0.0797616
138	0xbddffe0d	-0.10937128
139	0xbd3321d1	-0.04373342
140	0xbd732838	-0.059364527
141	0xbe1561b4	-0.14588052
142	0x3e309d91	0.17247607
143	0xbd163b5c	-0.036677703
144	0xbdc8ee67	-0.09811097
145	0x3e284d28	0.16435683
146	0x3d514c39	0.051098082
147	0x3d9b446b	0.07581409
148	0x3c1a30e5	0.009411071
149	0xbd411469	-0.047138605
150	0x3d947e15	0.07250611
151	0xbd99ceb3	-0.07510128
152	0x3e1736c7	0.1476699
153	0xbd9c3e0d	-0.07629023
154	0x3e11b602	0.14229587
155	0x3e0be511	0.136616
156	0x3d858411	0.0651933
157	0xbdc188a4	-0.0944989
158	0x3d78a585	0.060704727
159	0xbdb198c4	-0.08671716
160	0x3deb95ce	0.11503182
161	0xbab1c7d9	-0.0013563588
162	0xbe1b6c25	-0.15177973
163	0xbda08506	-0.07837872
164	0x3caebfdf	0.021331726
165	0x3c5f1f3f	0.0136182895
166	0xbd1f1f66	-0.038848303
167	0xbdf8568e	-0.12125884
168	0x3d55d0a6	0.052200936
169	0x3dd86d9b	0.105677806
170	0x3e3cde17	0.18444096
171	0x3da9ea30	0.08296621
172	0x3d08c954	0.033395126
173	0x3e03c3ab	0.1286761
174	0xbcf3f902	-0.029781822
175	0x3acd719a	0.0015674115
176	0xbccc9b4f	-0.0249764
177	0x3d92dc22	0.07170893
178	0x3d5b9158	0.053605407
179	0xbcf6c6c4	-0.030124076
180	0x3e0fc8b4	0.14041406
181	0xbd64943e	-0.055805437
182	0xbe1a11a0	-0.15045786
183	0x3cffc493	0.031221664
184	0xbc4275a5	-0.011868869
185	0x3db419a1	0.08793951
186	0xbd97cff9	-0.074127145
187	0x3dbee0ed	0.09320245
188	0x3db40c8f	0.08791458
189	0xbcf0ca16	-0.029393237
190	0x3d891125	0.06692723
191	0x3d900918	0.070329845
192	0xbc0566c5	-0.008142178
193	0x3d690075	0.0568852
194	0x3e8489dc	0.25886428
195	0x3be7e1aa	0.007076462
196	0xbe05b701	-0.13058092
197	0x3a185b3a	0.00058119337
198	0x3e2b55f4	0.16732007
199	0x3d64834a	0.05578927
200	0x3da37d19	0.07982845
201	0x3d3b3dab	0.045713108
202	0x3e57af62	0.21062997
203	0xbdca860d	-0.098888494
204	0xbab92cde	-0.0014127751
205	0xbba88ecb	-0.0051439754
206	0x3e32a936	0.17447361
207	0xbe51d4df	-0.2049136
208	0x3d888c8c	0.06667432
209	0x3cd2a938	0.025715455
210	0x3e05913c	0.13043684
211	0x3bba5f06	0.005687597
212	0x3d69a7ac	0.05704467
213	0xbdb7d3ef	-0.0897597
214	0x3d2ad1d1	0.041704003
215	0x3d8246e6	0.06361179
216	0x3c43fb84	0.0119618215
217	0x3c50bb6f	0.01274
218	0x3d16885e	0.036751144
219	0x3e4358a2	0.1907678
220	0xbd106d71	-0.03526062
221	0xbd31e52c	-0.043431446
222	0x3de11d36	0.109919
223	0xbdadeb25	-0.08492116
224	0x3df04c48	0.117332995
225	0xbc3d2ce1	-0.0115463445
226	0x3e37fe34	0.17968065
227	0x3d6f5144	0.05842711
228	0x3dcde398	0.10053176
229	0x3e601587	0.21883212
230	0x3c5ccc7a	0.013476485
231	0x3d2add9a	0.041715242
232	0x3dc2a485	0.09504036
233	0xbcfc3043	-0.030784732
234	0x3e705340	0.23469257
235	0xbdf9b6a7	-0.12193041
236	0x3d03a963	0.03214396
237	0xbc99a0a8	-0.018753365
238	0xbb9cb8ca	-0.0047827708
239	0x3db5c2d6	0.08875053
240	0xbdc9f3da	-0.09860964
241	0xbe07501b	-0.13214152
242	0xbcb1cadd	-0.021703178
243	0x3c0edb90	0.00871934
244	0xbca6611c	-0.020309977
245	0x3d3c1d39	0.045926306
246	0xbd83ad7a	-0.064295724
247	0x3c369bb4	0.011145521
248	0x3d767871	0.060173456
249	0x3dbc602c	0.09198031
250	0x3b82b4aa	0.003988822
251	0x3e84d1f4	0.25941432
252	0x3de2b597	0.11069792
253	0x3d6fb148	0.058518678
254	0x3d9a93e4	0.07547739
255	0x3d956b3e	0.072958454
