lab5/models/final_model_1.pth (torch, 156887 bytes, 10 tensors)

weight_ih_l0 f4 [192, 1]
0.061126295 -0.075392924 -0.37141463 0.46594632 -0.17124413 0.5316938 -0.6183378 -0.40426996
0.5144847 -0.2731239 -0.29452765 -0.08130403 0.2131363 0.0776258 0.22880976 0.08643923
0.89761066 -0.04290048 -0.14597525 -0.34987718 -0.92185843 -0.12100397 -0.18024124 -0.20407479
0.29816923 -0.19206133 -0.06467492 -0.2802001 0.29440248 0.09401192 0.10857548 0.036418036
-0.082136564 0.17770226 -0.27339417 -0.38527024 -0.46485704 -0.37397298 -0.05506921 -0.050240815
0.21115492 -0.35800233 0.12091144 -0.15509534 0.82538617 -0.06889995 0.69225276 0.29022014
-0.26188645 -0.43150073 -0.22210723 -0.45992228 0.02881694 -0.073798336 0.40523124 0.2768416
-0.19699961 -0.39215067 -0.082254305 -0.33679992 -0.23355626 0.41744956 0.09997234 0.0058519547
0.109811 -0.7346422 0.24715957 -0.6945446 0.0091752475 -0.061998624 0.14936255 0.2402347
-0.23029187 -0.6133921 0.19192684 -0.029625034 -0.6079487 -0.37152088 -0.10008191 0.12772514
0.15317795 -0.0039626467 -0.19678085 -0.13764033 0.3172825 -0.5047393 0.106102265 0.2322018
-0.019820508 0.0965561 -0.32059303 -1.1375282 -0.062455717 -0.41544977 -0.70750993 0.15880206
0.22650634 -0.18106923 -0.59935194 0.27128378 -1.1709276 -1.0540518 0.13677382 -0.10267696
0.14110473 -0.40370622 0.2571768 -0.55388635 0.1349648 0.23780781 0.25025395 0.12801147
-0.13290341 -0.6978988 -0.3139443 -0.4589894 0.09890679 0.077644415 -0.36022726 -0.2907685
-0.26076272 0.15609768 0.10135452 -0.26637748 0.14054485 0.09832175 0.19144915 0.11705415
0.1462358 -0.27674595 -0.62764066 0.38857543 -0.12218798 -0.058941826 -0.24275367 0.35697952
-0.023013953 -0.2016996 0.14646347 -0.022768918 -0.1870373 0.25286454 0.7892635 -0.16774042
0.86321133 0.062160093 -0.032485165 -0.033238437 0.49129376 0.058533 0.16206709 0.18030687
0.05164396 0.5921886 0.031400364 0.46867865 0.060533755 -0.036600053 -0.32544115 -0.2492763
-0.50831527 0.21778779 -0.30390295 -0.32471892 0.39414808 0.400164 -0.4715443 0.11100269
0.1591263 -0.054124147 -0.17818946 -0.2538457 1.039104 0.13801077 -0.7546813 -0.12819065
-0.28241158 0.5284678 -0.108343974 -0.5200358 0.08225548 -0.07605247 0.18297824 0.27301353
-0.13076958 0.032918565 0.4684353 -0.045343414 0.136735 -0.5107268 -0.12753622 -0.042597618
00000000: 915f 7a3d 9b67 9abd 0f2a bebe 8490 ee3e
00000010: 9f5a 2fbe 161d 083f 634b 1ebf 79fc cebe
00000020: 45b5 033f e5d6 8bbe 54cc 96be ba82 a6bd
00000030: 6740 5a3e 47fa 9e3d 1b4d 6a3e 0d07 b13d
00000040: d0c9 653f 6ab8 2fbd 897a 15be 1a23 b3be
00000050: eafe 6bbf eed0 f7bd 2991 38be fbf8 50be
00000060: a3a9 983e baab 44be 4974 84bd 6376 8fbe
00000070: ecbb 963e 5289 c03d d25c de3d 142b 153d
00000080: 3737 a8bd 95f7 353e 52fa 8bbe 2442 c5be
00000090: be01 eebe 6379 bfbe 4090 61bd 50c9 4dbd
000000a0: ff38 583e 154c b7be 6ba0 f73d 50d1 1ebe
000000b0: 824c 533f 6b1b 8dbd 7a37 313f bc97 943e
000000c0: fb15 86be aaed dcbe 1470 63be ef7a ebbe
000000d0: 8111 ec3c 9523 97bd 787a cf3e 2fbe 8d3e
000000e0: 44ba 49be f9c7 c8be f274 a8bd 0a71 acbe
000000f0: 5f29 6fbe f3bb d53e 4cbe cc3d c1c1 bf3b
00000100: 97e4 e03d 8311 3cbf 6617 7d3e adcd 31bf
00000110: c753 163c 45f2 7dbd 7ff2 183e 1600 763e
00000120: a2d1 6bbe 4407 1dbf 7888 443e 33b0 f2bc
00000130: 87a2 1bbf fc37 bebe bff7 ccbd 61ca 023e
00000140: aeda 1c3e 17d9 81bb eb80 49be 96f1 0cbe
00000150: da72 a23e 9836 01bf 254c d93d 4fc6 6d3e
00000160: 9e5e a2bc 34bf c53d c524 a4be 869a 91bf
00000170: 91d1 7fbd d5b5 d4be 5f1f 35bf 029d 223e
00000180: 47f1 673e 366a 39be 216f 19bf b5e5 8a3e
00000190: f5e0 95bf 2beb 86bf 700e 0c3e 4c48 d2bd
000001a0: c27d 103e 95b2 cebe adac 833e 7fcb 0dbf
000001b0: 3634 0a3e e483 733e 4921 803e 7015 033e
000001c0: d517 08be 7fa9 32bf 4fbd a0be a900 ebbe
000001d0: a58f ca3d 0904 9f3d b56f b8be 9cdf 94be
000001e0: b182 85be 12d8 1f3e f592 cf3d a162 88be
000001f0: fdea 0f3e ea5c c93d 3f0b 443e 16ba ef3d
00000200: d6be 153e a5b1 8dbe 0fad 20bf 5cf3 c63e
00000210: b13d fabd fc6c 71bd 6b94 78be 05c6 b63e
00000220: c287 bcbc 578a 4ebe 85fa 153e e285 babc
00000230: b586 3fbe 7677 813e 2c0d 4a3f 25c4 2bbe
00000240: 6bfb 5c3f 959b 7e3d 2a0f 05bd 0725 08bd
00000250: db8a fb3e 4dc0 6f3d eaf4 253e 5da2 383e
00000260: 9e88 533d ac99 173f ab9d 003d a6f6 ef3e
00000270: 3ef2 773d f0e9 15bd 39a0 a6be 4942 7fbe
00000280: f320 02bf c303 5f3e 2b99 9bbe 8f41 a6be
00000290: c7cd c93e 4ce2 cc3e 416e f1be 6155 e33d
000002a0: 01f2 223e 48b1 5dbd 4c77 36be 10f8 81be
000002b0: 5c01 853f b252 0d3e cb32 41bf 6944 03be
000002c0: 4098 90be aa49 073f 72e3 ddbd 1121 05bf
000002d0: 9075 a83d 66c1 9bbd a65e 3b3e 6ec8 8b3e
000002e0: 76e8 05be 9ed5 063d c0d6 ef3e 04ba 39bd
000002f0: 4304 0c3e febe 02bf db98 02be d77a 2ebd

weight_hh_l0 f4 [192, 64]
-0.01817327 -0.09970598 -0.055985533 0.18928958 -0.050104517 0.057845686 0.063371025 0.03739799
0.011677384 0.25971305 0.1274774 0.24406187 0.08039674 -0.044267308 0.15178797 -0.018986756
0.009171256 0.07373367 -0.15892535 -0.017065404 0.09856916 -0.1422911 0.011281522 -0.06306958
0.39068702 0.10866705 -0.030246451 0.11139969 -0.11565212 0.037223764 -0.1398087 0.13765214
0.049312957 0.20423542 -0.13619849 -0.035897054 0.3047934 0.1174276 0.080585785 0.014878815
-0.009870664 -0.07374229 0.3093273 -0.08956806 0.13967867 0.038356576 -0.12854353 -0.052361663
-0.13127564 0.03536931 0.25929826 -0.005898207 0.09641449 0.031209942 0.0058535286 0.2034447
0.0014618286 -0.1146631 -0.03929033 0.01314675 0.01828825 -0.10881231 0.04689182 0.069926664
0.2837527 -0.04190801 -0.029646931 0.04015106 -0.15532212 -0.2075181 0.023112211 0.07375416
0.31593326 -0.4909123 -0.03578718 -0.039606884 -0.3865554 -0.02006764 0.08435053 0.23480746
-0.022737127 -0.06887198 -0.06864057 -0.13404402 0.28547335 0.09699831 0.15299264 0.454893
-0.101059444 0.11214691 0.0570413 -0.014608296 0.16229263 -0.2966728 0.00866933 -0.26225764
0.11281218 -0.035359614 -0.12816475 -0.13228966 0.10422133 0.18355158 -0.16072142 0.045053743
0.22453405 0.089766815 -0.22861907 -0.25235516 0.09716707 0.07514457 -0.17008062 -0.08751591
-0.13283122 0.04237177 -0.3567578 0.028688459 0.24637805 -0.053647846 -0.16416113 0.0830284
-0.3478378 0.03715692 -0.0667963 -0.041757528 0.14087518 -0.121650845 -0.24904443 -0.028021866
-0.064497344 0.0037948692 0.28963122 -0.26768452 -0.1293384 -0.09313951 0.2553965 -0.27743563
-0.24266973 0.16097592 0.00050819275 0.001000925 -0.014596125 -0.14909065 -0.43299705 -0.2768961
-0.39380094 0.17041853 0.26985392 0.008901126 -0.1574052 0.028867507 0.37990397 0.25443786
0.2887178 -0.4317644 -0.09743869 -0.13602778 0.112430006 -0.078819826 0.18157613 0.05619041
0.35432875 -0.062340822 0.10977747 0.19138241 0.1877228 0.15205856 0.26200438 -0.22567716
-0.16815718 0.3143773 -0.23505566 0.008858488 -0.47804287 -0.31419307 0.19431567 0.18852247
-0.07389437 -0.07326492 -0.16342913 0.12219721 -0.22538157 0.2426818 -0.12846872 -0.29966617
-0.29941192 -0.18179163 -0.38483196 0.25860378 0.28656954 0.46261874 0.2805217 -0.35332885
-0.26509696 0.29691407 0.009853363 -0.14814058 0.22611451 0.30444062 -0.0079537295 -0.20909707
-0.23826641 -0.15384188 -0.06814429 0.07348476 -0.0828134 0.18645565 0.33176896 -0.11847078
0.22842777 -0.2698139 -0.094394565 0.080577694 0.04168278 0.070470326 0.10813398 -0.1952418
-0.25221133 0.30691832 0.002010435 0.13945056 -0.3323649 -0.14320303 -0.19273528 0.07259645
-0.025412884 0.18158256 0.10756138 -0.03221053 -0.16569267 -0.13595799 -0.013883608 0.16629963
-0.043894783 -0.045191266 0.07513567 -0.0020517197 0.29697743 0.1884827 -0.2009226 -0.1746061
-0.110793546 -0.11860654 0.18973307 0.11448683 0.081858434 -0.07657043 0.023237802 0.19483617
0.22323483 0.038135335 -0.10515387 -0.13142993 -0.48498765 -0.13345185 -0.08493412 0.40037882
00000000: 1ce0 94bc a632 ccbd 1651 65bd 21d5 413e
00000010: 653a 4dbd 99ef 6c3d abc8 813d a22e 193d
00000020: 8052 3f3c 1cf9 843e 6f89 023e 5beb 793e
00000030: 0ca7 a43d a351 35bd 4e6e 1b3e 1d8a 9bbc
00000040: 0943 163c ae01 973d 54bd 22be bfcc 8bbc
00000050: a1de c93d c2b4 11be 22d6 383c a02a 81bd
00000060: 2108 c83e d58c de3d 68c7 f7bc 8525 e43d
00000070: 05db ecbd f277 183d 032a 0fbe aff4 0c3e
00000080: 62fc 493d 1723 513e 9e77 0bbe ca08 13bd
00000090: e10d 9c3e e27d f03d 290a a53d 46c6 733c
000000a0: 91b8 21bc 3306 97bd 2660 9e3e 766f b7bd
000000b0: ed07 0f3e c91b 1d3d eaa0 03be 2f79 56bd
000000c0: 1f6d 06be 69df 103d bec2 843e bf45 c1bb
000000d0: f674 c53d feab ff3c f5ce bf3b cf53 503e
000000e0: d49a bf3a 7dd4 eabd e6ee 20bd 7765 573c
000000f0: 3dd1 953c fdd8 debd a311 403d b635 8f3d
00000100: 0948 913e bca7 2bbd 1fde f2bc 7075 243d
00000110: c30c 1fbe a07f 54be d255 bd3c 6c0c 973d
00000120: 01c2 a13e db58 fbbe 9495 12bd d43a 22bd
00000130: 97ea c5be e464 a4bc f8bf ac3d 5e71 703e
00000140: 3643 babc c10c 8dbd 6d93 8cbd d642 09be
00000150: 9029 923e 0da7 c63d 1aaa 1c3e bce7 e83e
00000160: 41f8 cebd 47ad e53d 23a4 693d a257 6fbc
00000170: 0a30 263e 7fe5 97be ce09 0e3c a246 86be
00000180: 120a e73d 3ed5 10bd 9f3d 03be f176 07be
00000190: fe71 d53d f2f4 3b3e 2894 24be 468a 383d
000001a0: 41ec 653e aad7 b73d 1e1b 6abe b234 81be
000001b0: 87ff c63d 65e5 993d 9d29 2ebe 8b3b b3bd
000001c0: e804 08be 058e 2d3d f5a8 b6be 0f04 eb3c
000001d0: 874a 7c3e d8bd 5bbd db19 28be cb0a aa3d
000001e0: cc17 b2be db31 183d 80cc 88bd f109 2bbd
000001f0: 9541 103e 1424 f9bd 8105 7fbe 1d8e e5bc
00000200: 2f17 84bd 57b3 783b 8b4a 943e f20d 89be
00000210: 4971 04be edbf bebd 54c3 823e 0b0c 8ebe
00000220: 6a7e 78be dfd6 243e 3d38 053a 7831 833a
00000230: 9624 6fbc 38ab 18be cab1 ddbe 53c5 8dbe
00000240: 47a0 c9be 3282 2e3e 4b2a 8a3e 07d6 113c
00000250: d42e 21be 8d7b ec3c c682 c23e ae45 823e
00000260: d2d2 933e 3910 ddbe f08d c7bd de4a 0bbe
00000270: b441 e63d 4a6c a1bd 18ef 393e ea27 663d
00000280: 946a b53e 1759 7fbd 03d3 e03d c0f9 433e
00000290: 683a 403e 3db5 1b3e 7025 863e ea17 67be
000002a0: 6531 2cbe 10f6 a03e 6eb2 70be 3123 113c
000002b0: 09c2 f4be eadd a0be b0fa 463e 090c 413e
000002c0: ee55 97bd eb0b 96bd f759 27be 8842 fa3d
000002d0: 6dca 66be 9481 783e 4e8d 03be d86d 99be
000002e0: 854c 99be 9627 3abe b208 c5be b767 843e
000002f0: 3eb9 923e 5ddc ec3e 8aa0 8f3e 85e7 b4be
00000300: caba 87be 1f05 983e 0070 213c 2ab2 17be
00000310: 908a 673e a4df 9b3e 5c50 02bc 8b1d 56be
00000320: 1cfc 73be ba88 1dbe 3c8f 8bbd 2e7f 963d
00000330: 129a a9bd 3bee 3e3e 9fdd a93e cfa0 f2bd
00000340: f8e8 693e 0c25 8abe f051 c1bd eb05 a53d
00000350: 90bb 2a3d bf52 903d 5975 dd3d 77ed 47be
00000360: d821 81be 6624 9d3e 81c1 033b 21cc 0e3e
00000370: bb2b aabe d1a3 12be 665c 45be 73ad 943d
00000380: ae2e d0bc c7f0 393e 2449 dc3d 30ef 03bd
00000390: 57ab 29be 9238 0bbe 1378 63bc 734a 2a3e
000003a0: 04cb 33bd 7a1a 39bd bbe0 993d 2576 06bb
000003b0: 6d0d 983e 9c01 413e a7be 4dbe f1cb 32be
000003c0: bae7 e2bd fce7 f2bd 6349 423e 1278 ea3d
000003d0: 65a5 a73d f5d0 9cbd 345d be3c 2283 473e
000003e0: ac97 643e cc33 1c3d ea5a d7bd 9195 06be
000003f0: 4d50 f8be 9aa7 08be f1f1 adbd 74fe cc3e

bias_ih_l0 f4 [192]
0.15746492 -0.12898266 -0.11503932 0.2140597 0.09063022 -0.4501528 0.06216828 0.059266288
-0.20789535 0.09774608 -0.020215591 0.16858795 0.2758149 0.017456384 0.07953666 0.034376007
-0.09567894 0.14927529 0.1060197 -0.10205541 -0.09586086 0.1383789 0.10258902 0.035396893
-0.04873928 0.09364096 0.13852142 0.14032578 -0.0037607725 0.2848678 -0.15487112 0.122448295
0.051344484 -0.0924894 -0.08146136 0.033397537 0.31112525 0.1755394 0.0014970828 -0.014451496
0.23445383 0.13264883 0.12993509 0.023476142 -0.18673295 0.27972737 0.051554482 0.01086102
0.1345007 0.05425887 0.19978218 -0.012793452 -0.031095061 0.19504811 0.024140766 0.1547367
0.03337358 0.086059846 -0.014108461 -0.077179775 0.017035319 -0.21807937 0.07675327 0.21593042
0.16249475 0.070242204 0.2444901 -0.016816301 0.006569384 -0.24698764 0.2735271 0.16977052
0.100359835 0.09502512 0.12335195 -0.06727754 -0.021385947 -0.008375947 -0.13917357 -0.15811792
-0.06426473 -0.060226835 -0.0012577673 -0.15215935 -0.059229244 0.2045336 -0.2638237 -0.08603046
-0.013166861 -0.12205634 -0.070188016 0.100468494 0.12365259 0.07606343 0.05468344 0.13545358
0.29391003 0.116875805 -0.086973056 0.07575284 -0.12639517 0.009263984 -0.07016937 0.20738286
0.16099067 0.059254386 0.13684382 -0.095611654 -0.13785271 0.089946255 0.12121623 0.13149022
0.014865381 0.061911605 -0.043125477 -0.14116848 0.089863665 0.04853432 -0.08767645 -0.029061833
-0.17342544 0.22688256 -0.12909488 -0.027572324 0.058573432 -0.029559609 0.22067861 0.17890865
-0.1227915 0.08186858 -0.019130562 0.061963372 0.21853031 0.13115308 -0.087235 -0.13383763
0.28807506 0.19171025 -0.22905815 0.14389357 0.061444174 0.17131293 -0.0055371784 0.006027059
0.06627142 0.04375045 0.15175195 0.028787479 -0.124181144 -0.29006433 -0.15092653 -0.06257637
-0.20525296 0.051767394 -0.07244263 0.22162862 -0.08983693 0.19549529 -0.110358365 -0.0774502
-0.17530486 0.17175998 0.038511988 -0.13263243 0.10999591 0.095649816 0.036788832 -0.0011295837
-0.055050693 0.30409488 -0.1183371 0.0025309622 0.10463256 0.21469133 0.024525212 0.19822454
0.06520482 -0.007893757 0.20674817 -0.16309634 -0.17076297 0.055020634 -0.021750523 0.24436234
-0.06486541 -0.19738363 -0.15074293 0.14478908 0.120809376 -0.04721138 -0.16345741 -0.15551949
00000000: 7c3e 213e 0814 04be bc99 ebbd 7732 5b3e
00000010: 569c b93d 6e7a e6be 2ba4 7e3d 35c1 723d
00000020: 85e2 54be 192f c83d 2b9b a5bc 52a2 2c3e
00000030: 9c37 8d3e b100 8f3c 1ee4 a23d dbcd 0c3d
00000040: 52f3 c3bd 9fdb 183e db20 d93d 6d02 d1bd
00000050: b352 c4bd 33b3 0d3e 311a d23d 55fc 103d
00000060: d7a2 47bd d5c6 bf3d 8fd8 0d3e 90b1 0f3e
00000070: 4b77 76bb 31da 913e 8996 1ebe 2cc6 fa3d
00000080: 984e 523d 156b bdbd 37d5 a6bd dbcb 083d
00000090: cf4b 9f3e 9ac0 333e c339 c43a f8c5 6cbc
000000a0: aa14 703e 18d5 073e b40d 053e 0a51 c03c
000000b0: ec36 3fbe 6d38 8f3e cb2a 533d 6bf2 313c
000000c0: 8dba 093e 8d3e 5e3d b393 4c3e a09b 51bc
000000d0: 12bb febc b1ba 473e dbc2 c53c 4c73 1e3e
000000e0: bcb2 083d 2540 b03d 2d27 67bc 6e10 9ebd
000000f0: a78d 8b3c 3350 5fbe d230 9d3d dd1c 5d3e
00000100: 0665 263e 25db 8f3d 9d5b 7a3e 57c2 89bc
00000110: fd43 d73b 54ea 7cbe be0b 8c3e 53d8 2d3e
00000120: 7589 cd3d 889c c23d f29f fc3d cfc8 89bd
00000130: 9531 afbc 453b 09bc 8483 0ebe aae9 21be
00000140: 3a9d 83bd 6ab0 76bd abdb a4ba a9cf 1bbe
00000150: 5d9a 72bd 4271 513e e613 87be bd30 b0bd
00000160: d1b9 57bc adf8 f9bd bcbe 8fbd 6dc2 cd3d
00000170: 923d fd3d 25c7 9b3d befb 5f3d 58b4 0a3e
00000180: 607b 963e 955c ef3d ee1e b2bd 4e24 9b3d
00000190: bc6d 01be f7c7 173c f5b4 8fbd 2c5c 543e
000001a0: bdda 243e bab4 723d c920 0c3e 0bd0 c3bd
000001b0: 4329 0dbe be35 b83d 3740 f83d 5fa5 063e
000001c0: ed8d 733c 0697 7d3d 57a4 30bd 788e 10be
000001d0: 710a b83d eccb 463d b68f b3bd 1513 eebc
000001e0: 7096 31be e753 683e 7331 04be 5bdf e1bc
000001f0: b2ea 6f3d fe26 f2bc 93f9 613e d433 373e
00000200: 1c7a fbbd b7aa a73d b2b7 9cbc 4ecd 7d3d
00000210: 69c6 5f3e fe4c 063e 44a8 b2bd bb0c 09be
00000220: 937e 933e b14f 443e 388e 6abe d658 133e
00000230: e3ac 7b3d a86c 2f3e 3871 b5bb a37e c53b
00000240: 4fb9 873d ac33 333d dd64 1b3e b8d3 eb3c
00000250: af52 febd 5083 94be 7c8c 1abe 0a28 80bd
00000260: d52d 52be 0c0a 543d cd5c 94bd 9df2 623e
00000270: 6dfc b7bd eb2f 483e 9103 e2bd 369e 9ebd
00000280: 1e83 33be d9e1 2f3e bfbe 1d3d ccd0 07be
00000290: 8945 e13d 0de4 c33d e3af 163d 8a0e 94ba
000002a0: d67c 61bd 53b2 9b3e b95a f2bd 80de 253b
000002b0: 9849 d63d 0bd8 5b3e 19e9 c83c 60fb 4a3e
000002c0: 1b8a 853d d154 01bc cbb5 533e ba02 27be
000002d0: 7ddc 2ebe 515d 613d 272e b2bc 1f3a 7a3e
000002e0: 28d8 84bd ef1e 4abe 5b5c 1abe 9743 143e
000002f0: e86a f73d b860 41bd 6161 27be 8040 1fbe

bias_hh_l0 f4 [192]
0.24556763 0.031371087 -0.002888016 0.13659857 0.2531976 -0.27517542 -0.11507804 0.115482844
-0.22443902 0.20768274 0.026322106 0.13205208 0.31522012 -0.09530241 0.10108372 -0.08039899
-0.17638561 0.15332848 0.15532504 -0.101563014 -0.1248911 0.3517389 0.17352924 0.118610345
-0.09643041 0.18425445 0.120754085 0.047128677 -0.06491798 0.29931793 -0.0046024066 0.23509972
0.12312623 -0.04034334 0.054078247 0.12360828 0.21555148 -0.0033465803 -0.1177642 -0.094143495
0.09679161 -0.012809189 0.12298507 0.12614886 0.028025588 0.10412507 0.06143015 0.111030266
0.006163721 0.038022332 0.092402555 -0.15010332 -0.19306652 0.17070489 -0.016330855 0.10817826
0.20012397 0.04272155 -0.032871388 0.06293776 0.071993 -0.33256125 0.005142009 0.14046031
0.024549438 0.032589316 0.13900264 -0.007124392 -0.083583586 -0.20390464 0.10500892 0.067684464
0.10938366 0.033098172 0.08116359 -0.21206245 0.09612934 0.019013286 -0.2693811 -0.14071801
-0.058788314 0.0433214 0.04435718 -0.063213386 0.07376229 0.10983112 -0.3383622 0.09446806
-0.0010990596 -0.04314933 0.027228856 -0.104566894 -0.011626448 0.19698368 0.13886043 0.13914655
0.19597857 0.09968717 -0.04483375 0.1501468 0.08159345 0.09084852 -0.048979502 0.1150169
0.11465597 0.13778071 0.14933205 -0.083500415 -0.079930626 0.20310494 0.014718444 0.12883274
-0.06261483 0.053058207 0.008737269 -0.18010949 0.1811465 0.17504568 -0.027036145 -0.1664365
-0.050988887 0.10501577 0.07044947 -0.0066043395 0.022273032 0.054811712 0.096724026 0.13406447
0.043835472 -0.09232465 -0.22983292 0.086763315 0.40106636 0.064040825 -0.18318954 -0.0031804503
0.39265925 0.30444074 0.016433077 0.2292432 0.28634557 0.22534595 0.1722635 0.17963919
0.1544768 -0.12081155 0.08079234 0.080637224 -0.057180572 -0.35219553 -0.18496047 0.102290444
-0.18827365 -0.033215355 -0.19299704 0.051044144 -0.22626996 0.19198865 -0.016098093 -0.061885633
-0.1612702 -0.027983787 0.06662189 -0.10808589 0.10068908 -0.0020632832 -0.017215561 0.011071745
-0.10759785 -9.518174e-05 0.0043361145 -0.043426774 0.03288651 0.008906715 0.09178625 0.07742007
-0.03170957 0.04341503 0.314398 0.030814793 -0.15173876 0.18924578 0.05966681 0.27489266
0.10763314 -0.08927233 0.12921907 0.0078933565 0.07233539 -0.07152875 -0.06880488 -0.0051642847
00000000: 1576 7b3e f87e 003d de44 3dbb 7fe0 0b3e
00000010: 1ea3 813e cbe3 8cbe 09ae ebbd 4582 ec3d
00000020: 58d3 65be c9aa 543e 75a1 d73c a938 073e
00000030: 8864 a13e e92d c3bd fb04 cf3d 3aa8 a4bd
00000040: 6e9e 34be 2402 1d3e 870d 1f3e 4500 d0bd
00000050: e8c6 ffbd 1f17 b43e a6b1 313e fbe9 f23d
00000060: 4f7d c5bd 33ad 3c3e eb4d f73d 000a 413d
00000070: b8f3 84bd 3340 993e c9cf 96bb fbbd 703e
00000080: 9b29 fc3d 0f3f 25bd 2781 5d3d 5726 fd3d
00000090: 87b9 5c3e 4d52 5bbb 5b2e f1bd 4ece c0bd
000000a0: ae3a c63d a2dd 51bc 99df fb3d 2b2d 013e
000000b0: eb95 e53c 863f d53d 2e9e 7b3d d663 e33d
000000c0: 0af9 c93b 4ebd 1b3d 8d3d bd3d afb4 19be
000000d0: 3bb3 45be 43cd 2e3e 49c8 85bc 908c dd3d
000000e0: 4ced 4c3e cbfc 2e3d 26a4 06bd 83e5 803d
000000f0: 1171 933d 7845 aabe 4c7e a83b d4d4 0f3e
00000100: e71b c93c 607c 053d b556 0e3e bb73 e9bb
00000110: df2d abbd 61cc 50be eb0e d73d 279e 8a3d
00000120: 8a04 e03d f391 073d 1939 a63d e626 59be
00000130: 76df c43d c0c1 9b3c 52ec 89be 6218 10be
00000140: 04cc 70bd c871 313d e0af 353d 0576 81bd
00000150: af10 973d 23ef e03d cf3d adbe 7878 c13d
00000160: 520e 90ba 5abd 30bd 0d0f df3c 2b27 d6bd
00000170: db7c 3ebc 17b6 493e 6e31 0e3e 6f7c 0e3e
00000180: 9bae 483e c928 cc3d 98a3 37bd 15c0 193e
00000190: 771a a73d ca0e ba3d bb9e 48bd fb8d eb3d
000001a0: c0d0 ea3d 6316 0d3e 80ea 183e 4402 abbd
000001b0: abb2 a3bd befa 4f3e a125 713c bbec 033e
000001c0: 343c 80bd 9053 593d c326 0f3c 9f6e 38be
000001d0: 787e 393e 2d3f 333e e87a ddbc 546e 2abe
000001e0: b9d9 50bd 8212 d73d d047 903d 3769 d8bb
000001f0: ef75 b63c 3f82 603d 3f17 c63d 3248 093e
00000200: d38c 333d b514 bdbd 5259 6bbe f7b0 b13d
00000210: 9258 cd3e d627 833d 0a96 3bbe 1a6f 50bb
00000220: a20a c93e a8df 9b3e a99e 863c bbbe 6a3e
00000230: e39b 923e 17c1 663e d865 303e 56f3 373e
00000240: 2b2f 1e3e 0c6c f7bd 7476 a53d 2125 a53d
00000250: 2d36 6abd f952 b4be 4766 3dbe a77d d13d
00000260: cfca 40be d30c 08bd 04a1 45be aa13 513d
00000270: 50b3 67be ac98 443e 26e0 83bc ca7b 7dbd
00000280: 0424 25be 413e e5bc 0f71 883d 235c ddbd
00000290: 1436 ce3d 2638 07bb a607 8dbc 4466 353c
000002a0: 435c dcbd 4f9c c7b8 f715 8e3b 46e0 31bd
000002b0: 01b4 063d 78ed 113c 6efa bb3d 6a8e 9e3d
000002c0: e5e1 01bd f5d3 313d c6f8 a03e 4e6f fc3c
000002d0: 6861 1bbe a5c9 413e 2f65 743d bbbe 8c3e
000002e0: c46e dc3d 69d4 b6bd 0152 043e 2353 013c
000002f0: 9424 943d aa7d 92bd 93e9 8cbd 2939 a9bb

weight_ih_l1 f4 [192, 64]
-0.06927694 0.103447415 -0.35584447 0.06683867 0.022990111 0.035318468 -0.24821629 0.3774928
-0.1871166 0.060498606 0.14145476 0.0097408 0.092615694 0.11835552 -0.007872379 0.010828905
0.26718444 0.27938226 -0.039341915 -0.088091545 0.06684888 0.08040282 -0.03846779 -0.059678346
0.21226875 0.15936036 0.14149968 -0.0060125217 0.16057855 -0.11131414 -0.097309515 -0.1973449
-0.24693087 -0.035808817 -0.06981013 0.03022818 -0.010657929 0.0405294 -0.17549548 -0.05042371
0.16731781 -0.060438905 0.082873724 -0.031353828 0.25486463 -0.0571407 -0.46630082 -0.19950235
0.079270385 -0.0031732945 0.09805102 0.11696308 0.07721748 0.05782514 0.01946673 -0.006055789
0.04659203 0.30340704 0.052123502 0.0029955865 0.031803813 -0.11971086 0.13676828 0.3427582
0.17318557 -0.0400356 -0.04536409 0.10745989 -0.08781075 -0.056810964 -0.09137817 -0.13720109
0.1303687 -0.23424481 -0.030177435 0.03959873 -0.20532371 -0.0024256106 0.093383834 0.16694413
0.08425485 0.021890903 -0.21956165 -0.021275427 0.03421841 -0.101079434 0.25915045 0.19653054
-0.14404292 -0.03541179 0.030928526 0.21349023 -0.23588935 -0.041168343 -0.12431578 0.27600184
-0.015108703 0.1223749 -0.098274924 0.07196104 0.22985876 0.012078003 -0.11357491 -0.060904223
0.05911146 -0.14444894 -0.13751754 -0.19966605 0.09804871 0.17524666 0.061822087 -0.1182108
-0.08779407 0.06621502 -0.010765584 -0.104950316 0.014246715 -0.12999192 0.12501554 0.17616357
-0.16698396 0.04222841 0.11002524 -0.21879831 0.06398723 -0.06681529 -0.076991156 0.117096536
-0.30673778 -0.24961329 0.023732916 0.0336558 -0.26611274 -0.16169643 -0.024929747 0.26445976
0.1162765 -0.035265926 0.4912049 -0.112933114 0.03384638 0.15975882 0.046157237 -0.40757945
0.32184446 0.3085979 -0.08851278 -0.061518554 0.027716279 -0.10938162 0.14541104 -0.25259328
0.32532316 0.21584232 -0.11750991 -0.08553703 0.19382156 0.0024693487 -0.034254365 -0.095581405
0.11950475 0.12216397 -0.124684125 0.027037458 0.15439758 0.39797238 -0.33825454 -0.067113064
-0.027341835 -0.10784992 0.08484569 -0.13017164 0.21946353 -0.116197914 -0.093844056 0.046938524
-0.003103753 0.1372852 -0.2250587 -0.12338599 -0.019176748 -0.12524347 -0.017078936 -0.040633164
-0.13279173 0.08084362 0.16726077 0.08458581 -0.098745815 -0.2876254 0.27192798 0.1452606
-0.048289984 0.0473428 -0.169669 -0.091729246 0.11558319 -0.045243274 -0.029152105 0.006812763
0.08613325 -0.07485493 -0.07555689 0.03435373 0.043273844 -0.011140287 0.07177084 -0.13514057
0.1357341 -0.011544945 -0.16941509 -0.10321616 0.012069509 0.060681283 -0.007931822 0.09949916
-0.06884213 0.14540216 0.07664511 0.08476074 -0.16447683 -0.15114179 -0.09800739 -0.102857366
-0.18738903 0.046676762 0.09744869 0.057018418 -0.08004789 0.12268247 -0.07647362 0.04966526
0.11949394 0.0126371 -0.18688019 -0.003497883 0.06708208 -0.07470894 -0.054003473 -0.076706916
0.041313946 0.10771116 0.096309625 0.033296924 0.100480065 -0.10134313 -0.03826118 -0.0037852656
0.08625272 0.082439244 0.01220754 0.073974594 0.025985783 -0.018917913 -0.06943518 -0.027579388
00000000: 11e1 8dbd 3ddc d33d 3f31 b6be b6e2 883d
00000010: c255 bc3c 19aa 103d 692c 7ebe bc46 c13e
00000020: 7e9b 3fbe 63cd 773d 84d9 103e e097 1f3c
00000030: 4cad bd3d 6164 f23d 27fb 00bc b86b 313c
00000040: 66cc 883e 310b 8f3e fd24 21bd 5769 b4bd
00000050: 11e8 883d 3caa a43d 6790 1dbd 4871 74bd
00000060: fb5c 593e 5d2f 233e 4be5 103e b004 c5bb
00000070: b46e 243e abf8 e3bd 364a c7bd c814 4abe
00000080: 72db 7cbe 44ac 12bd 9df8 8ebd 17a1 f73c
00000090: 989e 2ebc 2802 263d 16b5 33be 1889 4ebd
000000a0: 5c55 2b3e c98e 77bd b3b9 a93d df6c 00bd
000000b0: 9e7d 823e 5e0c 6abd fbbe eebe 584a 4cbe
000000c0: 8358 a23d 0cf7 4fbb f9ce c83d 578a ef3d
000000d0: 3324 9e3d 0eda 6c3d b178 9f3c a46f c6bb
000000e0: 49d7 3e3d 2b58 9b3e 747f 553d 9a51 443b
000000f0: b744 023d f82a f5bd fc0c 0c3e 017e af3e
00000100: 8f57 313e 5ffc 23bd b2cf 39bd ee13 dc3d
00000110: 1fd6 b3bd 9db2 68bd 7a24 bbbd 717e 0cbe
00000120: 5f7f 053e dfdd 6fbe ab36 f7bc 4732 223d
00000130: 6140 52be fef6 1ebb 0640 bf3d 67f3 2a3e
00000140: cf8d ac3d 8d54 b33c c5d4 60be ce49 aebc
00000150: 9a28 0c3d bc02 cfbd 5eaf 843e 4d3f 493e
00000160: fd7f 13be f40b 11bd d25d fd3c 2f9d 5a3e
00000170: fa8c 71be 23a0 28bd 4699 febd 1d50 8d3e
00000180: 7e8a 77bc b19f fa3d 5d44 c9bd 4f60 933d
00000190: 1860 6b3e d1e2 453c f699 e8bd b576 79bd
000001a0: dc1e 723d 6cea 13be 66d1 0cbe 4275 4cbe
000001b0: c3cd c83d dc73 333e 2839 7d3d 8118 f2bd
000001c0: 61cd b3bd be9b 873d 2262 30bc 31f0 d6bd
000001d0: 0e6b 693c 9a1c 05be 1304 003e 3964 343e
000001e0: d8fd 2abe b2f7 2c3d ea54 e13d aa0c 60be
000001f0: bd0b 833d 74d6 88bd 8aad 9dbd 4fd0 ef3d
00000200: bc0c 9dbe a09a 7fbe 886b c23c aada 093d
00000210: ee3f 88be c093 25be 7839 ccbc 4567 873e
00000220: 6022 ee3d 0173 10bd 357f fb3e 7a49 e7bd
00000230: 80a2 0a3d d197 233e 5f0f 3d3d 41ae d0be
00000240: ccc8 a43e 8b00 9e3e 3046 b5bd e1fa 7bbd
00000250: 400d e33c 7903 e0bd a2e6 143e e853 81be
00000260: c290 a63e c505 5d3e 09a9 f0bd 0a2e afbd
00000270: 2979 463e ccd4 213b 4e4e 0cbd 2fc0 c3bd
00000280: e8be f43d 1a31 fa3d 645a ffbd a97d dd3c
00000290: 661a 1e3e 09c3 cb3e b32f adbe 9372 89bd
000002a0: fcfb dfbc 6be0 dcbd 94c3 ad3d b74b 05be
000002b0: 0cbb 603e 2cf9 edbd 5031 c0bd 9c42 403d
000002c0: 5668 4bbb 7e94 0c3e ca75 66be cbb1 fcbd
000002d0: 8e18 9dbc d33f 00be 20e9 8bbc f66e 26bd
000002e0: 8efa 07be 5791 a53d 6846 2b3e 533b ad3d
000002f0: 3f3b cabd a343 93be 253a 8b3e 32bf 143e
00000300: b8cb 45bd 86ea 413d b6bd 2dbe 8bdc bbbd
00000310: e1b6 ec3d 0351 39bd 65d0 eebc 993d df3b
00000320: a166 b03d 8b4d 99bd 92bd 9abd 7fb6 0c3d
00000330: ea3f 313d c085 36bc 97fc 923d 4a62 0abe
00000340: e1fd 0a3e 0227 3dbc 267b 2dbe fe62 d3bd
00000350: 31bf 453c f08c 783d 79f4 01bc 37c6 cb3d
00000360: 1afd 8cbd 4ee4 143e 1df8 9c3d 0a97 ad3d
00000370: 9d6c 28be eac4 1abe 19b8 c8bd e2a6 d2bd
00000380: e9e2 3fbe 2230 3f3d 2e93 c73d 258c 693d
00000390: 26f0 a3bd f240 fb3d 349e 9cbd cd6d 4b3d
000003a0: 3db9 f43d d70b 4f3c 855d 3fbe bd3c 65bb
000003b0: 5462 893d 0001 99bd bf32 5dbd 8418 9dbd
000003c0: d038 293d ab97 dc3d fb3d c53d 5b62 083d
000003d0: 7ec8 cd3d fd8c cfbd c1b7 1cbd 3812 78bb
000003e0: 44a5 b03d e8d5 a83d 2202 483c fe7f 973d
000003f0: 23e0 d43c bdf9 9abc 0834 8ebd 2bee e1bc

weight_hh_l1 f4 [192, 64]
0.0800492 -0.17159289 0.062386498 -0.19730285 0.18082562 -0.029992783 -0.045469552 0.19730581
-0.21317597 -0.044664416 0.009245096 -0.08217433 0.17849796 0.061531663 0.092080876 -0.18160695
-0.0066915634 -0.017661657 0.016438883 0.094886206 0.36229637 0.16987754 0.13646843 0.16205783
-0.32074484 -0.30286068 0.1931435 -0.43308562 0.10730338 0.020333674 0.052204516 0.07158313
-0.21233165 -0.072126016 0.078755155 0.0013834233 0.068146564 -0.25846806 -0.03252311 -0.018836198
-0.080935456 -0.08230482 -0.11676806 -0.12464888 0.094629414 0.13763241 0.02075417 0.058241565
-0.04669688 -0.013273517 0.13295081 -0.03413264 -0.0008716613 0.22796063 -0.1929386 -0.056179512
-0.026799377 -0.22843857 -0.1509566 -0.035280548 0.10570444 -0.1326582 0.09160537 -0.20009089
0.03883 -0.07929494 -0.070468895 -0.07090565 0.1388444 -0.1746065 -0.21882367 -0.08744242
-0.05199081 -0.050122317 -0.07355262 0.046152987 0.11412209 0.26896736 -0.05715141 -0.074450836
-0.101678215 -0.09492389 -0.006319212 -0.026796805 -0.22338086 0.062684946 0.00409144 -0.04338657
-0.09057123 0.1863087 -0.06558405 0.21217339 -0.09782356 0.4628902 -0.06700995 0.16395156
-0.064393245 -0.049114265 0.24455693 -0.16416922 -0.07613928 0.12784652 -0.0016137636 -0.10573621
0.34904045 -0.31327465 -0.10679247 0.053195223 0.11142725 -0.086843155 -0.010164132 -0.00304672
-0.13460526 0.011022768 -0.17493036 0.36491463 0.13830262 -0.0036075313 -0.036388755 0.2992752
0.21452989 0.017047945 -0.11680525 0.2616441 0.13077627 0.03530298 0.08450496 0.034439333
-0.023883313 -0.20172618 -0.09157547 -0.17293826 -0.02126608 0.19922902 0.105857804 0.094533585
-0.20803697 -0.08378752 0.09304011 -0.29924396 -0.04704397 0.17788093 -0.080786616 -0.14457846
-0.11850363 -0.15880677 -0.34711623 0.029890526 0.18354377 0.1461171 -0.06025663 -0.08449369
-0.023873027 0.10472002 0.1932832 0.19178988 -0.05390154 -0.12455711 -0.15060338 0.07787156
-0.22274537 -0.031857163 0.15909196 -0.17080733 0.074508525 -0.22066574 0.0392149 -0.26410314
-0.3608494 -0.031726267 0.07152531 -0.1778953 -0.058734037 0.0024513786 -0.25433788 -0.11469659
-0.22471328 -0.29141393 0.16970141 0.08117216 -0.079691604 -0.17009546 -0.031072589 0.32606217
-0.0255603 -0.0010517009 -0.15644014 0.045472857 0.048508577 -0.13645937 -0.06236017 -0.11349415
0.2742461 0.015879711 0.14796898 -0.051103823 0.03638136 -0.033104528 0.09403738 0.106145784
-0.21104962 -0.098323956 -0.057951443 -0.17320308 -0.17780705 -0.11883996 0.026595192 -0.13754743
0.08489862 -0.04514136 -0.099253066 -0.06525404 0.022942133 0.137278 0.08569735 -0.13340925
-0.054871008 0.11339571 -0.116260275 0.23464341 -0.15973127 -0.2002538 -0.12580547 -0.011778538
-0.18753381 -0.06391624 0.07392665 -0.03658842 0.046094127 -0.03198287 -0.16360891 0.002646247
-0.01133861 -0.1756351 -0.10307766 -0.2378675 0.025294254 -0.23153965 -0.16852403 -0.03298831
-0.030501818 -0.17289999 0.0757765 0.03339381 0.185886 -0.293012 -0.06393216 0.24598794
0.015221953 -0.0901978 -0.1913687 -0.07116611 -0.09653117 -0.22219963 -0.020469764 -0.06606957
00000000: d6f0 a33d 0cb6 2fbe fc88 7f3d c209 4abe
00000010: 5a2a 393e 6db3 f5bc 483e 3abd 890a 4a3e
00000020: cd4a 5abe 09f2 36bd be78 173c 044b a8bd
00000030: 2bc8 363e a008 7c3d e694 bc3d 2cf7 39be
00000040: e744 dbbb 2eaf 90bc d6aa 863c b353 c23d
00000050: e97e b93e 61f4 2d3e 61be 0b3e 7df2 253e
00000060: ab38 a4be 8e10 9bbe 69c7 453e 66bd ddbe
00000070: e0c1 db3d ce92 a63c 67d4 553d 2d9a 923d
00000080: 786d 59be ceb6 93bd 624a a13d fc53 b53a
00000090: 6d90 8b3d ed55 84be f436 05bd 5f4e 9abc
000000a0: 7dc1 a5bd 6e8f a8bd 1824 efbd e947 ffbd
000000b0: 11cd c13d 83ef 0c3e a604 aa3c b58e 6e3d
000000c0: 3a45 3fbd 2a79 59bc 4224 083e abce 0bbd
000000d0: 3380 64ba 836e 693e b291 45be 7d1c 66bd
000000e0: 5e8a dbbc cdeb 69be 5e94 1abe 5682 10bd
000000f0: 927b d83d 8dd7 07be 999b bb3d a0e4 4cbe
00000100: 350c 1f3d 6365 a2bd ff51 90bd fb36 91bd
00000110: 3a2d 0e3e 0ccc 32be 5013 60be 0315 b3bd
00000120: 51f4 54bd 0f4d 4dbd c2a2 96bd ea0a 3d3d
00000130: d8b8 e93d 17b6 893e 9917 6abd ae79 98bd
00000140: ab3c d0bd 7567 c2bd 6411 cfbb f984 dbbc
00000150: f4bd 64be f760 803d 7c11 863b 1eb6 31bd
00000160: 697d b9bd b5c7 3e3e ee50 86bd fb43 593e
00000170: b857 c8bd f2ff ec3e 833c 89bd ebe2 273e
00000180: 9be0 83bd 0a2c 49bd 226d 7a3e fa1b 28be
00000190: e9ee 9bbd 33ea 023e ec84 d3ba 3a8c d8bd
000001a0: 6eb5 b23e 8965 a0be 03b6 dabd 3ce3 593d
000001b0: f833 e43d d3da b1bd 7687 26bc 7bab 47bb
000001c0: f6d5 09be d798 343c f220 33be 17d6 ba3e
000001d0: 349f 0d3e 556c 6cbb 600c 15bd 993a 993e
000001e0: b9ad 5b3e 22a8 8b3c 9737 efbd 37f6 853e
000001f0: 37ea 053e dc99 103d f010 ad3d 4210 0d3d
00000200: f0a6 c3bc 4f91 4ebe ec8b bbbd ba16 31be
00000210: 3436 aebc b102 4c3e facb d83d d39a c13d
00000220: a507 55be cb98 abbd d08b be3d 8136 99be
00000230: 2eb1 40bd 6b26 363e 7473 a5bd 600c 14be
00000240: 08b2 f2bd 3e9e 22be 38b9 b1be fadc f43c
00000250: e6f2 3b3e b99f 153e a8cf 76bd 070b adbd
00000260: 5e91 c3bc 7377 d63d 08ec 453e 9164 443e
00000270: dcc7 5cbd cc17 ffbd c637 1abe 207b 9f3d
00000280: 5d17 64be a87c 02bd 01e9 223e 1ee8 2ebe
00000290: ed97 983d 33f6 61be ce9f 203d 8738 87be
000002a0: 41c1 b8be 67f3 01bd dd7b 923d 2f2a 36be
000002b0: 1a93 70bd 4fa7 203b 9338 82be 0ce6 eabd
000002c0: 3d1b 66be 3534 95be 35c6 2d3e 973d a63d
000002d0: 5a35 a3bd 812d 2ebe f18b febc 9ff1 a63e
000002e0: d663 d1bc 3ad9 89ba d831 20be bf41 3a3d
000002f0: eeb0 463d 01bc 0bbe 616d 7fbd 9f6f e8bd
00000300: fc69 8c3e 2b16 823c 2e85 173e 3e52 51bd
00000310: 9f04 153d 9d98 07bd ab96 c03d f662 d93d
00000320: 641d 58be 125e c9bd 7e5e 6dbd 265c 31be
00000330: 0d13 36be 5d62 f3bd 29de d93c 3cd9 0cbe
00000340: 54df ad3d 26e6 38bd 3145 cbbd e9a3 85bd
00000350: 24f1 bb3c 9b92 0c3e 1882 af3d 6f9c 08be
00000360: 6cc0 60bd 033c e83d de19 eebd 5d46 703e
00000370: 9890 23be 550f 4dbe 26d3 00be c5fa 40bc
00000380: dd08 40be 85e6 82bd db66 973d bddd 15bd
00000390: 32cd 3c3d 7800 03bd 1889 27be a86c 2d3b
000003a0: 94c5 39bc b0d9 33be 611a d3bd 8a93 73be
000003b0: e535 cf3c bb18 6dbe 9091 2cbe c01e 07bd
000003c0: f3de f9bc b20c 31be b630 9b3d f3c7 083d
000003d0: e658 3e3e ab05 96be ddee 82bd 43e4 7b3e
000003e0: 8065 793c a0b9 b8bd 28f6 43be 8abf 91bd
000003f0: 22b2 c5bd 4d88 63be 35b0 a7bc 7c4f 87bd

bias_ih_l1 f4 [192]
0.1462065 0.123207234 0.17315273 0.0053191185 0.034559954 0.03879329 0.15524082 -0.19463511
-0.08052654 0.103749365 0.045218654 -0.0071041025 0.08949534 -0.01247412 0.06425524 -0.0792892
0.08600829 0.18731113 -0.013231685 0.05152168 0.15959793 0.11145988 -0.017056441 -0.037630692
0.13780133 -0.05389784 0.0034403878 0.054698717 0.17692041 -0.11681265 0.08086611 0.07554719
0.16993429 -0.04354555 -0.062173195 0.1661029 0.054711133 -0.06729708 -0.08233945 0.015853895
0.07242482 0.14481054 0.053414714 0.06060532 -0.13665606 0.055627152 0.0031394833 0.14882025
-0.0030910242 -0.005903099 -0.003686993 -0.13904154 0.06587657 0.10565314 -0.058691412 -0.1100689
0.15849562 0.020627834 -0.22853252 -0.08158183 0.10401334 -0.05913618 0.0113155935 0.39439106
0.05865364 0.16779497 0.24371195 0.13169888 0.041667104 -0.09162581 -0.009100781 0.10976779
0.18294896 -0.2862902 -0.038190972 -0.11738785 0.10421035 -0.005530912 0.1576103 0.098490156
0.034327015 0.13419887 0.18647574 0.041651458 0.11614486 0.11894967 -0.07622638 0.09198354
0.043486055 -0.11965072 -0.071281 0.38043645 -0.060356814 -0.012240307 0.06134347 0.11900219
0.15052441 0.10100251 0.06427761 0.30442795 0.22586213 -0.19133241 -0.058307312 0.30710292
-0.08857682 -0.04410832 -0.044807818 -0.04393974 0.13240553 0.1433163 -0.008437563 0.09064229
0.22138172 -0.2692006 0.0138655035 -0.0074704187 0.22587758 0.29252604 0.16429895 0.07591235
0.19528663 -0.04030421 0.28906903 0.056419715 -0.122568145 0.083674036 0.11326806 -0.12504733
-0.11867128 0.10880781 0.074694976 0.018434184 0.032190867 -0.10679521 -0.1512111 -0.08097797
-0.0806659 -0.13682613 0.045005463 -0.060366888 -0.025040025 0.097795404 0.1404098 -0.022031214
0.20991628 -0.095369816 0.022151016 0.054083247 -0.033850327 0.16411935 0.16796026 0.0585555
-0.19119155 0.043388676 0.04742827 -0.034228172 0.15916826 0.009793267 0.026425341 0.045554023
-0.044089478 0.026106017 0.089587435 -0.14783935 0.05669274 -0.047077894 0.030009294 0.10503233
0.11469719 -0.12119113 -0.009011458 0.032182228 0.0065601175 -0.100269146 -0.061325386 0.054860275
0.15601566 0.0296403 -0.062709 0.09646133 0.10772386 -0.14708978 -0.06988816 0.08058521
-0.09141358 0.009769513 -0.083274424 0.105716564 -0.026169538 -0.16201296 -0.103653125 -0.24425213
00000000: 28b7 153e 1354 fc3d f34e 313e 004c ae3b
00000010: bd8e 0d3d b6e5 1e3d 73f7 1e3e 6d4e 47be
00000020: 19eb a4bd 8c7a d43d 3237 393d 88c9 e8bb
00000030: 5549 b73d 4060 4cbc 4098 833d 6062 a2bd
00000040: 1d25 b03d 7dce 3f3e b6c9 58bc 6608 533d
00000050: a46d 233e 1445 e43d f3b9 8bbc a422 1abd
00000060: cb1b 0d3e fbc3 5cbd 2178 613b c30b 603d
00000070: a02a 353e 783b efbd 229d a53d 7cb8 9a3d
00000080: 4103 2e3e d25c 32bd 52a9 7ebd e116 2a3e
00000090: c818 603d 0dd3 89bd 96a1 a8bd 07e0 813c
000000a0: 7753 943d 3749 143e 63c9 5a3d 493d 783d
000000b0: 91ef 0bbe 4cd9 633d cabf 4d3b 5664 183e
000000c0: c892 4abb c96e c1bb 7aa1 71bb e860 0ebe
000000d0: 4cea 863d ac60 d83d 6866 70bd ce6b e1bd
000000e0: ad4c 223e b4fb a83c 6e04 6abe 6014 a7bd
000000f0: f204 d53d c738 72bd 0a65 393c a0ed c93e
00000100: cd3e 703d 72d2 2b3e a08f 793e 12dc 063e
00000110: 20ab 2a3d 50a6 bbbd 711b 15bc efcd e03d
00000120: f956 3b3e a194 92be 236e 1cbd 0b69 f0bd
00000130: 3c6c d53d a73c b5bb 9864 213e 35b5 c93d
00000140: 7c9a 0c3d 6e6b 093e 7ff3 3e3e b89a 2a3d
00000150: 5bdd ed3d e29b f33d 941c 9cbd de61 bc3d
00000160: 6f1e 323d 700b f5bd c6fb 91bd 91c8 c23e
00000170: b538 77bd 928b 48bc 4a43 7b3d 6cb7 f33d
00000180: 1223 1a3e 67da ce3d fba3 833d fbdd 9b3e
00000190: 6748 673e a5ec 43be a6d3 6ebd 983c 9d3e
000001a0: c467 b5bd edaa 34bd 6788 37bd 28fa 33bd
000001b0: 5195 073e 82c1 123e b43d 0abc aaa2 b93d
000001c0: e4b1 623e a9d4 89be 232c 633c 6aca f4bb
000001d0: 744c 673e f9c5 953e fc3d 283e ef77 9b3d
000001e0: 38f9 473e 0716 25bd db00 943e 5c18 673d
000001f0: 0205 fbbd 4b5d ab3d 16f9 e73d 680c 00be
00000200: ee09 f3bd a1d6 de3d aef9 983d 4903 973c
00000210: 92da 033d 72b7 dabd 15d7 1abe c7d7 a5bd
00000220: 2a34 a5bd 261c 0cbe a657 383d 4543 77bd
00000230: bd20 cdbc f548 c83d 96c7 0f3e ce7a b4bc
00000240: 4bf4 563e 4051 c3bd 0c76 b53c 6586 5d3d
00000250: a4a6 0abd e70e 283e c6fd 2b3e e4d7 6f3d
00000260: b8c7 43be 53b8 313d 2544 423d d732 0cbd
00000270: 01fd 223e f073 203c f579 d83c db96 3a3d
00000280: 2b97 34bd 49dc d53c 9e79 b73d 3363 17be
00000290: a636 683d c0d4 40bd 0dd6 f53c 311b d73d
000002a0: 5ce6 ea3d 0e33 f8bd cba4 13bc 83d1 033d
000002b0: 41f6 d63b e959 cdbd 5430 7bbd 2bb5 603d
000002c0: 92c2 1f3e 37d0 f23c 946d 80bd 858d c53d
000002d0: 549e dc3d b49e 16be 8621 8fbd dc09 a53d
000002e0: 0b37 bbbd 4f10 203c c88b aabd ed81 d83d
000002f0: 8061 d6bc bae6 25be 1748 d4bd 3b1d 7abe

bias_hh_l1 f4 [192]
0.010924563 0.031632967 0.013953094 0.035836805 0.13173991 -0.015835715 0.091498636 -0.010029011
0.07865353 -0.061574068 0.0051525193 -0.076089345 0.16225788 0.1422116 -0.022436284 0.07828023
0.08115791 0.1441101 -0.13207789 0.080074094 0.07416564 0.08511612 -0.031792358 0.005111707
0.012579365 -0.014025829 -0.11100742 -0.018266369 0.16782168 -0.01312774 0.08672416 0.21388885
0.20576888 -0.017455596 0.0803156 0.1670767 -0.1623393 -0.07191047 0.013406812 0.07137228
0.067700356 -0.08094953 0.03907942 -0.0236535 0.08305205 0.16103774 0.13650253 0.02685752
-0.0064596087 -0.0048831836 0.13137057 -0.23143803 0.003331121 0.028801018 -0.034719475 0.031733174
0.16807097 -0.04964003 -0.21111962 -0.02183921 0.028892735 0.0156225525 -0.1203743 0.5234404
-0.04621744 0.21103708 0.11375157 0.2830829 0.07856895 -0.06894497 0.04261197 0.27372822
0.10164392 -0.17412776 -0.051078163 0.029302053 0.2846154 0.054488216 0.10472362 -0.0675703
0.017761081 0.081651345 -0.03848718 0.1464995 -0.095098674 0.14952606 0.078758225 0.10400529
-0.02976803 0.05896367 -0.14359675 0.3585096 -0.015300118 -0.062363707 0.061307147 0.16078702
0.09621798 0.08578649 0.10406662 0.06961653 0.1589411 -0.1592935 -0.11633188 0.20591302
-0.07569363 -0.020215813 -0.027001483 -0.048650555 0.074868545 0.10606719 0.109046265 0.03061225
0.2035632 -0.31624514 -0.09279234 -0.1367783 0.28924057 0.2638427 0.14743021 0.18668845
0.41641882 0.0031280708 0.06699341 0.05610232 -0.045579247 0.08281584 0.134034 0.011225354
0.049651995 0.084003344 -0.09337253 -0.10667475 0.16839853 0.063190855 0.035113554 -0.015936852
-0.29332852 -0.35744542 0.1909357 0.12003702 0.15954775 0.1913305 0.011326595 -0.11839623
0.10154723 -0.22403179 0.09751798 -0.08248602 0.106874876 0.035176042 0.05988101 0.12038376
-0.068396024 -0.2037521 0.05378257 0.06661575 0.23524767 0.08070331 -0.076178364 0.012727291
-0.033388916 -0.03575473 0.17515735 -0.106275454 -0.16973798 0.07669431 0.12842543 0.027837021
0.03710248 -0.21461318 -0.046289302 0.032698177 0.03927019 -0.14479084 -0.07014299 -0.002976502
0.066477105 -0.11400543 0.056390576 0.10082192 0.025078885 -0.06662054 -0.08714501 -0.002592864
0.017689424 0.1692129 -0.028679322 -0.037744228 0.14951944 0.01726431 0.027749386 -0.21078008
00000000: f0fc 323c 9291 013d 859b 643c 9dc9 123d
00000010: d4e6 063e e7b9 81bc a363 bb3d b950 24bc
00000020: 1a15 a13d 1735 7cbd 77d6 a83b bbd4 9bbd
00000030: ee26 263e eb9f 113e 4ccc b7bc 6351 a03d
00000040: 1e36 a63d 9991 133e 6d3f 07be e3fd a33d
00000050: 28e4 973d 5c51 ae3d b438 02bd 1b80 a73b
00000060: ae19 4e3c 97cc 65bc dc57 e3bd 5aa3 95bc
00000070: 72d9 2b3e bb15 57bc 709c b13d ae05 5b3e
00000080: 14b5 523e 0aff 8ebc 817c a43d 2816 2b3e
00000090: 463c 26be cc45 93bd 3fa8 5b3c a12b 923d
000000a0: 7ca6 8a3d dec8 a5bd be11 203d fcc4 c1bc
000000b0: 3117 aa3d 14e7 243e 52c7 0b3e 4d04 dc3c
000000c0: 20ab d3bb 1d03 a0bb 0286 063e 17fe 6cbe
000000d0: f04e 5a3b 1df0 eb3c 0236 0ebd a5fa 013d
000000e0: cc1a 2c3e 5853 4bbd be2f 58be 25e8 b2bc
000000f0: 75b0 ec3c bcf5 7f3c cd86 f6bd 3100 063f
00000100: 804e 3dbd 1b1a 583e 95f6 e83d 3ef0 903e
00000110: c2e8 a03d 0533 8dbd e489 2e3d 1b26 8c3e
00000120: b02a d03d 8c4e 32be 5637 51bd dc0a f03c
00000130: 1cb9 913e 092f 5f3d 5679 d63d 4c62 8abd
00000140: b07f 913c d238 a73d bca4 1dbd f703 163e
00000150: 18c3 c2bd 5c1d 193e fe4b a13d ba00 d53d
00000160: 15dc f3bc e483 713d 070b 13be 928e b73e
00000170: 59ad 7abc 1671 7fbd 341d 7b3d 5aa5 243e
00000180: ef0d c53d d4b0 af3d e120 d53d 1c93 8e3d
00000190: 75c1 223e d61d 23be 693f eebd ddda 523e
000001a0: 4305 9bbd a29b a5bc 3732 ddbc ce45 47bd
000001b0: ae54 993d c139 d93d a653 df3d 8bc6 fa3c
000001c0: df72 503e e2ea a1be e909 bebd 9c0f 0cbe
000001d0: 5717 943e 6416 873e f2f7 163e 422b 3f3e
000001e0: d934 d53e 5200 4d3b d733 893d 8ccb 653d
000001f0: 4eb1 3abd 5a9b a93d 3540 093e 8cea 373c
00000200: e45f 4b3d f209 ac3d 193a bfbd 4b78 dabd
00000210: aa70 2c3e 356a 813d 3bd3 0f3d 008e 82bc
00000220: 282f 96be 1603 b7be a684 433e f8d5 f53d
00000230: 7c60 233e 25ec 433e 2f93 393c b979 f2bd
00000240: fef7 cf3d 9768 65be 82b7 c73d 6eee a8bd
00000250: 37e1 da3d c114 103d ca45 753d c38b f63d
00000260: 3713 8cbd 64a4 50be 1d4b 5c3d d76d 883d
00000270: c4e4 703e c747 a53d 6703 9cbd 2186 503c
00000280: d1c2 08bd 8d73 12bd 735c 333e f2a6 d9bd
00000290: cbcf 2dbe e811 9d3d f581 033e 770a e43c
000002a0: c5f8 173d 8fc3 5bbe da99 3dbd 86ee 053d
000002b0: c7d9 203d 0d44 14be 21a7 8fbd 6b11 43bb
000002c0: 2625 883d ae7b e9bd cef9 663d b97b ce3d
000002d0: 3c72 cd3c 5a70 88bd 1579 b2bd 0aed 29bb
000002e0: 69e9 903c 2546 2d3e e6f0 eabc b199 1abd
000002f0: a01b 193e e26d 8d3c ae52 e33c bcd6 57be

weight f4 [5, 64]
0.040106587 0.22426617 0.35795614 -0.15188597 0.09779482 -0.094305515 -0.17811084 0.053188685
-0.20355417 -0.09826559 0.056043908 -0.022429198 -0.13637127 -0.050185964 0.38152733 -0.28825048
0.070772514 -0.05698014 0.3678864 -0.2161574 0.075760506 0.121833555 0.16114964 0.21955612
-0.23065759 0.025305068 0.27137375 0.25409696 -0.00600722 0.11914092 0.027448092 0.24160269
-0.28020775 0.007920589 0.10087167 -0.11539058 0.08537886 0.020196218 0.016653508 -0.006213034
0.35161403 -0.09923187 -0.15909126 -0.1215465 0.09468381 -0.23370288 -0.22454007 -0.13663937
-0.030917501 -0.2287502 -0.18589586 0.11471511 0.15054789 -0.051507298 -0.41372845 0.29924047
-0.20788856 0.19540022 -0.24154535 -0.36080396 0.37996215 -0.18412317 -0.22710046 0.019417351
-0.10995875 0.2732854 0.01404863 0.04365745 0.18344249 -0.3024022 -0.16870028 -0.33319154
0.050006915 -0.12783566 -0.25287214 0.3419905 -0.33086473 0.09690346 -0.21126705 0.29855013
0.28039768 -0.19699675 0.022428636 0.22041085 -0.059019893 0.004230352 0.19133659 -0.3201128
0.11838179 0.012545368 -0.7302163 -0.02932826 0.117055304 -0.009524598 -0.4352825 0.10646209
0.09712512 0.09043949 0.19457678 -0.1489265 -0.2170047 0.2681237 0.2924902 -0.16388579
0.21155155 -0.11762218 0.022692638 0.29571292 -0.17484531 0.049065884 0.065500796 -0.06291228
-0.0029592654 0.22310387 -0.30239472 0.039630916 0.29671848 0.11157143 0.65015715 -0.33726332
-0.34622526 0.06769536 0.3425812 -0.052632414 -0.17600077 0.052862596 0.17997009 -0.0015955552
-0.5201495 0.01800769 0.10042606 0.045929126 -0.21655044 0.2693664 0.038990412 -0.03371704
0.29834753 -0.037974305 0.13962427 0.12565605 0.656411 -0.14401302 0.20652148 0.18452534
0.08087544 0.13947986 0.0385821 0.17835681 0.1878468 -0.2438301 0.1132474 -0.25921768
0.03967111 -0.041827668 -0.08523574 -0.5705704 0.10042556 0.13448049 0.22284727 -0.6201147
0.43322998 0.37052128 -0.075858474 -0.045131736 -0.073670425 0.4584562 0.03395215 0.3211359
-0.015990173 0.33047125 -0.26276532 -0.18783571 -0.057631046 -0.15184137 0.2632954 0.16019392
-0.06756316 0.3911312 0.2088951 0.00755289 -0.29535827 0.19673662 -0.06488225 -0.18873097
-0.019542089 0.044913422 -0.303694 0.36972943 -0.29182515 0.46561065 -0.13876379 0.024564616
-0.014382497 -0.45000762 -0.32895517 0.05694785 0.15290628 -0.14801425 0.16852802 0.22378819
0.40707937 0.30873188 0.101692066 -0.10277892 0.028428482 0.36022198 -0.36916724 -0.13955912
-0.47600663 -0.066689625 -0.5991415 0.1320403 -0.21683808 0.16910712 -0.061360244 0.1531443
0.1583231 0.2875064 -0.022742782 -0.07315178 0.26232287 -0.2614509 0.3777578 -0.100606345
0.003389579 0.0002889238 -0.09485598 0.08160707 0.15284769 -0.34364498 0.09296828 0.23381005
-0.32780403 0.012591165 -0.048678607 -0.1569891 0.36017793 0.060739927 0.0497095 0.10631161
0.21513928 -0.050158132 0.13762982 -0.5222956 -0.14504942 0.2293442 -0.123678945 -0.22609952
0.36065236 -0.27831206 -0.12385533 0.35207832 0.0145104155 -0.16533805 0.017267404 0.13870388
00000000: ce46 243d 08a6 653e 0746 b73e ff87 1bbe
00000010: a748 c83d 4023 c1bd b062 36be 61dc 593d
00000020: 8170 50be 783f c9bd 4c8e 653d 70bd b7bc
00000030: e9a4 0bbe cc8f 4dbd 8d57 c33e 9195 93be
00000040: 2ef1 903d 0264 69bd 9b5b bc3e 5e58 5dbe
00000050: 5328 9b3d df83 f93d 6904 253e 52d3 603e
00000060: 8131 6cbe 934c cf3c 80f1 8a3e ff18 823e
00000070: 37d8 c4bb 2800 f43d d2da e03c b266 773e
00000080: 6477 8fbe 5cc5 013c ce95 ce3d e551 ecbd
00000090: 1ddb ae3d 8a72 a53c f06c 883c b596 cbbb
000000a0: c106 b43e 143a cbbd d2e8 22be 5fed f8bd
000000b0: 96e9 c13d cf4f 6fbe d5ed 65be 31eb 0bbe
000000c0: b346 fdbc 7e3d 6abe 7c5b 3ebe c1ef ea3d
000000d0: 3a29 1a3e 51f9 52bd 37d4 d3be 0c36 993e
000000e0: bde0 54be ff16 483e aa57 77be 4cbb b8be
000000f0: 668a c23e c98a 3cbe 068d 68be 2311 9f3c
00000100: 0e32 e1bd 10ec 8b3e 3a2c 663c 27d2 323d
00000110: 59d8 3b3e 76d4 9abe c4bf 2cbe 1598 aabe
00000120: 0dd4 4c3d 5ae7 02be 7578 81be 6119 af3e
00000130: 1a67 a9be 5275 c63d 6456 58be 90db 983e
00000140: 4990 8f3e 84b9 49be 42bc b73c 62b3 613e
00000150: d8be 71bd c49e 8a3b bded 433e d3e5 a3be
00000160: 2772 f23d 168b 4d3c 75ef 3abf d241 f0bc
00000170: b1ba ef3d 0f0d 1cbc 59dd debe cc08 da3d
00000180: 89e9 c63d 5738 b93d 233f 473e 3080 18be
00000190: 7b36 5ebe 8247 893e 47c1 953e add1 27be
000001a0: f8a0 583e e6e3 f0bd e9e5 b93c af67 973e
000001b0: a60a 33be 4ff9 483d 4825 863d 27d8 80bd
000001c0: 3cf0 41bb 5775 643e 7bd3 9abe 0754 223d
000001d0: 7ceb 973e 907f e43d b370 263f c7ad acbe
000001e0: 7044 b1be dda3 8a3d ce66 af3e 1695 57bd
000001f0: 8c39 34be 7386 583d 144a 383e f321 d1ba
00000200: 8528 05bf dd84 933c 2eac cd3d 2e20 3c3d
00000210: 66bf 5dbe 65ea 893e 69b4 1f3d e11a 0abd
00000220: 02c1 983e f28a 1bbd aaf9 0e3e fbab 003e
00000230: 8d0a 283f 2678 13be 5e7a 533e 36f4 3c3e
00000240: 06a2 a53d cfd3 0e3e 4408 1e3d 2ba3 363e
00000250: e95a 403e 99ae 79be 41ee e73d 2eb8 84be
00000260: 2d7e 223d 7d53 2bbd 1390 aebd e710 12bf
00000270: eaab cd3d 41b5 093e 1332 643e d6bf 1ebf
00000280: 52d0 dd3e f7b4 bd3e b05b 9bbd 0edc 38bd
00000290: 85e0 96bd c5ba ea3e 6911 0b3d ed6b a43e
000002a0: d3fd 82bc 8733 a93e 2d89 86be 0158 40be
000002b0: 880e 6cbd 4e7c 1bbe a8ce 863e e009 243e
000002c0: 8e5e 8abd 5942 c83e 99e8 553e 3c7e f73b
000002d0: 3339 97be 5375 493e fce0 84bd b142 41be
000002e0: bb16 a0bc 23f7 373d c87d 9bbe 2d4d bd3e
000002f0: 1b6a 95be 8564 ee3e 1818 0ebe bc3b c93c
00000300: 91a4 6bbc 6667 e6be d06c a8be 2642 693d
00000310: 7793 1c3e 0c91 17be 9c92 2c3e bb28 653e
00000320: b56c d03e 1b12 9e3e ee43 d03d c17d d2bd
00000330: d9e2 e83c 046f b83e 7d03 bdbe 96e8 0ebe
00000340: 24b7 f3be 9294 88bd 5661 19bf 9335 073e
00000350: cd0a 5ebe 6b2a 2d3e e154 7bbd dcd1 1c3e
00000360: 731f 223e 0a34 933e 124f babc 9ad0 95bd
00000370: 2f4f 863e e4dc 85be 7869 c13e b30a cebd
00000380: b323 5e3b b27a 9739 da43 c2bd 9c21 a73d
00000390: 1b84 1c3e 3cf2 afbe 2766 be3d e76b 6f3e
000003a0: eed5 a7be 2c4b 4e3c 3863 47bd c0c1 20be
000003b0: 3e69 b83e 6eca 783d 309c 4b3d e7b9 d93d
000003c0: 794d 5c3e 9d72 4dbd d5ee 0c3e 2ab5 05bf
000003d0: d687 14be 35d9 6a3e 634b fdbd a286 67be
000003e0: 6da7 b83e eb7e 8ebe dda7 fdbd 9c43 b43e
000003f0: 18bd 6d3c 614e 29be 5f74 8d3c 6408 0e3e

bias f4 [5]
-0.0023083254 0.1297003 0.026104989 0.027485296 -0.03312559
00000000: 4647 17bb 28d0 043e 21da d53c d828 e13c
00000010: b3ae 07bd
