lab5/models/model_2.pth (torch, 545825 bytes, 10 tensors)

weight_ih_l0 f4 [512, 1]
00000000: dc61 a73d f429 ca3d 0be5 79bd 1799 033e
00000010: 6c52 093e 77e1 fabb 70d9 93bd c3ca 063d
00000020: 7912 cabd 3596 d63c ddc1 a43d ce54 703d
00000030: f9f3 163d 0912 5fbd 086a e4bd b921 7fbc
00000040: 6aa2 90bd 341a cebd 0586 5cbd 32f3 3dbd
00000050: bbbd d9bd 51fb 203d e8a0 b8bc 9fb5 e7bd
00000060: 0700 413d 650f 8b3c b51d 933d 2fe3 37bd
00000070: 25fa 6dbd 0d64 80bd fb9b 8f3d 0ee1 32bd
00000080: b555 e43c 29b9 233e 8b1a f93c 73df 283d
00000090: e6ba c53d 83ab 3fbd 71e2 c43c afa4 4abc
000000a0: ae70 933d 5448 49bd aaf8 953d 0c2d 91bd
000000b0: 71d9 e43c fac3 86bd 858c c93b c368 a1bc
000000c0: e762 1d3d 4e5f 96bd f6e8 33bc d624 afbd
000000d0: 85fc 743b 7b81 b3bc 784d bf3d 27a4 1c3b
000000e0: bbd7 e23c 583c e1bb 0cab e13d c4cd 833c
000000f0: 9d94 b33d e1cf 563d 5fd0 19bd 54c5 a03c
00000100: 661f 75bd a18d 233c 6e00 1f3d 236a db3d
00000110: cf95 8fbd cda7 883e 634c dfbd 8f68 a23d
00000120: b9ab db3d e180 36bd 62f6 ed3d 5043 ff3c
00000130: e68b 3abd 395f 033d 11e1 2939 47b9 15be
00000140: 5c7a 883d 31c5 3fbd 7fab e6bd e2a0 8d3d
00000150: 3a11 4fbd d5a3 8b3d 8d28 04be a1f4 b2bd
00000160: 4105 813d a7d0 c637 5b05 893d 286e 5dbd
00000170: bdae 843d a26b 77bd 7deb 97bd e5e8 433d
00000180: a8e4 cd3d 0227 e43d 7c0c f83d 0435 f4bc
00000190: 4c8c 843c 32dd 953d 2198 353d ac5f 4a3d
000001a0: 8fc1 24bd 93be 52bd 9957 02bd b11d 35bd
000001b0: cfe4 49bd 21b5 17bd bcb3 9a3d d9b3 0fbd
000001c0: 7591 be3c b216 33bc 46a0 cf3d 2208 a53d
000001d0: e900 da3c 1749 9a3d b5fe a23e aaa4 f53c
000001e0: f57a a23c 6bee 9cbd 4223 993d 2677 723d
000001f0: d864 7c3c 6864 053c 5b12 0e3c d2a5 0c3d
00000200: ce63 583d eb42 e83c 04e7 b2bd ce18 be3a
00000210: a604 18bc 8495 45bd f58e 733d 4db2 0338
00000220: 2d8f 303c c586 71bd a1da e63b 8f2e 933d
00000230: 12b5 0d3a ea4f a9ba 4020 e03d 7ab3 89bd
00000240: b02f 083c af9b bc3d 6c18 a5bb ebd3 aabd
00000250: d0f8 bfbc 9e5d 7d3c 532c efbb ac39 15be
00000260: b438 58bc 2df3 023e 4c6e ccbb b133 52bd
00000270: 2b31 2fbd 2259 e73d 40d6 223d be3b deba
00000280: 065e 18bc 6c59 11bd fcb8 8fbc df14 05bd
00000290: 4d47 ecbc 8bdd cc3d 6c85 10bd 8024 bd3d
000002a0: 4bf7 0ebd e84d 6b3d ab07 bb3d 7a55 91bd
000002b0: 5639 623c 48fe 51bb 61bb 8d3d 2353 c23c
000002c0: 36ab 4bbc 9968 453d cdb1 19bd 45a1 30bb
000002d0: 2d9b ba3d 9802 a63d 002e 7d3d 15e8 083d
000002e0: b36f fabd 9225 a93d ec8e 9c3d f695 d23c
000002f0: 2aed e53c c48f fdbd f5da 9a3d 5710 5d3c
00000300: 243c a3bc 6282 0c3d 0bcf 85bb e855 7a3d
00000310: b6cd de3d f7db 75bb c1d7 e33d 5ef4 1ebc
00000320: 3e75 5e3b 1929 18bd a4df 053d 1a05 69bd
00000330: 874c 0cbc a151 2e3d ea1f 3bbd b866 a53d
00000340: 0dfc cb3c 7a2a 6d3d 9124 4a3d 9ca0 d8bd
00000350: 7b99 843c 7b6d 49bc 0653 86bd 855c cc3d
00000360: a665 a7bc 322b a53d baa3 e03d 8d06 113e
00000370: 3f45 76bc 4a3a 173d 1503 bd3c 8d52 71bc
00000380: 9fd4 693d f3d2 133c a9d4 263d fd57 72bd
00000390: 53fd ad3d 12b4 483b b188 1c3d e4cb 513c
000003a0: ed59 d33d 2fdb c23d e724 bf3c 9366 f03d
000003b0: aca6 43bc 9ebc 923d 8fb5 89bd 2cab ad3d
000003c0: db10 0a3e a548 053d 9df3 52bc e89a 18bd
000003d0: 0cbf e53c a3f5 5d3d 9ddb 4abd 1574 4ebd
000003e0: 8fbd 06bd ca93 4ebd 0948 7abb b45c 17bd
000003f0: 7971 abbd b438 f6bc 5c5d a63d 11bc ffbd
0.08172962 0.09871283 -0.061009448 0.12851368 0.13410348 -0.007656272 -0.07219207 0.032908212
-0.09866805 0.026194671 0.08044789 0.058674626 0.036853764 -0.05446056 -0.11153036 -0.015572005
-0.07062228 -0.100635916 -0.05383875 -0.046374507 -0.10631891 0.039302174 -0.022537664 -0.11313938
0.047119167 0.016975114 0.071834005 -0.044894394 -0.058099885 -0.06269083 0.07012173 -0.04367166
0.0278729 0.15988602 0.030408164 0.041228723 0.09654789 -0.046794426 0.024033757 -0.012368365
0.07199226 -0.049141243 0.073228195 -0.0708867 0.027935715 -0.06580348 0.0061507844 -0.019703275
0.0384244 -0.07342397 -0.010980835 -0.08551948 0.0037381959 -0.021912327 0.09340948 0.0023901553
0.027690759 -0.0068736486 0.11018953 0.016089328 0.0876858 0.052444343 -0.037552234 0.019625343
-0.059844397 0.009982497 0.03881877 0.10713603 -0.070109956 0.26690522 -0.109032415 0.07930099
0.10726113 -0.044556502 0.116192594 0.031160027 -0.045543574 0.032073233 0.0001620094 -0.14621459
0.06663963 -0.046818916 -0.11263179 0.069154516 -0.050553538 0.06818358 -0.12906094 -0.087380655
0.0629983 2.37006e-05 0.066904746 -0.05406013 0.06478641 -0.06040538 -0.07417963 0.047829527
0.10053378 0.11140253 0.12111756 -0.029810436 0.01618018 0.0731758 0.044334535 0.049407646
-0.040223654 -0.051451277 -0.03182182 -0.04421777 -0.049290475 -0.037037972 0.07553813 -0.035083625
0.023262719 -0.010930704 0.101379916 0.08058192 0.026611762 0.07533472 0.3183495 0.029985745
0.019834021 -0.07662662 0.07477428 0.05919566 0.015404902 0.0081416145 0.0086713685 0.034337826
0.052829556 0.028352221 -0.08735469 0.0014503242 -0.009278452 -0.048238292 0.059462506 3.139889e-05
0.010776323 -0.058966417 0.0070451056 0.07186615 0.0005405705 -0.0012917493 0.10943651 -0.067236856
0.008312151 0.09209382 -0.0050383117 -0.083412014 -0.023434073 0.015464215 -0.007298985 -0.14572781
-0.013197113 0.12788077 -0.0062387343 -0.051318828 -0.0427715 0.112962976 0.039755106 -0.001695506
-0.009299761 -0.03548567 -0.017544262 -0.032490607 -0.028842593 0.100031935 -0.03528349 0.092354774
-0.034903806 0.057447344 0.09132322 -0.070963815 0.013807615 -0.0032042433 0.06920505 0.023721283
-0.012430957 0.048195455 -0.03752308 -0.0026951593 0.09111629 0.081059635 0.061811447 0.033424456
-0.12228336 0.08259119 0.07644448 0.025706273 0.02806719 -0.12380937 0.07561294 0.013492665
-0.019926138 0.03430403 -0.0040835193 0.061117083 0.1087908 -0.0037515142 0.11125136 -0.009701816
0.0033944394 -0.03714857 0.032683983 -0.05688963 -0.008563167 0.042558316 -0.045684732 0.08076233
0.02490046 0.057901837 0.04935128 -0.10577509 0.016186466 -0.012294169 -0.06558804 0.09978584
-0.020434212 0.080648795 0.10968728 0.14162655 -0.015031158 0.036920823 0.023072759 -0.014729154
0.057087537 0.009022462 0.040730152 -0.059165943 0.084955834 0.0030624908 0.038216297 0.012804959
0.10319886 0.09514462 0.023333026 0.117383145 -0.011941593 0.07164882 -0.06724083 0.08479914
0.13482992 0.032539982 -0.012875465 -0.037257105 0.0280452 0.054189336 -0.049525846 -0.050403673
-0.03289562 -0.05043391 -0.003818991 -0.036953643 -0.083712526 -0.030056335 0.08123276 -0.12487043

weight_hh_l0 f4 [512, 128]
00000000: 0fde 8b3b f99d 153b 292f 8a3b 7f0f e539
00000010: 58f4 e23c 8f77 61bd c53d 1cbd 32dd 18be
00000020: a5d7 b53d 3076 a83c a4bf 1cbe 7bc8 a1bd
00000030: 8192 adbd c69f 31bd f7e2 b1bd b872 4e3d
00000040: 94e9 62bd 762a 0c3d 587a 293e 451b fc3d
00000050: 03d0 6a3d ab3c 5ebd c7c4 edb8 5f6c 413c
00000060: 0aa9 6cba f9e0 a6bd 83b6 f8bc ffa2 9e3c
00000070: 795c 25bd 140a e9bd fd5a f0bd 1ff4 e3bd
00000080: 224a 55bc b437 003d e445 29bd 1913 0abd
00000090: a942 413d 2042 c83c f5e0 9fbd 31c0 e3bc
000000a0: 6d91 173e bb3f 033d 5517 a53d 1a11 05bb
000000b0: 5284 553d e4f6 a4bd 6319 a0bd 9e29 a83d
000000c0: f33a d0bd 2d69 f43d fea3 fb3d 9620 14be
000000d0: 095f dbbc f175 a9bd 88cf aabd efdf cebd
000000e0: 06a8 223e d7b7 6c3d 6416 14be 3738 0abe
000000f0: e09c 26bd c21e c13c 92e9 d7bc ae7c cb3c
00000100: b071 fe3c a6cb 19bd 296d 8cb9 383c ba3c
00000110: 5dc6 1abe 5699 96bb 149f 26bd 4c95 87bc
00000120: bedd 1cbe f52d 0e3c ed6b 383a 5367 383c
00000130: 4eb1 023c 9e12 103c 5c8a b9bc bcbd 5dbd
00000140: 963c bebd 7661 94bc dd90 79bd b0eb 30bd
00000150: 6ff6 e1bd c211 3bbd 3891 c5bd bcc5 523d
00000160: 7f85 37be d46b 3b3d 625a df3d 61cb 203c
00000170: 1c0c e53d d086 0f3d ebbb adbd ddf2 51bd
00000180: b00d 3b3d 1d64 19be 6a0a 32bd 0ff1 053e
00000190: cf42 d6bc 0394 913d 7475 1a3b 6c0d 08be
000001a0: 84f5 60bb 7bb3 ef3b d5ae de3c d0ed 78bd
000001b0: 0b9a dd3d cc06 b2bc 7282 6d3d fa99 8dbc
000001c0: 5f82 71bd 89cf 66bd b97c 00be d4f7 4bbe
000001d0: 49e5 163e 963d 5d3c f27f b03c 92f6 9d3c
000001e0: 3de2 dbbc f0eb 89bc 8edc 153d 2a34 e63c
000001f0: 1fe4 bc3d 48a9 62bd 1b68 b7bc eacb 873d
00000200: b2de 5c3d 9cbb 183d 3c1b f83d 3af5 cebd
00000210: 69db f83d f227 20bc a71e 00bd 30bd 73bb
00000220: 6071 913d 1595 983c e0ec e6bc 8391 653d
00000230: 8e23 45bd 0f15 403c f6cd d8bd 4c91 dabc
00000240: 41a6 323c 7d10 7c3d dda9 5f3d e39f 34bb
00000250: 1e7e 103e e462 90bd 56f5 1a3d d97a 93bd
00000260: f38e efbc a95c 8fbd 7e8d 983d e30e 373a
00000270: 0a55 a33d b703 8d3a 7601 08be 89a0 17bd
00000280: 3669 133e 118a 23bd 74a3 4dbd 4f28 913d
00000290: b32b a43d 46b6 203d f8c7 9bbd ef61 72bd
000002a0: ae18 b63c c912 00be c243 bcbc 7068 a13c
000002b0: 99b2 9f3b 5032 703d 8554 4cbd 4574 083e
000002c0: 324f 66bd f0ca aabd e15a c03c 8229 343c
000002d0: 86e1 ee3d ad04 3fbb 5e27 f7bd 15e7 fe3c
000002e0: dbcb be3d b172 b53d d9eb 093d 78a7 b53c
000002f0: 5e93 61bd f344 e23b ba6f 9abd 6a64 303d
00000300: dae7 423d 760b d93c 08e3 9ebd e858 8e3c
00000310: 9d67 cebd f20c bf3d ebde 18bd 8ebc be3b
00000320: ea48 12be 5654 9c3d 4dc3 633d 61c9 71bd
00000330: a68e f6bd 223c 25bd cef7 f63c 1720 423d
00000340: c27a 6cbd 6f4f 49bd 55c9 973d e11c e8bc
00000350: 9969 5dbc 98cc 9d3d 96c0 c0bd 78e7 c0bc
00000360: 6c4a 16bb 6593 083d b542 c43d d35f 973d
00000370: a697 9b3d 7b61 a13b 2f37 693d 528a 3d3d
00000380: 78bc 093d c32d 79bc 1b24 3a3d 01af 373d
00000390: 8364 69bd ffc6 003e 2d4a aa3d f3bd f33b
000003a0: 2971 3a3d 2f59 223b dcab 413b 8f11 a33d
000003b0: e6c4 81bd 9943 a2bc f0a7 c53d 7331 193e
000003c0: dffa 8fbd fe8e 57bb 4cd7 78bd 05b8 11bd
000003d0: f3e3 2c3d e028 f9bb 085a b2bc 5e15 8bbc
000003e0: ba81 7f3d 7e79 153e 6d11 06bd a772 a1bd
000003f0: d552 d73c d2b2 a3bd 86fd 763c b8d0 703d
0.004268415 0.0022829755 0.0042170477 0.0004368983 0.027704403 -0.05504566 -0.038144846 -0.1492813
0.088790216 0.020564169 -0.1530748 -0.07899567 -0.08475209 -0.043365262 -0.08685868 0.050402373
-0.05539854 0.03422018 0.16550577 0.12309889 0.05732728 -0.054257076 -0.00011337693 0.011805623
-0.00090278743 -0.08148379 -0.030360466 0.019364832 -0.040371392 -0.113788754 -0.11736105 -0.11130547
-0.013018163 0.031303123 -0.04132642 -0.03370962 0.047182713 0.024445593 -0.07806579 -0.027801605
0.1480157 0.0320432 0.08061091 -0.0020304383 0.052128144 -0.08054903 -0.07817342 0.08211063
-0.10167494 0.11934123 0.122871384 -0.14465556 -0.026778715 -0.08274449 -0.08340365 -0.10101306
0.15884408 0.05779251 -0.14461666 -0.13498007 -0.04067695 0.023574237 -0.026356492 0.024839725
0.03106007 -0.03754773 -0.00026784212 0.022733793 -0.15114732 -0.004595916 -0.040679052 -0.016550682
-0.15318963 0.008677949 0.0007035125 0.011255103 0.007976843 0.008793501 -0.022648983 -0.054136023
-0.092888996 -0.01811288 -0.060929168 -0.04319352 -0.110333316 -0.045671232 -0.09646839 0.051458105
-0.17922018 0.04575713 0.10905911 0.009814114 0.1118395 0.035040677 -0.08483108 -0.051257003
0.04566735 -0.14979596 -0.043466963 0.13080238 -0.026154904 0.07108309 0.0023568543 -0.1328637
-0.0034326026 0.007315097 0.027182976 -0.06077367 0.10820397 -0.021731757 0.05798573 -0.017285336
-0.058962222 -0.056350265 -0.12547578 -0.19918758 0.14735903 0.013503453 0.021545384 0.019282613
-0.026841277 -0.016836137 0.03658729 0.028101046 0.09223198 -0.05533722 -0.022388509 0.066306904
0.053923316 0.037288293 0.121145695 -0.10105367 0.12151224 -0.009775149 -0.031279232 -0.0037191622
0.07101703 0.018625775 -0.028189123 0.056046974 -0.04812961 0.011723771 -0.10586159 -0.026680611
0.010903896 0.061539162 0.054605354 -0.002756112 0.1411061 -0.07050112 0.037831627 -0.07201166
-0.029242968 -0.070000954 0.074488625 0.0006983114 0.07975204 0.0010758553 -0.13281807 -0.037018333
0.14395604 -0.039926592 -0.05020471 0.070877664 0.080161475 0.03923633 -0.076065004 -0.059175428
0.022228565 -0.12507166 -0.022981528 0.01970312 0.0048735854 0.05864173 -0.04988529 0.13325603
-0.05622787 -0.083394885 0.023480834 0.010996224 0.11664109 -0.0029147074 -0.120680556 0.031116048
0.09316226 0.08859766 0.033672187 0.022174582 -0.05507218 0.006905192 -0.075408414 0.043064512
0.047584392 0.026494723 -0.077581465 0.017376378 -0.100783564 0.09328641 -0.037321966 0.0058208173
-0.14285627 0.07633273 0.055606175 -0.05902994 -0.12038927 -0.04034055 0.03014746 0.047393885
-0.05773426 -0.04914802 0.07411448 -0.028334083 -0.013513946 0.07705039 -0.09411733 -0.023547873
-0.0022932542 0.03334369 0.09583036 0.07391324 0.07597284 0.0049249507 0.056937393 0.04627449
0.033627003 -0.015208664 0.04544459 0.04484463 -0.05698062 0.12575911 0.08314929 0.007438415
0.045518074 0.0024772396 0.00295519 0.079623334 -0.063363835 -0.019807624 0.09651172 0.1496027
-0.07030272 -0.0032891626 -0.060752198 -0.035575885 0.042209577 -0.0076037496 -0.021771446 -0.016977962
0.062379576 0.14597127 -0.032731462 -0.07883196 0.026284615 -0.07993092 0.015075093 0.0587928

bias_ih_l0 f4 [512]
00000000: a10d bd3d 07f7 1b3e c69a c83d 8933 b93c
00000010: 7d3d b4bc 6842 803d f419 d5bc e7a0 933d
00000020: 173d e6bb 841d c43d adf6 bd3d be30 cc3d
00000030: 5def c9bc 7746 e83d 8359 b5bd 9e9e 213c
00000040: 06eb 70bd 568c fb3c 6bc4 ff3d 2047 4cbd
00000050: a13e b9bc 7d52 d83d 5872 e13d 95d7 41b9
00000060: 22fc 9f3d aaeb bc3c d1dc 443d 2478 563d
00000070: 8995 a03d c4fc 3bbd 43ca a83d 4f5f 643d
00000080: 096f ff3d 145d bc3d fc1d 15bc 3a0f 9b3d
00000090: 1ba8 993c 9a4a acbc 7c58 1d3e a846 193d
000000a0: cd72 f43d 33e3 56ba 4b82 f83d 9ca7 743d
000000b0: 2a69 25ba 8469 f03d e954 f03c 30db ea3d
000000c0: 4bc7 0b3e cd8f 10bd 7ce1 d8bb 39ca 113e
000000d0: ac4a ff3b f48b 7e3b aa11 9d3d 8c90 9a3d
000000e0: dd70 b8bd 922b 9139 72fc af3b f2b6 103d
000000f0: f3fb 263e 2838 623d ee95 ff3b f512 bb3d
00000100: 0a45 8c3d f072 aebd 85c0 893d ec95 5cbc
00000110: d082 3a3d 978b 49bc 7f92 9a3c 02bd d53c
00000120: 158e dd3d 9967 713a d950 973d 6498 383c
00000130: 6b6e 32bd 5167 9f3c d5c2 693d c4ef 1fbd
00000140: 8ef9 3a3e e436 75bd 66b4 493d fa58 cebd
00000150: e7ed da3c 2a05 043e 60c5 4e3c 7a38 103d
00000160: 985e b33a d96d 81b9 9393 2b3e a22d 173d
00000170: bd1d ba3b 2bbd 91bd ae10 59bd 02e6 073e
00000180: 368f b53d cb77 4f3d 3f85 213b 99ea a23d
00000190: 88f5 f63d 8e66 ee3d 1a4f f93c 1c8d 413d
000001a0: 230b ca3b c30d 92bb 6fec ee3d 07eb 1c3d
000001b0: 1cfc b53c 5acc c73d 5d40 a13d 4a91 983d
000001c0: 114e 103e 44f5 b13d 54b9 8c3d 51e5 e23d
000001d0: 3ea4 2abd 2ab3 77ba 8383 a23d f533 aabd
000001e0: 887e 013e e41b 973d fe3c b23d acb1 053e
000001f0: 2ccd 193d 359c 003d 0510 0abd 17be 5c3d
00000200: de07 37bd 8998 6bbc bf65 4038 18ff cc3d
00000210: 06a2 dbbc ba2a 253c 952c d83b 01f8 593d
00000220: cde0 8d3c e791 4f3d be6a c33c aa5d 933d
00000230: fd26 c3bb 9ecd 0fbd b363 013b f196 653c
00000240: c422 4ebd 5e57 53bc b883 d93d 2c91 cf3b
00000250: 6b45 0c3e 7295 55bd 3571 6c3d 6040 7d3d
00000260: 2146 6c3c 77c5 dcbc 5335 c33d 4565 0b3d
00000270: d690 c43b 4269 e23c 7837 c63d a0dd 6ebb
00000280: c0cb b23d e614 5a3c 6fd4 653d a427 eabc
00000290: 9101 0c3c 8d57 4d3d 1e78 cf3d ef98 353d
000002a0: 294d 65bd 961b 44bd 1e3e cfbc 81ae b83d
000002b0: c47e 563d 1eae ee3b 497d 313d cb63 0f3c
000002c0: e75f 9cbc f614 27bd 313f 6a3d 625f 7f3c
000002d0: f579 b23d 2396 cdbd 80c0 823c f7a3 e63d
000002e0: e466 473d 7b29 7a3d be48 7fbc c595 1f3c
000002f0: 1908 8dbd 1d1e 583d 2c29 9bba d996 773d
00000300: db24 b53d 7378 723c 1164 093e 0eb0 373d
00000310: b845 c03d c800 983d b397 c93c e0c5 c73c
00000320: b101 02bd 8fae 8f3d 5365 bc3d ef38 31bd
00000330: fd91 cd3c ac83 23bd d4fa 02bd 7570 233c
00000340: b947 973d d6f5 1fbd 340d 91bd 51df 9bbd
00000350: 9199 2dbd 496a 95bd 70cd 73bc ce76 c53d
00000360: 1f72 a83c 62bf 7b3c 9c30 e53c 4edc a138
00000370: 0536 4e3d 147e 35bd 1ff3 483d 8da2 f0bb
00000380: 1168 e2b8 34d9 b33d f923 15bd d005 6d3d
00000390: 6ba3 a83d 144d ebbc 266d 3e3d 94ef 973d
000003a0: 6c9b 293d adc4 113d 3c56 503c e92a 933d
000003b0: 484a 2b3d 1496 033d 7f1e 953d 26dd 223e
000003c0: 855a d43d fc27 68bd 83d0 ec3d 172d 86bb
000003d0: e701 31bd 548a 51bc 2752 dbbc 2d02 5abd
000003e0: fbaf fc3b fd35 a83b 0c34 413d 49bb bb3d
000003f0: c6a4 db3c 64a3 483d 35c5 be3d 28c6 ac3d
0.09231115 0.15230952 0.09795146 0.022607582 -0.022001976 0.06262666 -0.026013352 0.07208424
-0.0070263254 0.09575942 0.09275565 0.09970234 -0.02465027 0.11341565 -0.08854964 0.009864477
-0.058817886 0.030706566 0.12488636 -0.049872518 -0.022612872 0.105626084 0.110081375 -0.00018486225
0.078117624 0.023061592 0.04806215 0.05236067 0.078410216 -0.045895353 0.08241703 0.055754956
0.1247235 0.09197441 -0.009101387 0.075712636 0.018756917 -0.021031667 0.15365785 0.0374209
0.11935959 -0.00081973075 0.121342264 0.059730157 -0.0006309921 0.117388755 0.029337363 0.11467588
0.13650243 -0.03529339 -0.0066186767 0.14237298 0.007790884 0.0038840743 0.07669385 0.075471014
-0.09005902 0.00027689018 0.00537067 0.03533072 0.16307048 0.055229336 0.0077998554 0.09134475
0.06849106 -0.08518016 0.06726173 -0.013463479 0.04553491 -0.012301347 0.018868683 0.026091103
0.108181156 0.00092088577 0.07388467 0.0112668015 -0.043562334 0.019458445 0.057070572 -0.039047018
0.1825926 -0.0598668 0.049244307 -0.10075565 0.026724769 0.12892595 0.0126203 0.03521011
0.0013684807 -0.0002468664 0.16755514 0.036908753 0.0056798146 -0.07116159 -0.052994423 0.13271335
0.08865206 0.050651353 0.0024646071 0.07954902 0.1205855 0.116406545 0.030433226 0.047253713
0.0061658784 -0.004457207 0.1166619 0.038310077 0.022214942 0.09755774 0.078736044 0.07449587
0.1409228 0.08689359 0.06871286 0.11078895 -0.04166054 -0.0009449 0.0793524 -0.08310691
0.12645924 0.073783666 0.087030396 0.13056058 0.037549183 0.03139897 -0.033706684 0.05389222
-0.044685237 -0.014379629 4.5871126e-05 0.10009593 -0.026810657 0.010080988 0.0065971115 0.05321503
0.017319107 0.050676253 0.02385461 0.071955994 -0.0059555755 -0.0351082 0.0019743263 0.014013038
-0.050326124 -0.012899248 0.106208265 0.0063344445 0.13698356 -0.052144475 0.05772515 0.06182897
0.014421017 -0.026949627 0.09531655 0.034032125 0.005998711 0.027638081 0.096785486 -0.0036448017
0.087302685 0.013310647 0.056110796 -0.028583355 0.008545295 0.050132323 0.101303324 0.044335302
-0.05598179 -0.04787787 -0.025298174 0.09017659 0.052366987 0.00728394 0.04333237 0.00875182
-0.019088699 -0.040791474 0.05718917 0.015586706 0.08714668 -0.10038402 0.015960932 0.112617426
0.04868211 0.061074715 -0.015581308 0.009740298 -0.0688631 0.052763093 -0.0011837832 0.060446594
0.0884492 0.014799225 0.13417079 0.044845633 0.09388298 0.07422024 0.024608469 0.024386346
-0.031739894 0.07015716 0.091990136 -0.043267187 0.025094027 -0.039920494 -0.03197749 0.009975542
0.07386727 -0.039052807 -0.070825964 -0.076109536 -0.04238278 -0.07295663 -0.014880523 0.09641801
0.02056223 0.015365453 0.02797728 7.718113e-05 0.050344486 -0.04430969 0.049059983 -0.0073435963
-0.00010795904 0.087816626 -0.03641126 0.05786687 0.082342945 -0.028723277 0.04649081 0.07418743
0.041407987 0.035587955 0.012715872 0.07185919 0.041818887 0.032125548 0.07281207 0.15904674
0.10368828 -0.056678757 0.11563208 -0.0040947306 -0.043214705 -0.012789328 -0.026772572 -0.05322473
0.007711408 0.005133389 0.047168776 0.09166581 0.026811969 0.048983946 0.09314958 0.08436233

bias_hh_l0 f4 [512]
00000000: fb51 d73d 2b69 e43d 1f55 473d db54 ac3c
00000010: de45 173e 03ee c33d 3091 6d3d 67ee 3d3e
00000020: 42ee c73d d464 d63d 34dd f63d 47b7 843d
00000030: 6d94 4ebd 53de a23c f22a bab9 1f12 2dbd
00000040: 1a2f 4b3c 2383 f9bb c57c 9d3d 6464 d13b
00000050: aca8 b63d 4c58 5f3d a7d8 c93d 43d2 043e
00000060: 53ee 023e b724 d53d 7c98 503b cbcb 963c
00000070: df68 d83d 4f71 9cbd aa0a cf3d 4a2f e73c
00000080: bf43 353e 7a5d e63c 9eb7 523d 3377 303e
00000090: fd96 ef3b 1964 ad3d bb3c ca3d 597a 623c
000000a0: 7371 fabc 0dcf 793d 2304 1b3e 5004 c43d
000000b0: d531 5d3c bed3 f23d 3de6 073e c5a8 053e
000000c0: f982 20bb b6c0 90bd 322b 4f3d 60df 613d
000000d0: fca3 b23d 481d 233d 44a9 e03d 5634 863d
000000e0: 5f62 efbd f913 823d cb0d be3c 619e b23c
000000f0: 0b1c f23d 3599 61bc 998d dd3b 4962 413d
00000100: 397a 8b3d c158 8dbd 2517 29bc d133 363d
00000110: cdb6 26bc b4da 2f3d 0711 3a3d 1ce5 d83d
00000120: b09f 883d 24fa db3d 037c e93d d158 e03d
00000130: a8b3 d13d d058 8d3d 65d3 a63d 2866 28ba
00000140: 93d5 dc3d 774d 8f3d d813 af3d 8f53 3abd
00000150: 5c2d a83b 4099 26bc 8164 b53d efd0 c03d
00000160: 79bc 173d 266e ad3d c413 423e d9f1 05bc
00000170: 5f05 833d a1d1 03bd ad90 2cbd 8ef8 0f3e
00000180: 30ba 20bd 422f 19bd b856 9f3b 527d f23d
00000190: 9762 98bb 9b1d b63d 8504 503d 25da 5a3d
000001a0: 374b d83c 4c63 88bc b966 213e 2716 dcba
000001b0: dff4 e43c c4ee b8bc 3828 e93d f290 72bd
000001c0: 4d74 233c a50e caba bcea 113c 619d 2b3d
000001d0: c2bc 0f3d 0ef4 b13b 34ea 423d 58e1 70bc
000001e0: 0cfe d43d 3d8a 04bd 7ece 5c3d ed7d eb3d
000001f0: a880 36bd 5a1d 953d 4a9b 873d ba74 03bd
00000200: 7d5f bb3d 412d e93d e374 df3d b60f 37bd
00000210: d5f3 203d 4f9f e13d 1da1 873d 21ff e6bc
00000220: 869b 1e3d 13be ee3d 1021 c13c be39 0f3d
00000230: 1812 17bd 1a0a 503d 9f7e 9b3d 4888 ae3d
00000240: 00ad e73d fa91 42bd 79aa c5bc 8ee6 bc3d
00000250: fed2 c33d 0631 53bc 089d e03d 9a3f 733c
00000260: a529 943c daaf 913d e891 f93c e121 863d
00000270: 1728 cf3c 83bb c93c cf8b b43d b2c4 dc3b
00000280: 1934 7db9 c69a cc3d edde cb3c b876 f03c
00000290: 7c07 27bd 6bf0 c13d 6c3c a43d e082 813d
000002a0: 7232 dc3d cb47 8abb e134 933d 6597 f73d
000002b0: b201 fabc 10c2 753d 9fe4 9e3c 3179 71bd
000002c0: 0bfd e03d 83bd 20bd 4d64 263d 9c4b 41bd
000002d0: c7c4 3c3d fa4b 8a3d 99ce e23c fa6e febc
000002e0: 61fb 6f3c 5691 36bd ee13 ccba fdc3 b83d
000002f0: d649 7e3d a3b9 f6bc 5777 2a3c fc8f 8d3c
00000300: 9ca8 35bd ff36 6bbc 63a2 653d f465 8b3d
00000310: 1126 b6bc 4cee f3bc 149b 6c3d 3c1e 39bd
00000320: ac53 273c 0afb 6bbd 8003 463d c28f 4c3b
00000330: 2f48 c23d bf7a 7a3c 01ab 36bd 2feb de3d
00000340: 4c07 f23d 4838 f93d 6a8e ca3d 5e13 273c
00000350: f1b9 3fbc e5b2 37bd 80c7 85b9 fe54 81bc
00000360: 68f5 4939 be0e 113d 28bf 043e aafb 443d
00000370: 0abf 1fbd c1c3 a5bc 64bc acbc 4c1f 36bd
00000380: 2798 273d 6849 933d b65e 203c 3547 1e3d
00000390: 7e9f 5c3d 58c7 16bc eeff 9b3d 9ba1 8b3d
000003a0: d2f2 9f3d 0d89 943d 6531 4f3d e9ac 69bc
000003b0: cae4 9d3d e91a 91bd d59a dc3d 9226 e83d
000003c0: 4dd1 113c 6700 b2ba 8109 fb3d 5a99 93bc
000003d0: 47ca c23c 95f1 d73d 74ec a63d f3b2 50b8
000003e0: f87f 003e b7c4 463d 803c bf3d 56a6 883d
000003f0: 12e0 8bbd 2193 3dbd 9903 f9bc e40b ca3d
0.105136834 0.11152872 0.048665162 0.021036556 0.14772746 0.095668815 0.05799979 0.18547975
0.09762241 0.1046845 0.1205391 0.0648027 -0.05043452 0.019881403 -0.0003550868 -0.04225361
0.012401367 -0.0076145097 0.076898135 0.0063901413 0.0891889 0.054527566 0.09855776 0.12970833
0.12786226 0.104073934 0.003182917 0.018407723 0.105668776 -0.076387994 0.10109456 0.028220791
0.17701624 0.028120745 0.051444642 0.17232971 0.0073117004 0.08466358 0.09874865 0.013823115
-0.030571675 0.060988475 0.15138297 0.09571135 0.01350065 0.11856793 0.13271423 0.13052662
-0.0024492128 -0.07068007 0.050578304 0.055144668 0.08722684 0.039822847 0.10969785 0.06552951
-0.11688685 0.06351466 0.023199936 0.021804037 0.11821755 -0.013769438 0.0067612645 0.047212873
0.068104215 -0.06901694 -0.0103204595 0.04448301 -0.010175419 0.04293318 0.045426395 0.10590574
0.06671083 0.1074107 0.114006065 0.109544404 0.10239345 0.06901705 0.08145789 -0.0006423914
0.107829235 0.06997197 0.08548707 -0.045489844 0.0051323604 -0.010168374 0.0885706 0.09414851
0.037044976 0.08468275 0.18952852 -0.008175337 0.06397509 -0.03218234 -0.04213016 0.1405966
-0.039240062 -0.037398584 0.0048626326 0.11840309 -0.0046504247 0.088923655 0.05078556 0.053430695
0.026403053 -0.016648911 0.15761842 -0.001679127 0.027948795 -0.02257479 0.11384624 -0.059220262
0.009976459 -0.0015415741 0.008906063 0.041898135 0.035092123 0.005430705 0.047586635 -0.014702164
0.10400018 -0.032358397 0.053907864 0.11498628 -0.04455629 0.07280989 0.06621416 -0.03209374
0.09149072 0.113855846 0.10910966 -0.044692717 0.039295036 0.11016714 0.06622527 -0.028197827
0.038722537 0.116573475 0.023575336 0.034967177 -0.03688249 0.050790884 0.075925104 0.08522087
0.11312294 -0.047502495 -0.02412914 0.09223662 0.09561728 -0.012890106 0.10967451 0.014846707
0.018086264 0.07113619 0.030465081 0.06549431 0.025287671 0.024625545 0.08815729 0.006737315
-0.00024147368 0.09990458 0.024886573 0.029353485 -0.040778622 0.09469684 0.08019337 0.063237906
0.10751809 -0.004219984 0.0718782 0.12089423 -0.030518387 0.059999526 0.019396124 -0.058953468
0.10985764 -0.039243232 0.040622998 -0.047191247 0.0460861 0.06752773 0.027686404 -0.031058777
0.014647336 -0.044572197 -0.0015569904 0.09021757 0.062082134 -0.030117815 0.010404429 0.017280571
-0.04435025 -0.014356374 0.056063067 0.068065554 -0.022234948 -0.029776715 0.05776508 -0.04519485
0.01021282 -0.057612456 0.04834318 0.0031213616 0.09486424 0.015288054 -0.044596676 0.108847015
0.11817798 0.12168938 0.098904446 0.010197489 -0.011702047 -0.04484834 -0.00025516376 -0.015787598
0.00019260275 0.03541445 0.12963545 0.048091568 -0.03900055 -0.020234944 -0.021085925 -0.04446344
0.04091659 0.071917355 0.009788206 0.038642127 0.05386304 -0.009202801 0.07617174 0.06817933
0.07809986 0.07252703 0.050584216 -0.014262416 0.07709654 -0.07085211 0.10771719 0.11335482
0.008899999 -0.0013580442 0.12257672 -0.01801746 0.023778094 0.10544125 0.081505686 -4.9757724e-05
0.12548816 0.048527446 0.09337711 0.06672351 -0.068298474 -0.04628289 -0.030397223 0.09865549

weight_ih_l0_reverse f4 [512, 1]
00000000: 1ebc 94bd 6ddc 543d 7e52 cb3d 9f47 3d3d
00000010: d454 babc 0ce8 a23d 58fb 503d 4261 953d
00000020: ece7 b5bc b4ea dc3d ead4 073d 2779 c1bd
00000030: 6eaf 8c3d fd9e 9cbd 73ac b63d 246e 033d
00000040: f8b6 ed3d 1233 9c3d ece1 aa3c 6119 77bd
00000050: 9d08 7d3d dc11 3bbd 6c5e 1b3e 5b82 593d
00000060: 9283 da3d 3a6d b2bd ec97 873d 3b09 313e
00000070: f6ed c5bc c66f a53d 1ce8 9fbd fdd9 473d
00000080: ea8e ad3d 0539 4dbd 643e d93c 4018 fdbd
00000090: c466 3dbc 599d 463d f987 ae3d e67a 6dbd
000000a0: 46c5 c5bc 0404 c13d b140 49bd 173c 1dbd
000000b0: 2480 aebd 50c6 2abd 210d ec3c 61fa eb3c
000000c0: 2a2f 1cbd 1018 e23d a681 c5bd 4b2e 733d
000000d0: 781a ab3c 7ead 463d af89 6f3d 7744 b23d
000000e0: 9a5e 8f3d f90d b43d b316 463c 57d3 aa3b
000000f0: 29ce f3bc 3f7f aabc ef61 a13d 7e69 aabc
00000100: ca89 1a3d a548 5d3c cb18 afbd 9ce1 c9bc
00000110: 3352 523d 46dc 323d 426d 08be f65b 013e
00000120: 6167 a23c 7121 4dba d312 05bd ed60 c9ba
00000130: bff4 d13c 42ec 9bbd e0a8 833d 4f00 87bc
00000140: 9e3a 293c 7e3a aa3d 2de9 593d fca4 683d
00000150: 2bdb a53d a3a2 933d 9b6e 0cbc 16d7 1ebd
00000160: 6291 3c3d 0d79 22bd 6fab 89bd 9417 cc3d
00000170: 42f5 823d bd64 f13d 8634 7b3d 135f aa3d
00000180: 9b94 c93d 9b4d a2bd a5db c5bd fac4 303b
00000190: 317f a13c 0f1d 433d 6c88 d73d cd74 fb3d
000001a0: 0b1e 32bd 4cea 14bd ae3f 88bd 4cda b8bd
000001b0: 7fed d0bd d48e 01bd 9cb2 8c3d d4f6 533d
000001c0: ac10 d13c 73ab 1c3d 6628 8dbd 0ffd 84bd
000001d0: f309 5dbd a971 913d 443a 983d 369a c43d
000001e0: 7a29 b1bd 1ee3 e43d 2806 c83d 52ba 6cbd
000001f0: 57b1 6b3d 9c9c f6bd 2352 893d 807e 5c3d
00000200: 08c5 bdbd 3e04 bcbd 5830 713d 2a31 fabc
00000210: 3180 69bc 5593 01bd 792b bc3c 9455 fe3c
00000220: da30 8fbc f5bb 563d f933 2cbd a1cd b93d
00000230: 9ac9 f93c 7f19 203b 8e10 a5bc 3a52 d43c
00000240: 26db 8d3d 1198 babc 4684 f33c 85ea dd3d
00000250: 907f 383d c546 723c cfa4 b83d a906 b13d
00000260: e75f 863c fd63 0d3d 6043 71bc 3ba0 9fbc
00000270: d986 79bc 71af c5bd a13a bdbc 58eb ac3d
00000280: 580a 893d e6c1 11bd be0f 613c 1d52 593d
00000290: 0b86 2cbd 2dc3 553d 23e2 a0bd e60c a23d
000002a0: 2934 87bd 9fcb 33bb 952a 323d b818 ca3c
000002b0: 6fb6 74bd 3338 d23c 3500 ecbd 6245 65bd
000002c0: 559a 433d 7643 be3d 5af4 013c 643c 153d
000002d0: 3b2b 5dbd db03 babd 4c62 94bd f8b1 813c
000002e0: 0114 66bc d642 bdbc 5c37 c7bd 1076 353c
000002f0: 55fd 0a3e 4271 bbbb 538f e33b 0076 7a3c
00000300: 7516 9e3d 8f3e 043d c8b2 cc3c 46b3 743b
00000310: 4ebe b6bd ca96 6abd 02dd 6e3d 3761 9b3c
00000320: 407d a73d d20f 3abd c487 e7ba c8f3 9e3d
00000330: ddd8 b9bd 9101 b53d 8b5f 253c b92a 313d
00000340: 5ede 61bd 0cc2 eb3b 71cf dbbd ba60 823d
00000350: d832 86bd b3b6 dc3c d9f9 d73a 2616 01be
00000360: 9ace 603c d8f6 ca3d c5c8 a83d 4b89 9dbd
00000370: e453 103c d271 6d3d 3789 babd 30d1 003e
00000380: 4f36 12bd 59a3 583d 3d4f 533d f3d7 f6bc
00000390: 5320 5ebe af3f 223d 6de6 d03d b162 b63d
000003a0: 2bad 6cbc 2a67 7dbd cf53 353d ebf7 b93b
000003b0: 1c1b adbd 8edb 523c 6b37 7dbd e373 363d
000003c0: 24ec 0dbd 9c9b b8bd 5897 863d b994 cb3d
000003d0: 790f e33d 558b da3d 2975 0a3d 406f e63d
000003e0: 1c33 b9bc cc93 bc3d eb44 85bc 07e9 a83d
000003f0: 1561 c8bd a9f5 ba3d 9b28 b13c 7c02 b0bd
-0.07262443 0.051968027 0.099278435 0.04621088 -0.022745527 0.07954416 0.05102095 0.07293941
-0.022205316 0.107869536 0.033162035 -0.09446936 0.06869398 -0.07647512 0.08919611 0.03208746
0.11607164 0.076269284 0.020859681 -0.060326938 0.061775792 -0.04567133 0.15172738 0.053102832
0.10669626 -0.087122396 0.06620774 0.17288677 -0.02416132 0.0807796 -0.07807943 0.048791874
0.08474524 -0.050103206 0.026519008 -0.12358141 -0.011560146 0.048489902 0.085220285 -0.057978533
-0.024141919 0.09424594 -0.04913396 -0.038387384 -0.08520535 -0.04169303 0.028814854 0.028805913
-0.038130917 0.11039746 -0.09643869 0.05937032 0.020886645 0.0485053 0.058480915 0.08704465
0.07000466 0.087917276 0.012090373 0.005213182 -0.02976139 -0.020812629 0.078800075 -0.020802256
0.037729062 0.013506089 -0.08549651 -0.024643712 0.051347923 0.0436671 -0.13322929 0.12632737
0.019824686 -0.00078251126 -0.032488655 -0.0015363969 0.0256294 -0.07613422 0.06428695 -0.01647964
0.010328917 0.08311938 0.05320089 0.056797966 0.080984436 0.07208755 -0.008571292 -0.03877934
0.046037085 -0.039666224 -0.067221515 0.09965435 0.063944355 0.117867924 0.061329387 0.08318915
0.09842797 -0.07924958 -0.096610345 0.0026972876 0.01971397 0.047635134 0.10524067 0.12278137
-0.043485682 -0.036356255 -0.06652771 -0.09026012 -0.10201549 -0.031630352 0.068700045 0.051749066
0.025520645 0.038249444 -0.06892471 -0.064935796 -0.053964566 0.07101757 0.07432988 0.09599726
-0.08650489 0.11176132 0.09766799 -0.057794876 0.05754217 -0.120415896 0.067051195 0.053831577
-0.09266096 -0.09180497 0.058883995 -0.030541021 -0.014251755 -0.031634647 0.022969948 0.031046666
-0.017479349 0.052425344 -0.042041752 0.09072424 0.030491639 0.002442926 -0.020149495 0.025918115
0.06926565 -0.022777589 0.029726159 0.10835747 0.045043528 0.014787381 0.0901581 0.086438484
0.016403152 0.034519184 -0.014725536 -0.019485584 -0.015229904 -0.096526034 -0.023099246 0.08443326
0.06691426 -0.035585307 0.013736663 0.053056825 -0.04212002 0.052188087 -0.07855632 0.079126164
-0.06601746 -0.00274346 0.04349764 0.02466999 -0.059744295 0.025661564 -0.11523477 -0.05597437
0.047754604 0.09290211 0.007931793 0.036434546 -0.053996306 -0.090827666 -0.07245311 0.015831932
-0.014042855 -0.023103159 -0.09727356 0.011075512 0.13573201 -0.0057202885 0.006944576 0.015286922
0.07719127 0.032286223 0.024987593 0.00373383 -0.089230165 -0.05727271 0.05831624 0.018967254
0.081781864 -0.045425244 -0.0017664363 0.07761341 -0.090745665 0.088381894 0.01009358 0.043253634
-0.055143707 0.007194763 -0.10732926 0.063661054 -0.065526664 0.026942587 0.0016477659 -0.12606105
0.013721133 0.09910363 0.08241419 -0.07692202 0.008809064 0.057969876 -0.09108203 0.12579799
-0.035696324 0.052890155 0.05158924 -0.03013227 -0.21692018 0.039611515 0.102002 0.08905543
-0.014445583 -0.061865963 0.04426938 0.005675306 -0.08452436 0.012869729 -0.06182043 0.044544112
-0.03464903 -0.09014055 0.06571835 0.09940476 0.110869355 0.10671107 0.03380314 0.11251688
-0.022607379 0.092078775 -0.016268214 0.082475714 -0.09784142 0.09128887 0.021625808 -0.08594224

weight_hh_l0_reverse f4 [512, 128]
00000000: ae43 e3bd 102c e7bc 9b69 f2bd b8a8 d4bc
00000010: 5897 49bd 6411 95bd dacd 9dbd 0144 f83c
00000020: 0db4 2dbe 97d2 083d e25a 993d 04b5 b53c
00000030: 4e9f 88bc 2955 6e3d 18f8 10bd bb29 c03d
00000040: 1b56 ccbd e7b8 8e3d 624e 313b 0a0a 0bbd
00000050: d79d 84bd 9864 7cbb 3bf3 433d d44a 503d
00000060: e963 ab3d 52c8 103c 6e37 bbbc a26c e1bc
00000070: 5fe1 2bbd a920 ca3b 74f7 d7bd 6d05 c63d
00000080: 30a3 303d ebec a53c 9a60 92bb ac68 fbbc
00000090: 1940 c73c 17ac e83c 5082 e3bb a3ed a5bb
000000a0: edb1 193d 67b2 c43d 49b3 0cbd bb35 12bd
000000b0: 8178 bcbd 3149 4c3c b5f8 02bc 9b8f 95bd
000000c0: 4513 b23b f85f be3a 6568 cfbc 8cfa 5d3c
000000d0: 9675 dfbc c83a 773a f879 803c e50f d93d
000000e0: c14e c1bd bd95 b13d e974 a53d 7790 633d
000000f0: 176e 87bc 7034 643d 3a4e e1ba 39d3 a93d
00000100: 9445 a23c 4f0a 60bc 82a4 843c 96e5 93bc
00000110: 6181 653d 8051 a4bd 047c 5cbc 557c 25bc
00000120: f794 d63d 6fb1 12bd fcba b83d 5124 7c3d
00000130: b682 3bbb 970b 23bc f654 8bbd d243 443d
00000140: df00 e73d 84ed 8c3d 82be 52bd 0ac7 adbd
00000150: 9362 c73d 8ca3 16bd 13a9 52bd 4c4e d4bd
00000160: 9a40 7d3d 71ee 31bc 2ffd 75bd 68dd 8bbc
00000170: f96a c43d afe4 153d 87b7 d0bc 7960 7f3d
00000180: f6ec b8bc 1e65 b5bd d416 b83b 069a aabc
00000190: 0b13 9cbd 1d74 11bd f4d7 2dbc 67c8 62bd
000001a0: d65b d23d fe47 1b3d ea19 9ebd 59b3 f3bd
000001b0: 3391 fd3d 03bc 83bd e616 493d 853a 72bc
000001c0: 2b22 e7bc 95fb 14bd b2e3 d3bd e2d2 6a3d
000001d0: f272 4f3d 2710 c43c 2ab0 543d 8344 a23d
000001e0: 7ff0 dabc 37e7 c53d 8810 8dbd 4dd6 c5bc
000001f0: 74fd 69bd 2aa7 3abd a039 9abd de63 2c3d
00000200: cf36 3ebd c2e4 88bd 8562 1abe 0880 71bd
00000210: c1ab 033e 93da 87bd d472 a9bc 7332 0e3c
00000220: e4e5 a03c b66e ae3b eb22 3c3c 0a02 edbc
00000230: 9f2e bb3d 352e 19bd 96a9 2d3b 4ad2 8c3d
00000240: cc18 bcbd 9da5 a9bd e64b 633c 7d79 bcbd
00000250: f0f4 873b 686b 623c 803c 4c3d e60d 5e3d
00000260: 51b1 d33d 8fe2 cebd e531 963d eafe b63d
00000270: 414d 56bd c976 b2bd 49c4 6abd 8ca7 173e
00000280: d814 4d3d 419e 06be eaec e0bd 9bdf ab3c
00000290: f3f2 653d fcbc 6fbd 8591 673d 2dcb e8bb
000002a0: 34f4 253d 2463 f73d c0cd 803c e159 0bbe
000002b0: 2e6b 83bd 34d8 d93c f13e 4dbd 6ffa 33bc
000002c0: 3a57 cfbd 4cfc d03d bd45 733d 7a8b 0bbd
000002d0: 0fa8 e83d 592c 71bd 3c70 a7bd 6fb3 ee3d
000002e0: 3650 a1bd 85d6 a0bd 298c 06bd 4cbb 343d
000002f0: 17b9 163e 5dc2 033d 2688 e4bd 58cf 69bc
00000300: ccf2 033e d06a 813d 987d 6abd de57 0cbc
00000310: 8fa1 72bd df89 be3c d9ce debd c716 6e3d
00000320: db0a 29bd 38f8 de3c 39d3 c9bb 7f5e e73d
00000330: 6ac8 b7bd 6f66 c7bc 0d44 ce3d fc9a b53c
00000340: 66ca a83d 99bb 1abd 24ef 6ebd 04a6 55bd
00000350: d1b9 aa3d bd58 edbd 4e87 f83d f2f4 20bc
00000360: b896 bd3d 1064 6e3c 2b4f 23bd 5b3d b5bd
00000370: 07e0 7b3d 3619 cd3d 54cf 123e a0d3 a4bc
00000380: efa0 d3bd 73ce 443b 061e b1bd dc7e d53d
00000390: 674a cb3c db63 713d 0225 773a 7d81 ddbd
000003a0: 343c 903d 1f42 833d e546 6bbd 5e4e 14be
000003b0: c5f9 1e3e 0e48 063e b454 98bc 56fc 2c3d
000003c0: 82f3 b63b e938 fabc e1c5 6ebd 2e15 e7bb
000003d0: c5ae d5bd 4a0c 723d 6b51 7fbd 83ab 9d3d
000003e0: 48a6 413d 5d9a 4ebb acd8 323d 1c8b fbbd
000003f0: b938 28be 5824 1d3d a922 d0bd b411 76bd
-0.11096893 -0.028219253 -0.11836549 -0.025959358 -0.0492166 -0.072787076 -0.07705279 0.030305864
-0.16963215 0.03340396 0.07488038 0.022181042 -0.016677525 0.058186684 -0.03539285 0.093829595
-0.09977361 0.06968861 0.0027054776 -0.03394512 -0.06475418 -0.0038512107 0.047839385 0.05085261
0.08368666 0.008836823 -0.02285358 -0.02751762 -0.041962977 0.006168444 -0.10545245 0.09669004
0.043124378 0.020254573 -0.004467082 -0.03068956 0.024322556 0.028402371 -0.0069430247 -0.005063729
0.0375232 0.0960434 -0.034350667 -0.035695773 -0.09202672 0.012468622 -0.007993867 -0.07302781
0.005434426 0.001452445 -0.025318334 0.013548505 -0.027277749 0.00094310613 0.01568316 0.10598735
-0.09438849 0.086711384 0.080789395 0.055557694 -0.016531987 0.05571407 -0.0017189451 0.08292241
0.019808568 -0.013674333 0.016191725 -0.018053811 0.05603159 -0.080233574 -0.013457302 -0.010100444
0.104776315 -0.035813745 0.090200394 0.06155807 -0.0028611845 -0.009951494 -0.068033144 0.04791624
0.11279463 0.0688124 -0.051451214 -0.08485229 0.097355984 -0.036777064 -0.051430773 -0.103664964
0.061829187 -0.0108600715 -0.060055908 -0.017073348 0.09590716 0.036595043 -0.025478138 0.062347863
-0.02257393 -0.08857177 0.0056179557 -0.020825397 -0.0762082 -0.035511125 -0.010610569 -0.0553669
0.102714226 0.037910454 -0.077197865 -0.11899442 0.1238121 -0.06432345 0.049094103 -0.01478446
-0.028214535 -0.03637274 -0.10346164 0.05733002 0.05064673 0.023933483 0.051925816 0.07923224
-0.026726006 0.09663241 -0.06887919 -0.024150038 -0.057126477 -0.045569576 -0.07530522 0.04208743
-0.04643899 -0.06684257 -0.15076645 -0.05895999 0.12858488 -0.066334866 -0.020684637 0.00867902
0.01964087 0.0053232564 0.0114829345 -0.028931636 0.09139752 -0.037397582 0.0026498786 0.06876047
-0.09184417 -0.08283541 0.013873076 -0.092028596 0.004149072 0.013819553 0.049862385 0.054212473
0.10336555 -0.10101806 0.073337354 0.0893534 -0.05231977 -0.08714063 -0.0573161 0.14810008
0.050068706 -0.13146307 -0.10982688 0.020980647 0.056139898 -0.05852984 0.056535263 -0.0071042986
0.040516093 0.120794564 0.01572311 -0.13608505 -0.06416927 0.026592351 -0.050108854 -0.010985001
-0.10124059 0.10204372 0.05939268 -0.034068562 0.1136018 -0.058880184 -0.08175704 0.11655318
-0.07876627 -0.07853416 -0.03284851 0.044123933 0.14719044 0.03216778 -0.11158781 -0.014270626
0.12885588 0.06319201 -0.05724868 -0.008565871 -0.059236106 0.023259101 -0.10879297 0.05812719
-0.04127012 0.02721797 -0.006159213 0.112973206 -0.08973773 -0.024340836 0.100715734 0.022168629
0.082417294 -0.037776563 -0.05833353 -0.052160278 0.08336223 -0.11589191 0.12135182 -0.0098240245
0.09257263 0.014550224 -0.039870422 -0.08849593 0.061492946 0.10014574 0.14336902 -0.020120442
-0.1033343 0.003003028 -0.08648305 0.10424587 0.024815751 0.05893312 0.0009427817 -0.108157136
0.07042733 0.06409096 -0.057440657 -0.1448302 0.15524967 0.13113424 -0.018595077 0.042232834
0.0055832276 -0.030544715 -0.05829418 -0.0070520854 -0.10433725 0.05909375 -0.062333506 0.07698729
0.04727772 -0.0031525113 0.043663666 -0.122823924 -0.16427888 0.03836474 -0.10162861 -0.060075477

bias_ih_l0_reverse f4 [512]
00000000: ae9c b9bc 6475 7f3c 44c7 553e 6fdf e43b
00000010: 23f2 0bbd a72d df3c 5d91 523d 4c81 12bc
00000020: a608 e13d d843 513d dc11 663d 093a 8d3d
00000030: 5fce 5d3d 25db a43d d11a f3bc 68f9 333d
00000040: 6975 f4bb 4866 043e f76d e93c 9996 87bd
00000050: 66fa df3d 0b7d 1bbd c43b b03c c0ed 713d
00000060: 34c2 bd3b 953a 263d 2cc7 d03d ea58 de3d
00000070: 59e8 eb3b a454 bdbc b981 ad3d 49d8 ff3d
00000080: de0b 673d a214 ab3d c5b9 77bd 46a6 db3d
00000090: dbf0 0b3e d942 af3d 14b3 233d 419d 743c
000000a0: f98e 543c d0dc 0ebd 0cb0 54bd 057d 793c
000000b0: fe54 f5bc 7abe 883c 864d 6b3d d465 013e
000000c0: 32f6 c33d 13ea 8f3d 6b95 79bc 2209 633c
000000d0: 34d1 c53d 57a4 233d cdd7 33bd dcdb ab3c
000000e0: 729c 47bd 56df 833d ebc2 4a3d cce1 803d
000000f0: 9fa7 34bd 14ea 9bbc ba4a 083e 3810 e73c
00000100: 1dfb c23d a812 fe3d 3d49 e9bc bd5c 95bd
00000110: 46c5 b73d 06b5 cfbb 1af6 763d fb8b 6a3c
00000120: d0d4 053e 5985 633d 3d91 76bd bc70 553d
00000130: 9434 0d3e 8bcd a33d f917 8ebc 2843 65bd
00000140: d5da f83d 4f17 173e 132d 20bd 2615 8b3d
00000150: e89d ab3d 8dea 773d 297b 443d f3ce d83d
00000160: b62c 123e 4ec3 a83c 2e66 003d 4113 6f3b
00000170: 2a83 a6bc 45ff 643d 8109 82bc a34c db3d
00000180: 93d7 0fbd 36e2 38bd 303c b23d fced 03bd
00000190: 7b17 493d f1bc 01bd 850c a63d b2fb 923d
000001a0: 8427 c03c 0d84 c73d f172 cf3b 9caf 0d3d
000001b0: 7856 d93d 3b3d a63d a7f5 4e3c de1b 073d
000001c0: cdc2 173d 791d 133d 3f99 903c 99cf a13c
000001d0: f789 80bc 3e3d ba3d 30ca aa3c 2f13 0c3e
000001e0: 6df4 823d f833 3a3d 9f99 7c3d 5f9e 553d
000001f0: e115 8bbc c58f 79bd 697b 993d 2593 333c
00000200: a84d 4d3d f732 2a3d d124 fa3d 6eca 0bbd
00000210: fe84 d53c 86fb 213d 277f 643d 5147 47bc
00000220: 3484 813c 46b7 66bd e835 903d f888 343d
00000230: ee7c 483c 9c8c 853d 53bb c23d e2f6 0a3d
00000240: d03a 433d 5301 80bd b1f8 b83d df78 943d
00000250: 95c3 13bd 9df5 d43c 002b 3bbd 16a5 323d
00000260: b26a ee3c 5dc1 803d c3f7 1abd ffb7 013d
00000270: 726d e73d 18d3 8f3d 0dc4 963d fe21 b6bc
00000280: 2a17 07bd 38b6 94bc 08d3 033c 0647 8e3d
00000290: a897 aa3d 0765 28bc 8596 8eba 8c07 b83d
000002a0: e6cc 2f3d a5af 0ebd 9475 ad3d 5a80 9b3c
000002b0: cd0d ab3d b377 3c3d 1ffa f43d 68d6 23bb
000002c0: db70 9d3d 1b34 413d 4ab7 a5bb 558e 38bb
000002d0: 28e1 d63c 4c29 953d 4f20 f5bc 63c8 f2bb
000002e0: 24c1 6bbd e323 243d 9b96 a63d 9678 b23d
000002f0: eaa5 943c b195 22bc ad22 bf3d 069c 193d
00000300: ff2f df3c 9ae5 913d f709 aebd 33ed 00bd
00000310: b188 4fbd 3fac b6bd 6d54 e9bc e787 61bd
00000320: ec2e 923d 7bc6 61bd afb9 a23d f89e 8fbc
00000330: 1e2b 3fbc f4dc ee3c 5f7f 06bd 930e a93d
00000340: 60ad c23d d2fd 82bd 9bd6 793d f33f 563d
00000350: a3c1 74bd 7710 e53d 8d43 953d f1fa c5bc
00000360: 40bf 653c 12a1 973c 2fbb 8a3d f467 4e3d
00000370: cd5a 1dbc 78be 6bbd 4b38 713d e863 b33d
00000380: 591a a0bc fc5e 163d 90b1 dfbc 2886 ccbb
00000390: 10a2 243c ab72 2cbd 2697 933d 55a1 693d
000003a0: 47f0 bc3d 2cdf 613d 3195 183e 09c0 163d
000003b0: e166 5fbd b7aa 9ebc 52e3 17bc ff46 133e
000003c0: 2551 52bd 9c00 613d 34bf c43a 87c5 01bb
000003d0: b23b d93d 7e65 ba3b 3f87 da3c 6a27 2c3d
000003e0: 0ca1 d93d cb97 b53d e19c 60bd 1120 233d
000003f0: 6b53 f6ba e0f0 5e3d d305 3dbd 68d6 393d
-0.022657719 0.015591953 0.20876795 0.006984643 -0.034166466 0.027243448 0.05140816 -0.00894196
0.10987978 0.05109009 0.056169376 0.06895835 0.05415189 0.08049611 -0.029675873 0.043939024
-0.0074602854 0.12929642 0.028494818 -0.06620521 0.109364316 -0.037961047 0.021512873 0.059064627
0.005790973 0.040583212 0.10194239 0.10856803 0.007199329 -0.023111649 0.08472008 0.12492425
0.0564078 0.08353545 -0.060479898 0.107250735 0.13666098 0.08557672 0.039965704 0.01493007
0.01297354 -0.034878552 -0.051925704 0.015227561 -0.029947754 0.016692389 0.05744698 0.126365
0.095684424 0.07027068 -0.015233378 0.013857158 0.09659043 0.03995165 -0.043906976 0.02097886
-0.048733182 0.06439082 0.049502295 0.06293067 -0.04410517 -0.019032516 0.13309756 0.028205976
0.09520552 0.12405902 -0.028477306 -0.07293079 0.08973174 -0.0063387183 0.060293294 0.0143156005
0.13069463 0.055547092 -0.060197104 0.052109465 0.13789588 0.079981886 -0.017345415 -0.05597225
0.12151114 0.14754985 -0.039105486 0.06791143 0.083797276 0.06052642 0.047969017 0.105863474
0.14274868 0.020600941 0.031347446 0.0036479982 -0.020326216 0.055907506 -0.015873672 0.10707977
-0.035117697 -0.045137607 0.08702886 -0.03220938 0.04909466 -0.03167433 0.08107857 0.07176913
0.023456343 0.097419836 0.0063308408 0.034591302 0.10612196 0.081171475 0.01263181 0.03298556
0.03705101 0.03591678 0.017651198 0.01975231 -0.015690787 0.09093712 0.020848364 0.13679193
0.06394277 0.045459718 0.061669942 0.052152988 -0.016978206 -0.060928125 0.07494242 0.010960375
0.050122887 0.04155251 0.122140534 -0.0341286 0.026064392 0.039546512 0.055785324 -0.012162999
0.01581011 -0.056327127 0.07041532 0.044075936 0.012236817 0.0652096 0.095083855 0.033926852
0.04766351 -0.062502526 0.09031809 0.07249617 -0.036075193 0.025996024 -0.045695305 0.04361447
0.02910361 0.06286881 -0.03783394 0.031669613 0.11300172 0.07022685 0.073616125 -0.022233006
-0.032981075 -0.018153295 0.008045919 0.069471404 0.083297074 -0.010277993 -0.0010878599 0.089858145
0.042920016 -0.034835476 0.08469692 0.018982101 0.08352242 0.04601259 0.11961769 -0.0024999622
0.07687541 0.047168832 -0.00505725 -0.0028161008 0.02623041 0.072832674 -0.029922633 -0.007409142
-0.05755724 0.040073287 0.081341945 0.08714406 0.01814552 -0.0099233845 0.09332786 0.03750231
0.027244566 0.07123871 -0.084979944 -0.03147621 -0.05066747 -0.08919572 -0.02848264 -0.055061247
0.07137856 -0.055120926 0.079455726 -0.017531857 -0.011667995 0.029158093 -0.032836314 0.08254733
0.09505725 -0.06396069 0.06099568 0.05230708 -0.05975498 0.11184781 0.07288275 -0.02416751
0.014022648 0.018509421 0.06773984 0.050392106 -0.009604168 -0.057554692 0.058891576 0.0875929
-0.019543814 0.036711678 -0.027306348 -0.0062415786 0.010048404 -0.042101543 0.07206564 0.057038624
0.09225517 0.055144474 0.14900662 0.036804233 -0.054541472 -0.019368513 -0.009270506 0.14382552
-0.051346917 0.05493222 0.0015010596 -0.0019801573 0.10607089 0.0056883683 0.026675818 0.042029776
0.106264204 0.08866843 -0.05483711 0.039825503 -0.0018793171 0.054428935 -0.046148133 0.04537049
