lab5/models/model_64_1_layer_80epochs_bidirectional.pth (torch, 142516 bytes, 10 tensors)

lstm.weight_ih_l0 f4 [256, 1]
00000000: 3d53 693e b0d1 01be 0c8e 393d 7114 9abe
00000010: 476d 783f 7c17 fd3d 925f 0d3f ad19 683c
00000020: 316d a1bd 732c 393e ab37 7bbe 0fbc 1e3e
00000030: 3f41 84be d47e 92bd 7a99 d1bd 33b4 dc3e
00000040: 59b4 48bd 02e8 05be f9d0 fc3d 2df1 b03e
00000050: 3fb3 c03e ad70 3abe 6a27 ee3c 2325 343e
00000060: fad9 a2be e702 f93c c57a d53c 7e6b 08bc
00000070: 7166 d13c e0f2 093c 6ab3 0fbd 770b 72bd
00000080: e7ba 01be 49a1 83be 4c04 973e 697c 46be
00000090: 3232 9ebd 416e 40be 2f53 503f fe7d 303e
000000a0: b090 3bbe e39a 81bd 6367 d2bc d5f6 8a3d
000000b0: 160e 83be 2d20 1c3f a1a7 9b3d 8102 ac3e
000000c0: 6c1e c5bd 3d91 9b3c ea57 c9bd 8e33 c73e
000000d0: 7283 68bd 4a40 b63d efd2 df3c 1b68 ff3d
000000e0: 9d4d b13e 6556 dfbd 42bb c53d 1e91 893e
000000f0: c405 40bd d45a 1abe 4476 8cbe 42f3 47be
00000100: 7e48 3e3d 17bb 39be 175b 51be 6933 913d
00000110: e834 3abe e617 02bd fcaf 803b 219e d63d
00000120: 4db2 ee3d 949a 7fbc 6177 a83c 10f7 203e
00000130: 5c20 81bf 0af2 5fbd 6b85 3f3e 6880 1abd
00000140: 0a17 023e 3c17 663c d4bc 06bd 5dab e6be
00000150: 098b 5e3d 219e 043e 97ad 4bbe f332 a7bc
00000160: 4bf3 4e3d 1caf 48bd 10a4 d03c 90e2 b03d
00000170: 0c6f 3d3e 3145 0a3e d715 e33c 82bd 06be
00000180: 8160 06bc ff10 bdbe 39c5 2d3e fd9e fb3d
00000190: 1cc9 0d3e f71b cd3c 4a92 5cbd 7c52 f9bd
000001a0: a8e3 563e fdc9 433d c564 debd ac6e 533e
000001b0: 7448 d83c 8696 8e3c 8eb4 debc abe2 7bbd
000001c0: fc0c 18be c9b7 713d fad0 f7bb 8750 29bd
000001d0: 93ef 0abd fae3 433e 0d4c a5bd 933e 373e
000001e0: a95e ec3c 5a84 943c 3f84 823d a372 e63c
000001f0: 9030 a1bb e61c 50be ae59 1a3d 8f1c 6cbe
00000200: a57f 8fbd ebdc 373f afa4 f63d 132b e73e
00000210: bd8a cbbe 771b 3c3d c641 06bf 2381 183d
00000220: 39e1 9ebd f4cb ae3e 4f02 e8bd 4da1 0a3f
00000230: e6a9 bcbe e93f 79be ef8d 933f 84b2 3b3e
00000240: a61b 54bd 0f54 683d 30bc 08be 6b23 db3d
00000250: 102f 4e3e 9e58 60be 3607 8b3d ce31 88be
00000260: bae4 fd3e b7d9 45bd eafe 82be 6253 a93f
00000270: 2c57 f6be 9c24 1e3e f2f7 d03d 89c4 9ebf
00000280: fea3 ef3d bb9f a8bd 9077 80bd 1777 89bf
00000290: b658 02be ce5f e6bd eaba de3d 0b27 80bd
000002a0: 65fb ebbd 8ef1 83bc a12a 613f b3b9 8b3b
000002b0: 91f9 5bbe 28a4 a23e b183 ef3c aa32 84be
000002c0: f7ce 1d3c 4da1 37bd 4aa6 f1be d3cf 8a3e
000002d0: 8b60 e9bd 2f05 8cbc 33d4 85bd d09a 393e
000002e0: e328 e83e 3f0a ebbe 7488 c2bd 088f 0bbf
000002f0: ce3c a13d 3d4e 4c3f bfbe 28bd daac 483e
00000300: b6ff 573c 1abb b0bd 1745 273d aab1 a83d
00000310: f508 2c3d d922 1c3e b8a7 f7bc 6aa7 d93d
00000320: f958 8a3f 7c61 60be 0f1f f03c c080 6d3e
00000330: d7ee e53d 97a2 44be 3933 a0be 2b57 d03e
00000340: 43d3 4abe b53a 9a3d b0d6 e6bd 12fb a23e
00000350: 5df7 273f 4970 1a3e 7f8f 8e3d 5a51 2b3d
00000360: 3970 e63d eaa8 f6bd 6dd7 f6bc a3f5 23bd
00000370: 610c 8fbd 8bd1 cabc 7cf2 bd3e 04f5 48be
00000380: 3d37 673c af02 5bbe 470c 8e3c b8f4 33bf
00000390: c2db ffbd 2bb3 703e 0f70 35be 4abf f4bd
000003a0: d69e e43d 747c cd3d d81e 743c dadb 63be
000003b0: b001 f93e be62 e23e 1022 08bd fd1d 16be
000003c0: 5622 27be 4f8d e63d a741 f03e c59d 06bd
000003d0: 59b1 863d 43ef 993d ccf9 7f3e ff14 25bc
000003e0: 521c 113d a538 e23c 92b9 a5bd 4009 f13e
000003f0: d9e9 74bd bfa6 553e cec9 b53e 7170 51be
0.22785659 -0.12677646 0.045301482 -0.3009372 0.97041744 0.12357995 0.55223954 0.014166278
-0.07882155 0.18083362 -0.24532954 0.15501426 -0.2583103 -0.07153097 -0.102343515 0.4310623
-0.049000118 -0.13076785 0.12344546 0.34559003 0.37636754 -0.18207045 0.029071528 0.17592292
-0.31806928 0.030396892 0.026059518 -0.008326409 0.025561543 0.008419722 -0.035083212 -0.059092965
-0.12668954 -0.25708988 0.29495466 -0.19383396 -0.07724418 -0.18792059 0.8137693 0.17235562
-0.18316913 -0.063283704 -0.025684064 0.06785361 -0.25596684 0.60986596 0.07600332 0.3359566
-0.09624943 0.018990153 -0.098312214 0.3890652 -0.05676598 0.08898981 0.02732226 0.124710284
0.34629527 -0.1090515 0.09654857 0.26868528 -0.0468805 -0.1507371 -0.2743398 -0.19526389
0.046455853 -0.18137775 -0.20444904 0.07089884 -0.18184245 -0.031761073 0.003927229 0.104793794
0.11655102 -0.015600819 0.020564737 0.15719247 -1.0088 -0.054674186 0.18703239 -0.037720114
0.12704101 0.014043625 -0.032894924 -0.45052615 0.054331813 0.12950946 -0.19890438 -0.020410037
0.05052499 -0.048995122 0.025468856 0.08636963 0.18499392 0.13502957 0.027720375 -0.13158229
-0.008201719 -0.3692703 0.16969766 0.12286184 0.13846248 0.025037749 -0.05385045 -0.12173936
0.20985281 0.047800053 -0.10859064 0.20647687 0.026401736 0.01740576 -0.027185705 -0.061495464
-0.14848703 0.05901316 -0.0075627537 -0.041336562 -0.033919882 0.19129935 -0.08071146 0.17894964
0.028853731 0.018129516 0.0637288 0.028130835 -0.004919119 -0.20323524 0.03768318 -0.23057769
-0.07006768 0.7182147 0.1204313 0.4515005 -0.39754286 0.04592463 -0.5244411 0.03723253
-0.077578016 0.3413998 -0.11328565 0.54152375 -0.36848372 -0.24340786 1.152769 0.18329817
-0.05178418 0.05672079 -0.13353038 0.10700115 0.2013514 -0.21908805 0.06788485 -0.26600498
0.49588567 -0.048303332 -0.2558511 1.3228571 -0.48113382 0.15443653 0.10203542 -1.2403728
0.11701201 -0.08233591 -0.06272805 -1.0739468 -0.12729153 -0.11248742 0.10875495 -0.06257447
-0.11522559 -0.016106393 0.8795567 0.0042640804 -0.21481921 0.31765866 0.0292376 -0.25819904
0.009631864 -0.044831563 -0.4719718 0.27111682 -0.11395367 -0.017092315 -0.065346144 0.18125463
0.45343694 -0.45906255 -0.094986826 -0.54515123 0.07872926 0.7980688 -0.041197535 0.19597188
0.013183525 -0.08629437 0.040837374 0.08237012 0.04200073 0.15247668 -0.030231342 0.10627635
1.0808402 -0.21912187 0.029311685 0.23193645 0.11227196 -0.19202648 -0.3128908 0.40691504
-0.19807152 0.07530729 -0.11271417 0.31832176 0.6561182 0.15081896 0.069609635 0.04182563
0.112518735 -0.120439366 -0.03013202 -0.04002918 -0.06984783 -0.024758121 0.37099063 -0.19624716
0.014112291 -0.21387742 0.017339839 -0.70295286 -0.12493087 0.23505847 -0.17718528 -0.11950548
0.11163108 0.10033503 0.014899932 -0.22251835 0.486341 0.4421596 -0.03323561 -0.14659877
-0.16321692 0.11257421 0.4692509 -0.032865304 0.06576795 0.07516339 0.24997634 -0.010075807
0.0354274 0.0276149 -0.08092035 0.4707737 -0.059793327 0.2086439 0.35505527 -0.20453049

lstm.weight_hh_l0 f4 [256, 64]
00000000: 6e76 d43d 2375 863d 0961 653d 71a1 653c
00000010: bcb4 043e 7e9a 3f3d 7909 b1be bcac 9f3d
00000020: afa7 873d 43a4 e4bd a3f7 1f3d 5012 693e
00000030: 5786 40be 7e7d 82bd b407 96bc 4080 5d3e
00000040: 185b 433b c3d0 023e fa51 103e 33ac 34bd
00000050: 7cc4 a93e e74f d8bc fd5b 203e b9e0 57bd
00000060: b2aa dbbc c0b4 1a3e 5f72 5dbe 79ae 063f
00000070: c68a 37be 6950 cdbd f760 12bd 851c 0bbe
00000080: 9cf9 14be 56cb 0ebe 3470 19be 36a6 023e
00000090: 77c3 d9bb 2523 2ebd 0a6d 293e cfb5 2f3d
000000a0: 92bb 323e 4cb5 89bb b011 ce3d 6486 d2bc
000000b0: 9279 d0bd 0c9f 133e 89fc a23e f3aa a23e
000000c0: b047 053e 1df7 67bd aea4 9c3d 8c99 bcbc
000000d0: b7c7 563e 0c0a 70bd fb4f d3bd 44b4 883d
000000e0: 4043 f03d 9966 4fbc be33 d03e f5c4 37be
000000f0: 0486 513e b72d d93d b06f 723d 164a a1be
00000100: a89e 3bbe a61f 8dbe 65c2 f53e 1c0c b93d
00000110: 36b3 bfbe 73ba 4a3e ba36 94bd 67e3 a6bd
00000120: 2c06 233e de0f 9b3d fa6f d1be aa81 023e
00000130: 4bfa a93b c388 013e 13a8 a73e 257c 1f3e
00000140: 515c 1dbf 6691 9a3d e656 fa3d 6fcb 4c3e
00000150: 84b1 093e ebd6 09bf 92e4 3d3f 5bf2 35be
00000160: 8845 b23e f723 393e 277d d1bd 19e2 513d
00000170: 6804 1e3d c452 d1ba d4f0 633d 70ef ddba
00000180: b14e b53c 87a0 29bc ae5e a8bd 31da afbe
00000190: 3702 8dbe 6fba dbbe b942 b6be 7e0a 63be
000001a0: e9d9 ea3c 24b7 033f bc14 b23d e803 a73e
000001b0: 1e8b 7fbe 4545 0a3e 756b ea3d a0e3 933d
000001c0: ec96 84be 4d5e 1fbe 0bd5 d0bc 25fb 9ebe
000001d0: b6a2 993d ef9d 353e 9b3d a0be 57cc 5e3a
000001e0: fef3 c13e 2901 06be 9bf0 a83e 4a28 03be
000001f0: 8d43 23be 9c7c e9ba ee04 f8be d9b9 f93d
00000200: 87e3 b33d 2464 00bf b520 c43d 8eba 80be
00000210: 647e 0b3e 8106 f938 ccb9 803e 21c3 42be
00000220: 7967 de3d bb56 97be 2b93 fdbd 095a 1ebe
00000230: ad52 1dbe fcb5 713d 5c2b 13be ab74 94be
00000240: c408 e43c b93f 37be e26f 873e 8012 d6bd
00000250: 248b eabd ab28 013e 5d57 613e eec6 9a3e
00000260: a195 70be 89ac 003f e95d 7f3e 4f78 9fbe
00000270: 6bf4 2c3f 1766 08bf ac9b 4cbb ada9 403e
00000280: 4d61 57be 0376 81bd 93ca ce3e 90f9 793e
00000290: b816 f83d f99b cfbc 4b9a 813d 37e3 ebbc
000002a0: 0529 10bf e478 afbe 43fc debe 2c6c 17be
000002b0: fe32 9bbd a265 10be 2309 03be 0c68 9b3e
000002c0: 4c2a 32bd 3399 af3d 2c6d a93c ca56 acbe
000002d0: 8440 723e cf84 d8bd 39f9 afbc 1ea4 0cbe
000002e0: 4e87 2c3e f01d b53e 3cd0 1a3f 7acb 833e
000002f0: dec0 b5be bc97 a7be 8717 b43d 5ff7 93be
00000300: 8b8e 5c3d 1ab0 643d 000b 40bd edd0 fa3d
00000310: e767 433e 5055 a0be c657 90bd 018d 88be
00000320: 6543 dabc 7dcc ef3d 90f1 03be ff2d 163e
00000330: 7a57 82bd 358f 003e 4845 0b3a 87f0 9a3d
00000340: 7718 f3bd 29f6 ae3d 22af e13c 0327 e33d
00000350: c102 1dbe 7674 593e 7ef4 b7bd ea34 eebb
00000360: 9499 213c 587e 243e 8d29 16bd 4c5e 053e
00000370: 911f 3b3d 4302 e9bc 48d3 283d c650 84bd
00000380: 6af2 753d 2ec7 68be 7bb7 b33e 7e7d 79be
00000390: dab7 e8bd c54e 6abd 5d8f 833e 13ca 54be
000003a0: fac1 f93c d0f9 37be a1e5 823d a30d f7bc
000003b0: 7c5a 4fbd 563d e23c dcb6 14bd 33a8 4ebd
000003c0: 19fd 643d e128 b33d 5b4e e4bd 36bd 543c
000003d0: 7a20 e63e 76ff 333e cc98 ad3d 8356 b93d
000003e0: 6152 f5bd 07fd aebd a037 b43e ca34 603d
000003f0: 7ec2 f2bc a676 863e 46c4 c03d ae2d edbd
0.10374151 0.06565311 0.056000743 0.014015541 0.1295957 0.046778195 -0.3457754 0.07796618
0.0662378 -0.11164143 0.039054524 0.22760892 -0.18801247 -0.06371592 -0.01831422 0.21630955
0.0029808935 0.12774949 0.14093772 -0.044109534 0.33157718 -0.026405288 0.1566009 -0.052704547
-0.026814792 0.15108013 -0.2162566 0.52609974 -0.17924032 -0.10025103 -0.035737004 -0.13585098
-0.14548343 -0.13944754 -0.14984208 0.12758717 -0.0066456157 -0.042513985 0.16545501 0.042897996
0.17454365 -0.0042025205 0.100619674 -0.025698848 -0.10179438 0.1441614 0.31833294 0.3177105
0.13015628 -0.05663215 0.07648598 -0.023022436 0.20974623 -0.05860333 -0.103179894 0.06675008
0.11731577 -0.0126587385 0.40664476 -0.17946227 0.20461279 0.106044225 0.059188545 -0.31501836
-0.18322241 -0.27563208 0.47999874 0.09035513 -0.37441415 0.19797687 -0.07237001 -0.08148842
0.15920323 0.07571386 -0.40905744 0.12744775 0.005187308 0.12649827 0.32745418 0.15574701
-0.6146899 0.07547264 0.12223606 0.19999479 0.13446623 -0.53843564 0.74176896 -0.17768233
0.34818673 0.18080126 -0.10228949 0.051241014 0.03857842 -0.0015970101 0.055649593 -0.001693232
0.02213225 -0.010353214 -0.08221184 -0.34346154 -0.27540752 -0.42915675 -0.3559778 -0.22171971
0.02866836 0.51451325 0.08695361 0.32620168 -0.24955413 0.13502987 0.11446277 0.072211504
-0.25896394 -0.15563317 -0.025492212 -0.31050983 0.07501738 0.17736028 -0.31297 0.0008499077
0.37881464 -0.1308638 0.32996067 -0.12808338 -0.15943737 -0.0017813626 -0.4844126 0.12193651
0.08783632 -0.501528 0.09576551 -0.2514233 0.13622433 0.00011874457 0.25141752 -0.19019748
0.108595796 -0.29558358 -0.12381586 -0.15464033 -0.1536357 0.059011444 -0.14372009 -0.2899526
0.027836211 -0.17895402 0.26452547 -0.10452747 -0.1145232 0.1261317 0.22005983 0.30229896
-0.23494579 0.5026327 0.24938168 -0.31146476 0.6756045 -0.53280777 -0.0031220717 0.18814726
-0.21033211 -0.06321337 0.40388927 0.24411607 0.12113708 -0.025342928 0.06328257 -0.028794868
-0.5631259 -0.3427192 -0.43551835 -0.14787358 -0.07578085 -0.1410127 -0.12796454 0.3035282
-0.04349737 0.08574142 0.02068194 -0.33659965 0.23657423 -0.10572206 -0.021481143 -0.1373448
0.1684849 0.35374403 0.6047399 0.25741178 -0.35498708 -0.32732952 0.0879355 -0.28899667
0.053846877 0.055832006 -0.04688549 0.12246881 0.19082604 -0.31315088 -0.070479915 -0.26670077
-0.026643464 0.11708925 -0.12885118 0.14665984 -0.06364341 0.12554629 0.0005312753 0.07565408
-0.11869901 0.08543045 0.02754933 0.11091425 -0.15333082 0.21235833 -0.0898218 -0.0072694914
0.009863276 0.16063821 -0.03666072 0.13024253 0.0456844 -0.028443461 0.04121712 -0.06460719
0.060045637 -0.22732231 0.35100922 -0.24364278 -0.11363192 -0.057204027 0.25695315 -0.2078021
0.030488003 -0.1796639 0.063914545 -0.03015787 -0.050623402 0.027617138 -0.0363072 -0.050453376
0.055905435 0.087480314 -0.111477576 0.0129845645 0.44946653 0.1757792 0.08476409 0.09049704
-0.11978603 -0.08544355 0.35198689 0.054737844 -0.029633757 0.26262397 0.09412436 -0.11580978

lstm.bias_ih_l0 f4 [256]
00000000: 49ec 333e e94a 3b3e 4953 81be 3a78 fd3c
00000010: cfd2 aabc ec6a e93d eb1b 7d3d 292a cc3d
00000020: d2f1 353e a237 363e d14a 9e3d d4ec 083e
00000030: 5d5b ea3d 68e8 ec3e 0f93 063d 6f50 813e
00000040: 1266 a73e ea97 793e 952a 703e 75e4 e03d
00000050: 9275 963e 86c1 6d3e b7f9 a6bb 6870 993e
00000060: a917 43bd 3eee 163d a861 be3d 7078 1f3e
00000070: bf13 923e 2469 f93d b4dd 643d 35f6 473e
00000080: d62b a73e bf5c 533e 33c3 2b3e 44cf 923d
00000090: 2bde 16bd 98d1 043e 0016 113d 40b3 123e
000000a0: 3018 d8bd ff7a 5f3e 10e6 723c 08f5 473e
000000b0: c8ec 613e 12a7 5c3e 4055 f73d 8f29 a23d
000000c0: a885 c73d 69ac 333d b790 953e 4234 3b3c
000000d0: 9149 5c3d 0d1c dd3d a053 dfbc 3900 a83e
000000e0: c08d 773e 4330 273e a812 4c3e 88c8 893e
000000f0: 083d 353e b992 563e 805a 5dbd 8380 a43d
00000100: e3e1 e13d b6ae 40be 70f7 3b3e 55fb 25bc
00000110: 9edb b03c 505c 0ebd 1777 0f3d c15d 14bd
00000120: 8450 803c e72e 663a 69d6 2a3e 6f86 9abc
00000130: f870 9c3d 87c9 3f3e b817 033d 51ac 623d
00000140: 74b3 0fbc aa60 9f3d eb93 193e 5dec 1d3e
00000150: 8190 92bc 4514 ca3d 30ea e5bc 56af 713d
00000160: 6e90 7d3d 67e8 603d 4f0b d93c 3d7c c73c
00000170: 2b76 adbd fe71 a8bd 8e35 063d 10a2 243e
00000180: 0248 56b9 32a9 03bd f016 fb3d 860c 783c
00000190: 1c8d 833b 7384 6bbd 103c 1d3e 7ca4 603e
000001a0: a813 3a3e c77f 33bc 5351 223d 2f9d 4d3e
000001b0: 22c0 5a3d a088 22bd acc5 ed3d bc70 683e
000001c0: 9ac0 8c3e 0341 793d a860 f73d ba82 293e
000001d0: 9cd4 eb3d 827a 093e 27c5 5d3d 67b8 533e
000001e0: b7d8 2abd 5e6c 28bd 64e5 50bd 2bf7 4e3d
000001f0: 52e4 223e 95a2 753e cfb3 c03d 4a0d 2d3e
00000200: 66f0 f4bd 13c8 95bd 80b7 82bd 1ed9 ffbd
00000210: b3b2 553d 528f d33d 85f4 adbd 7aa0 19be
00000220: 0b45 99bc baa4 babc 61a3 cdbd ee2b 90bb
00000230: 459a 5abd 0566 7cbd 921e 573c de84 d0bd
00000240: 066b 5bbe b4b9 2fbe 354f ddbd 35a2 b1bd
00000250: 9e3a 373e 9432 3b3e ce00 5bbd 46df 25bd
00000260: 2e96 21bd f003 be3c 7f48 07be 20fe ea3c
00000270: e170 e5bc 84b6 dfbd 5177 5abe 34f5 793d
00000280: 8d0a 0fbe 86f5 263e ed50 163e 846f 11bd
00000290: 5629 07bd b7b1 d23d 23dc fe3d 4fec 363c
000002a0: 077a c5bc 2f99 41bd fc61 0cbe 7da8 46be
000002b0: a66b 86be 6e16 793d 717e 24be 3e27 13bd
000002c0: 006a 60be 9a05 0cbe dd4f 863d bdba ff3c
000002d0: 6f30 113e e236 353e 6a8a c3bd 68dd 2cbe
000002e0: 02ab 8fbd f93c 0abd f978 683e 16a2 75bb
000002f0: 8668 8abc 126a 363c 29b1 c1bd 410f bdbb
00000300: 1f19 f53c 2455 653e b78a 243e 67b9 f33d
00000310: 64a0 a5bd c12f 7e3e 6325 a23d 1813 593d
00000320: 4812 243d 8fb5 463e fdbe 4c3e 725d 2e3e
00000330: 419b 9d3d 5413 513e b9a4 ae3e 42d2 193e
00000340: 5b26 723e 8b65 1f3e a442 a53e 3adc 693e
00000350: c834 833e 195f 2c3c 3234 463d a693 943e
00000360: 5c81 0a3d dd4b 033e ba35 973e 12b8 4f3e
00000370: 27e9 813e dde6 ac3d 8fac 413d b9db 7b3e
00000380: 2438 00bc 90a0 af3e 3579 da3c f18c 903e
00000390: 1d43 bc3e 75ae b63c 953e c13e 93df 9a3d
000003a0: 95b7 503e 5154 663d cf20 493e dab5 2e3e
000003b0: cfca 683e 3f74 613e 85f6 613e 070d af3e
000003c0: 7e39 613e f8ac 8f3e cfa2 583e 904d 193e
000003d0: 969d 8d3e 2120 f33d d972 033e fc97 533e
000003e0: 47b4 20be 2633 223e 848b 573e 1b74 c7bb
000003f0: 956d c73e d14c b33e f3e6 4c3e 368f 033e
0.17570604 0.18290295 -0.25258854 0.030941118 -0.020852474 0.11397347 0.061794203 0.09968979
0.17768028 0.1779466 0.07729114 0.13371593 0.114432074 0.46271062 0.03285509 0.25256678
0.3269506 0.24374357 0.23453744 0.10981075 0.29386574 0.23218355 -0.0050956863 0.29968572
-0.047629986 0.0368483 0.0929597 0.15573287 0.2853069 0.12178257 0.055875495 0.19527514
0.32650632 0.20640849 0.16773681 0.07168439 -0.03683297 0.12970579 0.03542137 0.14326191
-0.105514884 0.21824263 0.014825359 0.19527066 0.22062981 0.21548107 0.12076807 0.07918083
0.0974229 0.043865595 0.2921197 0.011426033 0.053781096 0.10796366 -0.027261555 0.3281267
0.24175167 0.16327004 0.19928992 0.26910806 0.17699063 0.20954408 -0.054041386 0.08032324
0.110294126 -0.18816647 0.18356109 -0.010130723 0.021589097 -0.034756005 0.035025682 -0.036222223
0.015663393 0.00087807927 0.16683353 -0.018862931 0.076387346 0.1872922 0.03200504 0.055340115
-0.008770812 0.07782109 0.14997832 0.15422197 -0.01789117 0.09867147 -0.02806577 0.059005104
0.061905317 0.054909136 0.02649465 0.024351234 -0.084698044 -0.08224867 0.032765917 0.16077447
-0.00020435455 -0.03214378 0.12260234 0.015139705 0.0040146243 -0.05749936 0.15354943 0.21937746
0.18171561 -0.010955757 0.039628338 0.20079492 0.05340589 -0.039681077 0.116099685 0.22699255
0.27490693 0.060853016 0.120789826 0.16553774 0.115151614 0.1342564 0.054143097 0.20675813
-0.04171058 -0.041118972 -0.051000014 0.050528686 0.1590741 0.23987801 0.09409296 0.168996
-0.11959915 -0.07313552 -0.06382656 -0.12492584 0.052172374 0.103300706 -0.08493904 -0.15002623
-0.01870968 -0.022783626 -0.10040928 -0.004399768 -0.05336978 -0.06162073 0.013129847 -0.101815924
-0.21427545 -0.17160684 -0.10806123 -0.08673517 0.17893454 0.18281013 -0.053467564 -0.040496133
-0.039449863 0.023195237 -0.13211249 0.02868563 -0.028007926 -0.10923484 -0.21334578 0.06102486
-0.13968869 0.16304597 0.14679308 -0.03550674 -0.032998405 0.10287803 0.124443315 0.011164739
-0.024106039 -0.047265228 -0.13709253 -0.1940021 -0.26254004 0.060812406 -0.16063859 -0.035926096
-0.21915436 -0.13674012 0.065582015 0.031216973 0.14178632 0.17696717 -0.09547885 -0.16881335
-0.07015039 -0.033749554 0.22702397 -0.0037480644 -0.016895544 0.011133688 -0.09457619 -0.0057696407
0.029919205 0.2239576 0.1606854 0.11900597 -0.08087233 0.24822904 0.07917287 0.052996725
0.040056497 0.19405197 0.19994731 0.17027834 0.07695628 0.2041753 0.34110048 0.15021613
0.23647444 0.1556608 0.32277405 0.22837916 0.25626206 0.01052072 0.04838962 0.29018897
0.033814773 0.12821908 0.29533178 0.20285061 0.25373194 0.08442471 0.047283705 0.24595536
-0.007825885 0.34302187 0.026669124 0.2823253 0.36769953 0.022299984 0.3774306 0.07562175
0.20382531 0.056232754 0.19641422 0.17061558 0.22733615 0.22017 0.22066696 0.34189627
0.21994588 0.28061652 0.21155857 0.14970994 0.2765929 0.118713625 0.1283678 0.20663446
-0.1569377 0.15839824 0.21049315 -0.006086839 0.38950792 0.35019544 0.20009975 0.128476

lstm.bias_hh_l0 f4 [256]
00000000: cf9f 063d 066f 293e 5db2 44be 9abb bd3d
00000010: 3e74 54bd ad6d 8cbd 0857 e93d 6427 633d
00000020: 2fd7 1f3e cf97 943e c30f ea3d dd72 143e
00000030: 91d2 5f3e 7d82 7c3e 90cd 3c3e d48f 523e
00000040: 839a e43e 4d4b 493e 97f9 8e3e 0850 c03d
00000050: 22a4 f63e b607 103e 2ee0 4a3e 0214 cd3e
00000060: 7208 2e3e 11a8 8fbc 69e7 253e f238 833e
00000070: fed6 263e 55a9 eb3c 4e8f 843d 8e69 a43e
00000080: 64b7 603e f767 7c3e c451 1e3e f389 7c3e
00000090: 8b7d 893c 038e 1b3d 070a b1bb cb8b 843c
000000a0: e443 b0bd af49 9e3d 9494 0b3e 8666 453e
000000b0: bb91 343e ad93 7f3e ec79 ad3e c1e6 633e
000000c0: 4725 a13e 2b7d 553d d51a 143e 7c16 3c3e
000000d0: aed9 523d d701 11bd 6703 503d 7205 7b3e
000000e0: ba9e d93d 3806 683e 525b 833e 4fba 8f3e
000000f0: 116f 203e f52f 863e e323 ecbc baa2 423e
00000100: 01d4 a2bd 1a62 1dbe a6d3 413e 7722 30bc
00000110: 6c04 4d3e 4f79 a33c 1bb3 f03d 8d5a e4bc
00000120: fa81 f8bd 1aba 4e3d 1723 193d 8327 923d
00000130: 4835 e9bd ec2d a03d 0d10 d9bd 0bef 0e3e
00000140: 9063 4f3e c502 9cbd 56fe afbc c1cb 3c3e
00000150: 01b7 36be fcae 823d 5b9b 5dbc 886f 333e
00000160: fd69 173d bbfa a5bc 2274 1a3d f7d0 eebd
00000170: 8559 d73d 1289 a13d a746 193e e761 d83d
00000180: 8e32 2e3e 60cf 22bc ddaa 62bc 28f2 e03c
00000190: 7c4f 233e 51ba 9dbc af1c 8d3d 6497 ef3d
000001a0: cdd5 e63d 831f 963d f64c 23bd f1c0 d83d
000001b0: d239 423e 4b8b 2abc 9ad0 95bc 1f7d 343e
000001c0: c08f 503e 1696 113b 5f9b 923d 115d 403d
000001d0: 8632 6b3e fbe9 0c3d 8cce 9a3d f8cf bd3d
000001e0: 2461 51bc 9c16 ddbd fcd3 143e fd23 443c
000001f0: c3a1 2d3e f579 0b3e 9146 0f3e 8239 ec3d
00000200: 9dca c53d 9c42 56bc de4a 21be 6ff0 1abd
00000210: 5f2a 043d 50bc 8fbd 0fe6 4bbd 755c fabc
00000220: bb6f 1dbd d59a 90bd 768b 1cbe b86f 5bbe
00000230: 9767 a13d 5ba4 eebd d631 00be baa4 a9bd
00000240: 9cea 12be 0b91 8dbd 77ea 8bbe 1035 ea3d
00000250: cceb 273e 2d66 413e d1e6 13be 64fe 073e
00000260: 41a6 c13d d919 92bd ffcf babd 637e c83c
00000270: 04eb 36bd 9546 bf3a c2d5 2bbe 7f99 d2bd
00000280: 1656 453d 4e26 ea3c 4adb 5a3e f74a f13d
00000290: 3d22 843c 215d d33b f76f 4c3b b478 673c
000002a0: 46dd 473d 5a8a a43a e211 b83d 72b5 c8bd
000002b0: 8b40 41be 9dc3 b33d d8b1 953d 5f4c 793d
000002c0: 5dc8 5dbe 492b 98be efc4 d3bb 2677 2abd
000002d0: cf40 183e 9e82 023e 79b6 8abd f207 53be
000002e0: aad3 07be e43b 5fbd f7ec fe3d 009f 553d
000002f0: 90fd a6bc b7e9 883c 9fe9 d43c e61b 49bd
00000300: d592 b63d 16c9 4e3e 984c 2d3e d3a7 cb3b
00000310: 78f5 af3d 4a1f 103e 6ecb 9e3e 0fb8 0ebd
00000320: ca09 9d3d be40 b33e 835d 8b3d 522d 543d
00000330: 3f95 813e 6d42 a23e d02a 653e 2553 953e
00000340: e79f 303e 4d99 883e c60d e73d 93f3 4c3e
00000350: dcab 703e a035 c6bc 9b05 77bd 069f 283e
00000360: 9cd3 923c be8c a63e 0cdb 3a3e 2d52 853e
00000370: e591 b93d 29f3 303e 8c00 353e 28f6 893e
00000380: 418e 83bd 0e98 013e cfa0 903d f283 453e
00000390: 456a 873e ae89 2e3d 376d be3e c88c 263e
000003a0: 496f 3a3d 0b17 fc3d ad2f 3e3e f9a5 973e
000003b0: fb2f 623e 46ca 183e 0863 713e 6b7e 403e
000003c0: 0d5b 723d 8da8 063e 872c 693d dbf4 933e
000003d0: 3483 853e 435f 923e 5ff1 823e 91d0 9cbc
000003e0: 9d69 d2bd ad70 3ebc b93f d13e cfec 123e
000003f0: e946 863e da32 be3e 0a79 c73c e41a 603e
0.03286725 0.16546258 -0.19208665 0.09264298 -0.05186867 -0.068568565 0.11393553 0.055457488
0.1560943 0.2902207 0.114287876 0.14496942 0.21857668 0.24659152 0.18437791 0.20562679
0.44649133 0.19657631 0.27924797 0.09390265 0.48172098 0.14065441 0.1981208 0.40054327
0.16995409 -0.017536195 0.16201557 0.25629383 0.1629295 0.028767267 0.06472646 0.32111782
0.21944958 0.24649034 0.15460879 0.24661998 0.016783496 0.03797723 -0.0054028067 0.01617994
-0.08606699 0.07728898 0.13630897 0.19277391 0.17633717 0.24958678 0.33882082 0.22255994
0.31473753 0.052121323 0.1446336 0.18367952 0.051477127 -0.035402145 0.050784495 0.24513796
0.10625978 0.22658622 0.2565561 0.2807183 0.15667368 0.26208463 -0.028825706 0.19007388
-0.07950593 -0.15369454 0.18928394 -0.010750405 0.20021218 0.019955305 0.11752912 -0.02787521
-0.12134166 0.05047045 0.03738698 0.071364425 -0.11387116 0.07821259 -0.105987646 0.13958375
0.20252824 -0.07617716 -0.021483582 0.18437101 -0.17843248 0.06381032 -0.013525809 0.17523015
0.036966313 -0.02026116 0.03770841 -0.11660951 0.10515121 0.07887472 0.14968358 0.105655484
0.17011473 -0.009937137 -0.013834682 0.02745922 0.1594829 -0.019253882 0.068902366 0.11698797
0.11271248 0.07330229 -0.039868318 0.10583676 0.18967369 -0.010409187 -0.018287946 0.17625855
0.20367336 0.0022214702 0.07158541 0.046963755 0.22968492 0.03440283 0.07558927 0.092681825
-0.012779508 -0.10795328 0.1453399 0.011971471 0.16956238 0.13620742 0.13991763 0.11534406
0.09657786 -0.013077404 -0.15751216 -0.03782695 0.03226697 -0.0701834 -0.049779948 -0.030561665
-0.038436633 -0.07060782 -0.15287575 -0.21429336 0.07881086 -0.11652442 -0.12519011 -0.08283372
-0.14347309 -0.069124304 -0.2732732 0.11435902 0.16398543 0.18886633 -0.14443518 0.13280636
0.094555385 -0.07133836 -0.09121703 0.024474328 -0.044657722 0.0014593179 -0.16780761 -0.10283183
0.0481778 0.028582718 0.21372715 0.117818765 0.016129607 0.006450311 0.0031194666 0.014127899
0.048795007 0.0012553439 0.08987786 -0.09800233 -0.18872277 0.08777545 0.07309312 0.06086385
-0.21658464 -0.29720524 -0.0064626853 -0.041617535 0.14868473 0.12745139 -0.06773085 -0.206085
-0.13264337 -0.054500476 0.12447541 0.052153587 -0.02038458 0.016713006 0.025990305 -0.04909887
0.08914725 0.20193896 0.1692375 0.0062150746 0.08591741 0.14074436 0.3101458 -0.0348435
0.07667883 0.35010332 0.06804945 0.051801033 0.25309178 0.31691304 0.22379613 0.29164997
0.17248498 0.2667946 0.11281924 0.20014791 0.23503059 -0.024195492 -0.06030808 0.16466913
0.017923169 0.32529253 0.18247622 0.26039258 0.0906103 0.17280258 0.1767599 0.26945615
-0.06423617 0.1265566 0.07061922 0.19288614 0.26448265 0.04261177 0.371927 0.16264641
0.045516286 0.123090826 0.18572874 0.29618815 0.22088616 0.14920911 0.23572934 0.18798225
0.059168864 0.13150235 0.05692723 0.28897747 0.26076663 0.28588304 0.25574777 -0.019142421
-0.102740504 -0.011623544 0.4086893 0.14348148 0.26225975 0.37148172 0.024349708 0.21885258

lstm.weight_ih_l0_reverse f4 [256, 1]
00000000: 1e07 3f3d b633 a1bd 4b7f 07be ddfe 843e
00000010: 1708 6f3e 3fde 103d 4146 da3c 9c96 4ebe
00000020: 67cf b03d cf4a 1e3d dc1e 56be 694d dcbd
00000030: d8f9 a63e 6ba8 a6bd ebc4 53be 6acc e73e
00000040: 596b 9f3e 3602 49be 023f a73e 22f6 a6bd
00000050: b711 0a3e 928f c6bd 14cb eb3d 895f f1bd
00000060: b8e6 683f e7f9 fc3d 6d0c 833e 13d1 fd3e
00000070: 635a 333e 03af bebd 9328 d9be 5e89 5f3d
00000080: 9c5c a93d dfa8 79be 2dab e63c ff66 b93c
00000090: e51b ab3d d32c 9b3e 6250 fe3c 4a96 213d
000000a0: fa43 683e 4456 92bd aaff 3d3d 73aa d33d
000000b0: 371b de3d ad5c 8a3d 543f 333c 1a2f cd3e
000000c0: fa10 debd ecd4 afbd e94e 6dbd bb94 f03d
000000d0: 7638 1c3d e180 4f3e cada 7bbe 26eb 82be
000000e0: df04 82bd 15ce 60be db4b 29bd fd6c 293d
000000f0: a4ff 3c3d ef78 58bd ea04 adbd 09bd 2d3e
00000100: 8732 2b3d da33 673d ed69 a2bf a104 dcbd
00000110: 2d9d 8dbd 7526 193e 84a2 2ebe 3c64 4cbe
00000120: 2bc5 e13d 6502 1e3d 8b14 35be ed1c 903e
00000130: e84f 39bd 1b3b 9f3d fc6c 033d 85dd 1dbf
00000140: cc82 e5bd b944 6f3e e15f 55be f875 9a3d
00000150: 196d cd3d c851 fe3d dc23 4a3d aaca 0ebe
00000160: 7099 81bd 0325 1dbd 2b9a 6ebc 16ff b53d
00000170: 4fa1 de3d cc8d e13d 6eea 30be f4f2 02bf
00000180: d94a 8ebe 5012 69bc ec86 ffbc 0fe1 b53d
00000190: 2055 183d 2381 9d3e 5d77 b53d 2833 b1be
000001a0: 4125 a23d 7968 073e 7d3a c13d bd5a b0be
000001b0: 622d 533d 8958 e7bd 787b 5f3d 2d1d 743d
000001c0: 5531 9e3b 0d23 b33d 94c3 3c3e 968e b6be
000001d0: 34bd 80be d521 703d ef57 993e be11 ec3d
000001e0: a7f0 b5be 2174 ed3c 8d87 01be 8fac f43d
000001f0: 9c38 76be d65d 0bbc c3ac 8b3e 21dc 423d
00000200: 4d4c 8e3d ae87 c0bd c0bb 13be f817 23be
00000210: b28b bb3e d164 d7bc f1f2 d1bd e333 0ebe
00000220: f104 a33c 2d2e 07bf 7aca 2d3e d431 16be
00000230: bac4 e93d 95f6 243e 97a1 64be 2ba6 813d
00000240: 101a 31bc 7d9a 153b 086b 2a3e 88c0 fdbd
00000250: 6970 d83d 9042 5bbe 6ccb 233d 6d6b fabe
00000260: 2514 63be b182 153e 2464 193e a56a c93d
00000270: 4da1 723d b7cf 5ebc 60ba 933f 6034 ccbc
00000280: 5b9b df3c 213c 5d3e 7094 aabd aead e5bc
00000290: 6f8b ecbd 3763 823e f7a1 13be 000f a93d
000002a0: 4d73 9abe 8728 bc3d 4f0f 3dbe 6eb3 5abd
000002b0: 969e 7dbd abf7 b03d 8c4d 7d3d 8f55 8dbd
000002c0: 66a9 873e c08d f2bd bac0 93be 5241 6a3d
000002d0: 04d5 8f3c 7216 32bd 822b fa3d 3553 6ebf
000002e0: 7fc9 6abe ce36 acbe 3398 3a3d d2ab dc3d
000002f0: dc47 d33c c9d6 fd3c c48e 043e aee1 74be
00000300: f954 1d3e c499 1e3e 088f ff3d 6bd2 83bd
00000310: 7cba 29be ae07 9a3d 4240 393d c8e0 9fbd
00000320: eb05 673e 2a63 713d b7f4 e83d 8a3f 8d3e
00000330: 5d93 eebc b21a da3e cf30 5a3d d9cd b1bd
00000340: 104d 243e a3d8 8f3e ef12 77bd a76d 7bbe
00000350: 2fc6 543d e29b 53be d060 123d e183 7e3f
00000360: 5b4d c5bd c1cd f4bd aef9 5bbc f412 c73d
00000370: 1505 2dbe 9ef0 a13e 10d0 cb3d 189d 633d
00000380: 697a 06bd 19e4 da3e 6aa9 393e 68c4 4a3d
00000390: 2f58 3dbd aca0 18bd 6122 29be a503 683e
000003a0: 0200 dcbd 37cd 42be ead6 ecbc 5e9f 0fbd
000003b0: ee28 f5bd 09c4 25bf a5d5 f9bc 9cc3 1cbd
000003c0: 3d80 a03e b018 923d a072 2fbe 2a2e 0c3e
000003d0: e6bf 8fbe 0666 153e ce11 1c3e cb30 973d
000003e0: 8c21 8a3d fcef d43e d2ca 0cbe 9617 493d
000003f0: bb1a c9bc 2873 fa3c 0700 233d 1824 70be
0.046637647 -0.07871191 -0.13232152 0.25975695 0.2334293 0.0353682 0.026644828 -0.2017464
0.08633309 0.03864556 -0.2091021 -0.10756952 0.3261249 -0.08137592 -0.20680587 0.45273143
0.31136587 -0.1962975 0.3266526 -0.08152415 0.1348332 -0.096953526 0.115133435 -0.117858
0.9097705 0.123523526 0.25595418 0.49573573 0.17514949 -0.093107246 -0.42413768 0.054574363
0.08269617 -0.24380825 0.028157795 0.02263212 0.0835493 0.30307636 0.031044189 0.039449967
0.22682181 -0.0714536 0.0463864 0.10335245 0.108450346 0.06755958 0.010940392 0.40074998
-0.10843082 -0.085855335 -0.057936583 0.11747118 0.038139783 0.20264007 -0.2459518 -0.2557003
-0.06348585 -0.21953614 -0.041332107 0.041363705 0.046142235 -0.052849706 -0.08448203 0.16966642
0.041796234 0.056445934 -1.2688576 -0.107430704 -0.069147445 0.14956076 -0.17054182 -0.19960111
0.11023935 0.038576502 -0.17683618 0.2814707 -0.04524222 0.07774945 0.032086357 -0.61666137
-0.11206588 0.2336606 -0.20837356 0.07542032 0.10030574 0.12417942 0.049350604 -0.13944498
-0.06328094 -0.038365375 -0.014563124 0.088865444 0.10870611 0.11013374 -0.17276928 -0.5115197
-0.2779148 -0.014225557 -0.031192265 0.08880817 0.037190557 0.30762586 0.08860657 -0.34609342
0.07917262 0.13223447 0.09434984 -0.34444228 0.051556952 -0.112961836 0.05456111 0.059598137
0.004827658 0.0874692 0.18433982 -0.3565566 -0.2514435 0.058626015 0.299499 0.115268216
-0.35535166 0.028986039 -0.12649365 0.119469754 -0.24045032 -0.008506259 0.27280244 0.047573213
0.06948147 -0.09400879 -0.1442709 -0.15927112 0.36630017 -0.02629319 -0.102514155 -0.1388698
0.019899817 -0.52804834 0.1697177 -0.14667445 0.11414476 0.16109689 -0.22327267 0.06330522
-0.010809436 0.0022827678 0.16642392 -0.12390238 0.105683155 -0.2141211 0.03998892 -0.48910084
-0.22175653 0.14600636 0.14979607 0.09834794 0.05923586 -0.013599328 1.1541252 -0.024927318
0.027295759 0.21604969 -0.083290935 -0.028036918 -0.11550032 0.2546632 -0.14417253 0.08254814
-0.30166093 0.091874175 -0.18462871 -0.053393774 -0.061918817 0.08640989 0.061841533 -0.06901085
0.26496428 -0.11843443 -0.28857976 0.0571912 0.017557628 -0.043478437 0.1221533 -0.93095714
-0.22928427 -0.33635563 0.045555305 0.107749596 0.025791101 0.030986207 0.12945086 -0.23914215
0.15364446 0.15488344 0.12478453 -0.064366184 -0.16575044 0.07520996 0.045227297 -0.078065455
0.22560851 0.05893246 0.11374801 0.2758754 -0.029123003 0.42598492 0.053269204 -0.086818404
0.16045022 0.28094968 -0.06032079 -0.24553548 0.051946815 -0.20664933 0.03573686 0.9941998
-0.09633895 -0.11953307 -0.0134262275 0.09720412 -0.1689647 0.3162889 0.09951794 0.05556974
-0.032831583 0.4275215 0.18131033 0.049503714 -0.046226677 -0.037262604 -0.16517021 0.2265764
-0.10742189 -0.19023596 -0.028911073 -0.035064094 -0.11970697 -0.6475225 -0.030497381 -0.038272485
0.31347838 0.07133615 -0.1713357 0.13689485 -0.28076094 0.145897 0.15241167 0.073823534
0.0674468 0.41589344 -0.13749245 0.04909476 -0.024548879 0.030572489 0.039794948 -0.23451269

lstm.weight_hh_l0_reverse f4 [256, 64]
00000000: fbad bbbc 1ed0 3c3e c0c5 b73d 9399 02be
00000010: fd45 c53d 2675 df3d 46c8 923d a15e 5dbd
00000020: 492b 51bc 51b3 12bd adea a73b 4267 d9bd
00000030: cf67 533d 734d 723e 1080 be3d 98d3 293d
00000040: 7284 02bd 1039 073e 79a3 c43d c319 283e
00000050: 073f 063e 6196 77bd b379 f53d 5bf7 a43e
00000060: 7126 a3be 9d5c 0d3b 82fc 48bd b017 56bc
00000070: 07de 09bd 00c9 dd3d edf4 3fbf 3348 1cbe
00000080: fdd0 bd3d 64d0 023d 345b 8fbd 6814 bc3c
00000090: 1c0a 2c3d 48bc 7b3d 1a32 e63d f13f 193d
000000a0: 30b4 233e d92a 7cbe ac71 a6bd b454 b5bd
000000b0: 0545 a1bd a487 c73d 22be db3d 2081 af3c
000000c0: 2f63 3d3e d1fc e3bd e19b 8dbd bc4a 21be
000000d0: 3897 483d 9326 48bd b3e9 60be 3850 c0bd
000000e0: 2521 063e cb81 c8ba d980 a13c c905 143e
000000f0: ac3e 52bc e394 763d 612a 093d d687 8bbd
00000100: 8ee9 303e 0d6f 793d 3180 e4be 2918 e7bd
00000110: ce9b 9abe bd81 debd 6d4e 89bd 5259 ef3d
00000120: d530 8a3d c7f5 5fbe f337 1ebe f5d4 bb3d
00000130: ca82 bb3e f397 e5bd 14ab 103d d18d 0a3f
00000140: daaa a23e 7739 ff3d 1533 fe3e fe44 273e
00000150: 197b 9b3d dc10 ffbc 4f5e 243e d592 4a3d
00000160: 874e b8bd 0334 b33d 850e 733e 0482 273e
00000170: 8481 9bbd e5e8 b6bd 38c6 0e3e 9c3d 1dbc
00000180: cf96 913e e5b9 5a3e ff23 2fbe 9612 13be
00000190: a74c 63bd 36c2 8c3e 032f 863d 2262 433d
000001a0: c5e4 05be e325 103e d07e 4ebe 3653 9ebe
000001b0: d914 46bd 4761 483d e88c 073e 6c8f b83d
000001c0: 8ae5 f53d b2f5 70be 2e39 c93d d731 7e3d
000001d0: ccc9 513e 9257 3abe c7e4 dd3e b695 a1be
000001e0: 8cb2 b3be 639d 9cbe 1e18 873e 5f22 b33d
000001f0: bd62 233e 4396 473e 5177 893b 9912 cabd
00000200: 1ce2 1b3e eeb3 613e 36af 0bbf c228 0ebf
00000210: 44f8 ae3e 965b 40bd 2b21 babe 0c52 24bc
00000220: 997c 853e e57e 54be e25c a53d ef2c da3d
00000230: 2c90 b93e fd51 edbc 8e9f 6ebe 3794 0b3f
00000240: 5ca2 b13e c182 3b3d 2bc1 173f 2350 21be
00000250: a027 cf3c 6e1c 4abd f263 c53d e4ec 96bd
00000260: 4db6 29bf 773d 0e3d 5d9a c63e 251d 923e
00000270: 66c4 b6bd 48c7 693e dc7d 3bbf 9bd8 8dbd
00000280: f72a 793e 831a 043e 3bca 0cbe 474c eabd
00000290: 2362 abbe 4089 cf3e 7c8f d2bc 7ea1 4b3e
000002a0: 4b89 72bd e70c 743e 6c5a f5be b71b e5be
000002b0: e5db 5d3d 21c9 13bb 3fdb fe3e 4109 e4bc
000002c0: d1ba e13e 92bb 48be 4226 a03d 93c6 993d
000002d0: d620 e6bd 171f 443d 8508 b73d ab8f 2f3e
000002e0: 411e 00bf 2fbd a73d 82de 4c3d 8fea a93e
000002f0: 57f6 24bd 3e77 803e e224 b7be 5b04 033e
00000300: 8587 ca3d 013f 67be 1edb 843e 1717 f93e
00000310: 59fa abbe b772 5d3c 2e3f d7bc c5db ca3e
00000320: f2be 15bd 9bea 2ebe 08a3 29bd 107b 253e
00000330: c8ce 223d ad96 153f 9808 af3d 2044 f6ba
00000340: d7dc d03c 8199 c83d 0f43 b33d f593 823d
00000350: 6c82 593e 158d 0cbe 68c0 5b3e cdce 45bd
00000360: 7247 f83d 1de2 8e3c a9e8 143e baa8 0739
00000370: f53b 313e 28bc c83d e762 fabe 4e71 75be
00000380: 5e75 e23d 27ee a93d 6f24 02bd c731 d13d
00000390: 63b4 28be ef63 043e 53eb 27be 66c9 4c3e
000003a0: 4c9a aabc bd8e c3bc 6d66 a3be 5979 e6bd
000003b0: da9c 63be 23f1 2dbe bf22 1a3e e00a 68be
000003c0: a8de 1b3c 0d5a 26bd 8866 2cbc 2d00 9a3e
000003d0: 0a87 a13e 5c2a 19be e3d8 0abe 228d f43d
000003e0: b1e0 a1bd 0faa 193d f98d 703e 823e b83d
000003f0: 38ab 03be 3802 103e e588 423e 6526 04be
-0.022910109 0.18438765 0.08973265 -0.12753896 0.0963249 0.10911016 0.071671054 -0.054045323
-0.012766668 -0.03581554 0.005124411 -0.10615398 0.05161267 0.23662357 0.0930177 0.041461557
-0.03186459 0.13205361 0.096014924 0.16416077 0.1310998 -0.060446147 0.11986103 0.32219967
-0.31865266 0.0021570094 -0.049068935 -0.013067171 -0.033659007 0.10829353 -0.749831 -0.15261917
0.09268377 0.031937018 -0.069998175 0.02295895 0.04200183 0.061458856 0.11240025 0.037414495
0.15986705 -0.2462572 -0.0812715 -0.088540465 -0.078744926 0.09742668 0.10729624 0.021423876
0.18494867 -0.11132205 -0.06914497 -0.15751165 0.04897234 -0.048864912 -0.21964149 -0.093903005
0.13098581 -0.001529747 0.01971476 0.14455332 -0.012832325 0.060200583 0.03348768 -0.06813018
0.17276594 0.060896922 -0.44629052 -0.11283905 -0.30196995 -0.10864589 -0.06704412 0.116869584
0.06747595 -0.218711 -0.1545103 0.09171478 0.36623222 -0.11210623 0.035319403 0.54122645
0.31770974 0.124621324 0.49648347 0.16334912 0.075918384 -0.031135969 0.16051601 0.049456436
-0.08999353 0.08750155 0.23736008 0.16358191 -0.075930625 -0.0893114 0.13942802 -0.009597208
0.2843537 0.21359976 -0.17103575 -0.14362559 -0.055493023 0.2749192 0.065519355 0.04770101
-0.1307555 0.14076953 -0.20165563 -0.3092286 -0.048359726 0.048920896 0.13237345 0.090117306
0.12006672 -0.23531225 0.09825359 0.06205925 0.20487136 -0.18197468 0.43338606 -0.31559533
-0.35097158 -0.30588827 0.26385587 0.0874679 0.15955634 0.19490914 0.004195132 -0.098668285
0.15222973 0.22041294 -0.54564226 -0.5553094 0.34173787 -0.046962343 -0.3635343 -0.010029327
0.26071623 -0.20751531 0.080743566 0.10653102 0.36242807 -0.02896976 -0.23303053 0.5452303
0.34694183 0.045778994 0.59279126 -0.15753226 0.02528745 -0.04934352 0.09638204 -0.07369402
-0.66293794 0.034726586 0.38789645 0.2853786 -0.08924179 0.22829926 -0.7323892 -0.0692608
0.24332796 0.12900738 -0.1374902 -0.1144033 -0.3347331 0.405344 -0.025703184 0.19885823
-0.059212964 0.23833047 -0.4792055 -0.44747707 0.054164786 -0.0022550302 0.49776646 -0.027836444
0.44087842 -0.19602802 0.07819797 0.07508578 -0.11236732 0.047881212 0.08937172 0.17144649
-0.50046164 0.08190381 0.050016887 0.33186767 -0.04027399 0.25090975 -0.35770327 0.1279463
0.098891295 -0.22582628 0.25948423 0.4865043 -0.33589438 0.01351612 -0.026275244 0.39620796
-0.036559053 -0.17081682 -0.041415244 0.16160226 0.039747983 0.5843304 0.08546561 -0.0018788613
0.02549593 0.097949035 0.08753025 0.06375877 0.21241158 -0.13725694 0.21460116 -0.048292924
0.12123002 0.017441804 0.14541878 0.00012937459 0.17308028 0.09801513 -0.48903582 -0.23969004
0.11057542 0.08297377 -0.031773027 0.102145724 -0.16475062 0.12928747 -0.16398363 0.19998702
-0.020825528 -0.023871774 -0.31914082 -0.11253614 -0.22227803 -0.16986518 0.15052317 -0.22660398
0.009513535 -0.040613223 -0.010522492 0.3007826 0.3154834 -0.14957565 -0.13559298 0.119409814
-0.079041846 0.037515696 0.23491658 0.089962974 -0.12858284 0.14063346 0.18997534 -0.12905271

lstm.bias_ih_l0_reverse f4 [256]
00000000: cc91 5a3e 3f1d 533e 4758 633d cb1d 5a3d
00000010: f0a9 9f3e 5d16 d9bd 7972 823d 5df3 45bc
00000020: a1bd da3d 66a2 f53d 264d 9c3e 8c14 84bd
00000030: 472f 513d 5596 8dbd cc64 053e 2e97 8e3e
00000040: c77e 0fbc 40ea eb3d b06a ad3d 288a 7e3e
00000050: 63e7 d03d a4da ff3c f80c 583d 6f94 b13e
00000060: ef2b 1a3e c55b 4c3e 9b7f be3e 19c9 243c
00000070: 9f3a 313e d813 043e 18ed 3d3e c864 09be
00000080: 6b91 14bd 34da 753e a404 4e3e 5f63 0f3e
00000090: 944a c13d 76c4 613c d254 393e 1b0b b93d
000000a0: 28a5 833e 413c 103d 173c da3d 1f1e 0d3d
000000b0: 0f86 0cbd c430 8bbc 5c59 873e f2a1 40bb
000000c0: b8fc 363d ad69 e4bc ffe9 1a3e efb2 21be
000000d0: d0d2 a13d af2f dd3d d411 60be 9481 333e
000000e0: 3b5b a53e e18c 363e 1873 6d3e 39d7 e3bd
000000f0: 5a27 033e 75b2 0e3e 04e4 e43d 24fb 5e3e
00000100: d9d1 133e f7db b23d 5674 213e 480b 733e
00000110: ff78 333c 33d1 763d 66aa a3bd af98 8e3d
00000120: 81b9 c23d 0192 563d b5cd 743e 31e7 663e
00000130: 2b86 a03e 265f d53d 26c7 55bd 7a3f d13d
00000140: 51ef 4f3e 3e82 1d3e 123c 30bc e9da 5f3e
00000150: 3e46 b03b 063a 6d3e 2cf6 75bd 1383 163e
00000160: d3d7 84bd fe23 013c 393c 78bb c082 6e3d
00000170: 7673 093d 16fd 08bd 7d54 a23d 27f3 1b3e
00000180: 127c 5bbd 9d91 f73d 9006 b03d fd6d 943d
00000190: 2dd2 503e 8208 b23d f9ea f93d 2376 493d
000001a0: 84c1 df3d a47a 9f3d 440e fabd 32a4 febc
000001b0: 4f88 bc3d b71b 113e fbfd fd3d 7215 85bd
000001c0: 2380 1e3e 9d3b 2a3e 0388 653e 85da 7e3e
000001d0: f5ca edbb d1c7 9ebd b9c8 8b3e 1fa5 7f3d
000001e0: ca41 1a3e 29f7 30bd 93f4 f83d 6b1d 6cbb
000001f0: 30ed 01bd f18f 3a3e 0464 523e 51d5 3e3e
00000200: 72a5 4d3e 4356 b03d 10ad 17bd 4ba3 b7bd
00000210: c30a 683d 5ed8 fbbc 0663 6e3d e1f0 0d3c
00000220: 77e9 013d 21b0 523d d9d6 c4bd d187 b53d
00000230: edcd 0dbd 1750 35be 39b9 ddbd 66e1 b9bd
00000240: 446a 103e db60 80ba 2989 2fbe bd26 be3d
00000250: 9bf0 7ebd 8f72 62be e9b4 53bd 37b4 2a3c
00000260: 1af5 debd 84ac 623d 420d a33d 5872 3abe
00000270: 6c22 423e 2fde eb3d 60b2 e53b 7056 cdbd
00000280: de3e 0d3e 03ad 9c3d 216e 3b3e ae01 203e
00000290: a490 03bd 9e96 a63d 90b7 5dbe a39f 6a3c
000002a0: 796d ed3d 9ed7 81bd 0be1 273e b3cc 97bd
000002b0: ea0c f3bd 5854 0b3e fd9d 8bbd 8d51 e73d
000002c0: fe58 0fbe 6356 df3c 88ea 8bbd 1cb6 523b
000002d0: 5c4a 1b3e b82a 2ebd 7673 823c bb9f 173d
000002e0: 65f1 0d3c f1d7 473d 2d35 2abe 14f6 9e3d
000002f0: 11e5 4d3e cd8c f5bd 9338 2cbe ac57 a3bd
00000300: 8fc0 fb3d 1a5e 1b3e 8390 b83e 6ab3 b33c
00000310: 3b7b fe3d 2beb bdb9 38d0 a33d 4579 853e
00000320: cbda 0cbc 04c1 b9bc c044 9d3e b45e fd3d
00000330: c3ac 983e 8ff8 933d 30fb fc3c 3e58 b13e
00000340: 68d7 723e 21d6 b23d 89f7 8b3e 4ada 673d
00000350: 6570 d03c 4bf9 1a3e 6b29 8a3d 9b8f 373e
00000360: 629e db3d a787 6d3d 5054 813d 3a38 023e
00000370: 64a1 483c ca73 de3d 6681 fa3e 79e7 0f3e
00000380: fda6 513e 31a0 733e 2453 013f 019e f0bd
00000390: 8ec9 363e 82ae c73d 5750 693e 4339 e03d
000003a0: 8c9a fd3d 3cf4 043d 0cef c63d 4fb7 763e
000003b0: 30e0 2a3e a3db a0bb 0e62 563e d7a7 333e
000003c0: 8f84 8f3d 1d67 413e 57d6 6a3e 92db 933e
000003d0: dbfa 033e 31bf 8c3d ed48 c33d 80f2 823e
000003e0: d680 df3d e5e2 4d3e 461f 4a3e 2372 eabc
000003f0: 6f87 0e3e 3e53 233c 03b1 293d 3510 89ba
0.2134468 0.20616625 0.05550411 0.05325107 0.3118434 -0.105999686 0.0636949 -0.012081948
0.106807 0.11993866 0.3052761 -0.064492315 0.051070478 -0.06913439 0.13026732 0.27849716
-0.008758253 0.11519289 0.08467615 0.2485739 0.102003835 0.031232186 0.052746743 0.34683558
0.15055822 0.19956882 0.3720673 0.010057711 0.17307518 0.12898195 0.18547475 -0.13417351
-0.036271494 0.24009019 0.20118958 0.14002751 0.09438053 0.01377975 0.18098763 0.09035321
0.25711942 0.035213713 0.106559925 0.034452554 -0.034307536 -0.016991027 0.26435363 -0.0029393402
0.044674605 -0.027882421 0.15128325 -0.15790914 0.079015374 0.108001105 -0.21881801 0.17529899
0.32296166 0.17827179 0.23188436 -0.11125035 0.1280798 0.13935263 0.11176303 0.2177549
0.1443552 0.08733361 0.15767035 0.23734772 0.010954141 0.0602581 -0.07991485 0.06962716
0.09508038 0.052385334 0.23906596 0.2254913 0.31352362 0.10418539 -0.052191876 0.10217185
0.20306136 0.15381715 -0.010756509 0.21860851 0.0053794673 0.23166665 -0.06004922 0.14698438
-0.06486478 0.007882116 -0.0037877692 0.05823016 0.033557378 -0.033444487 0.07926271 0.15229474
-0.05358512 0.120883204 0.08595002 0.07247541 0.20392676 0.08693029 0.122030206 0.04918493
0.10925582 0.07787064 -0.12209752 -0.031084154 0.09205686 0.14170729 0.124019586 -0.06498231
0.15478568 0.16624303 0.22415166 0.24888046 -0.0072568604 -0.07752956 0.27301577 0.06241333
0.15064159 -0.04320446 0.12156024 -0.0036028277 -0.03172034 0.18218972 0.20545965 0.18636061
0.20082644 0.08610203 -0.03703028 -0.089666925 0.05665089 -0.03074282 0.058199905 0.008663387
0.03171679 0.0514375 -0.096112914 0.088637955 -0.034620214 -0.17706333 -0.10826344 -0.090761945
0.14103037 -0.000979449 -0.17142166 0.092847325 -0.062241178 -0.22114013 -0.0516862 0.010418943
-0.10886593 0.055340305 0.07961513 -0.18207681 0.18958443 0.115169875 0.0070097893 -0.10026252
0.13793513 0.07650187 0.1830373 0.15625641 -0.032120362 0.08134197 -0.21652055 0.014320287
0.11593146 -0.06339954 0.16394441 -0.0741209 -0.118676975 0.13606393 -0.06817243 0.112948515
-0.13998792 0.027262872 -0.06831843 0.0032152003 0.15165085 -0.04252121 0.015924197 0.037017565
0.00866351 0.048789922 -0.16621847 0.077617794 0.20106913 -0.11989746 -0.16818456 -0.079757065
0.12292587 0.15172616 0.36047754 0.021936137 0.12425848 -0.00036224103 0.07998699 0.26069084
-0.008597086 -0.022675045 0.30716515 0.12371579 0.29819307 0.07225143 0.030881494 0.34637636
0.23714983 0.08732248 0.27337292 0.05660466 0.025444219 0.1513416 0.06746181 0.17925875
0.107235685 0.057990696 0.063149095 0.12716761 0.01224551 0.10861929 0.48926848 0.14053144
0.20473857 0.23791577 0.5051749 -0.11748887 0.17850325 0.097500816 0.22784553 0.10948422
0.12382993 0.032459483 0.09713563 0.24093364 0.16687083 -0.0049089952 0.20935842 0.17544495
0.070077054 0.18886991 0.22933327 0.28878456 0.12888663 0.06872404 0.09535394 0.25575638
0.109132454 0.20106085 0.19738492 -0.028618878 0.13918851 0.009968577 0.041428577 -0.00104571

lstm.bias_hh_l0_reverse f4 [256]
00000000: 2492 573e 8359 693e 3b8e a83d b97d 53bb
00000010: 8c84 763e 7b59 eebd 46bc 603e 8bce 66bb
00000020: dc57 323e f6e0 843e 00e0 733e 5f02 f3bb
00000030: 1d97 6f3e 7279 c9bd 15ed ed3c 5944 613e
00000040: 610c 21bd 9d72 1bbc 2f61 8dbd a356 963d
00000050: 3561 423e 00fe 563d a628 e43d a238 2a3e
00000060: e6f5 893e f6c2 823e 709a 4b3e cc22 1f3e
00000070: 821c 973d 2f32 7fbd aac6 953d 6467 9f3d
00000080: ee91 e03d eb0e f33c a543 c53d 174e 2b3e
00000090: 9481 213e 88af 5c3e abd2 6d3e 9985 3d3e
000000a0: e8e7 cb3e 3f24 2d3e 00f0 8f3e 98b9 50bd
000000b0: 3e1d c0bd eeda 523d 84ff 813d 7ca3 473e
000000c0: 59e4 4a3e e393 a03b e0fd 8b3e f5dc a5bd
000000d0: c687 043e 3513 513e 57fa 16be da4d 563e
000000e0: d3ce 913e aa3b 1a3e b7a7 af3d 6d27 59be
000000f0: 3615 a93d 161d 063e 564c 913b af6d 293d
00000100: 357d 2bbd 8ae6 103e 9e12 8abd c0b5 863e
00000110: d578 be3d afbf 463e 5915 8f3d b17f 723e
00000120: 2af4 5dbd 0520 acbc fb3e f93d 869d c23d
00000130: 95a9 a03e 08b9 6b3e 4f4d 8c3c 3d9b d6bb
00000140: ecce 773e 1be5 683c ee8c 9cbc 7aa9 7d3e
00000150: b0ab f83d 51fa 5a3e f0ce 233e aa3e 283d
00000160: 33ab 39bd 2be3 663d a2fc d1bd 1759 933d
00000170: 69b2 a63d 8388 103e 0f42 dc3d 24c2 febc
00000180: 54cd 9d3b e9fb 6d3d 8f3f 2e3e fda5 b13d
00000190: f249 453e d7a1 883b 9920 2cbc 12c1 763e
000001a0: fc48 033c d7ac 0c3c b1ce b8bc ea54 1abd
000001b0: 35eb ac3c 0a43 d83d c037 103e 0dae b13d
000001c0: 1770 b0b9 19cf 1d3e 14f8 743e 35d2 1a3e
000001d0: ae61 b93d e517 06be 4cb6 753e 381c e83d
000001e0: 2dda 70bc c250 123e 5bda 9a3d 8949 4f3d
000001f0: 9982 303e 8049 d53d 278a b03e be11 e63d
00000200: 5fd0 183e 723b 3bbd 8184 3c3e 31d5 293c
00000210: 216b 54bd 1579 bebd 3f35 be3d a93a 993d
00000220: ad6a 333e 61a1 22bb 813c 08be 2d57 f13d
00000230: 5eb7 213d 901c 23bd 640c 12be e70c 3fbe
00000240: 96e4 353e 1289 0abe aa52 0fbe cd16 2dbd
00000250: 6d60 69bc 3ff0 f1bd bf89 cfbd caf0 f83d
00000260: 6073 1fbe be6c 053e de29 e4bd 6155 bcbd
00000270: 3b4b 7d3d db41 0a3e d71b 69bd 0d10 be3c
00000280: 8c39 b83d b68d 663d 3784 683e 70e0 083d
00000290: 55f6 863c 086d a33d 753a 8aba a159 1abe
000002a0: a9bc 283d 3043 163c ada2 fe3d d714 cabd
000002b0: addb b73d e72a 113e e548 4e3d 32a7 513e
000002c0: fee3 a6bd a5d0 d7bc 44f8 d43c d588 e33b
000002d0: 4641 4c3c 9861 a23d 16c1 803d 54c5 a3bd
000002e0: 376f 29bd fdef 52bd 5d2c 02be 5a91 ebbd
000002f0: a393 a83c 9d8c d3bd 14be 64be a043 4abe
00000300: b3c5 f8bb e58c 293e 14e5 983e bdcf b33d
00000310: 0cfc 0e3e f63f 88bd 2e6a 4d3e aee1 433e
00000320: ff06 a6bd 7fb2 383e 6d62 7c3e 776b 923a
00000330: 3a79 873e 54be 3c3d 829c 43bb 6ba5 a13e
00000340: 6c47 883e 622d edbb f37b c03e 0aae 163e
00000350: 88cb 033e 06a8 313e b71e ea3d 4233 693d
00000360: 2f12 f53d d4fc fd3d b5de d13c 12aa 403d
00000370: 77ff 723d 8529 4fbd aa42 fc3e 39e4 e73d
00000380: c836 eb3d 876e 583e 9324 ac3e f5d5 61be
00000390: 21b8 863d 91ee 693e d20c 2a3e 9c9e ea3d
000003a0: 3d2d 273e 0574 323e c9e9 5b3a d845 9d3e
000003b0: a866 413e e267 4abc f0c4 0e3e a433 593e
000003c0: 51ac 9d3d 9321 cd3d 7517 3c3e 24f9 643e
000003d0: fd46 413e d92b c539 e07b 54bd f6db 853e
000003e0: fd70 813e e4f8 413d 12d0 483e 92a9 81bd
000003f0: b3f5 153c 867a 293e 6ced 4f3d a563 c3bc
0.21051842 0.22788052 0.08230253 -0.0032270981 0.24074 -0.11638161 0.2194682 -0.0035218324
0.17416328 0.25952882 0.23815918 -0.007416054 0.23397489 -0.09837617 0.029043714 0.21998729
-0.039318446 -0.009487775 -0.06903302 0.073407434 0.18982394 0.052488327 0.111405656 0.16623166
0.26945418 0.25539368 0.19883132 0.15540618 0.07378484 -0.06230372 0.07313283 0.07783392
0.10965334 0.0296702 0.09632043 0.16729008 0.15772086 0.21551335 0.23224895 0.18507995
0.39825368 0.16908358 0.28112793 -0.050958246 -0.093805775 0.05147832 0.06347564 0.19495958
0.1981367 0.004900442 0.2734213 -0.08098785 0.12942418 0.20417483 -0.14743935 0.20928136
0.28478107 0.15061823 0.08576911 -0.21206446 0.08255999 0.13097033 0.004434149 0.041364368
-0.041867454 0.14150444 -0.06741832 0.2631054 0.09300391 0.19409059 0.069864936 0.23681523
-0.05418793 -0.021011362 0.12170216 0.095027015 0.3137938 0.23019803 0.017126707 -0.0065492676
0.24200028 0.014214779 -0.01911017 0.24771681 0.12142122 0.2138455 0.15996909 0.041075386
-0.045329284 0.056368988 -0.10253264 0.07194727 0.08139498 0.14114575 0.10754787 -0.031098433
0.004815737 0.05810157 0.17016433 0.08674238 0.19266489 0.0041696834 -0.010505819 0.24097088
0.008013006 0.00858613 -0.022559496 -0.037678637 0.02110825 0.10559662 0.14083767 0.08675776
-0.0003365285 0.15411033 0.2392276 0.1511925 0.09051834 -0.13095053 0.23995322 0.11333507
-0.014700455 0.14288619 0.07561179 0.050607238 0.17237319 0.1041441 0.34480402 0.11233853
0.14923237 -0.04571099 0.18409921 0.01036577 -0.05185998 -0.09300438 0.092875 0.07481892
0.17521162 -0.0024815428 -0.1330433 0.117842056 0.039481513 -0.03982216 -0.14262539 -0.18657266
0.1776298 -0.1352885 -0.13996378 -0.042258073 -0.014244181 -0.118134014 -0.10133695 0.12155302
-0.15571356 0.13029763 -0.11140798 -0.09195972 0.061839323 0.13501684 -0.056911316 0.023201013
0.08995351 0.05628749 0.22706686 0.033417165 0.016474882 0.079797804 -0.0010545986 -0.15073253
0.041195545 0.009171292 0.12433372 -0.09867256 0.08977447 0.14176522 0.050362486 0.20473936
-0.08148955 -0.026344607 0.025997289 0.006943802 0.012466734 0.07928771 0.06286828 -0.07996622
-0.04136583 -0.051498402 -0.12712236 -0.11502333 0.020578211 -0.10329554 -0.22338134 -0.1975236
-0.007591927 0.16557653 0.29862273 0.08779857 0.13963336 -0.066528246 0.20060036 0.19129059
-0.08106803 0.18036841 0.24646921 0.0011170943 0.26459676 0.04607995 -0.0029847925 0.31571516
0.2661699 -0.007238076 0.37594566 0.14714828 0.1287061 0.17349252 0.1143164 0.05693365
0.11966359 0.12401739 0.02561889 0.04703719 0.05932566 -0.050576705 0.4926961 0.11322827
0.11485058 0.21135913 0.33621654 -0.22054274 0.065780886 0.22844912 0.16606453 0.114560336
0.16325851 0.1742707 0.0008389024 0.3071735 0.18886817 -0.012353869 0.13942313 0.21211106
0.07698882 0.100161694 0.18368323 0.22360665 0.18874736 0.00037607437 -0.05187595 0.2614438
0.25281516 0.0473565 0.19610623 -0.06331171 0.009152818 0.16550645 0.050763533 -0.023851225
