lab5/models/model_128_1_layer_40epochs_bidirectional.pth (torch, 544507 bytes, 10 tensors)

lstm.weight_ih_l0 f4 [512, 1]
0	0x3e2cdafe	0.16880414
1	0xbe3e5ee2	-0.18590882
2	0xbe1d91fc	-0.1538772
3	0xbd8da637	-0.069164686
4	0x3df9ccba	0.121972516
5	0x3d0db314	0.03459461
6	0xbe1db347	-0.1540042
7	0xbcc7588a	-0.02433421
8	0x3e73bd3b	0.23802654
9	0xbdae69d2	-0.085162774
10	0xbd74c959	-0.059762333
11	0xbdd890ea	-0.10574515
12	0x3e46c9d2	0.19412926
13	0xbe2f2be5	-0.17106588
14	0x3d77340f	0.06035238
15	0xbd849ed5	-0.06475607
16	0x3c74dbcb	0.014944981
17	0xbdbf243e	-0.093330845
18	0xbe2b6a60	-0.16739798
19	0x3e3f2dd6	0.18669829
20	0xbe12bb90	-0.14329362
21	0xbdb52fc6	-0.08847003
22	0x3d1a5bba	0.037685134
23	0x3da68c3a	0.08132215
24	0xbe05283f	-0.13003634
25	0xbddf1a54	-0.108936936
26	0x3f176520	0.5913868
27	0xbe1636d1	-0.14669348
28	0x3d8c0bd4	0.068381935
29	0x3d04925f	0.032366153
30	0xbde8bbd2	-0.11363949
31	0x3e38860b	0.18019883
32	0x3c8a7492	0.016901288
33	0xbd9df5e0	-0.077129126
34	0xbdc64804	-0.09681705
35	0x3c1962b8	0.009361915
36	0xbe3f34b7	-0.18672453
37	0xbc65cc10	-0.014025703
38	0xbe89102e	-0.26770157
39	0xbce706e9	-0.028201537
40	0xbcea2046	-0.028579842
41	0x3d673d19	0.05645475
42	0x3ca7a489	0.020464199
43	0x3d98ed71	0.07467163
44	0x3de74d13	0.112939976
45	0xbd86c1d2	-0.06579937
46	0xbd8994be	-0.067178234
47	0x3d28b40e	0.04118734
48	0x3dc6c3e6	0.097053334
49	0x3e9f19c3	0.31074342
50	0x3c9a4c53	0.018835222
51	0x3d461222	0.048357137
52	0xbe795297	-0.24347912
53	0xbddc93d6	-0.10770385
54	0xbda47423	-0.08029964
55	0x3bbf9adb	0.0058473176
56	0x3d4ad195	0.04951628
57	0x3e3bc99a	0.18338624
58	0xbd2ffaf2	-0.04296393
59	0xbc75cd50	-0.015002564
60	0x3c9a82b9	0.018861162
61	0x3eb6e533	0.3572174
62	0x3d5e302a	0.05424515
63	0xbda44520	-0.08020997
64	0x3e680fd9	0.22662295
65	0x3e8e89fb	0.27839646
66	0x3de87e6e	0.113522395
67	0x3b6808c1	0.0035405608
68	0x3e1bb462	0.1520553
69	0x3c129d50	0.008948639
70	0x3bb51a97	0.0055268514
71	0xbdfa2e26	-0.12215833
72	0xbdc1cc7a	-0.09462829
73	0xbdd1d339	-0.10245366
74	0x3d246889	0.040138755
75	0x3db5b76a	0.08872874
76	0x3d4fd660	0.050741553
77	0xbd6f0a7e	-0.058359616
78	0x3b0e93a4	0.002175548
79	0x3d14677f	0.036231514
80	0x3dec7dc3	0.11547425
81	0xbd535958	-0.051598877
82	0xbbdcd85c	-0.0067396592
83	0xbd8909cf	-0.06691324
84	0xbd36ff0d	-0.04467683
85	0x3d8ed0c8	0.069734156
86	0xbbc176b9	-0.0059040454
87	0x3e618da8	0.22026694
88	0xbdb38f64	-0.08767584
89	0x3d792f2f	0.060836013
90	0xbd51ad08	-0.051190406
91	0xbe932a45	-0.28743187
92	0x3cfeaeab	0.031089148
93	0x3f05da2e	0.5228604
94	0xbd9e23f8	-0.07721704
95	0xbdd45ea2	-0.10369612
96	0x3d654d13	0.055981707
97	0x3e90b43b	0.28262505
98	0xbc8819eb	-0.016613921
99	0xbe2df2cf	-0.16987155
100	0xbca85b6f	-0.020551411
101	0xbdc8e165	-0.098086156
102	0x3e3c96b4	0.18416864
103	0xbd9ba633	-0.07600059
104	0x3e6a5a26	0.22885951
105	0x3d074eaa	0.033034004
106	0xbd2f56d1	-0.042807404
107	0x3bce77e5	0.0063009136
108	0x3cc11892	0.023571286
109	0x3da3f4b3	0.08005657
110	0xbd0f9637	-0.035055365
111	0x3e675941	0.22592641
112	0xbd010995	-0.03150328
113	0xbe3b375d	-0.18282838
114	0x3d0c7165	0.03428783
115	0x3e327a2b	0.17429416
116	0xbd612342	-0.054965265
117	0x3dea64ba	0.11444993
118	0x3d620a6e	0.055185728
119	0xbcdf3607	-0.027247442
120	0xbd3c167e	-0.045919888
121	0x3d95e968	0.07319909
122	0xbcb2b68c	-0.02181556
123	0xbdd47cbf	-0.10375356
124	0x3cb2d008	0.021827713
125	0xbdbf37ff	-0.09336852
126	0x3c68a917	0.01420047
127	0xbe3cb916	-0.1842998
128	0xbd84b075	-0.06478969
129	0x3dcee9ae	0.101031646
130	0x3e1f7833	0.15573196
131	0xbe0a4937	-0.13504492
132	0xbd2291eb	-0.03968994
133	0xbe3b15e7	-0.18270074
134	0xbdabfe87	-0.083981566
135	0x3ba49ec1	0.0050238078
136	0x3e1a3dac	0.15062588
137	0x3e242be5	0.1603237
138	0xbd487cb2	-0.048947044
139	0x3cf991a3	0.030464953
140	0x3d994aee	0.07484995
141	0x3e09f514	0.13472396
142	0x3d6ce451	0.057834927
143	0x3de272cb	0.11057051
144	0xbc5a4818	-0.013322853
145	0xbdd97e36	-0.10619776
146	0xbe470ba9	-0.19438042
147	0xbbe3482f	-0.006936095
148	0x3df8f725	0.12156514
149	0x3e2cff0d	0.16894169
150	0x3db19572	0.086710826
151	0xbe71fa26	-0.2363058
152	0x3d82841c	0.06372854
153	0xbc6a7b53	-0.014311629
154	0xbb680e70	-0.0035408996
155	0x3d1ff7b8	0.039054602
156	0x3a236024	0.00062322826
157	0x3d112a7f	0.035440918
158	0xbbc5fcda	-0.006042105
159	0x3d057de8	0.032590777
160	0x3d9757d2	0.07389797
161	0x3e1801db	0.14844458
162	0xbe77024a	-0.24121967
163	0x3d21f9b9	0.039544795
164	0x3db485d6	0.0881459
165	0x3cf0c59a	0.029391099
166	0x3d5e7fb4	0.054321006
167	0xbda70f85	-0.08157257
168	0xbd674b31	-0.056468192
169	0x3d810db6	0.06301443
170	0x3dd95d8a	0.10613544
171	0xbe5f331b	-0.21796839
172	0x3dd87500	0.10569191
173	0xbea5f95b	-0.32416806
174	0x3bcade13	0.006191024
175	0x3d51b286	0.051195644
176	0xba589d57	-0.00082631916
177	0x3d2bfda1	0.041989926
178	0x3ae6d358	0.0017610593
179	0x3dc3b073	0.095551394
180	0xbc0c8fbf	-0.008579194
181	0x3dda7994	0.106677204
182	0xbd523ebc	-0.05132936
183	0xbd9efe22	-0.07763316
184	0x3de0befe	0.10973929
185	0xbedf0bea	-0.43563777
186	0x3e13ae79	0.14422025
187	0x3df80159	0.12109632
188	0x3e00a3ee	0.12562534
189	0xbdcc3fb6	-0.099730894
190	0x3d1f8082	0.038940914
191	0x3ccc2622	0.024920527
192	0x3cc2286f	0.02370092
193	0xbd9c3610	-0.07627499
194	0x3e08ac18	0.13346899
195	0x3d54f365	0.05198993
196	0x3d90e84e	0.070755586
197	0xbd523447	-0.051319387
198	0xbd597b82	-0.0530963
199	0xbdcc976a	-0.099898174
200	0x3cd754a8	0.026285484
201	0x3dd1a9a3	0.10237434
202	0xbe9468b4	-0.28986132
203	0x3d244907	0.040108707
204	0x3dde2095	0.10846058
205	0x3d9311b4	0.07181111
206	0x3d093a60	0.033502936
207	0x3de7fe30	0.11327779
208	0x3da4949e	0.08036159
209	0xbd4e8674	-0.050421193
210	0x3e22cf45	0.1589938
211	0xbd825007	-0.0636292
212	0xbc3cbd31	-0.011519716
213	0x3c83cc17	0.016088529
214	0x3d74c7e0	0.05976093
215	0xbd8d7ffd	-0.069091775
216	0xba4ab2fa	-0.0007732358
217	0xbc86e738	-0.016467676
218	0xbdf25eca	-0.11834486
219	0x3d4dd6f8	0.05025384
220	0x3ceb9ad7	0.028760357
221	0xbcb444d6	-0.02200548
222	0xbc6b8e31	-0.014377163
223	0x3e1b2757	0.15151726
224	0xbd298637	-0.041387763
225	0xbd94f460	-0.07273173
226	0x3d829d7d	0.06377695
227	0x3d1155e2	0.035482295
228	0xbbd377f9	-0.006453511
229	0xbc3d3136	-0.011547377
230	0xbdef442f	-0.11682927
231	0x3d789a19	0.060693834
232	0xbd45cb1f	-0.048289414
233	0x3d30a1f4	0.0431232
234	0xbcc76ad3	-0.02434293
235	0xbd84a423	-0.06476619
236	0x3e768f8f	0.24078201
237	0x3dd7bedf	0.10534453
238	0x3e0f23f2	0.13978556
239	0x3d749f03	0.059721958
240	0xbd042587	-0.03226235
241	0x3e9999d6	0.3000018
242	0x3cfebdd8	0.031096384
243	0xbccc9218	-0.024972007
244	0xbd9d2796	-0.07673566
245	0x3d206c24	0.03916563
246	0xbe0a9e2b	-0.13536899
247	0x3de30843	0.1108556
248	0xbd86a01d	-0.06573508
249	0xbd0f90ad	-0.035050083
250	0xbbc35fe9	-0.005962361
251	0xbd7cfc30	-0.061763942
252	0x3dcfecae	0.10152565
253	0x3be42485	0.0069623613
254	0x3d940a88	0.07228571
255	0xbe033a95	-0.12815316

lstm.weight_hh_l0 f4 [512, 128]
0	0x3c361730	0.011113927
1	0xbcd28f09	-0.02570297
2	0x3e15d9d5	0.14633878
3	0x3edc2e19	0.4300392
4	0xbcd8d820	-0.026470244
5	0x3d11444b	0.03546552
6	0x3e4c5e19	0.1995777
7	0xbdd6a2d7	-0.10480278
8	0x3dd80bfd	0.105491616
9	0xbbb5b7d8	-0.0055455975
10	0xbd01b553	-0.031667065
11	0x3e09f37b	0.13471787
12	0x3e09ffee	0.13476536
13	0x3e5f01f7	0.21778093
14	0xbd8e858d	-0.069590665
15	0xbe10c02a	-0.14135805
16	0x3dde571d	0.10856459
17	0x3db1b002	0.08676149
18	0x3d844fc1	0.06460524
19	0xbe4fcc09	-0.20292677
20	0xbd7a2bcd	-0.061076928
21	0x3e3927a2	0.18081525
22	0x3dea9446	0.11454062
23	0x3eed4fbc	0.46349895
24	0x3c4341f9	0.011917585
25	0xbe1fa531	-0.1559036
26	0x3d796209	0.06088451
27	0xbe2041e6	-0.15650138
28	0x3db2c30c	0.087286085
29	0xbcdcbfef	-0.02694699
30	0xbe48fb10	-0.19627023
31	0xbe0c3a51	-0.13694121
32	0x3d9b3cb7	0.0757994
33	0x3e11c1c8	0.14234078
34	0x3df020e7	0.117250256
35	0xbdcbc769	-0.09950144
36	0x3e53433e	0.2063112
37	0x3e0bc409	0.13649
38	0xbd91a975	-0.071123995
39	0x3cede37a	0.029039133
40	0x3e5dcf45	0.21661098
41	0xbd8f0c82	-0.069848076
42	0xbdc8d617	-0.098064594
43	0xbda18375	-0.078864016
44	0xbdd958c8	-0.10612637
45	0x3c24ee23	0.010066542
46	0x3dcc0ce2	0.09963395
47	0xbd608f0f	-0.05482393
48	0x3e8bcbc3	0.27303895
49	0xbdf63f5b	-0.12023803
50	0xbdd87eaa	-0.10571034
51	0x3d5ee2cb	0.054415505
52	0x3da75443	0.081703685
53	0x3c282648	0.010263033
54	0xbdb20864	-0.08693007
55	0x3d55ce33	0.0521986
56	0x3d0f6f42	0.035018213
57	0xbd0b38c4	-0.033989683
58	0x3d4a3049	0.049362455
59	0x3e24ac58	0.16081369
60	0x3e578cae	0.21049759
61	0xbe0ea63a	-0.13930598
62	0xbce38f7d	-0.027778381
63	0xbea463e5	-0.32107463
64	0x3d12752f	0.035756286
65	0xbd9195ce	-0.07108651
66	0xbc2ae15c	-0.010429706
67	0xbcb38537	-0.021914108
68	0x3e82f324	0.25576127
69	0xbcacd05a	-0.021095444
70	0x3d0ad239	0.03389189
71	0x3d913634	0.070904166
72	0x3e52ca42	0.20584968
73	0xbc10447c	-0.00880539
74	0xbd7613bb	-0.06007741
75	0xbdb0744a	-0.086159304
76	0xbc9d4ae9	-0.019200759
77	0xbd2dd662	-0.04244078
78	0xbcbee768	-0.023303702
79	0xbd0d952f	-0.0345661
80	0xbdf8887b	-0.121354066
81	0x3df6d748	0.120527804
82	0x3de63711	0.11240972
83	0xbd6af836	-0.05736562
84	0xbe21c2ce	-0.15796968
85	0x3e9c0793	0.3047453
86	0x3d50eec7	0.051008966
87	0xbca83a92	-0.020535741
88	0x3e67d25c	0.2263884
89	0x3d94daa4	0.07268265
90	0x3c64544d	0.0139361145
91	0x3d8acf9e	0.06777881
92	0x3d6b8b35	0.057505805
93	0x3e0ca8d5	0.1373628
94	0x3d863a53	0.06554093
95	0x3d7ae9c9	0.06125811
96	0x3e40b5ea	0.18819395
97	0x3d2e3686	0.042532466
98	0xbe50a378	-0.20374858
99	0x3c8c6c48	0.017141476
100	0xbe080128	-0.13281691
101	0xbcb221d0	-0.021744639
102	0xbd9ee35c	-0.07758209
103	0xbd9dbef8	-0.0770244
104	0xbd893e1a	-0.06701298
105	0x3d42aa5d	0.047525752
106	0x3bbae683	0.0057037487
107	0x3d95b92e	0.07310711
108	0x3e2f7fba	0.17138568
109	0x3e28e92d	0.164952
110	0x3e2c5446	0.16829023
111	0xbe815431	-0.25259545
112	0xbd847c0d	-0.06468973
113	0x3eb5889e	0.35455793
114	0x3d0633cd	0.032764245
115	0xbd620116	-0.055176817
116	0x3c5138f0	0.012769923
117	0x3d8201e6	0.06348018
118	0xbd658377	-0.056033578
119	0x3df062d9	0.11737604
120	0x3d20d6bf	0.039267298
121	0x3e148d49	0.14507021
122	0x3d78aef0	0.06071371
123	0x3da06f60	0.07833743
124	0x3da5b46a	0.08091052
125	0xbd90fe36	-0.07079737
126	0xbd69ccc4	-0.057080045
127	0xbe288137	-0.16455542
128	0xbe176266	-0.1478363
129	0x3d7a72e9	0.061144743
130	0xbd53fdac	-0.051755592
131	0x3e34e515	0.17665513
132	0xbd7c74b7	-0.061634745
133	0x3dcf8ac6	0.10133891
134	0xbda8d393	-0.082434796
135	0xbce7886f	-0.028263299
136	0xbd615432	-0.055011936
137	0xbd5d48d3	-0.05402453
138	0xbe92f4a3	-0.28702268
139	0x3d38b487	0.04509404
140	0xbe531260	-0.20612478
141	0xbd8b2d11	-0.06795705
142	0xbe161fb4	-0.14660531
143	0xbdbb3d3e	-0.091425404
144	0x3d924067	0.0714119
145	0xba6a09a1	-0.00089278264
146	0x3e0332e9	0.1281239
147	0xbddb1bae	-0.10698639
148	0x3d681da8	0.056668907
149	0x3d22d9a6	0.039758347
150	0x3d920126	0.07129125
151	0xbe0e3ce2	-0.13890412
152	0xbdbcc5e2	-0.09217431
153	0xbe031189	-0.12799658
154	0xbd45f397	-0.04832801
155	0x3d2b35bd	0.041799296
156	0x3ce55001	0.02799225
157	0xbe4e8a8d	-0.2017004
158	0x3d04941b	0.032367807
159	0xbe056777	-0.1302775
160	0xbc333215	-0.010937233
161	0x3da4a209	0.08038718
162	0xbc166019	-0.009178185
163	0x3da5926b	0.08084568
164	0x3defb941	0.11705256
165	0x3c0188bb	0.007906134
166	0xbe14a583	-0.14516263
167	0xbcf7dba0	-0.030256093
168	0x3e2f8f44	0.17144495
169	0x3bb7b3f3	0.0056061684
170	0x3d82b413	0.06382003
171	0x3e8edb16	0.27901524
172	0xbcdf7532	-0.027277563
173	0x3e606bca	0.21916118
174	0xbce82cea	-0.02834173
175	0x3db04224	0.08606365
176	0xbc860ab5	-0.016362527
177	0x3daca058	0.08429021
178	0x3e0932a6	0.13398227
179	0x3db67650	0.08909285
180	0xbda3c3f9	-0.07996363
181	0x3d7f3119	0.062302683
182	0x3d7d0d0b	0.061780017
183	0x3e108af4	0.14115506
184	0xbcec53c0	-0.028848529
185	0x3e610a0c	0.21976489
186	0xbd9bec10	-0.07613385
187	0x3c99c2c6	0.018769633
188	0xbb720352	-0.0036928249
189	0xbd14a29f	-0.0362879
190	0x3d271459	0.04079089
191	0xbc72219a	-0.014778519
192	0x3e1fc2b3	0.15601616
193	0xbb34366c	-0.0027498258
194	0xbdad4645	-0.084606685
195	0xbd8af424	-0.067848474
196	0x3d1b2ac7	0.037882593
197	0xbddcbac1	-0.10777808
198	0x3d4638cd	0.048394013
199	0xbd3c4b2c	-0.045970127
200	0xbdff322b	-0.12460741
201	0x3d9115dd	0.07084248
202	0x3d8983b5	0.06714574
203	0xbd88b116	-0.066744015
204	0x3e077798	0.13229215
205	0xbca9f4ca	-0.020746607
206	0xbd2cd31c	-0.042193517
207	0x3d358e2b	0.044325035
208	0xbe050758	-0.12991083
209	0x3e17a745	0.14809902
210	0xbd67c9a3	-0.05658878
211	0xbd874283	-0.06604483
212	0xbde67d38	-0.11254352
213	0x3c9b6e98	0.018973634
214	0x3dc25231	0.09488333
215	0xba835831	-0.001002079
216	0xbda34fae	-0.07974182
217	0xbdacedb1	-0.084437735
218	0xbd064dce	-0.032789044
219	0x3dfe2d89	0.12411029
220	0x3d686bf9	0.056743596
221	0x3d8f79ce	0.07005654
222	0xbd929a50	-0.07158339
223	0xbc01a6dc	-0.0079133175
224	0x3cb61b85	0.02222992
225	0x3e3a7de3	0.18212084
226	0xbda19a29	-0.07890732
227	0x3d067673	0.032827806
228	0xbd1d1610	-0.03835112
229	0xbd5e0346	-0.05420234
230	0x3d9fc535	0.07801286
231	0x3d8644e1	0.06556106
232	0x3de5b3c5	0.11215929
233	0x3d1129b6	0.03544017
234	0xbdf6b77f	-0.12046718
235	0x3d991636	0.074749395
236	0xbda8affe	-0.08236693
237	0x3e24dff8	0.16101062
238	0xbdf502e6	-0.119634435
239	0x3ddafc78	0.10692686
240	0xbe33f6ec	-0.17574662
241	0xbe21fc5a	-0.1581892
242	0xbd035bbe	-0.032069914
243	0xbc36a405	-0.011147504
244	0x3bb290fc	0.0054494124
245	0xbd5c9e25	-0.053861756
246	0x3de93921	0.113878496
247	0x3e0c23b4	0.13685495
248	0xbc8b8896	-0.017032903
249	0xbc691f48	-0.014228649
250	0x3d8ea0ae	0.06964241
251	0xbd8fd0e2	-0.07022263
252	0x3d922fb7	0.07138007
253	0xbe3e771b	-0.18600123
254	0xbdbe97aa	-0.093062714
255	0xbd9ade13	-0.075618885

lstm.bias_ih_l0 f4 [512]
0	0x3d395ddd	0.04525553
1	0x3c648710	0.013948217
2	0xbdd809aa	-0.10548718
3	0xbb3f8880	-0.0029225647
4	0x3deb64c7	0.11493831
5	0xbcb984fb	-0.022646418
6	0x3c381050	0.011234358
7	0x3e389a4e	0.18027613
8	0x3d7e7c39	0.062130187
9	0xbd566f1f	-0.052352067
10	0x3e2409c2	0.16019347
11	0x3c3a781e	0.011381177
12	0xbda0b28f	-0.07846557
13	0xb9f52386	-0.00046756509
14	0x3e8de67f	0.27714917
15	0x3c09bd8a	0.008407006
16	0x3d50e31e	0.050997846
17	0x3d90f6af	0.07078301
18	0x3e6cbc89	0.23118795
19	0x3e2ca36e	0.16859218
20	0x3d23a529	0.03995243
21	0x3d6bdea0	0.05758536
22	0x3d8e1124	0.06936863
23	0xbdd39cec	-0.10332665
24	0x3e66dea6	0.22545871
25	0x3e285fcd	0.16442795
26	0xbda7086e	-0.08155905
27	0x3e0f34c8	0.13984978
28	0x3c4307fa	0.011903757
29	0x3e4718b8	0.19443023
30	0x3d208645	0.03919055
31	0x3da36c84	0.07979682
32	0x3d10f1cf	0.035386857
33	0x3e081195	0.13287957
34	0x3e593a81	0.21213724
35	0x3de7ece9	0.11324484
36	0x3dca6b22	0.09883715
37	0x3e13300c	0.14373797
38	0x3b327b7c	0.0027234247
39	0x3d09bbde	0.03362643
40	0x3d9903c5	0.07471422
41	0x3e1cd075	0.15313895
42	0x3cf59179	0.029976593
43	0xbc35cd39	-0.011096292
44	0x3e438bf0	0.1909635
45	0x3e0c45ed	0.1369855
46	0x3da846b2	0.08216609
47	0x3e7eb702	0.248745
48	0xbcf40f6d	-0.029792512
49	0xbd0106b2	-0.031500526
50	0x3e0d6230	0.13806987
51	0x3e5531b3	0.2081974
52	0x3d71f81f	0.059074517
53	0xbc800edf	-0.015632091
54	0x3e452a2e	0.19254372
55	0x3e96d919	0.29462507
56	0x3e22e81d	0.15908857
57	0x3c943056	0.018089455
58	0x3d9ef09b	0.077607356
59	0xbd6100e5	-0.054932494
60	0x3e0769b0	0.1322391
61	0xbd925385	-0.07144836
62	0x3d4d124a	0.05006627
63	0x3e37c90b	0.17947786
64	0xbd052d54	-0.03251393
65	0x3b0b645c	0.0021269536
66	0x3e1ebed7	0.15502487
67	0x3e5969a3	0.21231703
68	0x3e8284d4	0.25491965
69	0x3cc0006b	0.0234377
70	0x3dd10fec	0.10208115
71	0x3d8de018	0.06927508
72	0x3db1e612	0.086864606
73	0x3c9ec1de	0.019379552
74	0x3e1f0be9	0.15531887
75	0x3e568deb	0.20952575
76	0xba2f0139	-0.00066759024
77	0x3e31390e	0.17306921
78	0xbce247ad	-0.027622068
79	0x3e16b3f9	0.14717092
80	0x3d8a9b00	0.06767845
81	0x3e321ef7	0.17394625
82	0x3d42f2ae	0.04759472
83	0x3db416b2	0.08793391
84	0x3e6cded2	0.23131874
85	0x3e283b14	0.16428787
86	0x3e26201f	0.1622319
87	0x3e0dc779	0.13845624
88	0x3d6f821e	0.0584737
89	0xbbd76de7	-0.0065743807
90	0x3c8f3595	0.017481605
91	0x3c1102ce	0.008850766
92	0xbd9e6e31	-0.07735861
93	0xbd57ba93	-0.052668165
94	0x3e22add2	0.1588662
95	0xbd49902d	-0.049209762
96	0x3e275e4f	0.1634457
97	0x3c156941	0.009119333
98	0x3deacdef	0.1146506
99	0x3db2b200	0.08725357
100	0x3d95ac26	0.07308225
101	0x3d22dc8d	0.039761115
102	0x3da4854d	0.080332376
103	0x3e1a178b	0.15048043
104	0xbd72ace5	-0.059246916
105	0x3d4deaf3	0.050272893
106	0x3cecfd38	0.028929338
107	0x3d9a7c98	0.075432956
108	0x3e1841ec	0.14868897
109	0x3d2adc8d	0.04171424
110	0x3dfebdc5	0.124385394
111	0xbb119f1a	-0.0022220076
112	0x3d607954	0.054803208
113	0xbda9d1be	-0.08291958
114	0x3de62373	0.1123723
115	0xbd8bc254	-0.068241745
116	0xbcbc4a4d	-0.022984648
117	0xbbe6d01a	-0.0070438506
118	0x3d5752ab	0.052569073
119	0x3c8ca0f7	0.017166598
120	0x3e568f2c	0.20953053
121	0xbd998b90	-0.074973226
122	0x3e2d607e	0.1693134
123	0x3e4d04f3	0.20021419
124	0x3df501c4	0.119632274
125	0x3e72b59e	0.23702094
126	0x3d10224d	0.03518896
127	0x3e149d73	0.14513187
128	0x3d91e9e0	0.07124686
129	0x3e1f485d	0.15554948
130	0x3e0ccf1d	0.13750882
131	0x3d80aebc	0.06283328
132	0x3e06ba21	0.1315694
133	0x3d20a3a7	0.03921857
134	0x3de1b427	0.110206895
135	0xbd121ec7	-0.035673883
136	0xbd0c8d84	-0.034314647
137	0x3e1d0a42	0.15335944
138	0x3dfd9b9c	0.12383196
139	0x3d634417	0.055484857
140	0x3d88876c	0.06666455
141	0x3ddd9192	0.10818781
142	0x3c79dc99	0.0152503485
143	0xbd34e456	-0.04416307
144	0xbd130e5f	-0.035902377
145	0xbc96e01b	-0.018417409
146	0x3e21e99d	0.15811773
147	0x3cdae63b	0.02672111
148	0x3e0e49b4	0.13895303
149	0x3c879a76	0.016553145
150	0x3d43eb4a	0.04783181
151	0x3de748f5	0.11293212
152	0x3dad64c9	0.08466489
153	0xbb8d468a	-0.0043113874
154	0x3cc3f258	0.02391927
155	0xbd29fc30	-0.04150027
156	0x3ddfb279	0.10922713
157	0x3e1bce77	0.15215479
158	0x3ced3e4a	0.028960366
159	0x3d98a257	0.07452839
160	0xbd0fe0bd	-0.035126437
161	0xbd487dc2	-0.048948057
162	0x3e19367e	0.14962193
163	0x3b0f17f7	0.0021834353
164	0x3dc6de78	0.09710401
165	0xbbcac27b	-0.0061877347
166	0x3c245a2a	0.010031262
167	0x3dbe6fb6	0.09298651
168	0x3e034f4a	0.12823215
169	0x3e0a4c48	0.13505661
170	0xbd920ecb	-0.07131728
171	0xbcc6ec39	-0.024282562
172	0x3d9c21fa	0.07623668
173	0x3e1e368a	0.15450493
174	0x3cd301cb	0.02575769
175	0xbd2f60b3	-0.04281683
176	0x3d3e8b98	0.046519846
177	0xbd60c524	-0.054875508
178	0x3ce634d5	0.028101364
179	0xbd075e1d	-0.033048738
180	0x3d96c692	0.07362093
181	0x3d0e6e9f	0.034773465
182	0x3e1ea720	0.1549344
183	0x3d9ae9f9	0.07564158
184	0x3e0578e6	0.130344
185	0xbdb82680	-0.08991718
186	0x3dcf7f14	0.1013166
187	0x3d8690ed	0.06570611
188	0xbcec9c16	-0.028883021
189	0x3d0551ee	0.032548837
190	0x3d1f76a7	0.038931515
191	0x3d08eaf8	0.03342721
192	0x3da01601	0.07816697
193	0x3d8db0a3	0.069184564
194	0x3d4b0b50	0.049571335
195	0xbb811fb5	-0.0039405474
196	0xbb951aae	-0.0045502996
197	0x3c073d4b	0.0082543595
198	0xbd2f67a2	-0.04282344
199	0xbda3fc5b	-0.08007117
200	0x3db51a1e	0.08842872
201	0x3ce97151	0.028496416
202	0x3b18f0b7	0.0023336837
203	0x3dc26605	0.09492115
204	0xb74efa0c	-1.2336775e-05
205	0x3c006891	0.007837431
206	0x3da08525	0.07837895
207	0x3b551a17	0.0032516771
208	0x3cf825f0	0.030291528
209	0x3d622a08	0.055215865
210	0x3d1125fa	0.035436608
211	0xbd8c05c3	-0.068370365
212	0x3e132a08	0.14371502
213	0xbda9cf01	-0.08291436
214	0xbdcd7ad4	-0.10033193
215	0xbd6ad876	-0.05733534
216	0x3ba219e2	0.004946933
217	0x3cdb7db6	0.026793342
218	0x3bf15733	0.0073651313
219	0x3db6a28f	0.08917724
220	0xbda9104d	-0.08255062
221	0x3daf61ab	0.085635506
222	0x3dde6385	0.108588256
223	0x3e2029e9	0.15640987
224	0xb978ebe5	-0.00023739
225	0x3d920bb6	0.0713114
226	0x3d119832	0.035545535
227	0x3d38761d	0.045034517
228	0x3d22cd08	0.039746314
229	0xbd6a9c4d	-0.057277966
230	0x3da40edf	0.08010649
231	0x3cda75f2	0.026667569
232	0x3d8c5dd0	0.06853831
233	0x3d7edc26	0.06222167
234	0x3df3e0f2	0.11908139
235	0x3e06c3e2	0.13160661
236	0x3c468362	0.012116285
237	0x3db11c4b	0.086479746
238	0x3c6d3998	0.014479063
239	0xbd6025d0	-0.05472356
240	0x3d07206b	0.0329899
241	0x3e47a712	0.19497326
242	0x3d0672ef	0.032824453
243	0xba9dc279	-0.0012036107
244	0x3da11141	0.07864619
245	0x3ca16f48	0.019706383
246	0xbd4810cc	-0.048844144
247	0xbcdc6ee1	-0.02690834
248	0x3d17990f	0.037011202
249	0x3e0aa176	0.13538155
250	0xbba64e68	-0.0050752647
251	0x3c372d89	0.01118029
252	0x3d3ce9c9	0.046121392
253	0x3e112541	0.14174367
254	0x3dfb9d01	0.122858055
255	0x3d47f2cc	0.048815534

lstm.bias_hh_l0 f4 [512]
0	0x3d5d18dd	0.05397879
1	0x3d31938c	0.043353602
2	0x3cd8db69	0.02647181
3	0x3df3ba4b	0.11900767
4	0x3e0efe4b	0.13964193
5	0xbc16c47a	-0.009202117
6	0x3dd9dfa0	0.10638356
7	0x3dc5d131	0.09659041
8	0x3e2df859	0.16989268
9	0xbd465f15	-0.04843052
10	0x3e220c6e	0.15825054
11	0x3d9b899c	0.07594606
12	0x3be52301	0.006992698
13	0x3d4f9e21	0.050687913
14	0x3e37259e	0.17885444
15	0x3ccc6f2a	0.02495535
16	0x3dcec8ce	0.10096894
17	0x3e106d6f	0.14104246
18	0x3e3bda49	0.18344988
19	0x3ce604f9	0.028078543
20	0x3d1a7b44	0.03771521
21	0x3d50bff5	0.050964314
22	0x3d62cf54	0.055373505
23	0xbd544929	-0.051827583
24	0x3e067dda	0.13133946
25	0x3d62a498	0.05533275
26	0xbd286241	-0.041109327
27	0x3e0d1e5e	0.13781115
28	0x3e15cf31	0.14629818
29	0x3e4c1a56	0.19931921
30	0x3e15b106	0.1461831
31	0x3d792236	0.06082364
32	0x3cb46b88	0.022023931
33	0x3d5d7b90	0.054072917
34	0x3dae8bdd	0.085227706
35	0x3de313f4	0.1108779
36	0x3d16ec64	0.036846533
37	0x3ddbc12e	0.107302055
38	0xbcfb5a99	-0.030682849
39	0xbce07e8f	-0.027404098
40	0x3e52d0e1	0.20587493
41	0x3dc51740	0.09623575
42	0xbd8c338b	-0.068457685
43	0x3ca2b896	0.019863408
44	0x3e2b0ad7	0.16703354
45	0x3d8640a8	0.06555301
46	0x3dabcfcb	0.08389243
47	0x3e076e1d	0.13225599
48	0x3d77400c	0.060363814
49	0xbd2dabf6	-0.042400323
50	0x3dfd9aad	0.12383018
51	0x3e97bdf1	0.296371
52	0x3ddcfc51	0.10790313
53	0xbd701d74	-0.05862184
54	0x3d88ecb1	0.0668577
55	0x3eab1609	0.3341525
56	0x3e0af912	0.13571575
57	0x3c6eeea3	0.014583263
58	0x3bc449fb	0.0059902645
59	0xbcb8d31d	-0.022561604
60	0x3d176d8d	0.03696971
61	0xbc33185e	-0.010931103
62	0xbd1c28e6	-0.03812494
63	0x3d265723	0.040610444
64	0xbd3c66b3	-0.04599638
65	0xbc669803	-0.014074328
66	0x3e7fbf81	0.24975397
67	0x3e458f1b	0.19292872
68	0x3e7a59a3	0.24448256
69	0x3d918e4f	0.07107221
70	0x3dd776f7	0.105207376
71	0x3e03af79	0.12859906
72	0x3c90dd55	0.017683664
73	0x3c16cbb6	0.009203842
74	0x3dd05002	0.1017151
75	0x3da230d1	0.07919467
76	0x3bd2a4d5	0.006428341
77	0x3e1e4ed2	0.15459755
78	0x3c7e98d5	0.015539368
79	0x3d8dc19b	0.06921693
80	0x3e10729d	0.14106221
81	0x3e2f5aee	0.1712453
82	0x3d0794c1	0.033100847
83	0x3d0d30b3	0.03447027
84	0x3d7381de	0.059450023
85	0x3e45bde7	0.19310723
86	0x3e141280	0.14460182
87	0x3dfc4c57	0.12319248
88	0x3dc2ea14	0.09517303
89	0xbda82a7d	-0.08211229
90	0x3d927f66	0.071532056
91	0xbc2866b1	-0.01027839
92	0xbd40f46d	-0.047108103
93	0x3ca772da	0.020440508
94	0x3e44e1d1	0.19226767
95	0x3d52007d	0.051269997
96	0x3e9b0e8b	0.30284533
97	0x3d304e7b	0.043043595
98	0x3db6e5b7	0.089305334
99	0x3de260f9	0.11053652
100	0x3e203071	0.15643479
101	0x3e04247f	0.12904547
102	0x3d0a89b7	0.03382274
103	0x3de97cc1	0.11400748
104	0xbc895a83	-0.016766792
105	0x3cceb4af	0.025232641
106	0x3d9e5ab3	0.07732143
107	0x3e2cb0a0	0.16864252
108	0x3da30545	0.079599895
109	0x3db06d2d	0.08614574
110	0x3da982a9	0.082768746
111	0x3d364ef9	0.044508908
112	0x3d9b29d8	0.075763404
113	0xbe211e95	-0.15734322
114	0x3c46dc6d	0.012137515
115	0xbca1cd1a	-0.01975112
116	0x3ce8f4e4	0.028437085
117	0x3e129f54	0.14318591
118	0x3dd9abc8	0.10628468
119	0x3d3cea8e	0.046122126
120	0x3da2557b	0.0792646
121	0xbdd0e411	-0.1019975
122	0x3d978f8b	0.074004255
123	0x3e2b279c	0.16714329
124	0x3db43494	0.08799091
125	0x3dc8140a	0.09769447
126	0x3d374a94	0.044748858
127	0x3e1862d4	0.1488145
128	0x3d900684	0.07032493
129	0x3d79741e	0.060901754
130	0x3ddae85b	0.106888495
131	0x3e07f907	0.1327859
132	0x3d22a3c2	0.039706953
133	0x3b306f9c	0.0026921993
134	0x3df06c82	0.11739446
135	0x3c50f041	0.0127525935
136	0x3dcc0882	0.0996256
137	0x3e1d3e76	0.15355858
138	0x3e3e5527	0.1858717
139	0xbcea30b6	-0.02858768
140	0xbd48dfd9	-0.049041603
141	0x3da7f853	0.08201661
142	0x3e1e5422	0.15461782
143	0x3d6452ae	0.055742912
144	0xbd368bb2	-0.044566818
145	0x3dee5fd0	0.116393685
146	0x3d9f28c1	0.07771445
147	0x3cece952	0.02891985
148	0xb9f2225e	-0.00046183442
149	0x3d5590ac	0.052139923
150	0x3a0404ef	0.00050361356
151	0x3d2aed32	0.041730113
152	0x3c910956	0.017704647
153	0x3dda4ba7	0.10658961
154	0xbd00807a	-0.031372525
155	0xbd537cde	-0.051632755
156	0x3dc3a351	0.095526345
157	0x3d9432f3	0.0723628
158	0x3c7373dd	0.014859167
159	0x3cb75550	0.022379547
160	0xbd05534a	-0.032550134
161	0x3cb88997	0.022526545
162	0x3e52b938	0.20578468
163	0xbd603a4c	-0.054743096
164	0x3d30b1ee	0.043138437
165	0x3d8fc29a	0.07019539
166	0x3df093fe	0.11746977
167	0x3dd73d96	0.105097935
168	0x3de86b69	0.11348612
169	0x3d6a642a	0.05722443
170	0xbcff0e55	-0.031134764
171	0x3d997057	0.0749213
172	0xbc88747c	-0.016657107
173	0x3e2ce566	0.16884384
174	0xbd241fe9	-0.040069494
175	0x3daf19c2	0.08549835
176	0xbd30fa1d	-0.043207277
177	0x3cf58c97	0.029974265
178	0xbcc488cf	-0.023991017
179	0xbd987d61	-0.07445789
180	0x3dd74868	0.10511857
181	0x3dc199e0	0.094531775
182	0x3ded1839	0.11576886
183	0xbd0a06c9	-0.033697877
184	0x3d813a66	0.06309967
185	0x3c36d2a9	0.011158624
186	0x3d7e0f41	0.062026266
187	0x3daca902	0.08430673
188	0x3d70d3bb	0.058795672
189	0x3d4fb17c	0.05070637
190	0x3dbc0481	0.091805466
191	0x3db52c53	0.08846345
192	0x3dacc1bd	0.0843539
193	0xbc803c99	-0.015653895
194	0x3db1771a	0.08665295
195	0xbcf4f644	-0.029902585
196	0x3b222bf8	0.0024745446
197	0x3da47b2f	0.08031308
198	0x3c603b66	0.013686037
199	0x3d474576	0.048650227
200	0xbca201e4	-0.019776292
201	0x3d88bc52	0.06676544
202	0x3dfc6d0b	0.12325486
203	0xbd3b60f4	-0.04574676
204	0x3d00f03f	0.031479117
205	0xbd8dadfd	-0.06917951
206	0x3d15e025	0.036590714
207	0xbb605664	-0.003423118
208	0xba90b2d5	-0.0011039624
209	0x3d88143b	0.06644484
210	0x3e3a105d	0.18170305
211	0xbaa54ed1	-0.001261199
212	0x3e3eb2dd	0.18622918
213	0xbd61e54b	-0.05515031
214	0xbda3f3de	-0.08005498
215	0x3d0656f6	0.032797776
216	0x3dd44fdd	0.10366795
217	0xbdb25272	-0.087071314
218	0x3d32889e	0.04358732
219	0x3d891c17	0.06694811
220	0x3be5ae38	0.007009294
221	0xbbe1b3bf	-0.0068878825
222	0x3e016fe1	0.12640335
223	0x3ddf2614	0.10895935
224	0xbcc12222	-0.023575846
225	0x3d812c9c	0.06307337
226	0x3d84aacc	0.064778894
227	0xbcccdf0a	-0.025008697
228	0x3c892be5	0.016744563
229	0x3d339890	0.043846667
230	0xbd0aa12a	-0.033845104
231	0x3de651f2	0.112460986
232	0x3d86c907	0.06581312
233	0xbd4018e7	-0.04689875
234	0x3db53736	0.08848421
235	0x3cd78951	0.026310595
236	0x3dce164f	0.10062849
237	0x3d556b3d	0.052104224
238	0xbd659aa0	-0.056055665
239	0xbd042b62	-0.032267936
240	0x3d564f31	0.052321617
241	0x3dc86a7f	0.097859375
242	0x3d5d1fc2	0.053985365
243	0x3df04fc5	0.11733965
244	0xbbdb7ae9	-0.0066980016
245	0xbbef7946	-0.007308158
246	0x3d96c443	0.07361653
247	0x3d0ba043	0.034088384
248	0x3ccfd334	0.025369264
249	0x3e15fc9d	0.14647146
250	0xbd4bf210	-0.049791396
251	0x3d21a172	0.039460607
252	0xbda3852d	-0.07984386
253	0x3dd54c87	0.10414987
254	0x3d1338c2	0.0359428
255	0x3defbeae	0.11706291

lstm.weight_ih_l0_reverse f4 [512, 1]
0	0xbd71ad59	-0.059003208
1	0xbe4a2f6d	-0.19744654
2	0x3d84f03f	0.06491136
3	0xbe033803	-0.12814336
4	0x3d0d3c29	0.0344812
5	0x3c6019d6	0.013678035
6	0xbd65a29c	-0.05606328
7	0x3da64cd4	0.081201226
8	0xbdc2e730	-0.09516752
9	0x3cf2c9e6	0.029637288
10	0x3d9ac9a0	0.07557988
11	0xbe53d3fa	-0.20686331
12	0xbdec84de	-0.1154878
13	0xbe0c1f54	-0.13683826
14	0x3e0254a7	0.12727605
15	0xbdb685d5	-0.08912245
16	0x3e5359bc	0.206397
17	0x3d48f1a3	0.049058568
18	0x3c82f064	0.015983768
19	0x3d86f0d6	0.065889046
20	0xbc8ec4fa	-0.01742791
21	0x3de0803f	0.10961961
22	0xbe0d6966	-0.13809738
23	0xbd9abe9c	-0.07555887
24	0x3f0ae2e7	0.54252476
25	0x3d449db4	0.04800196
26	0xbd8a4d50	-0.067530274
27	0x3da43c00	0.080192566
28	0x3e01964a	0.12654987
29	0x3d5372f3	0.051623296
30	0x3d47d3c9	0.04878596
31	0x3da36f92	0.07980265
32	0x3e4bd977	0.19907175
33	0x3dc83dbd	0.09777401
34	0xbd8b3043	-0.067963146
35	0xbd301901	-0.042992596
36	0x3e92abd4	0.2864672
37	0xbdb9cfac	-0.090728134
38	0x3c0b9b00	0.008520842
39	0x3d094aa7	0.03351846
40	0x3e1b4c63	0.15165858
41	0xbd92f1d5	-0.07175032
42	0xbdada1b4	-0.08478108
43	0x3d9d8b3e	0.07692574
44	0xbd820092	-0.06347765
45	0x3e6c8c62	0.23100427
46	0xbc42980b	-0.01187707
47	0xbe31626e	-0.17322704
48	0x3e37abaa	0.17936578
49	0x3d718050	0.05896026
50	0x3e09508b	0.13409631
51	0x3c97dd2b	0.018538078
52	0xbdc72b7e	-0.09725092
53	0xbd9a783d	-0.07542465
54	0x3ce4c1a4	0.027924366
55	0x3d8e17d5	0.06938139
56	0xbd3bf8c0	-0.045891523
57	0xbd877ca6	-0.06615572
58	0xbe0c9f39	-0.13732614
59	0x3d557cfa	0.05212114
60	0xbe18bcb7	-0.14915739
61	0x3c738014	0.014862079
62	0x3dd70133	0.104982756
63	0x3d713ffe	0.05889892
64	0xbe3da4c5	-0.18519886
65	0xbdad2ab1	-0.08455408
66	0xbdfd9c3c	-0.12383315
67	0x3d73a44b	0.059482854
68	0xbd374442	-0.04474283
69	0x3d47bf45	0.048766393
70	0x3c96f014	0.018425025
71	0x3d6d587c	0.057945713
72	0x3d6517fc	0.055931076
73	0x3baafbe2	0.005218015
74	0xbdad8d72	-0.08474244
75	0x3d91ddd7	0.07122391
76	0x3f05bf85	0.5224536
77	0x3c6294c1	0.013829411
78	0x3e2174e0	0.1576724
79	0x3dfcb9a4	0.12340096
80	0xbd8acd8b	-0.067774855
81	0x3d40d69b	0.047079664
82	0xbdffb909	-0.124864645
83	0x3d45f88c	0.048332736
84	0xbe7380c5	-0.2377959
85	0x3d75e60e	0.06003385
86	0x3cab8e15	0.020941773
87	0x3dd20a12	0.10255827
88	0x3dd9b93b	0.10631033
89	0x3c6435f0	0.013928875
90	0xbe05f459	-0.13081492
91	0xbe164d7d	-0.14677997
92	0xbd2c3607	-0.042043712
93	0x3d546a24	0.051859036
94	0xbc6f73a4	-0.014614973
95	0x3dc2346e	0.094826564
96	0xbdffb06c	-0.12484822
97	0x3f6b9386	0.9202198
98	0xbde51718	-0.111860454
99	0xbda1e6f6	-0.079053804
100	0x3da8a302	0.08234216
101	0xbd8bbfdf	-0.06823706
102	0x3c7a8fe4	0.015293095
103	0xbd899108	-0.06717116
104	0x3d99e99a	0.07515259
105	0x3e86b953	0.26313266
106	0xbdcf4331	-0.101202376
107	0xbda3e7aa	-0.08003171
108	0x3d854d55	0.065088905
109	0x3d5eb8ee	0.05437558
110	0xbd94c24d	-0.072636224
111	0xbd481a72	-0.048853345
112	0xbdf20ef7	-0.118192606
113	0x3ea6682f	0.3250136
114	0xbd02259b	-0.031774145
115	0x3dbef136	0.09323351
116	0xbd87bd3e	-0.06627892
117	0x3d20c913	0.03925426
118	0xbd8288df	-0.06373762
119	0xbe073db0	-0.13207126
120	0x3da76453	0.08173432
121	0xbd8c2407	-0.06842809
122	0x3b770b27	0.0037695856
123	0x3d930669	0.07178957
124	0x3d2e967c	0.04262398
125	0x3dcd4eb9	0.10024781
126	0xbe064b2b	-0.13114612
127	0xbd2433eb	-0.040088575
128	0x3d1890a8	0.03724733
129	0xbd0002dd	-0.03125273
130	0x3e4880c7	0.19580375
131	0x3da78d25	0.08181218
132	0x3d29e878	0.041481465
133	0x3de4491e	0.111467585
134	0xbd48905f	-0.048965808
135	0xbdf2f3e0	-0.11862922
136	0x3e1aeb55	0.15128835
137	0x3d4bc3b9	0.049747203
138	0xbdc42369	-0.095770665
139	0xbd605d85	-0.054776687
140	0x3d4c54b5	0.04988547
141	0x3e296ba7	0.16544972
142	0x3daf4d28	0.08559638
143	0x3e8ebfb2	0.27880627
144	0x3d1cc83b	0.038276892
145	0xbd8b729a	-0.06808968
146	0x3d285aaf	0.041102108
147	0xbcb19e4f	-0.021681933
148	0x3ddeb02b	0.10873445
149	0x3d944951	0.072405465
150	0x3ddfd537	0.109293394
151	0x3d8104ba	0.0629973
152	0xbd1b007d	-0.037842263
153	0xbdd00787	-0.10157686
154	0xbcfd2c5e	-0.030904945
155	0xbe38a3f4	-0.18031293
156	0x3da04ef8	0.07827562
157	0xbe471598	-0.19441831
158	0x3cdf6db2	0.027273986
159	0xbe35ab02	-0.17741016
160	0x3d62549d	0.055256475
161	0xbe8dd21d	-0.27699366
162	0xbda09c74	-0.07842341
163	0xbb93d152	-0.004511037
164	0x3d6ab02e	0.057296924
165	0x3d0fabb6	0.035075866
166	0x3ccc9896	0.024975102
167	0xbdc90cfe	-0.09816931
168	0x3c8bfef6	0.017089348
169	0x3ca73cb0	0.02041468
170	0x3c9ef42c	0.01940354
171	0xbdcc80f3	-0.099855326
172	0x3e04b178	0.12958324
173	0x3e34c558	0.17653406
174	0xbc6930ea	-0.014232853
175	0xbc844de5	-0.016150424
176	0x3d941aba	0.0723166
177	0xbdb99464	-0.090615064
178	0xbdb61e71	-0.08892525
179	0x3e1f717a	0.15570632
180	0xbc49700a	-0.012294779
181	0xbda32d78	-0.07967657
182	0xbdcabff6	-0.09899895
183	0xbd5d24f7	-0.05399033
184	0xbc3475cc	-0.011014413
185	0xbd7b97d2	-0.061424084
186	0x3db94f75	0.09048358
187	0xbd1d02ca	-0.038332738
188	0xbe2e4f4d	-0.17022438
189	0x3eabe33a	0.33571798
190	0xbcfd08a9	-0.030887919
191	0x3d54c146	0.051942132
192	0xbba9a47b	-0.0051770783
193	0x3e03a929	0.12857498
194	0xbcfc0e91	-0.030768665
195	0xbc973307	-0.018456949
196	0xbd90e6de	-0.070752844
197	0xbcc9742f	-0.024591533
198	0x3d09c2fa	0.03363321
199	0xbcc57552	-0.024103794
200	0x3cff17c3	0.03113926
201	0x3e6fd29b	0.23420183
202	0xbd60c85b	-0.054878574
203	0x3d0fedcd	0.035138894
204	0xbd3b12e7	-0.045672324
205	0x3e1f7832	0.15573195
206	0x3d90b439	0.07065625
207	0xbddc07fe	-0.10743712
208	0x3d498bb3	0.049205493
209	0x3c36e596	0.011163136
210	0x3e0cf63a	0.13765803
211	0xbe04d2bd	-0.12971015
212	0x3d9a3106	0.07528882
213	0x3d28b79c	0.04119073
214	0xbd2aaea5	-0.04167046
215	0x3d9ee51c	0.07758543
216	0x3da63c3d	0.08116958
217	0x3e56be85	0.20971115
218	0x3dc824d6	0.09772651
219	0x3b011257	0.001969477
220	0xbd35e1f3	-0.044404935
221	0xbdf4afd0	-0.11947596
222	0xbdb7ddc1	-0.08977843
223	0x3d80540f	0.06266033
224	0x3cd22b83	0.025655514
225	0xba83ac0b	-0.001004578
226	0x3cad285a	0.021137405
227	0x3afbf9f0	0.0019224267
228	0x3cc48e32	0.023993585
229	0x3da68636	0.081310675
230	0x3d378ddf	0.044813033
231	0x3ded1d48	0.115778506
232	0x3e0a7659	0.13521709
233	0xbd7c4f25	-0.061598916
234	0x3d5fda94	0.05465181
235	0x3dfd3c99	0.12365074
236	0xbdd995ab	-0.1062425
237	0x3ddc7a9d	0.10765574
238	0xbd852ee1	-0.06503082
239	0xbc2ed2d0	-0.010670379
240	0x3e0de7aa	0.13857904
241	0x3d48fc30	0.04906863
242	0xbda17214	-0.07883087
243	0xbe55583b	-0.20834439
244	0x3dde4ace	0.108541116
245	0x3cf3aba1	0.029744925
246	0xbcd002e8	-0.02539201
247	0x3e59ae20	0.2125783
248	0x3d431101	0.047623638
249	0x3dbf19e8	0.09331113
250	0x3dcfd99e	0.10148929
251	0xbe217a0b	-0.15769212
252	0xbcf7b89a	-0.030239392
253	0x3dbc5dcd	0.091975786
254	0xbdfe51d6	-0.12417953
255	0x3e363ad2	0.17795876

lstm.weight_hh_l0_reverse f4 [512, 128]
0	0xbddebc64	-0.108757764
1	0xbd291d92	-0.041287966
2	0xbdc86df6	-0.097865984
3	0xbe245379	-0.16047467
4	0xbd581bb0	-0.05276078
5	0x3d9dfc38	0.077141225
6	0x3d89541f	0.06705498
7	0x3bfab1be	0.007650583
8	0xbdf10399	-0.11768264
9	0xbdd201ca	-0.102542475
10	0xbcf6670f	-0.030078439
11	0x3d4e4ff5	0.05036922
12	0x3c8f9154	0.017525353
13	0x3df77e7c	0.12084672
14	0xbbbb2aa5	-0.0057118707
15	0x3df44f34	0.11929169
16	0xbdc15675	-0.094403185
17	0xbd8db81c	-0.06919882
18	0xbd9f7f0f	-0.077879064
19	0x3d65ee5d	0.056135524
20	0xbe3136aa	-0.17306009
21	0xbd76b8f8	-0.060234994
22	0x3db162ec	0.08661446
23	0xbc909c82	-0.017652754
24	0x3dd93c41	0.10607196
25	0xbd894f1c	-0.06704542
26	0xbd99c096	-0.07507436
27	0x3d279161	0.04091013
28	0xbdb4c477	-0.08826535
29	0x3c1c48d7	0.009538851
30	0xbe154ac3	-0.145793
31	0x3d11e373	0.035617303
32	0x3e641850	0.222749
33	0xbcb9a0c6	-0.02265967
34	0xbde57ec2	-0.11205818
35	0xbddbd656	-0.10734241
36	0xbcac87b3	-0.0210608
37	0x3d47d32c	0.048785374
38	0x3b7e4f8f	0.0038804745
39	0x3b8e261e	0.00433804
40	0x3cb6c4b1	0.022310587
41	0x3d98aea9	0.07455189
42	0x3d0aab93	0.033855032
43	0x3d091dbf	0.033475634
44	0xbe711ac1	-0.23545362
45	0xbd177499	-0.03697643
46	0x3ca6a282	0.020341162
47	0xbe3361af	-0.17517732
48	0x3b473736	0.0030397899
49	0x3c8bdb55	0.01707236
50	0xbd4681f5	-0.04846378
51	0x3e6f3554	0.23360187
52	0x3e3d937e	0.18513295
53	0xba3b1f59	-0.0007138155
54	0x3def5257	0.11685627
55	0xbd571067	-0.052505877
56	0xbe9ab2ff	-0.30214688
57	0xbbceca81	-0.0063107614
58	0x3e97f117	0.29676124
59	0xbe1a4941	-0.15067007
60	0xbdd58dc6	-0.10427432
61	0x3d9ccb2b	0.07655939
62	0x3dbf7b56	0.09349696
63	0xbd7ef4f5	-0.062245328
64	0xbe11e6c6	-0.1424819
65	0x3d73404e	0.059387498
66	0x3cf9aa6b	0.03047677
67	0x3dbbd59c	0.09171602
68	0xbd86a994	-0.06575313
69	0x3dd75235	0.105137266
70	0xbd5c2c9d	-0.053753484
71	0xbcf5a245	-0.029984603
72	0x3da9abf0	0.082847476
73	0x3e39f60c	0.18160266
74	0x3da15bfb	0.07878872
75	0xbd9c8967	-0.07643395
76	0x3d8b7318	0.06809062
77	0x3cdc128c	0.026864313
78	0xbd4d452d	-0.0501148
79	0xbd3c7e40	-0.04601884
80	0x3ea3dacb	0.32002863
81	0x3cb12542	0.021624211
82	0xbd29214f	-0.04129153
83	0xbdb42241	-0.08795596
84	0x3cbc4cb8	0.022985801
85	0x3c85b4a3	0.016321486
86	0x3d55ba9f	0.05217993
87	0x3c751c6d	0.0149603905
88	0xbd06c8e8	-0.032906443
89	0x3dd7c27d	0.105351426
90	0xbe108e6b	-0.14116828
91	0xbd119d99	-0.035550687
92	0xbe10d598	-0.1414398
93	0xbd04436f	-0.032290872
94	0xbe34b504	-0.17647177
95	0x3de21b0a	0.110403135
96	0x3cf3e9eb	0.029774627
97	0x3dd743ee	0.105110034
98	0x3cd5e465	0.026109884
99	0xbcffc7d6	-0.031223219
100	0x3de7b8d8	0.11314553
101	0x3c96a41c	0.0183888
102	0xbda617b9	-0.081099935
103	0xbdc493ed	-0.09598527
104	0xbca2cd65	-0.01987333
105	0xbceb762c	-0.028742872
106	0x3db30078	0.08740324
107	0xbd402870	-0.046913564
108	0x3d89a199	0.067202754
109	0xbe24d89b	-0.16098253
110	0xbd0d7709	-0.03453735
111	0xbc48e078	-0.012260549
112	0x3e939627	0.28825495
113	0xbd8a4525	-0.067514695
114	0x3d9fa9db	0.07796069
115	0x3d116549	0.035496984
116	0xbdc1b346	-0.09458022
117	0xbc11a313	-0.008888978
118	0xbd9b17b5	-0.07572881
119	0xbe5dce3a	-0.216607
120	0xbdc39db4	-0.09551564
121	0x3e923d85	0.2856256
122	0xbba5dbaf	-0.0050615887
123	0x3a3fea60	0.00073209964
124	0xbe40a2fd	-0.18812175
125	0xbd8342e3	-0.06409242
126	0x3dd8d6b8	0.10587829
127	0x3da470ba	0.080293134
128	0x3c9b1353	0.018930113
129	0xbbe9e219	-0.0071375486
130	0xbe180b26	-0.14848003
131	0x3d6a073d	0.05713581
132	0x3e45c001	0.19311525
133	0x3d5f0491	0.054447714
134	0xbd4e1a8e	-0.050318293
135	0x3c967481	0.0183661
136	0x3e0daeec	0.13836259
137	0xba61e5e4	-0.0008617325
138	0x3d4817c0	0.048850775
139	0xbdb5e26c	-0.08881077
140	0x3e40b8fd	0.18820567
141	0xbe2d903a	-0.1694955
142	0x3c686372	0.014183866
143	0xbde7dca9	-0.113213845
144	0xbe05afde	-0.1305537
145	0xbdf900c1	-0.12158347
146	0xbe07cf1b	-0.13262598
147	0x3cccf019	0.025016831
148	0xbd3f186a	-0.046654142
149	0x3ce88fe3	0.028388923
150	0xbdbfe352	-0.0936953
151	0xbe4522a3	-0.19251494
152	0x3d1928d5	0.037392456
153	0x3d8d7885	0.06907753
154	0x3e189bb1	0.14903142
155	0x3c63bc16	0.013899824
156	0xbdbfcf65	-0.09365729
157	0xbc2af540	-0.010434449
158	0xbdff4cea	-0.12465842
159	0x3e08e6fa	0.1336936
160	0x3e244552	0.16042069
161	0xbe089e1d	-0.13341565
162	0xbddba99e	-0.10725711
163	0x3dc70b4c	0.097189516
164	0xbdc1cbba	-0.09462686
165	0x3d7ab5c7	0.061208513
166	0x3bcec168	0.006309677
167	0xbe20cd97	-0.15703426
168	0xbde9c4a0	-0.11414456
169	0x3adb04f2	0.0016709848
170	0xbe922d6e	-0.28550285
171	0x3d1f855d	0.038945545
172	0xbd0a6cda	-0.033795215
173	0x3b4324b3	0.0029776513
174	0xbddce0db	-0.10785075
175	0x3d125eab	0.035734814
176	0xbe114a8a	-0.1418859
177	0xbe2d1ffa	-0.1690673
178	0xbded514f	-0.11587774
179	0x3ddae17e	0.106875405
180	0xbdd8715b	-0.10568496
181	0x3e8b9055	0.27258554
182	0xbe416571	-0.18886353
183	0xbe51c49d	-0.20485158
184	0xbc62f105	-0.013851409
185	0x3e366f3a	0.17815867
186	0xbe206e78	-0.1566714
187	0xbcab1220	-0.020882666
188	0x3da55081	0.080719955
189	0x3d4262ed	0.047457624
190	0xbd9bc950	-0.07606757
191	0xbd32cbe6	-0.043651484
192	0x3d81150d	0.06302843
193	0xbde123a4	-0.10993126
194	0x3e1cd577	0.15315805
195	0xbdef6053	-0.11688294
196	0x3df0b265	0.11752776
197	0xbd859054	-0.06521669
198	0xbe0edbc0	-0.13951015
199	0x3d088e4b	0.033338826
200	0x3cc1a60e	0.023638751
201	0x3ce1e6a7	0.027575804
202	0xbe4903ec	-0.19630402
203	0x3d8b93d2	0.06815304
204	0xbe0fde6c	-0.14049691
205	0x3d7137b7	0.058891024
206	0x3e035c5b	0.128282
207	0xbc6ff33f	-0.014645397
208	0x3d440106	0.04785254
209	0x3e4383bf	0.19093226
210	0x3d9a961c	0.07548162
211	0x3d098513	0.033574175
212	0x3ea60402	0.32424933
213	0x3e638b20	0.2222104
214	0xbe2ea28c	-0.17054194
215	0xbbf1e203	-0.007381679
216	0xbd2899d3	-0.041162323
217	0x3e471f5e	0.1944556
218	0x3dc7723c	0.09738585
219	0x3dac2249	0.08404977
220	0x3c852744	0.016254075
221	0x3e19672a	0.1498076
222	0x3e554be3	0.2082973
223	0xbca310ae	-0.019905414
224	0x3dcdd5a9	0.10050518
225	0xbdda5079	-0.1065988
226	0xbde352ef	-0.11099803
227	0xbe134c0b	-0.14384477
228	0x3d4f25f7	0.050573315
229	0x3e1fe290	0.1561377
230	0x3e3a10f2	0.18170527
231	0xbd9a7dfd	-0.075435616
232	0x3d64cf6e	0.055861883
233	0x3c22009e	0.009887842
234	0xbc124c56	-0.008929333
235	0x3e3f2ab4	0.18668634
236	0xbe08b78a	-0.13351265
237	0xbd5be07f	-0.053680893
238	0x3e03e742	0.12881187
239	0x3c06de0c	0.008231651
240	0xbd8feba2	-0.07027365
241	0xbdfbf080	-0.12301731
242	0x3cf460cc	0.029831313
243	0xbe02222c	-0.12708348
244	0x3d3cfdfa	0.04614065
245	0x3e12c23b	0.14331906
246	0x3d1c803a	0.038208224
247	0x3de51196	0.11184995
248	0xbdf1a0ed	-0.11798272
249	0xbceebc3a	-0.029142488
250	0x3e18317b	0.14862625
251	0x3d81f6d3	0.06345906
252	0x3d67b6b2	0.056570716
253	0xbd46c969	-0.048531923
254	0xbe665621	-0.22493793
255	0x3c5b7483	0.013394478

lstm.bias_ih_l0_reverse f4 [512]
0	0xbd10d969	-0.03536359
1	0x3e199231	0.14997174
2	0x3e0a7b29	0.13523544
3	0x3d15cab0	0.03657025
4	0x3e6c685c	0.23086685
5	0x3e151b6b	0.1456124
6	0x3e3494df	0.17634915
7	0x3dcdf37c	0.100562066
8	0xbc127118	-0.008938096
9	0x3e30cf47	0.1726657
10	0x3d211e8a	0.039335765
11	0x3d808da1	0.062770136
12	0xbc5d39aa	-0.013502518
13	0xbda3a66a	-0.07990725
14	0x3cfcba4a	0.030850548
15	0xbe12919d	-0.1431336
16	0x3e342f95	0.17596276
17	0x3e1a33f8	0.15058887
18	0x3e427619	0.18990363
19	0x3dbb6a88	0.091511786
20	0x3d8ad586	0.067790076
21	0x3e04f4a6	0.12983951
22	0x3d308ad6	0.043101154
23	0x3e379382	0.17927364
24	0x3d8579e2	0.06517388
25	0x3d5b31f7	0.053514447
26	0x3dabdd74	0.08391848
27	0xbd7b4fb4	-0.061355308
28	0x3dda2882	0.106522575
29	0x3d921aa3	0.07133987
30	0x3e0fac1b	0.14030497
31	0xbd32945d	-0.04359852
32	0x3c98aff4	0.018638588
33	0xbd972f04	-0.073820144
34	0x3e422a56	0.18961462
35	0x3ddd8139	0.10815663
36	0x3ddce65f	0.10786127
37	0x3b726d64	0.0036991471
38	0x3e235c55	0.1595319
39	0x3e00ef5b	0.12591307
40	0x3de3a256	0.111149475
41	0x3e424b28	0.18973982
42	0x3df8c65c	0.12147209
43	0xbcdd52c0	-0.027016997
44	0xbd8b7f59	-0.06811399
45	0x3e15ffb4	0.14648324
46	0x3df8d76c	0.121504635
47	0x3de8d6ce	0.11369096
48	0x3e208cfe	0.15678784
49	0x3e274844	0.16336161
50	0xbc2d9410	-0.010594383
51	0x3e46d2e3	0.19416384
52	0x3e0070e3	0.12543063
53	0x3d972b98	0.07381362
54	0x3cb836e8	0.022487119
55	0x3d05f167	0.032700922
56	0x3d9cf7e6	0.076644704
57	0x3dd90ace	0.10597764
58	0xbcd8e9d4	-0.026478685
59	0x3dbc7511	0.09202016
60	0x3de4eab3	0.11177578
61	0x3e6577d4	0.22408992
62	0x3df9a723	0.12190082
63	0x3d6c8a24	0.05774893
64	0x3e0f22a5	0.1397806
65	0xbc88855e	-0.016665157
66	0x3d390419	0.045169923
67	0x3d92c4ab	0.07166418
68	0x3d800428	0.06250793
69	0x3e31bf0c	0.17358035
70	0x3e1b9d72	0.1519678
71	0x3c928375	0.01788495
72	0x3d204b74	0.039134458
73	0x3e498b89	0.19682135
74	0x3e16b562	0.1471763
75	0x3e7489bf	0.23880671
76	0xbc0d45f9	-0.00862264
77	0x3e2885d2	0.16457298
78	0x3d3d006d	0.046142984
79	0xbc5b6300	-0.013390303
80	0x3de4a123	0.11163547
81	0xbddc71df	-0.10763907
82	0x3d09d729	0.03365246
83	0xbd235b5e	-0.039882056
84	0x3d8e1c54	0.06938997
85	0xbd3107df	-0.043220397
86	0x3d5bb10f	0.053635653
87	0x3c015691	0.007894174
88	0x3e17112a	0.14752641
89	0x3e08256c	0.13295525
90	0x3ddcd60d	0.107830144
91	0xbca53751	-0.020167978
92	0x3e59b5b5	0.21260722
93	0x3d80c443	0.06287434
94	0x3ada11ca	0.0016637382
95	0x3db7923f	0.08963441
96	0x3d3fbe84	0.04681255
97	0xbd2c5eda	-0.042082645
98	0xbd2be3bd	-0.041965235
99	0x3d7eaebe	0.062178366
100	0x3de3dc19	0.11125965
101	0x3d7f565a	0.06233821
102	0x3d48bc22	0.049007542
103	0x3a1ae976	0.0005909422
104	0x3e85b394	0.2611357
105	0x3d7bb658	0.061453193
106	0xbd01a367	-0.031649973
107	0xbd13ccc3	-0.036083948
108	0x3e2bee1d	0.16790052
109	0x3d7f22ba	0.062288977
110	0x3dc39f90	0.095519185
111	0x39f9b25b	0.00047625866
112	0xbd86349e	-0.06553005
113	0x3d606929	0.05478779
114	0x3e27a786	0.16372499
115	0x3c49fb41	0.01232797
116	0xbdac14d9	-0.08402414
117	0x3d80c23b	0.062870465
118	0x3e183514	0.14863998
119	0xbcb94c6c	-0.022619449
120	0x3d6b9dfd	0.057523716
121	0xbd927117	-0.071504764
122	0x3e0b892e	0.13626549
123	0x3d98bb0e	0.07457553
124	0x3e2dbaa6	0.16965732
125	0xbb292cee	-0.0025814134
126	0x3e3f207b	0.18664734
127	0xbd509cb1	-0.050930683
128	0x3c850c16	0.016241115
129	0xbc8a43e1	-0.01687807
130	0xbc67d77c	-0.014150497
131	0x3c3c2751	0.011483983
132	0x3b8b6705	0.0042542242
133	0x3d952f50	0.07284415
134	0x3de64f2f	0.11245572
135	0x3d837121	0.06418062
136	0x3d39cde8	0.045362383
137	0x3d2c74ae	0.042103462
138	0xbc3722d4	-0.011177737
139	0x3cd18fdf	0.025581298
140	0xbbe88dd9	-0.0070969877
141	0x3d65fcdb	0.056149345
142	0x3db06711	0.08613408
143	0x3e66055b	0.2246298
144	0xbd4b3b88	-0.04961732
145	0x3d9a4cd9	0.07534189
146	0x3e0cab09	0.1373712
147	0xbbee77fa	-0.007277486
148	0xbd212f1a	-0.03935156
149	0xbc5bafba	-0.013408596
150	0x3e287f92	0.16454914
151	0x3e0ee460	0.13954306
152	0xbd4a3b69	-0.049373064
153	0x3d409570	0.047017515
154	0x3d99b7e7	0.0750578
155	0xbd785294	-0.060625628
156	0xbc91f925	-0.017818997
157	0x3d32268d	0.043493796
158	0xbd9a3371	-0.07529343
159	0x3e54ae7e	0.20769688
160	0x3d6f1af8	0.05837533
161	0x3dbbcf2d	0.09170375
162	0xbcc093df	-0.02350801
163	0x3cdf7373	0.02727673
164	0x3d9d0fb0	0.07669008
165	0xbba19b0d	-0.0049318136
166	0x3d511bcf	0.05105191
167	0x3d9c8386	0.076422736
168	0x3e0341cb	0.12818067
169	0x3d356c10	0.04429251
170	0x3dee87ea	0.11647017
171	0xbdbbd38d	-0.091712095
172	0x3d25aabc	0.040446028
173	0xbd6966e4	-0.05698289
174	0x3da4892e	0.080339774
175	0x3ddfb1fc	0.1092262
176	0x3d80fbdd	0.06298039
177	0x3d5440ac	0.05181949
178	0xbdb521a7	-0.08844309
179	0xbc83d42d	-0.016092384
180	0x3d7be21a	0.061494924
181	0x3d4dedc2	0.05027557
182	0x3d6f6c06	0.05845263
183	0x3c827e68	0.015929416
184	0x3db63a07	0.088977866
185	0x3e1af030	0.15130687
186	0x3c1751d4	0.009235818
187	0xbd60c9ea	-0.05488006
188	0x3d26f595	0.04076155
189	0x3dd1060c	0.102062315
190	0x3e173806	0.14767465
191	0x3d15b051	0.0365451
192	0x3d12f337	0.03587648
193	0x3defe441	0.11713458
194	0x3dbca810	0.09211743
195	0x3dd12534	0.10212174
196	0x3d85c1d2	0.06531109
197	0x3d32de7f	0.04366922
198	0x3d7e3609	0.06206325
199	0xbceb9e22	-0.028761927
200	0xbd32a832	-0.043617435
201	0xbdb3e6f9	-0.08784289
202	0x3d0a1c54	0.033718422
203	0xbcd9b9ca	-0.026577849
204	0x3c84a1e0	0.01619047
205	0x3d0a2b14	0.03373249
206	0x3e06bf4b	0.1315891
207	0xbd4fc1e0	-0.050722003
208	0xbd86456a	-0.065562084
209	0xbc10e448	-0.008843489
210	0x3e067dfb	0.13133995
211	0x3a8a264b	0.0010539977
212	0xbc734752	-0.014848547
213	0xbd1f0b8c	-0.03882937
214	0x3d008c74	0.031383947
215	0x3d9308a7	0.07179385
216	0x3d04f1e6	0.032457255
217	0xbbb3c2c4	-0.0054858644
218	0xbcc2f1e5	-0.023796985
219	0x3c20275a	0.009775007
220	0x3db5d198	0.088778675
221	0x3df7258f	0.120677106
222	0xbc3d8311	-0.011566893
223	0x3d752ef6	0.05985924
224	0xbc4991ca	-0.012302825
225	0xbcd7a1b2	-0.02632222
226	0xbc83d6ce	-0.016093638
227	0x3d8b39e1	0.06798149
228	0x3c833c6f	0.016020028
229	0x3e03a09a	0.12854233
230	0x3dbdedc9	0.092738695
231	0x3dec96fc	0.115522355
232	0x3e1ca9ca	0.15299144
233	0x3dfcf5de	0.12351583
234	0x3d9a35ce	0.07529794
235	0x3bb436c5	0.005499693
236	0x3e02a596	0.12758479
237	0xbca3a14e	-0.019974377
238	0x3e6255af	0.22102998
239	0x3d0bd825	0.03414168
240	0x3c583c73	0.013198006
241	0x3d0310cd	0.031998444
242	0x3d50b97f	0.050958153
243	0x3e5a97b7	0.21346937
244	0x3de60e39	0.112331815
245	0x3daab236	0.08334772
246	0x3d24539f	0.04011881
247	0x3dfb1ba2	0.1226113
248	0xbbc6907a	-0.0060597034
249	0x3d325339	0.0435364
250	0x3dc0db64	0.094168454
251	0x3de72857	0.11286991
252	0xbd9879c7	-0.07445102
253	0xbb540c57	-0.0032355988
254	0x3d59052c	0.052983448
255	0x3e6c3655	0.23067601
