lab5/models/model_6.pth (torch, 411745 bytes, 10 tensors)

weight_ih_l0 f4 [384, 1]
0	0x3e1957ca	0.14974895
1	0x3d047fe4	0.03234853
2	0x3da56daa	0.080775574
3	0x3d2b4f64	0.04182376
4	0xbe4a9593	-0.1978362
5	0x3d5df8e3	0.054192435
6	0xbdff8fbe	-0.124785885
7	0x3e08a28b	0.13343255
8	0x3e1900b1	0.1494167
9	0x3cb27304	0.02178336
10	0xbb3f867d	-0.0029224448
11	0x3e14dcf1	0.14537407
12	0x3ea96426	0.3308422
13	0xbd64af3e	-0.055831186
14	0x3decdc88	0.115655005
15	0x3dd46590	0.10370934
16	0x3dd18028	0.10229522
17	0xbd959647	-0.07304054
18	0x3e1693d1	0.14704825
19	0x3d9fb29c	0.07797739
20	0xbe023253	-0.1271451
21	0xbd1aa6da	-0.03775678
22	0xbd6a2944	-0.05716826
23	0x3dac42bf	0.08411168
24	0x3c44bb7f	0.012007593
25	0x3dc20960	0.094744444
26	0xbdaaf1ee	-0.08346926
27	0xbcc40aa9	-0.023930864
28	0xbc52043d	-0.012818393
29	0x3cbc56c6	0.022990596
30	0x3d51aa17	0.0511876
31	0x3dc58519	0.09644527
32	0xbd643c6d	-0.05572169
33	0x3e047833	0.12936477
34	0x3d48a086	0.048981212
35	0xbbd7411f	-0.0065690423
36	0xbd78b7e6	-0.060722254
37	0xbb4cb0df	-0.0031233353
38	0xbcba5300	-0.022744656
39	0xbddf96ae	-0.10917412
40	0xbd8818cf	-0.06645357
41	0xbce547c6	-0.027988326
42	0x3d3915d6	0.04518684
43	0x3e055c24	0.1302343
44	0x3d6df925	0.05809893
45	0xbc8bb794	-0.01705531
46	0xbdbe0eb1	-0.09280146
47	0xbda1fa7a	-0.07909103
48	0xbd810fc4	-0.06301835
49	0x3ded9af8	0.116018236
50	0x3c2dcd71	0.010608063
51	0xbde8477f	-0.11341762
52	0x3da9f313	0.08298316
53	0x3d774330	0.06036681
54	0xbc89705c	-0.01677721
55	0xbdc0bc91	-0.09410966
56	0x3bbad2c8	0.0057013966
57	0x3db51d3f	0.08843469
58	0x3e0a81a8	0.13526022
59	0x3e4d23b4	0.20033151
60	0x3a8087cd	0.0009806097
61	0x3d844c95	0.06459919
62	0xba383605	-0.00070270925
63	0xbb0f51a9	-0.0021868742
64	0x3d00aa0b	0.031412166
65	0xbd694523	-0.0569507
66	0xba133fd8	-0.00056171184
67	0x3daca88a	0.08430584
68	0x3cdca221	0.026932778
69	0x3c867b92	0.016416345
70	0x3e5f4e7b	0.21807282
71	0xbd1786e7	-0.036993887
72	0xbdd5ad7c	-0.1043348
73	0x3df1cbf8	0.11806482
74	0x3e0cd42d	0.13752814
75	0x3cc09060	0.023506343
76	0xbc9365d2	-0.017992888
77	0xbdbe396e	-0.092882976
78	0x3e124a32	0.14286116
79	0xbddeb363	-0.10874059
80	0x3e374711	0.17898203
81	0xbd8b19c6	-0.06792025
82	0xbcbdcddc	-0.02316945
83	0xbdd88151	-0.1057154
84	0xbd0fb6eb	-0.035086554
85	0x3d22a5c7	0.03970888
86	0x3d927798	0.07151717
87	0x3b79e360	0.003812991
88	0x3d559800	0.05214691
89	0x3cd925d6	0.0265073
90	0x3d894c73	0.06704035
91	0x3dddd95e	0.10832475
92	0xbe99474f	-0.29937217
93	0x3dc177ea	0.094467
94	0x3d1ef705	0.038809795
95	0x3c535949	0.012899705
96	0x3d42f27c	0.047594532
97	0x3dae5709	0.085126944
98	0xbd774a7d	-0.060373772
99	0xbd45ebd5	-0.04832061
100	0x3e2ab7ba	0.16671649
101	0xbda07fd7	-0.078368835
102	0x3d4cedb2	0.05003137
103	0x3d8739b2	0.066028014
104	0x3d9ede39	0.07757229
105	0xbcf80a2c	-0.030278288
106	0xbe274146	-0.16333494
107	0x3c3190bc	0.01083773
108	0x3de30899	0.11085624
109	0xbd3f0e63	-0.04664458
110	0xbcc637bd	-0.0241965
111	0x3c993efa	0.018706787
112	0x3dbd0539	0.09229512
113	0xbd9aa138	-0.07550281
114	0x3c9095bf	0.01764953
115	0x3c7821bd	0.015144763
116	0x3ddf6139	0.109072156
117	0x3d6254e4	0.05525674
118	0x3e180c79	0.14848508
119	0xbdb2a68e	-0.08723174
120	0xbc3b6366	-0.011437273
121	0xbd2ca83e	-0.042152636
122	0xbd24c809	-0.04022983
123	0x3c5d3c36	0.013503125
124	0x3eb136b5	0.3461205
125	0xbd262a82	-0.040567882
126	0x3e2218e4	0.15829808
127	0xbd954cd6	-0.07290046
128	0x3e1bd3a2	0.1521745
129	0x3ce952b1	0.028481813
130	0xbe629f1e	-0.22131011
131	0xbd10c824	-0.03534712
132	0xbec47c8b	-0.3837627
133	0xbce8456b	-0.028353414
134	0xbde1265a	-0.10993643
135	0xbe410667	-0.18850099
136	0x3de2316e	0.11044584
137	0x3dcbf737	0.09959262
138	0x3e1b35db	0.15157263
139	0xbd88b63b	-0.06675383
140	0x3e17c516	0.14821276
141	0x3e375265	0.17902525
142	0xbe9ac5ac	-0.30228937
143	0x3df74bcf	0.12075006
144	0xbd10a2e8	-0.03531161
145	0x3e1ddf87	0.154173
146	0x3dc5800f	0.09643566
147	0xbd0e7423	-0.034778725
148	0xbd0b1ea2	-0.03396476
149	0xbb2954ff	-0.0025838015
150	0x3cb7cb94	0.02243594
151	0x3d9ba498	0.07599753
152	0x3e2d532f	0.16926263
153	0x3e1e8c61	0.15483238
154	0x3dad6b42	0.084677234
155	0xbe56f9f1	-0.20993783
156	0xbdb472bd	-0.08810947
157	0x3cc3e450	0.023912579
158	0x3de67507	0.1125279
159	0xbcfee83c	-0.031116597
160	0x3ddad888	0.10685831
161	0xbc2ea41f	-0.010659247
162	0x3c46e861	0.012140364
163	0xbdabb145	-0.08383421
164	0x3d475677	0.048666444
165	0x3d461479	0.048359368
166	0xbe6150fc	-0.2200355
167	0xbbbb0c5a	-0.0057082595
168	0xbe25f89d	-0.1620812
169	0xbe476916	-0.19473681
170	0x3e08b69c	0.1335091
171	0xbe83bb2a	-0.25728732
172	0x3c96de75	0.018416623
173	0xbe243c66	-0.16038665
174	0x3da63779	0.08116049
175	0x3d9b3ecb	0.07580336
176	0x3d5af043	0.053451788
177	0x3decbbcc	0.11559257
178	0xbe7d315f	-0.24725865
179	0xbe171198	-0.14752805
180	0x3e2cdba4	0.16880661
181	0xbd220573	-0.039555978
182	0x3d890f28	0.06692344
183	0xbc7bf44a	-0.015378067
184	0xbd38bc7d	-0.04510163
185	0xbbf4e2e0	-0.0074733347
186	0x3c842e00	0.016135216
187	0x3daa21b9	0.08307213
188	0xbd4bab5d	-0.04972397
189	0xbd91d77e	-0.0712118
190	0xbd1f5ff6	-0.038909875
191	0x3d17b785	0.037040252
192	0xbd81acc9	-0.06331784
193	0x3cea0999	0.02856903
194	0x3c0120d7	0.007881365
195	0xbd88265d	-0.06647942
196	0x3c470332	0.012146758
197	0x3d1c8958	0.03821692
198	0x3ddf01f0	0.108890414
199	0xbcf7d491	-0.030252727
200	0xbd9d374e	-0.07676564
201	0x3dc2c643	0.09510472
202	0xbe48e2fe	-0.1961784
203	0xbe2adbea	-0.16685453
204	0xbd3cfec7	-0.046141412
205	0xbdbd0bb5	-0.092307486
206	0x3cd0ce54	0.02548901
207	0xbdf84633	-0.121227644
208	0x3c280c05	0.010256772
209	0xbc800e08	-0.01563169
210	0x3d76d06b	0.060257357
211	0xbdadaf83	-0.08480742
212	0x3e024e1f	0.12725113
213	0xbdf5ee31	-0.12008322
214	0xbe28dae2	-0.16489747
215	0xbdca8da2	-0.098902956
216	0xbd34f60a	-0.044179954
217	0x3cdab05e	0.026695427
218	0x3d452dae	0.048139267
219	0x3df11c01	0.117729194
220	0xbebc4f2e	-0.3677916
221	0xbde48665	-0.11158446
222	0xbdb0bc33	-0.08629646
223	0x3da257e0	0.07926917
224	0x3db136e3	0.08653047
225	0xbd1ac28a	-0.037783183
226	0x3d0ee65c	0.034887657
227	0x3de3c273	0.111210726
228	0x3db67cb0	0.08910501
229	0xbd18bffe	-0.037292473
230	0xbd8015d3	-0.06254163
231	0x3d9d1d60	0.076716185
232	0x3d8d499c	0.068988055
233	0x3c9ad395	0.018899718
234	0x3c14c547	0.009080238
235	0xbd92d89f	-0.071702234
236	0x3d9a766c	0.075421184
237	0x3e0c775e	0.1371741
238	0xbd3f2b78	-0.046672314
239	0xbd6de3f0	-0.058078706
240	0xbdbd4d6b	-0.09243282
241	0xbdccebc2	-0.10005905
242	0xbe3c9f87	-0.1842023
243	0xbd493719	-0.04912481
244	0xbd9cc37b	-0.076544724
245	0xbd013b24	-0.03155054
246	0x3debc934	0.11512986
247	0x3d3dd7ad	0.046348263
248	0x3db81366	0.08988075
249	0x3c1ab6d5	0.009443005
250	0x3d9f5195	0.077792324
251	0xbda136fe	-0.07871817
252	0x3e075c34	0.13218766
253	0x3b20904e	0.0024500075
254	0x3dc1e86e	0.094681606
255	0xbd92e413	-0.07172408

weight_hh_l0 f4 [384, 128]
0	0xbce06e93	-0.027396476
1	0xbcad18e1	-0.021130027
2	0xbca5e1c7	-0.02024926
3	0x3b767bce	0.0037610414
4	0x3d05f47e	0.03270387
5	0xbc267649	-0.010160037
6	0x3d28ce31	0.041212264
7	0x3e13582f	0.14389108
8	0xbcda1f46	-0.02662624
9	0xbc96c9b0	-0.018406719
10	0x3de29c65	0.11064986
11	0xbc8cffe3	-0.01721186
12	0x3c1336a4	0.008985195
13	0x3d7f3780	0.06230879
14	0x3d98fa29	0.07469589
15	0xbd00f5c2	-0.031484373
16	0xbd47723f	-0.048692938
17	0x3c828a87	0.015935196
18	0x3db592b1	0.0886587
19	0x3c530787	0.012880213
20	0xbdc570ef	-0.09640681
21	0x3bc789f1	0.006089442
22	0xbdcc7c28	-0.099846184
23	0xbc3edbd9	-0.011649095
24	0x3d307305	0.04307844
25	0x3c7bbc80	0.015364766
26	0x3e20642b	0.15663211
27	0x3bf2ef2e	0.0074137663
28	0x3cdd0658	0.026980564
29	0xbe11d05e	-0.14239642
30	0xbc661a79	-0.0140443975
31	0x3b5466cb	0.0032409902
32	0xbd9145a2	-0.070933595
33	0xbdde7cf9	-0.108636804
34	0x3d3243ac	0.04352157
35	0xbcfb6278	-0.030686602
36	0xbc83fde6	-0.01611228
37	0xbd141833	-0.03615589
38	0xbcda4337	-0.026643379
39	0x3d2de381	0.042453293
40	0x3d83708a	0.064179495
41	0xbc3ff509	-0.011716136
42	0x3941f986	0.00018498869
43	0xbb149801	-0.002267361
44	0xbd463972	-0.048394628
45	0xbdeea29e	-0.116521105
46	0x3d94b146	0.07260375
47	0xbdfaa9a0	-0.12239385
48	0xbdab2539	-0.08356709
49	0xbc32f572	-0.010922777
50	0x3de97f5b	0.11401244
51	0xbc9b3e08	-0.018950477
52	0xbd3d35d9	-0.04619393
53	0xbdccf1a1	-0.100070246
54	0xbd7b9213	-0.061418604
55	0xbda0cf61	-0.078520544
56	0xbd196655	-0.037451107
57	0x3e13dc50	0.14439511
58	0x3d921b3c	0.07134101
59	0x3dffc764	0.124892026
60	0x3e02e85a	0.12783948
61	0x3d212ee5	0.039351363
62	0x3c042d48	0.0080674365
63	0xbc10f189	-0.008846649
64	0xbde3d05b	-0.11123725
65	0xbe0301f3	-0.12793712
66	0x3dca66e0	0.09882903
67	0x3b85a3dd	0.004078372
68	0xbcf9387e	-0.030422445
69	0x3d19302a	0.03739945
70	0xbdfbbab3	-0.122914694
71	0xbdf0120c	-0.11722192
72	0xb9d1f7ad	-0.0004004812
73	0xbb16b801	-0.0022997858
74	0x3a049120	0.00050570257
75	0x3a813568	0.0009857835
76	0x3c548844	0.012971941
77	0xbd4e683a	-0.050392367
78	0xbd330332	-0.04370422
79	0xbdd5f63c	-0.10447356
80	0xbd034ea5	-0.032057423
81	0x3d8f9eb5	0.07012693
82	0x3d860459	0.06543798
83	0x3cc27956	0.023739498
84	0xbcf61fdb	-0.030044487
85	0xbd48841c	-0.048954114
86	0x3be8dc4f	0.007106341
87	0x3c50cd62	0.01274428
88	0x3c328211	0.010895268
89	0x3ca153ae	0.019693222
90	0x3d048580	0.032353878
91	0xbd89890c	-0.06715593
92	0x3d67d387	0.056598213
93	0x3cdd883a	0.027042497
94	0x3c5b37db	0.013380016
95	0x3bcb456c	0.006203344
96	0x3dc3c5c8	0.09559208
97	0xbd868d9b	-0.06569978
98	0x3d0ceebe	0.03440737
99	0x3a1af979	0.0005911808
100	0x3d07f0a9	0.033188496
101	0x3d9ca4f2	0.07648648
102	0xbcf0abcc	-0.029378794
103	0xbdc689f2	-0.0969428
104	0xbdb97719	-0.09055919
105	0x3d255233	0.040361594
106	0x3d01821d	0.031618226
107	0x3d32fb2e	0.043696575
108	0xbdd92705	-0.106031455
109	0xbd7e7dbe	-0.062131636
110	0x3d83b3e2	0.06430794
111	0x3d8147d7	0.063125305
112	0xbdb6f2ce	-0.0893303
113	0x3da5b057	0.08090275
114	0x3d8dec06	0.069297835
115	0xbc98f649	-0.018672125
116	0x3d06dd59	0.032925937
117	0xbb1fd2b9	-0.0024387075
118	0x3b637cd1	0.0034711848
119	0xbdee136e	-0.116248
120	0x3ced19a8	0.028942898
121	0xbbd97b99	-0.0066370484
122	0x3d1ff84c	0.039055154
123	0x3c17cc30	0.009264991
124	0xbd8bdfbc	-0.06829783
125	0xbc57bce5	-0.013167595
126	0xbd423380	-0.047412395
127	0x3c192c1d	0.009348896
128	0xbd74f630	-0.059805095
129	0xbd9f917d	-0.077914216
130	0xbc9f1b93	-0.019422328
131	0x3d8c643f	0.06855058
132	0x3b82144f	0.003969706
133	0xbd4c4e06	-0.049879096
134	0xbdb95ab4	-0.090505034
135	0x3dbf7457	0.09348362
136	0x3d6d00db	0.057862144
137	0xbe11a2db	-0.1422228
138	0xbc9c4f2a	-0.019080717
139	0xbde71ba2	-0.112845674
140	0x3d4aeb1d	0.049540628
141	0x3d0ce325	0.03439631
142	0x3e00e87e	0.12588689
143	0x3d0c8e0a	0.034315147
144	0xbd776120	-0.06039536
145	0xbd1494ae	-0.036274604
146	0xbc9da2bf	-0.019242642
147	0xbc15ff57	-0.009155116
148	0xbd4e8152	-0.0504163
149	0x3c727742	0.014798941
150	0xbc5c648c	-0.013451707
151	0x3d6a2f3f	0.057173964
152	0xbb460ec7	-0.003022121
153	0xbd7086b6	-0.05872222
154	0x3d97e4a2	0.07416655
155	0x3daf12fc	0.08548543
156	0x3dd3b988	0.10338122
157	0x3c78e4fa	0.015191311
158	0x3dc4aa84	0.09602836
159	0x3dd705a7	0.10499125
160	0x3bd30c8f	0.006440706
161	0xbcd98113	-0.026550805
162	0xbb2df094	-0.00265411
163	0xbc2a7b78	-0.010405414
164	0x3b49cdd7	0.0030792856
165	0x3c6d14ee	0.014470322
166	0xbd47a9b5	-0.04874583
167	0x3b1e55b1	0.0024159963
168	0xbcdbe925	-0.02684457
169	0x3d937a31	0.072010405
170	0xbcf8be31	-0.030364128
171	0x3d953550	0.07285559
172	0xbd761585	-0.060079116
173	0xbc69e981	-0.014276863
174	0x3d755234	0.059892848
175	0x3c2473dd	0.01003739
176	0x3ceeead4	0.02916471
177	0xbda8b604	-0.08237842
178	0x3ca1455c	0.019686393
179	0x3cd14358	0.025544807
180	0x3dbb0bb0	0.091330886
181	0xbdc2eb21	-0.095175035
182	0xbd815b5f	-0.06316256
183	0xbdb86fd6	-0.09005706
184	0xbda07c79	-0.07836241
185	0xbd36a507	-0.044590976
186	0x3d676c90	0.056500018
187	0x3e11b1a8	0.14227927
188	0x3c25d53c	0.01012164
189	0xbce92415	-0.028459588
190	0x3cfc7be9	0.030820804
191	0xbd706a2b	-0.058695
192	0xbd1643be	-0.036685698
193	0xbd9a89e8	-0.07545835
194	0x3dbca50c	0.09211168
195	0x3d95f9de	0.07323049
196	0x3ba158c0	0.00492391
197	0xbd579994	-0.052636698
198	0xbd15cec1	-0.03657413
199	0xbdee54ef	-0.116372935
200	0xbdd4b617	-0.103862934
201	0xbde63d38	-0.11242145
202	0x3c495205	0.012287621
203	0xbdc1a292	-0.09454836
204	0x3d57006d	0.05249064
205	0xbdea8bda	-0.11452456
206	0xbdf023a9	-0.11725552
207	0xbd7b2bea	-0.061321177
208	0xbcf7cb53	-0.03024832
209	0xbda41b59	-0.08013029
210	0xbcdd8038	-0.027038679
211	0xbce8263f	-0.02833855
212	0xbe0cbf9f	-0.13744973
213	0xbdca976d	-0.098921634
214	0x3c2d3677	0.010572067
215	0xbdab9f71	-0.083800204
216	0xbd9c4172	-0.0762967
217	0x3dc213d3	0.094764374
218	0x3bea93e4	0.007158743
219	0x3d99f487	0.07517343
220	0x3d9a2a48	0.07527596
221	0x3da0877c	0.078383416
222	0xbd810e59	-0.06301565
223	0x3d20adef	0.039228376
224	0x3d9d4191	0.076785214
225	0x3cd23b87	0.02566315
226	0x3d9f8d88	0.07790667
227	0xbc85a9c8	-0.01631631
228	0xbcfd1888	-0.030895486
229	0xbc86758f	-0.016413478
230	0x3c9e9981	0.019360306
231	0xbdff8367	-0.12476235
232	0xbdf4a99f	-0.11946415
233	0x3bc3aa4f	0.00597123
234	0x3d67ff26	0.056639813
235	0x3d1774ad	0.036976505
236	0x3c8d531d	0.017251546
237	0x3c3856df	0.01125118
238	0xbbb07083	-0.005384506
239	0x3d18f465	0.037342448
240	0xbdeaf726	-0.11472921
241	0x3d9b9131	0.075960524
242	0x3e062fee	0.13104221
243	0x3e01df57	0.12682854
244	0xbc26de73	-0.010184872
245	0x3bd6a15b	0.006549997
246	0xbda23116	-0.07919519
247	0xbe242baf	-0.16032289
248	0x3c901fee	0.01759335
249	0xbd4043d4	-0.046939686
250	0x3df7b191	0.12094415
251	0xbc54f4c1	-0.012997807
252	0xbb417c0c	-0.00295234
253	0xbda0ab27	-0.07845145
254	0xbd1ae5bc	-0.037816748
255	0x3ced1761	0.028941812

bias_ih_l0 f4 [384]
0	0x3d39f2a3	0.045397412
1	0x3e0f2570	0.13979125
2	0xbb7ae32f	-0.0038282385
3	0x3d126527	0.035740998
4	0xbcf61939	-0.030041324
5	0x3daf2064	0.085511
6	0xbbe5a84f	-0.0070085893
7	0x3d8dde98	0.06927222
8	0xbd32d4d2	-0.043659993
9	0x3c8b6561	0.017016115
10	0x3d176a15	0.036966402
11	0x3d2883e6	0.041141413
12	0xbc849f97	-0.01618938
13	0x3dbc4a5f	0.09193873
14	0x3bc5a567	0.0060316804
15	0x3d9b2028	0.07574493
16	0xbcc42357	-0.023942633
17	0xbc112760	-0.008859485
18	0x3bef1129	0.007295747
19	0xbc8109e2	-0.015751783
20	0xbd888094	-0.06665149
21	0x3d068244	0.032839075
22	0xbcc7695d	-0.024342233
23	0xbc482a85	-0.012217169
24	0xbb9f79b0	-0.004866801
25	0x3df9e440	0.12201738
26	0x3dc0cd13	0.09414115
27	0x3d85c230	0.06531179
28	0x3b554846	0.00325443
29	0x3e05dc86	0.13072404
30	0xbcd9bd74	-0.026579596
31	0x3d5b84b0	0.053593338
32	0xbd654254	-0.05597146
33	0xbce7914e	-0.028267529
34	0x3e23b99d	0.15988775
35	0xbc58969c	-0.013219502
36	0x3d11fb76	0.035640202
37	0x3d980967	0.07423668
38	0x3d0909f3	0.033456754
39	0x3de8a051	0.11358703
40	0x3c3588e7	0.011080003
41	0x3bcf4b26	0.006326097
42	0x3c38ccce	0.011279298
43	0x3dc5877d	0.09644983
44	0x3b984be3	0.0046477183
45	0xbd502a3c	-0.050821528
46	0x3dc09230	0.09402883
47	0xbca833dc	-0.020532541
48	0x3d810230	0.06299245
49	0x3d869c04	0.06572726
50	0x3c20613a	0.009788806
51	0x3d8666ef	0.06562602
52	0xbc8842ca	-0.01663341
53	0x3d52cae8	0.051463038
54	0x3b31078d	0.0027012557
55	0x3c810d3e	0.015753385
56	0x3d6d0ae2	0.057871707
57	0xbb327098	-0.0027227756
58	0x3d47888a	0.0487142
59	0x3d39cc5e	0.045360915
60	0x3dc91dd2	0.09820141
61	0x3c4bf0a6	0.012447512
62	0xbbf5361a	-0.007483256
63	0x3d95d912	0.073167935
64	0xbc225a56	-0.009909233
65	0x3d213c98	0.039364427
66	0x3c81aad3	0.015828526
67	0xbda33e0d	-0.079708196
68	0xbd71a489	-0.058994804
69	0x3e3ad16f	0.18243955
70	0x3d9a96a9	0.075482674
71	0x3e0a43b3	0.13502388
72	0x3cf7c6e6	0.03024621
73	0x3cb298ee	0.021801438
74	0x3d4e0267	0.05029526
75	0x3db802c2	0.08984901
76	0x3c09c5f3	0.008409011
77	0xbc98c344	-0.018647797
78	0x3d136b04	0.03599073
79	0x3df54489	0.11975963
80	0x3d875cae	0.06609474
81	0x3bc442dd	0.005989416
82	0x3d13472f	0.035956558
83	0xbd27c4f8	-0.04095933
84	0x38671ac5	5.5099623e-05
85	0x3de1d800	0.11027527
86	0x3c760711	0.015016333
87	0xbd8c0788	-0.06837374
88	0x3d2c4cc8	0.04206541
89	0x3da65208	0.08121115
90	0xbbffadef	-0.007802717
91	0x3c2e1dc3	0.010627213
92	0x3e0feabe	0.14054391
93	0x3c8098fe	0.015697952
94	0x3d77432f	0.060366806
95	0xbb56bb2f	-0.0032765379
96	0x3daa7abd	0.08324192
97	0x3c130cf0	0.0089752525
98	0xbcc0d021	-0.023536744
99	0x3ca83ef3	0.020537829
100	0xbcdd9cc2	-0.027052287
101	0x3dc6dc27	0.097099595
102	0xbccc815c	-0.024964027
103	0x3c019d5d	0.0079110535
104	0x3e0c74ff	0.13716505
105	0xbd2222c3	-0.039583933
106	0x3cec4644	0.028842099
107	0x3cf4324a	0.029809136
108	0x3db7bdc9	0.089717455
109	0xbcb01bd0	-0.021497637
110	0x3dbb5535	0.09147111
111	0xbc25a016	-0.010108968
112	0x3d93b9d1	0.07213176
113	0xbc144d85	-0.009051685
114	0x3dd78781	0.10523892
115	0x3dbf32a6	0.09335832
116	0x3cb49a24	0.022046156
117	0x3d5ba1fa	0.05362127
118	0x3ce30aef	0.027715174
119	0x3de26c77	0.11055844
120	0x3dac3558	0.08408612
121	0x3c3e698b	0.011621843
122	0x3d32698f	0.0435577
123	0xbd9fe008	-0.078064024
124	0xbd9ed857	-0.07756107
125	0xbd48877e	-0.04895734
126	0x3d4e7d70	0.050412595
127	0x3dbb6199	0.09149475
128	0xbd5a3b3c	-0.053279147
129	0xbd19a0a7	-0.037506726
130	0x3da43212	0.08017363
131	0x3c96b9c8	0.018399134
132	0x3d89bd30	0.06725538
133	0xbe317165	-0.17328413
134	0x3ba66616	0.0050780876
135	0xbd812c04	-0.063072234
136	0x3d6ad371	0.057330552
137	0xbba91499	-0.005159926
138	0x3d9eb491	0.07749284
139	0x3db76b53	0.08956017
140	0xbd8022b1	-0.06256617
141	0x3dcca293	0.09991946
142	0x3da87e1f	0.08227181
143	0x3d826b64	0.063681394
144	0xbbff8211	-0.0077974875
145	0x3cf23f27	0.029571129
146	0x3e0f6db8	0.14006698
147	0xbcff9150	-0.03119722
148	0xbc7a5c26	-0.015280759
149	0xbd125217	-0.03572282
150	0x3cc0af5c	0.023521118
151	0x3d3bfa27	0.04589286
152	0x3c3882d8	0.011261664
153	0x3d8e7a45	0.06956915
154	0xbd0bc4d9	-0.034123275
155	0xbd052d50	-0.032513916
156	0xbd4edaed	-0.050501753
157	0xbe0871cd	-0.13324662
158	0x3d633de9	0.055478964
159	0x3bd3e64a	0.0064666616
160	0xbb0ae43f	-0.0021193174
161	0xbd6a6a5f	-0.05723035
162	0x3dd6055c	0.10450241
163	0x3d93f9f5	0.0722541
164	0xbd1691ef	-0.036760267
165	0xbcf2be0d	-0.029631639
166	0xbc310ee3	-0.010806772
167	0x3c8ba132	0.017044637
168	0xbd81fd56	-0.06347148
169	0xbd1352d9	-0.03596768
170	0x3ddd8d0c	0.10817918
171	0xbdc20944	-0.094744235
172	0xbcf9f878	-0.030513987
173	0x3d31f660	0.043447852
174	0x3cc469c2	0.02397621
175	0xbdac39aa	-0.08409436
176	0xbd48e09f	-0.04904234
177	0xbd8549e6	-0.06508236
178	0x3d934d8f	0.071925275
179	0xbd19be10	-0.037534773
180	0x3bc3aac6	0.0059712855
181	0xbd24072f	-0.040045913
182	0xbd4a4dc2	-0.049390562
183	0x3e009385	0.12556274
184	0xbc319882	-0.010839583
185	0x3da4b46e	0.08042227
186	0xbcdca6fe	-0.026935097
187	0xbd64fcad	-0.055905033
188	0x3a61ad3b	0.0008608882
189	0x3dc79202	0.09744646
190	0x3da5e9e3	0.08101251
191	0x3ded4aed	0.115865566
192	0x3cd2130f	0.025643853
193	0xbd8c2260	-0.06842494
194	0x3beb33f9	0.0071778265
195	0x3c166a36	0.009180596
196	0xbc8d8ee5	-0.017280051
197	0x3d4c5a17	0.049890604
198	0x3da87cfe	0.08226965
199	0x3d84f6f0	0.06492412
200	0xbdc37872	-0.095444575
201	0xbcf03b3b	-0.029325118
202	0x3d93adcf	0.07210886
203	0xbb8e4365	-0.00434153
204	0xb95db11c	-0.00021142181
205	0xbd8e8c42	-0.06960346
206	0xbbd6268c	-0.006535357
207	0xbca04861	-0.019565763
208	0xbd54fb69	-0.051997576
209	0x3d13529e	0.03596746
210	0xbdbf125d	-0.093296744
211	0xbd82db53	-0.06389489
212	0x3da896a8	0.082318604
213	0xbda5fafa	-0.081045106
214	0xbc9336bb	-0.017970433
215	0x3dc8917b	0.09793373
216	0xbd5ab8e3	-0.053398978
217	0xbc4b41b1	-0.012405799
218	0xbd93d8af	-0.072190635
219	0x3cb6ff56	0.02233855
220	0xbd5b47ee	-0.053535394
221	0xbcb14274	-0.021638133
222	0x3d207bf2	0.039180703
223	0x3db9f158	0.09079236
224	0x3c01d00d	0.007923138
225	0xbd32795e	-0.043572776
226	0x3d09f453	0.03368027
227	0x3dfef794	0.124495655
228	0xbda7dc4a	-0.08196314
229	0xbde3a2a6	-0.11115007
230	0xbcf0f37b	-0.029412976
231	0x3c3263bd	0.010888037
232	0xbbd7d647	-0.006586823
233	0x3dbc3283	0.09189322
234	0x3b83b988	0.00401992
235	0xbe0da362	-0.13831857
236	0x3d85f65e	0.065411314
237	0x3ce68c72	0.028143141
238	0xbdb518d8	-0.08842629
239	0x3d894766	0.06703071
240	0xbd4b4b26	-0.049632214
241	0xbc130a59	-0.008974635
242	0xbdde77be	-0.10862683
243	0xbca033b1	-0.019555898
244	0xbca66c0d	-0.020315195
245	0xbd15dd7c	-0.036588177
246	0xbd3dfca5	-0.04638352
247	0x3d73dda0	0.05953753
248	0xbca4edb5	-0.020132879
249	0xbd7640ed	-0.06012051
250	0x3e18de7b	0.1492862
251	0x3cf245bb	0.029574266
252	0x3d1b3152	0.037888832
253	0x3b97f637	0.0046375054
254	0x3d7de975	0.06199022
255	0xbc82e886	-0.015980016

bias_hh_l0 f4 [384]
0	0x3e1db1c5	0.15399845
1	0x3d133ee0	0.035948634
2	0x3dc3bff3	0.09558096
3	0xbd655bf7	-0.055995908
4	0x3dc1059b	0.09424897
5	0xbc0f786c	-0.008756738
6	0x3daf7c9a	0.08568688
7	0xbcd83f89	-0.026397483
8	0x3b9c0d4c	0.0047623273
9	0x3c12394d	0.008924794
10	0x3d2cfddb	0.042234283
11	0x3c364fff	0.011127471
12	0xbd9a7551	-0.075419076
13	0xbd3827b8	-0.044959754
14	0xbcd2fd6f	-0.025755612
15	0x3caf0303	0.02136374
16	0xbc5cbabb	-0.013472254
17	0x3cbc9b2c	0.02302321
18	0x3db7fad8	0.089833915
19	0x3e20d001	0.15704347
20	0xbcbd2cc4	-0.023092635
21	0x3d3f3baa	0.04668776
22	0x3d89a633	0.06721153
23	0x3c8820c9	0.016617196
24	0x3e1d73eb	0.1537625
25	0x3ca34979	0.019932495
26	0xbcaf620b	-0.021409055
27	0x3dfa998a	0.122363165
28	0x3d90cf68	0.070708096
29	0x3d644196	0.05572661
30	0x3d386fc5	0.045028467
31	0x3be47428	0.0069718547
32	0x3dca8071	0.098877795
33	0x3b02ab61	0.0019938576
34	0xbb04a615	-0.0020240594
35	0xbd01b849	-0.03166989
36	0x3dccbd69	0.099970646
37	0x3e1d5838	0.15365684
38	0x3dce45ef	0.100719325
39	0x3d2d6cba	0.042340018
40	0x3c15dbb9	0.009146624
41	0x3d603732	0.05474014
42	0x3c97566c	0.018473826
43	0x3d2b6b23	0.04185022
44	0xbdc7bf64	-0.09753302
45	0x3c483811	0.0122203985
46	0xbc927641	-0.017878653
47	0x3cfec92e	0.03110179
48	0x3d698130	0.05700797
49	0xba0b6a3d	-0.000531826
50	0x3d63cf2b	0.055617493
51	0x3d3334b3	0.04375143
52	0x3dc4a520	0.096018076
53	0x3e0c4a86	0.13700303
54	0x3c5d02d2	0.013489442
55	0xbbef6339	-0.0073055294
56	0x3d0049e2	0.03132046
57	0xbc8af1b6	-0.01696096
58	0xbd925d99	-0.071467586
59	0x3d8b41f8	0.06799692
60	0x3d46e21a	0.04855547
61	0xbc8c399c	-0.017117314
62	0x3d410fe2	0.047134288
63	0x3b3292c2	0.002724812
64	0x3d8b2a04	0.06795123
65	0x3d95c5ca	0.07313116
66	0x3c34b488	0.01102937
67	0x3ca23a13	0.019803083
68	0x3cfe9034	0.03107462
69	0x3e3a2baf	0.18180726
70	0x3d7f4c24	0.062328473
71	0x3d87ff40	0.06640482
72	0x3b06559c	0.0020497805
73	0x3d8e3827	0.06944304
74	0x3c936f16	0.017997306
75	0x3cb47aa8	0.022031143
76	0x3df88547	0.12134796
77	0x3d0c44f3	0.034245443
78	0xbc9005db	-0.017580917
79	0x3b16024a	0.0022889548
80	0xbcb853d3	-0.022500908
81	0xbcb751c1	-0.02237785
82	0xbc9f3eb6	-0.019439083
83	0x3d9c0752	0.07618584
84	0xbc8cbe46	-0.017180573
85	0x3d47884f	0.04871398
86	0x3cb55f49	0.022140162
87	0x3cb95f26	0.022628378
88	0x3ce61739	0.028087245
89	0x3d930570	0.071787715
90	0x3d04aa9b	0.032389265
91	0x3c53eebb	0.012935336
92	0x3a285c06	0.0006422404
93	0xbc424c49	-0.011859008
94	0xbd6d56bf	-0.057944056
95	0x3d84edda	0.06490679
96	0xbd54e338	-0.051974505
97	0x3dd07914	0.10179344
98	0x3de8cb52	0.11366905
99	0x3d90c016	0.070678875
100	0xbd9978e9	-0.07493765
101	0x3e0be0a1	0.13659908
102	0x3da61b25	0.08110646
103	0x3e2a5387	0.16633426
104	0x3de436ba	0.11143251
105	0x3de3731e	0.11105941
106	0x3d9259b5	0.071460165
107	0x3dcd93d5	0.10037962
108	0xbd811a8b	-0.06303891
109	0x3d939f37	0.07208102
110	0x3cde184d	0.027111197
111	0xbd5050a9	-0.050858174
112	0x3e0b7777	0.13619791
113	0xbd0ef167	-0.034898188
114	0x3dddca3d	0.108295895
115	0x3d785038	0.060623378
116	0x3d25d2c9	0.040484224
117	0x3cca3cde	0.024687227
118	0x3d3b9f92	0.045806475
119	0x3deaa7e9	0.114578076
120	0x3c4f1e14	0.0126414485
121	0x3c41e87a	0.011835212
122	0x3d461148	0.048356324
123	0x3cd3a88c	0.025837205
124	0xbd149ded	-0.036283422
125	0x3de8f155	0.113741554
126	0x3cded2a9	0.02720006
127	0x3d0f487a	0.03498123
128	0x3af5d23b	0.001875467
129	0x3d9d18e4	0.07670763
130	0xbc080e05	-0.008304124
131	0xbdef7543	-0.11692288
132	0xbd89572e	-0.06706081
133	0xbd9f937c	-0.07791802
134	0x3d93fa52	0.07225479
135	0xbc4c2638	-0.012460284
136	0x3d678a46	0.056528352
137	0x3c33a1e2	0.010963889
138	0xbd67dcec	-0.056607172
139	0xbd0c22b7	-0.034212794
140	0xbd1a5478	-0.037678212
141	0x3cbb6ea6	0.02287991
142	0x3d7432ba	0.05961869
143	0x3dce5629	0.100750275
144	0xbdcc7bb0	-0.09984529
145	0x3d7b2912	0.061318465
146	0x3cf9ece3	0.030508464
147	0x3d552e19	0.052045915
148	0xbd97c904	-0.074113876
149	0x3d90e58d	0.07075033
150	0xbdcc996f	-0.09990203
151	0x3d7a8d95	0.06117018
152	0x3dd78240	0.1052289
153	0x3d995294	0.07486454
154	0xbd8074e9	-0.06272299
155	0x3d2ba945	0.041909475
156	0xbd3dac1f	-0.046306726
157	0xbda6cafe	-0.081441864
158	0xbda36302	-0.079778686
159	0x3bcda045	0.006275209
160	0x3d1de45b	0.038547855
161	0xbdbdd0d3	-0.09268346
162	0x3d6b1f1e	0.057402723
163	0xbd9e8e02	-0.077419296
164	0x3dc4bfa3	0.09606864
165	0xbd816f40	-0.063200474
166	0x3db06067	0.08612137
167	0x3d04bd9f	0.0324074
168	0x3d21ef3b	0.03953479
169	0xbd67160c	-0.05641751
170	0x3da15759	0.07877988
171	0xbdd54293	-0.10413089
172	0x3d028cec	0.031872675
173	0x3b481d10	0.00305349
174	0x3d5ff170	0.054673612
175	0xbe3152d3	-0.17316751
176	0xbd47453c	-0.04865001
177	0xbb8436e2	-0.004034863
178	0x3d2a9dcd	0.041654397
179	0xbbe72cc1	-0.0070548956
180	0x3b9e141e	0.0048241755
181	0xbddde1a4	-0.10834053
182	0xbd1f0855	-0.038826305
183	0xbd044996	-0.03229674
184	0xbd254b23	-0.04035486
185	0x3debbd1e	0.115106806
186	0x3cf2fb37	0.029660804
187	0x3ca26de1	0.019827785
188	0x3d8c752c	0.06858286
189	0x3cb07394	0.021539487
190	0x3d8f26da	0.06989832
191	0x3d8445d6	0.06458633
192	0x3d89f015	0.06735245
193	0xbcd8d11e	-0.026466902
194	0x3d704a9e	0.05866491
195	0x3d700213	0.058595728
196	0xbd109cad	-0.035305668
197	0xbdbf6a72	-0.09346475
198	0xbce3e8c9	-0.027820962
199	0x3d87b7bb	0.06626841
200	0x3d3db510	0.046315253
201	0x3dc71ed2	0.097226754
202	0xbcbf04fe	-0.02331781
203	0xbbd8045b	-0.006592316
204	0xbdeda942	-0.11604549
205	0x3dc185f2	0.09449376
206	0xbd0389e2	-0.032113917
207	0x3d02178b	0.031760734
208	0xbcbaf1fa	-0.022820462
209	0xbdaa65cf	-0.083202
210	0xbd5f0ecf	-0.054457482
211	0xbd96a16c	-0.073550075
212	0xbd442404	-0.04788591
213	0xbdea6b4f	-0.11446249
214	0xba21d048	-0.0006172699
215	0xbc234744	-0.0099657215
216	0x3c79fb0e	0.01525761
217	0xbda88818	-0.08229083
218	0xbd9729dc	-0.07381031
219	0x3d0ac8a7	0.033882763
220	0xbd2efd70	-0.042722166
221	0xbd88df85	-0.06683258
222	0x3d4e010b	0.050293963
223	0xbcc114aa	-0.023569424
224	0xbdc2add0	-0.09505808
225	0x3bd88259	0.0066073355
226	0x3c01c047	0.007919378
227	0x3d82fbe2	0.06395699
228	0xbd8782b6	-0.06616728
229	0xbd80eedb	-0.06295558
230	0x3da99632	0.082806006
231	0x3d473f82	0.04864455
232	0x3d7a88f3	0.06116576
233	0xbd46eb5f	-0.04856431
234	0xbcf21dd4	-0.029555239
235	0xbdf43334	-0.11923829
236	0xbd58909f	-0.052872296
237	0x3c30f35b	0.010800208
238	0xbdcf90b7	-0.10135024
239	0x3da19d20	0.07891297
240	0xbcf268ac	-0.029590927
241	0xbce00833	-0.02734766
242	0x3cbd7619	0.023127602
243	0x3d62db87	0.05538514
244	0x3c6c2f9d	0.014415649
245	0xbd20bbc5	-0.03924157
246	0x3d9fec5a	0.07808752
247	0x3d8b76f5	0.06809799
248	0xbd8eb774	-0.06968585
249	0x3d816fa0	0.06320119
250	0x3dcbf5ee	0.09959017
251	0xbdd538a1	-0.10411192
252	0xbdab09c9	-0.08351476
253	0xbdca211a	-0.09869595
254	0x3ccca5c9	0.024981396
255	0x3d6cd4cf	0.057820138

weight_ih_l0_reverse f4 [384, 1]
0	0x3e076824	0.1322332
1	0xbd8b3bfe	-0.06798552
2	0x3d63ca62	0.05561293
3	0x3e23f71c	0.16012233
4	0x3d94d489	0.072671
5	0x3dad49da	0.08461352
6	0x3c8a37a4	0.016872235
7	0xbcc8c8ce	-0.024509814
8	0x3b5c7acf	0.0033642536
9	0xbcf78fd5	-0.030219952
10	0x3e68fae8	0.22751963
11	0x3d1dbbaf	0.038509067
12	0xbe036834	-0.12832719
13	0xbcd5d853	-0.026104128
14	0xbe2dab67	-0.16959916
15	0xbd69b49e	-0.057057016
16	0xbd81ca2d	-0.0633739
17	0x3df20a41	0.11818362
18	0x3e00f20e	0.12592337
19	0x3d95dc14	0.07317367
20	0x3dc4f735	0.096174635
21	0x3e0b96bb	0.13631718
22	0xbdb28efa	-0.08718677
23	0x3e637e34	0.22216111
24	0xbd9e0d32	-0.077173606
25	0x3dae007d	0.08496187
26	0x3dfe7f82	0.12426664
27	0x3d9dc364	0.077032834
28	0x3dd3c6da	0.10340662
29	0xbd968aea	-0.073507145
30	0x3db091ca	0.08621557
31	0x3cdc134f	0.026864676
32	0x3cee6d2d	0.029104793
33	0xbd9876ee	-0.07444559
34	0xbc6cef72	-0.014461385
35	0x3d75adc8	0.059980184
36	0xbd531935	-0.05153771
37	0x3d75ba6d	0.059992243
38	0x3d8c5056	0.0685126
39	0x3c3444fc	0.011002775
40	0xbce89578	-0.028391585
41	0xbc0a0ea6	-0.008426344
42	0xbdcb1b32	-0.099172965
43	0x3d0e22a5	0.03470101
44	0xbccad0a5	-0.024757693
45	0x3ba53702	0.005041958
46	0xbd6991f1	-0.057023946
47	0x3d91066d	0.07081304
48	0xbeb55d80	-0.35422897
49	0x3dff209a	0.1245739
50	0xbc656f89	-0.014003643
51	0x3d9146a6	0.07093553
52	0x3dd39452	0.10331024
53	0x3cea5ce0	0.02860874
54	0xbd5252c6	-0.05134847
55	0x3c3d70fc	0.011562582
56	0xbd5c9340	-0.053851366
57	0x3df32888	0.11872965
58	0x3db4ceaf	0.08828484
59	0x3d393d4a	0.045224465
60	0x3d91b244	0.071140796
61	0xbd54d008	-0.051956207
62	0x3cb5eedc	0.022208624
63	0xbd3f2312	-0.046664305
64	0xbcfdeae8	-0.030995801
65	0x3d8e9c44	0.06963399
66	0x3e10b107	0.1413003
67	0x3eb3936f	0.3507342
68	0x3d034130	0.03204459
69	0x3c62bacd	0.013838482
70	0x3d68bdb6	0.056821547
71	0x3cddcffe	0.027076717
72	0xbbf37f97	-0.0074309814
73	0x3d1cd5bf	0.03828978
74	0x3db18200	0.08667374
75	0xbc47358b	-0.012158762
76	0x3de24bf0	0.1104964
77	0x3da09da8	0.078425705
78	0xbd4cd659	-0.050009105
79	0xbdc7fb6a	-0.0976475
80	0x3dcc556e	0.09977232
81	0xbd553413	-0.052051615
82	0x3e264843	0.16238503
83	0x3cf0fe25	0.02941806
84	0xbdbdcbb8	-0.09267372
85	0x3e52716e	0.20551082
86	0x3d45fd75	0.04833742
87	0xbdb1af41	-0.08676005
88	0x3bf675b0	0.0075213537
89	0xbdbb7157	-0.09152477
90	0xbccde8e3	-0.025135463
91	0x3ca3618b	0.019943973
92	0x3cb6e006	0.02232362
93	0x3db83968	0.089953244
94	0xbcb5f35f	-0.022210775
95	0x3de7863a	0.113048986
96	0x3bc4dada	0.0060075345
97	0x3d203b5a	0.039119102
98	0x3db67537	0.08909076
99	0x3d032900	0.032021523
100	0x3d6f769a	0.058462717
101	0xbdf48a60	-0.119404554
102	0x3e3e456a	0.18581167
103	0x3d1957df	0.037437316
104	0x3c96b3c0	0.018396258
105	0x3bb30141	0.005462796
106	0x3d5506d2	0.052008457
107	0x3cea1576	0.028574686
108	0xbde2ff31	-0.1108383
109	0xbddfcffe	-0.10928343
110	0x3dea791d	0.11448882
111	0x3d8d3a89	0.0689593
112	0xbddf6f8e	-0.10909949
113	0x3e0032f8	0.12519443
114	0xbdb6bb16	-0.089224026
115	0x3d301e9f	0.042997953
116	0x3ca3c241	0.019990088
117	0xbbbdbc9a	-0.0057903053
118	0x392c8ea8	0.00016456342
119	0x3d0a9e31	0.03384227
120	0xbc7925af	-0.015206738
121	0x3df9704d	0.12179623
122	0x3d80d1bb	0.06290003
123	0x3d8b8657	0.06812733
124	0x3cbc65ad	0.022997702
125	0xbda54913	-0.080705784
126	0xbe22ddc9	-0.15904917
127	0xbcc2cd54	-0.023779549
128	0x3da12274	0.078678995
129	0xbde1b6e7	-0.11021214
130	0xbd6e415a	-0.058167793
131	0x3cae08ac	0.02124437
132	0xbe35074a	-0.17678562
133	0x3d140eaa	0.036146797
134	0x3dc416a1	0.095746286
135	0x3cb9afc7	0.022666825
136	0xbe0411aa	-0.12897363
137	0xbd94d23a	-0.0726666
138	0x3d56a4f2	0.052403398
139	0x3d9d0ec3	0.07668831
140	0xbd85e78b	-0.06538304
141	0xbd9f7da2	-0.077876344
142	0x3b7de986	0.0038743927
143	0x3da843b2	0.08216037
144	0x3db00402	0.085945144
145	0x3d2ae7d9	0.041725013
146	0xbde2780a	-0.11058052
147	0xbd3dd706	-0.04634764
148	0xbd062d45	-0.032758016
149	0xbd8da6d7	-0.06916588
150	0x3c077a9c	0.008268978
151	0x3d38a7c7	0.04508188
152	0xbce0cdeb	-0.02744194
153	0xbd674fb6	-0.056472503
154	0xbd8d7856	-0.06907718
155	0x3dbf8594	0.0935165
156	0x3993004a	0.0002803824
157	0xbda37c71	-0.0798272
158	0x3da87ac7	0.08226543
159	0x3e186fde	0.14886424
160	0x3c72b08b	0.014812599
161	0xbd0c5cf5	-0.03426834
162	0xbb8acd69	-0.0042359126
163	0x3c8b6617	0.017016454
164	0x3da57b4b	0.08080157
165	0x3dc64cf8	0.096826494
166	0xbdb7c12f	-0.08972394
167	0xbc224268	-0.009903528
168	0xbd9f509d	-0.07779048
169	0xbc09a1bb	-0.008400376
170	0xbd5d1743	-0.053977262
171	0x3d6b54c7	0.057453897
172	0xbd8656eb	-0.06559547
173	0xbd02bb9e	-0.031917207
174	0xbdb41071	-0.087921984
175	0xbcf564ab	-0.029955229
176	0xbc50ec86	-0.012751704
177	0xbe0c6836	-0.13711628
178	0xbd2de1d9	-0.042451713
179	0x3d273cb1	0.040829364
180	0xbd930322	-0.07178332
181	0x3d05cbf8	0.032665223
182	0xbd13e878	-0.03611037
183	0x3d21008b	0.03930716
184	0xbd7cec50	-0.061748803
185	0x3da1a477	0.07892697
186	0x3b26b745	0.0025438827
187	0x3d42bf2d	0.0475456
188	0x3d86f30c	0.06589326
189	0xbd6fd90e	-0.05855661
190	0xbdc9feef	-0.09863078
191	0xbdcd9530	-0.10038221
192	0xbb78bf4f	-0.0037955826
193	0xbdb3df60	-0.0878284
194	0x3e1d80a6	0.15381107
195	0x3d87f91d	0.066393115
196	0xbdef48b4	-0.11683789
197	0x3d6719a2	0.05642093
198	0xbcef81c1	-0.029236676
199	0xbb99b00e	-0.004690177
200	0x3cf300cd	0.029663468
201	0xbd912bf9	-0.07088465
202	0xbd798ac4	-0.060923353
203	0xbd5f0988	-0.05445245
204	0x3d0e9715	0.03481205
205	0xbd8004d7	-0.06250923
206	0xbaa7d678	-0.0012805006
207	0x3d8f4d40	0.06997156
208	0xba80a666	-0.0009815216
209	0xbe0792b5	-0.13239558
210	0x3dc161c6	0.09442477
211	0x3d057943	0.032586347
212	0xbd835553	-0.06412759
213	0x3c2a4da7	0.01039449
214	0x3d6ef0c3	0.058335077
215	0xbd5b6759	-0.053565357
216	0x3e0b27a2	0.13589337
217	0x3da842be	0.08215855
218	0x3e18a3d9	0.14906253
219	0xbce27394	-0.027643003
220	0x3c9381dd	0.01800626
221	0x3ceec23b	0.02914535
222	0x3d98c6e2	0.07459809
223	0xbda63dd8	-0.081172645
224	0xbd18bf65	-0.037291903
225	0x3cbf6ac4	0.02336634
226	0x3d902569	0.070383854
227	0xbdc1c91d	-0.094621874
228	0xbd8467e4	-0.06465128
229	0xbd4fa686	-0.05069592
230	0x3d98bf02	0.07458307
231	0x3d3a2b40	0.045451403
232	0x3d475e3a	0.048673846
233	0xbcf08ea6	-0.029364895
234	0x3db6af50	0.08920157
235	0x3deb5b04	0.11491969
236	0x3cf1f7ed	0.029537166
237	0xbda69694	-0.08134189
238	0xbda337d3	-0.07969632
239	0xbdf2be44	-0.118526965
240	0x3d4b01f4	0.04956241
241	0x3d9da8f6	0.07698242
242	0xbdc591d2	-0.09646954
243	0x3d924726	0.07142477
244	0xbcac4b0f	-0.021031884
245	0x3da215d4	0.0791432
246	0xbd37523d	-0.044756163
247	0xbda7c44a	-0.08191736
248	0x3d95457b	0.07288643
249	0x3cfe4a5e	0.03104132
250	0xbdb8642a	-0.0900348
251	0xbbbf8e12	-0.0058457935
252	0x3da03968	0.078234494
253	0x3e199091	0.14996554
254	0x3e185c0e	0.14878866
255	0xbe0fa1ed	-0.14026614

weight_hh_l0_reverse f4 [384, 128]
0	0xbc97a4a2	-0.01851112
1	0x3d9d9e86	0.076962516
2	0xbd76d42c	-0.060260937
3	0x3c9d19de	0.019177373
4	0x3d61b934	0.055108264
5	0x3d23a933	0.039956283
6	0xbe01f0b1	-0.12689473
7	0xbd4a2301	-0.04934979
8	0xbd1e6a31	-0.03867549
9	0xbd557c6d	-0.052120615
10	0x3d80025e	0.062504515
11	0x3c30b23a	0.01078468
12	0x3da32908	0.079668105
13	0x3d4029b3	0.046914767
14	0x3d30941b	0.043109994
15	0xbb791407	-0.0038006322
16	0xbcaad254	-0.020852245
17	0x3d261c4f	0.04055434
18	0x3cad9d54	0.021193184
19	0xbdcfb26d	-0.10141454
20	0x3d0c6ccc	0.034283444
21	0xbac952e0	-0.0015359782
22	0x38b39cbe	8.564581e-05
23	0x3cad8c96	0.0211852
24	0x3cfa3c80	0.030546427
25	0xbce305ae	-0.02771267
26	0xbc211f78	-0.009834163
27	0x3d8277c6	0.06370501
28	0xbb921016	-0.004457484
29	0x3dbc622a	0.09198411
30	0xbcab905a	-0.020942856
31	0x3ab4da5d	0.0013797987
32	0xbdd5ed05	-0.104455985
33	0x3d98835a	0.07446928
34	0x3cfa8635	0.030581573
35	0xbcf61e51	-0.030043753
36	0x3d746141	0.05966306
37	0x3d8f859d	0.070079066
38	0x3dbdc9e2	0.09267022
39	0xbc96a3c0	-0.018388629
40	0x3d2e9597	0.04262313
41	0x3c3ab673	0.011396038
42	0xbd3a47f1	-0.045478765
43	0x3ca8c8af	0.020603506
44	0xbc9b1d57	-0.018934889
45	0xbbe72194	-0.0070535634
46	0x3cf08357	0.029359503
47	0x3d170b13	0.036875796
48	0x3d64115e	0.055680625
49	0xbdb1047d	-0.08643434
50	0x3b042c1b	0.002016789
51	0x3c1b3a83	0.0094743995
52	0xbd306726	-0.04306712
53	0x3cc5a1a2	0.024124924
54	0x3d8ac7a0	0.06776357
55	0xbc820ae7	-0.01587434
56	0xbda05705	-0.07829098
57	0xbd697bf1	-0.057002965
58	0x3db7c182	0.089724556
59	0x3ddfa210	0.10919583
60	0xbd5c16fb	-0.053732853
61	0x3d50eead	0.05100887
62	0x3cd52ec4	0.026023276
63	0xbd1b6480	-0.03793764
64	0xbcd37926	-0.025814604
65	0xbe02a350	-0.12757611
66	0xbc118c68	-0.008883573
67	0xbdbda16b	-0.09259304
68	0xbcc25df1	-0.023726435
69	0x3d64c039	0.05584738
70	0xbd3bafff	-0.04582214
71	0x3ca4d866	0.020122718
72	0xbd9090ff	-0.07058906
73	0xbc13c9af	-0.009020253
74	0x3d80d2db	0.062902175
75	0x3ce66714	0.028125323
76	0xbc742ca9	-0.014903226
77	0xbd8bf2aa	-0.06833394
78	0xbaa54977	-0.0012610395
79	0x3dc7d88e	0.097581014
80	0xbdbe4cec	-0.092920154
81	0x3defac50	0.11702788
82	0xbcb77038	-0.022392377
83	0x3cb32cee	0.02187201
84	0xbd9ae971	-0.07564057
85	0xbd9c43f7	-0.07630151
86	0xbc87e217	-0.0165873
87	0xbcea758e	-0.028620508
88	0xbdb1296d	-0.086504795
89	0xbca58efd	-0.020209784
90	0x3dc005f5	0.09376136
91	0x3cc52c85	0.02406908
92	0xbddb14fa	-0.1069736
93	0xbd8a8c1f	-0.06765007
94	0x3d80e584	0.06293777
95	0x3da1b20e	0.07895289
96	0x3cb8fcbe	0.022581454
97	0x3d65bf97	0.056090917
98	0xbd44ab73	-0.04801507
99	0xbbfb9713	-0.0076779216
100	0x3d79d797	0.060996618
101	0x3d6f0ff4	0.058364823
102	0xbd038488	-0.032108814
103	0xbcd92715	-0.026507894
104	0xbceaf349	-0.02868046
105	0xbddce6e4	-0.107862264
106	0xbd866639	-0.06562466
107	0xbd14518d	-0.036210585
108	0xbd4ec19f	-0.05047762
109	0x3d36bb4b	0.04461221
110	0x3dcfca8c	0.101460546
111	0xbd8c9e83	-0.06866171
112	0xbd160674	-0.036627248
113	0x3d3026d4	0.04300578
114	0xbde1e122	-0.11029269
115	0x3db6333e	0.088964924
116	0xbcd232a1	-0.025658907
117	0x3ceb705e	0.028740104
118	0xbd53df01	-0.051726345
119	0xbcf67bdf	-0.030088363
120	0xbdb5352a	-0.08848031
121	0xbdc4cd9c	-0.096095294
122	0xbdf15b50	-0.117849946
123	0xbd815323	-0.06314685
124	0xbe30c7c9	-0.17263712
125	0xbe013399	-0.12617339
126	0x3debb2e0	0.11508727
127	0x3d92432a	0.07141717
128	0xbe0a6a35	-0.13517077
129	0xbd818426	-0.063240334
130	0xbd8a0265	-0.06738738
131	0x3cd7c2f4	0.026338078
132	0xbda6b935	-0.08140794
133	0x3d8a8553	0.06763711
134	0xbc45e2ac	-0.012077969
135	0x3d2691fc	0.040666565
136	0x3d06d9e1	0.03292263
137	0x3deb8031	0.1149906
138	0xbdd54db2	-0.1041521
139	0x3d122b35	0.035685737
140	0x3d3eb3d8	0.04655823
141	0x3d275445	0.04085185
142	0xbd3a1eb0	-0.045439422
143	0xbe1538e6	-0.14572486
144	0xbcc5f85b	-0.024166277
145	0xbd8ee72c	-0.06977686
146	0xbd331120	-0.043717504
147	0xbdd52a1e	-0.10408424
148	0xbd3ce64b	-0.046118062
149	0xbb8b8811	-0.0042581637
150	0xbded3970	-0.11583221
151	0x3ca042bc	0.019563071
152	0x3d11422c	0.035463497
153	0xbd2c16cd	-0.042013932
154	0xbb675c0d	-0.003530267
155	0x3d0d24c3	0.034458887
156	0xbd027823	-0.031852853
157	0xbc7b9872	-0.01535617
158	0xbdc8a11f	-0.097963564
159	0xbcaedbbd	-0.021345014
160	0xbd214702	-0.03937436
161	0xbcf4ff48	-0.029906884
162	0x3be480ec	0.0069733765
163	0xbd8330f1	-0.06405819
164	0x3d79d1f3	0.06099124
165	0x3d0c4490	0.034245074
166	0x3b9fe28c	0.0048793014
167	0x3b06bb00	0.0020558238
168	0xbd4433c9	-0.04790095
169	0x3d7fc88a	0.06244711
170	0x3d923608	0.07139212
171	0x3c6a8804	0.014314655
172	0x3cb5fa93	0.02221421
173	0x3d893b63	0.0670078
174	0x3d73506a	0.05940286
175	0xbb898f1d	-0.0041979686
176	0xbda296ab	-0.07938894
177	0xbdaa5329	-0.08316643
178	0xbd8592e4	-0.06522158
179	0x3a26d421	0.0006364007
180	0xba0cea86	-0.0005375523
181	0xbce30495	-0.027712146
182	0xbadd5b12	-0.0016888103
183	0x3d94c4e9	0.0726412
184	0xbc5e6ebf	-0.013576209
185	0xbdaeffbb	-0.085448705
186	0xbb22c98c	-0.002483937
187	0xbcafb245	-0.02144731
188	0xbcd3ca56	-0.025853317
189	0x3d3448c1	0.044014696
190	0x3dd98915	0.106218494
191	0xbdb050a3	-0.0860913
192	0xb9003e47	-0.00012230231
193	0x3ca6d695	0.020365993
194	0x3d53835a	0.05163894
195	0xbba6cafc	-0.0050901156
196	0x3d1323cb	0.035922807
197	0xbd0de953	-0.034646343
198	0xbc3eb1de	-0.0116390865
199	0xbd2d99f8	-0.042383164
200	0xbca3ff02	-0.020019058
201	0xbcb81e1b	-0.022475293
202	0x3dbaec44	0.09127095
203	0x3d3fa7df	0.046790954
204	0xbd375ed9	-0.04476819
205	0xbdc1dbd2	-0.094657555
206	0xbe2110b9	-0.15729035
207	0x3d222060	0.039581656
208	0xbddf3379	-0.108984895
209	0xbda136ee	-0.07871805
210	0x3d9389f6	0.07204048
211	0xbb9b0d66	-0.004731822
212	0x3d138ad1	0.036021058
213	0x3cbbbb71	0.022916527
214	0x3e1fcc3a	0.1560525
215	0xbd70ae49	-0.05875996
216	0xba281865	-0.00064123265
217	0xbd592c83	-0.053020965
218	0xbc5ac87f	-0.013353466
219	0xbcde8c90	-0.027166635
220	0xbd2e962f	-0.042623695
221	0x3c21060f	0.009828105
222	0x3cec52aa	0.028848011
223	0xbcb72290	-0.022355348
224	0x3d2a5b31	0.041590873
225	0x3e0cf18f	0.13764022
226	0xbd8080b3	-0.062745474
227	0xbd4c9744	-0.049948946
228	0xbd637cea	-0.05553905
229	0xbd979ec9	-0.07403333
230	0xbd16ce56	-0.03681787
231	0xbd21079c	-0.039313897
232	0x3bb29558	0.005449932
233	0xbdab99e6	-0.08378963
234	0x3d703f68	0.05865422
235	0x3d580cc5	0.052746553
236	0x3dc23ac9	0.09483869
237	0x3d2bbe25	0.041929383
238	0x3d98cacb	0.07460555
239	0xbd18689e	-0.037209146
240	0xbb650cb1	-0.0034950192
241	0xbd20ab71	-0.039226
242	0xbc57ae99	-0.013164186
243	0x3c4f793a	0.01266318
244	0xbda40839	-0.08009381
245	0xbc9c11dd	-0.019051487
246	0xbd9494ba	-0.0725493
247	0x3cd40466	0.025881004
248	0x3d3aef17	0.04563817
249	0x3d389776	0.04506632
250	0xbd8a792d	-0.06761394
251	0xbd756392	-0.05990941
252	0xbdbe01a2	-0.09277655
253	0xbdadfa3b	-0.08494993
254	0xbc8469f0	-0.016163796
255	0x3d41d280	0.04731989

bias_ih_l0_reverse f4 [384]
0	0x3b694163	0.0035591952
1	0x3d5c9547	0.0538533
2	0x3db65c98	0.089043796
3	0x3c9d36d7	0.019191189
4	0x3de86713	0.11347785
5	0x3d9dfc81	0.07714177
6	0x3d04b95d	0.03240334
7	0x3da78145	0.08178953
8	0x3d5d997c	0.054101452
9	0x3d9141f8	0.07092661
10	0x3c1f291c	0.009714391
11	0xbcc11178	-0.0235679
12	0x3d768748	0.060187608
13	0xbc4f0f7f	-0.012637972
14	0xbd1597ed	-0.03652184
15	0xbc8d0542	-0.017214421
16	0x3d939578	0.07206243
17	0x3dd018d1	0.10160983
18	0x3d4f1889	0.050560508
19	0x3da2c56a	0.0794781
20	0x3d9d05ad	0.07667098
21	0x3d1a7b6e	0.037715368
22	0x3d89f294	0.06735721
23	0x3b851b21	0.004062072
24	0xbd62f9ff	-0.055414196
25	0x3e2c71bd	0.16840263
26	0x3d93456b	0.07190975
27	0xbc8b8807	-0.017032636
28	0x3cf62dce	0.030051138
29	0x3e4aa951	0.19791152
30	0x3dec1dc5	0.115291156
31	0x3d896c49	0.06710107
32	0x3ddbb21e	0.107273325
33	0x3d4abace	0.049494557
34	0xbb9baf7f	-0.0047511454
35	0x3d4f3f60	0.05059755
36	0x3dbe31b7	0.09286826
37	0x3db489d9	0.08815355
38	0xbd9e9121	-0.07742525
39	0x3c45d4c2	0.012074651
40	0x3cf300ff	0.02966356
41	0xbcc57a41	-0.024106147
42	0x3d15983c	0.036522135
43	0x3dcb5a0a	0.09929283
44	0x3de75900	0.11296272
45	0xba918fcc	-0.0011105477
46	0x3b97df4d	0.004634774
47	0x3e1b8306	0.151867
48	0xbb7bff86	-0.0038451864
49	0xbd10c8bf	-0.035347696
50	0x3de413ca	0.11136587
51	0xbcaeee83	-0.021353966
52	0xbd42f5da	-0.047597744
53	0x3dcaffd2	0.09912075
54	0x3dd5fe25	0.10448865
55	0x3d841fa7	0.0645135
56	0xbd52a395	-0.051425535
57	0x3dab861f	0.08375191
58	0x3b597838	0.0033183228
59	0x3e113439	0.14180078
60	0x3ba0d39c	0.0049080383
61	0x3d4429ed	0.047891546
62	0x3d7a7979	0.061151
63	0x3db2030f	0.0869199
64	0x3d63c9e6	0.055612467
65	0xbd2ed54f	-0.042683896
66	0x3d666a57	0.056253757
67	0xbd871333	-0.06595459
68	0xbce0a84e	-0.027424004
69	0x3d126bad	0.03574722
70	0x3d30d325	0.043170113
71	0xbcb627a2	-0.022235695
72	0xbc4d7017	-0.012538931
73	0x3d320838	0.04346487
74	0x3cefbf5d	0.029266054
75	0xbc96cb67	-0.018407537
76	0x3d91e73a	0.07124181
77	0x3dae861c	0.08521673
78	0x3cdf3cf3	0.027250743
79	0x3d795004	0.060867324
80	0x3c4dff47	0.01257307
81	0x3dc23fd0	0.094848275
82	0xbca4e6d5	-0.0201296
83	0x3d880992	0.066424504
84	0xbc82873c	-0.015933625
85	0xbbdb1d18	-0.006686818
86	0x3db62009	0.08892829
87	0x3d8341e1	0.0640905
88	0x3ce465c2	0.027880553
89	0x3bfd7e58	0.0077360086
90	0x3db84bc3	0.089988254
91	0x3db27413	0.08713546
92	0x3d16d825	0.036827225
93	0x3d6526de	0.05594527
94	0x3d88a90c	0.06672868
95	0x3d3abc8f	0.04558998
96	0x3bd32b50	0.0064443722
97	0x3d70a442	0.0587504
98	0x3bfd09d8	0.0077221207
99	0x3e0f34f4	0.13985044
100	0x3e0fd2a2	0.14045194
101	0x3da68bf4	0.08132163
102	0x3dc3f1ef	0.095676295
103	0xbc8f726c	-0.017510615
104	0x3d7d4ec2	0.061842687
105	0x3c9e048d	0.01928928
106	0x3da2eb76	0.07955067
107	0x3df8a532	0.121408835
108	0x3b587908	0.0033031125
109	0x3d4793cc	0.048724934
110	0x3de27105	0.11056713
111	0x3e0235f4	0.12715894
112	0xbcac3cb6	-0.021025043
113	0x3dbd46c4	0.09242013
114	0x3d7d706f	0.061874803
115	0x3d0ee052	0.034881897
116	0x3e083afe	0.13303754
117	0x3d6faba8	0.058513314
118	0x3dbb707a	0.091523126
119	0x3e33d8f2	0.17563227
120	0x3dbd75c3	0.09250977
121	0x3dda204b	0.10650691
122	0x3cc161b4	0.023606159
123	0x3da4e8eb	0.08052238
124	0x3daae387	0.08344179
125	0x39380240	0.00017548446
126	0xbc4cfb70	-0.012511119
127	0x3dbfcdfa	0.09365459
128	0x3d9e595b	0.07731887
129	0x3dae42f9	0.08508868
130	0x3d1bcee4	0.038039103
131	0xbd89da23	-0.067310594
132	0x3dd528f3	0.10408201
133	0xbc8d1822	-0.017223421
134	0xbd09e652	-0.033666916
135	0xbd42700d	-0.04747014
136	0xbd385427	-0.04500213
137	0xbc96b217	-0.018395467
138	0xbcb654df	-0.022257267
139	0x3d8e8821	0.06959558
140	0xbdab6f22	-0.08370806
141	0x3d4e7adf	0.050410148
142	0xbcb651cc	-0.0222558
143	0x3df2404e	0.118286714
144	0xbb86248e	-0.004093713
145	0xbc8b439d	-0.017000014
146	0x3b1e010a	0.0024109506
147	0xbcf5b5f8	-0.029993996
148	0x3d19b1da	0.037523128
149	0x3dcc829d	0.0998585
150	0x3b9cfbf6	0.0047907783
151	0x3d388209	0.045045886
152	0xbcd4e7b0	-0.025989383
153	0x3cef8f37	0.029243095
154	0x3db22ad4	0.08699575
155	0xbd5dcf9e	-0.054153077
156	0x3df8ebbb	0.12154337
157	0xbcfe3011	-0.03102878
158	0x3d6c9ad1	0.057764832
159	0x3d0bd816	0.034141622
160	0x3ba78ee7	0.005113471
161	0x3d27effc	0.04100035
162	0x3e17c8c2	0.14822677
163	0xbdbd5636	-0.09244959
164	0x3c97c8a1	0.018528285
165	0xbdae7a49	-0.08519418
166	0xbca0bc1e	-0.019620951
167	0xbd1d4184	-0.03839256
168	0xbc838a86	-0.016057264
169	0x3ca25a8d	0.019818569
170	0xbbe670fb	-0.0070325113
171	0x3cabd977	0.020977719
172	0x3dbfd571	0.093668826
173	0xbd85abab	-0.06526884
174	0xbd458917	-0.048226442
175	0xbd52bf0f	-0.05145174
176	0x3baff1e5	0.0053694122
177	0xbd098386	-0.033572696
178	0xbd8eacb5	-0.06966535
179	0xbd1198f9	-0.035546277
180	0x3a11697a	0.0005547028
181	0x3d354db8	0.04426357
182	0xbc65e1f5	-0.014030923
183	0xbdadc3e5	-0.084846295
184	0xbd48e088	-0.049042255
185	0x3ccacf2b	0.024756989
186	0x3c5ae17f	0.0133594265
187	0x3d9e66db	0.07734462
188	0x3d5083fa	0.050907113
189	0x3d99d916	0.07512109
190	0xbd17d5dc	-0.037069187
191	0x3cfbb8b7	0.030727727
192	0xbd54ed08	-0.051983863
193	0xbd844bf4	-0.064597994
194	0x3b98f00a	0.0046672868
195	0x3dc2dc07	0.09514623
196	0x3c6eeb00	0.014582396
197	0xbd8dfb75	-0.06932727
198	0x3d742286	0.059603237
199	0x3da01ef4	0.07818404
200	0x3d77cd4c	0.06049852
201	0xbcd06fc5	-0.02544392
202	0x3d5bf623	0.05370153
203	0xbd3d1c79	-0.04616973
204	0xbd311b58	-0.043238968
205	0xbd9dbb4d	-0.077017404
206	0x3daa4b86	0.08315186
207	0x3da16d51	0.078821786
208	0x3e2809eb	0.16410033
209	0xbd978dc2	-0.07400085
210	0x3ce33559	0.0277354
211	0x3b89052c	0.0041815247
212	0xbdeb534c	-0.11490497
213	0xbd599471	-0.05312008
214	0x3c3c44bb	0.011490996
215	0x3d3b040d	0.04565816
216	0x3daa654a	0.083201006
217	0x3d2443b9	0.040103648
218	0x3dbc277c	0.091872185
219	0xbc5a1a2b	-0.013311903
220	0x3d6b6cc5	0.057476778
221	0x3df0fa7a	0.117665246
222	0xbb16afc5	-0.002299295
223	0x3cbc8864	0.023014255
224	0xbd6f382c	-0.05840318
225	0x3de08fbc	0.10964915
226	0x3d06abb5	0.032878596
227	0xbd52b50b	-0.051442187
228	0x3da2f129	0.07956154
229	0x3db828c2	0.08992149
230	0xbbbcf398	-0.0057663433
231	0x3e50293f	0.20328234
232	0xbd1835a6	-0.037160538
233	0xbd9d679f	-0.0768578
234	0xbd3f1243	-0.046648275
235	0x3b337beb	0.0027387093
236	0xbd6e0d6e	-0.058118276
237	0xbd6d44ee	-0.057927065
238	0x3b7e71e4	0.0038825208
239	0xbd3de892	-0.046364374
240	0xbd1ef930	-0.038811862
241	0x3d0f6918	0.035012335
242	0xbc6a4ce4	-0.014300559
243	0x3b476a16	0.0030428222
244	0xbccbec3f	-0.024892924
245	0xbcc12d8e	-0.023581292
246	0xbd902ff9	-0.070404
247	0x3cd3a9f1	0.02583787
248	0x3db9a534	0.09064713
249	0x3caa474e	0.020785954
250	0xbc827739	-0.01592599
251	0xbcb212b3	-0.021737432
252	0x3e0adfaa	0.13561884
253	0xbd6a8c41	-0.057262663
254	0x3caa69bc	0.020802371
255	0xbcb4bccb	-0.02206268
