lab5/models/model_0.pth (torch, 274465 bytes, 6 tensors)

weight_ih_l0 f4 [512, 1]
0	0x3d018e8f	0.031630095
1	0xbd1cfc8a	-0.038326778
2	0xbdd63fe5	-0.10461406
3	0x3ca04709	0.019565122
4	0x3c054dd1	0.008136229
5	0x3da2a3f5	0.079414286
6	0xbc853c08	-0.016263977
7	0xbcd59e7c	-0.026076548
8	0x3d5a0cff	0.05323505
9	0xbdbb6e4c	-0.09151897
10	0x3da9d18d	0.08291922
11	0xbdb57ca5	-0.08861665
12	0x3d35efc3	0.044418108
13	0xbd4732df	-0.0486325
14	0xbda83a14	-0.082142025
15	0x3db672e6	0.08908634
16	0x3cea9c83	0.028639084
17	0xbc915ae6	-0.017743539
18	0xbd0916ea	-0.03346912
19	0xbce9ffe4	-0.028564401
20	0xbd7b226a	-0.061312117
21	0xbdbb2fde	-0.09139989
22	0x3d3dce84	0.046339527
23	0xbdaf391a	-0.08555813
24	0xbc9e1ae0	-0.019299924
25	0x3c5010a8	0.012699284
26	0xbdd213d7	-0.102576904
27	0xbd11f456	-0.035633408
28	0x3cde3db3	0.02712903
29	0x3d50e50c	0.050999686
30	0xbdd5e720	-0.10444474
31	0xbd704b79	-0.058665726
32	0xbdda37ef	-0.106552
33	0xbbbc41e0	-0.0057451576
34	0x3da7299e	0.08162235
35	0x3d5eceb8	0.05439636
36	0x3e0123a5	0.12611254
37	0xbd21b72b	-0.039481323
38	0xbdd405c5	-0.10352663
39	0xbdb0f700	-0.086408615
40	0x3d2c7b07	0.042109516
41	0xbd0b0d6f	-0.03394836
42	0x3dcc6e8a	0.09982021
43	0x3ca91bcf	0.020643143
44	0xbdc5bbca	-0.096549585
45	0xbc818dc4	-0.01581467
46	0x3c49b5fa	0.012311453
47	0x3dfa6b59	0.12227506
48	0xbda19bb4	-0.07891026
49	0x3e0e0eb3	0.13872795
50	0x3d33774b	0.04381494
51	0x3e33e224	0.17566735
52	0x3d9ff560	0.078104734
53	0x3df5871f	0.11988663
54	0x3d9b540f	0.07584392
55	0xbd6c78fb	-0.057732563
56	0x3e89a3ea	0.2688287
57	0xbd83bc99	-0.064324565
58	0x3ccc571c	0.02494388
59	0xbd1a9e6b	-0.037748735
60	0xbcb696a4	-0.022288628
61	0x3df8033a	0.121099904
62	0x3dec8fb3	0.11550846
63	0xbd7c3e69	-0.061582956
64	0xbd65f237	-0.056139197
65	0x3ce5221c	0.027970366
66	0xbda4677d	-0.08027551
67	0x3db1c46b	0.08680042
68	0xbd939b38	-0.0720734
69	0x3d3a79f1	0.04552645
70	0x3d2ccc65	0.042187113
71	0xbd8d5da1	-0.06902624
72	0xbdca47dc	-0.09876987
73	0xbd99e26b	-0.07513889
74	0xbd5e7cef	-0.054318365
75	0xbdaa4fc0	-0.08315992
76	0x3d006cb4	0.031353667
77	0x3c0f8699	0.008760118
78	0xbd0ff902	-0.03514958
79	0x3d3a3869	0.045463953
80	0xbb5cb4fe	-0.0033677216
81	0x3c962f2b	0.018333038
82	0x3d2e886e	0.04261058
83	0xbd852b98	-0.065024555
84	0xbe0aaeb5	-0.13543208
85	0xbc28a2b4	-0.010292698
86	0x3d848e70	0.0647248
87	0x3dfc2e73	0.12313547
88	0xbcd43417	-0.025903745
89	0xbd4ae298	-0.049532503
90	0xbce75aa9	-0.028241472
91	0x3c6ff079	0.0146447355
92	0xbd44d876	-0.048057996
93	0xbbebea76	-0.007199581
94	0x3d3073a0	0.04307902
95	0xbd3091d4	-0.043107823
96	0x3d4eea82	0.050516613
97	0x3e040755	0.12893422
98	0x3d0dae09	0.0345898
99	0xbaaaf6d4	-0.0013043531
100	0xbd84a4f7	-0.06476777
101	0x3e20ecf6	0.15715393
102	0xbded4900	-0.11586189
103	0x3e0a2517	0.13490711
104	0x3c07298e	0.0082496535
105	0x3b80a6f5	0.003926153
106	0x3d840661	0.06446529
107	0xbd479487	-0.04872563
108	0xbd892b96	-0.066977665
109	0xbd416505	-0.04721548
110	0x3d5e36c5	0.05425145
111	0xbd13ba40	-0.036066294
112	0x3d9da046	0.07696585
113	0x3e00481c	0.12527508
114	0x3de15642	0.110027805
115	0xbd3213e5	-0.043476004
116	0xbd691f36	-0.05691453
117	0x3cfdf4f3	0.03100059
118	0xbdda739a	-0.106665805
119	0x3d0809e6	0.033212565
120	0x3d8fdd9f	0.07024693
121	0x3d71591f	0.058922883
122	0x3ce13089	0.027488964
123	0x3dd994aa	0.106240585
124	0xbddbce05	-0.107326545
125	0x3e2519b0	0.1612308
126	0x3d6db044	0.058029428
127	0xbdd0e931	-0.10200728
128	0xbda8c647	-0.082409434
129	0x3bcd62f5	0.0062679
130	0x3c9c5148	0.019081727
131	0xbdca7733	-0.09886017
132	0x3e06220c	0.13098925
133	0xbcb69864	-0.022289462
134	0xbce63c62	-0.028104965
135	0xbd800d73	-0.06252565
136	0xbdf1c674	-0.1180543
137	0x3c6552f9	0.013996833
138	0x3da05868	0.07829362
139	0xbc4742f0	-0.012161955
140	0xbb95a1f1	-0.004566424
141	0xbd3eb94e	-0.04656344
142	0xbc208d6f	-0.009799345
143	0x3ccb6c4b	0.024831912
144	0xbd012452	-0.03152878
145	0xba579762	-0.0008224157
146	0x3d15a216	0.03653153
147	0xbc33e86e	-0.0109807085
148	0x3ce0bf9c	0.027435116
149	0x3d14e895	0.03635462
150	0xbc9962dc	-0.018723898
151	0xba88b96e	-0.0010431239
152	0x3d479774	0.04872842
153	0x3dc5aee3	0.096524976
154	0x3db9f426	0.09079771
155	0x3d200844	0.039070383
156	0xbd4d66a2	-0.050146706
157	0x3d7e1e09	0.062040363
158	0x3df1ee81	0.11813069
159	0xbc3b6077	-0.011436573
160	0xbca712fc	-0.020394795
161	0x3d8ec7da	0.069717124
162	0xbc6f81cb	-0.014618347
163	0xbd957c8d	-0.07299147
164	0xbd4faf46	-0.050704263
165	0xbb163747	-0.0022921131
166	0x3dc3d67f	0.09562396
167	0xbd4bfa37	-0.04979917
168	0xbdc217d6	-0.094772026
169	0xbcd361d5	-0.025803486
170	0x3dc13a82	0.094349876
171	0xbdc60dc8	-0.09670597
172	0x3d342ebf	0.043989893
173	0x3cce5987	0.025189174
174	0xbd9db44c	-0.077004045
175	0x3e00a8b8	0.12564361
176	0xbdc5df1f	-0.096616976
177	0x3dcdc92e	0.100481376
178	0x3c9b586c	0.018963061
179	0xbc1ac99a	-0.00944748
180	0x3c637098	0.013881825
181	0xbc23135f	-0.009953349
182	0xbc846f08	-0.016166225
183	0xbdc2c000	-0.09509277
184	0xbd78b9fb	-0.06072424
185	0x3d015f61	0.0315851
186	0xbc750e3a	-0.014957005
187	0xbb9d0acb	-0.0047925464
188	0xbd86f60e	-0.065899
189	0x3db518cf	0.088426225
190	0xbcdc78b9	-0.026913034
191	0x3b869014	0.004106531
192	0x3dbf1cc6	0.0933166
193	0x3d2a7d3e	0.041623347
194	0x3df711e8	0.12063962
195	0x3df88acf	0.12135851
196	0xbb90f517	-0.0044237482
197	0x3d7f4c8b	0.062328856
198	0x3dc67653	0.09690537
199	0xbe1a4e57	-0.15068947
200	0xbdc7f258	-0.0976302
201	0x3c95a11a	0.018265296
202	0xbcb77a13	-0.022397077
203	0x3d621630	0.05519694
204	0x3d4fd69e	0.050741784
205	0xbc413ff4	-0.011795033
206	0x3d950153	0.07275643
207	0x3ce6ab79	0.028157936
208	0x3d465470	0.04842037
209	0x3d3fe256	0.04684671
210	0xbdc4291e	-0.09578155
211	0x3e21d7df	0.15805005
212	0x3d8efd75	0.06981937
213	0x3deb48af	0.11488473
214	0xbdfea817	-0.12434404
215	0x3d208374	0.039187863
216	0xbc146c8b	-0.009059082
217	0x3e0411cb	0.12897412
218	0x3e0f0b8d	0.1396925
219	0xbda34079	-0.079712816
220	0x3b09d54b	0.0021031674
221	0x3ba96670	0.005169682
222	0xbdc9229b	-0.098210536
223	0x3de506ce	0.111829385
224	0xbdd14cd0	-0.10219729
225	0x3c81832a	0.015809614
226	0x3cf0c938	0.029392824
227	0xbdc9f0d9	-0.09860391
228	0xbd2d8e5f	-0.042372104
229	0xbbd48b62	-0.0064863423
230	0xbd54d862	-0.05196417
231	0xbd560394	-0.052249506
232	0x3dbb5f6a	0.09149058
233	0x3d60d8b6	0.05489417
234	0xbd848b8a	-0.064719275
235	0x3b6caaae	0.0036112475
236	0xbd30f1cf	-0.043199357
237	0x3d41bf1a	0.04730139
238	0xbd86489b	-0.06556817
239	0xbc7d735d	-0.015469399
240	0x3c076f28	0.008266248
241	0x3dae04a9	0.084969826
242	0x3d4325ca	0.04764346
243	0x3d8d7c18	0.06908435
244	0xbcf93b1a	-0.03042369
245	0x3e0b26b0	0.13588977
246	0xbc2e51c9	-0.010639616
247	0x3c789977	0.015173308
248	0xbbd3979d	-0.0064572827
249	0xbd20f59f	-0.039296743
250	0x3bb406e9	0.005493988
251	0xbd7af6f4	-0.06127067
252	0x3d330bba	0.043712355
253	0x3e0985ad	0.134299
254	0xbca83b19	-0.020535992
255	0xbdfbda57	-0.122975044

weight_hh_l0 f4 [512, 128]
0	0xbbacfe9c	-0.0052793752
1	0x3dac87b6	0.08424322
2	0xbdb2dae8	-0.08733159
3	0xbcc8a171	-0.024491044
4	0xbbbdf0a5	-0.0057965093
5	0x3d8ce8cc	0.0688034
6	0x3dbf908a	0.093537405
7	0xbe0b1876	-0.1358355
8	0xbd5f653c	-0.054539904
9	0xbe173944	-0.14767939
10	0xbd2a3c5b	-0.041561466
11	0x3e25331b	0.16132776
12	0xbcff296b	-0.03114768
13	0x3dca3e7b	0.098751985
14	0x3dbc8d3c	0.09206626
15	0xbd24451e	-0.040104978
16	0xbcfd10cf	-0.030891804
17	0x3d73b559	0.05949912
18	0xbd088163	-0.033326518
19	0xbd4ab2a1	-0.04948676
20	0x3d8414f9	0.06449313
21	0x3e169ef1	0.14709069
22	0xbdd96440	-0.10614824
23	0x3b020a67	0.0019842626
24	0x3ded050b	0.115732275
25	0x3b9f3d62	0.0048596123
26	0xbd1e0fd7	-0.038589325
27	0x3d0f3e1c	0.03497134
28	0x3c81feb2	0.015868519
29	0xbdb66b63	-0.08907201
30	0x3deb70f7	0.11496156
31	0x3deb37f7	0.11485284
32	0x3c35283f	0.011056959
33	0xbcdaa617	-0.026690526
34	0xbdbf0277	-0.09326642
35	0x3d6e8086	0.05822804
36	0x3d454235	0.048158843
37	0xbb87632e	-0.004131696
38	0x3d2e2a36	0.042520724
39	0xbbc6cad4	-0.0060666595
40	0xbdaddc22	-0.084892526
41	0xbd58d0fd	-0.05293368
42	0xbbc20499	-0.0059209582
43	0xbd126a69	-0.035746012
44	0xbb46715a	-0.0030279965
45	0x3c873de8	0.016509011
46	0x3d933f1f	0.07189774
47	0x3aae1523	0.0013281446
48	0xbcaa74f9	-0.02080773
49	0x3d57394c	0.052544877
50	0xbd8e6a26	-0.0695384
51	0xbd27bd57	-0.040952053
52	0x3d9cc960	0.07655597
53	0x3e086982	0.13321498
54	0xbd9beb6c	-0.076132625
55	0xbdc84e87	-0.09780603
56	0xbc7ea7e2	-0.015542956
57	0xbdc65ce4	-0.09685686
58	0x3d9b287a	0.0757608
59	0xbcda808d	-0.026672626
60	0x3e1d4a82	0.15360454
61	0x3d06514a	0.032792367
62	0x3dd3bd79	0.103388734
63	0xbd5f2a51	-0.054483715
64	0xbd9c6c53	-0.07637849
65	0x3cc31128	0.023811892
66	0xbd21b70f	-0.03948122
67	0x3d5848ef	0.05280393
68	0xbd9be1f8	-0.076114595
69	0x3ddd0f11	0.10793889
70	0x3cdb5e7b	0.02677845
71	0xbcbf8a12	-0.023381267
72	0xbd6395de	-0.055562846
73	0x3d0608bc	0.032723173
74	0xbdd5dc3a	-0.104423955
75	0x3db90f99	0.09036178
76	0x3e0dc6a4	0.13845307
77	0x3b02d905	0.001996578
78	0x3c0eee3b	0.008723791
79	0xbdb76f44	-0.08956769
80	0xbd9caf0f	-0.07650577
81	0x3d8f4c2b	0.0699695
82	0x3c2b2b45	0.010447328
83	0xbb7aaeca	-0.0038251155
84	0xbd2a4de2	-0.04157818
85	0xbd0549be	-0.03254103
86	0x3dbf8397	0.09351271
87	0x3cbeda0c	0.023297332
88	0xbcd81b6d	-0.026380265
89	0xbc22abce	-0.009928657
90	0x3db6f916	0.08934228
91	0x3dbdedb1	0.09273852
92	0x3dd12bd0	0.10213435
93	0xbdc38c2c	-0.0954822
94	0xbd839901	-0.064256676
95	0x3cf2cf7f	0.029639957
96	0x3d20cd56	0.039258324
97	0x3d41321c	0.04716693
98	0xbe018e14	-0.12651855
99	0xbdeb6aa9	-0.11494953
100	0x3d5d7f9e	0.054076783
101	0x3e1d4b4e	0.15360758
102	0xbe10f716	-0.14156756
103	0xbc8a2167	-0.01686163
104	0xbd200411	-0.039066378
105	0xbe07980c	-0.13241595
106	0x3da255f9	0.07926554
107	0xbdca8db0	-0.09890306
108	0x3dbfa549	0.093576975
109	0x3ded2e80	0.11581135
110	0xbc30dfd5	-0.010795553
111	0x3d4d9082	0.05018664
112	0xbc3b7ea8	-0.011443771
113	0x3cd637f3	0.026149726
114	0x3dea6f1f	0.11446976
115	0x3e242800	0.16030884
116	0xbdc39589	-0.09550006
117	0xbe014847	-0.12625228
118	0x3d326d34	0.043561175
119	0xbdfb0f84	-0.12258819
120	0x3e0d9c3b	0.13829128
121	0xbdbd1ad7	-0.09233635
122	0x3d0d495a	0.03449378
123	0xbe1baf03	-0.1520348
124	0xbd88c435	-0.066780485
125	0xbcaca387	-0.02107407
126	0xbde602d5	-0.11231009
127	0x3d163d0f	0.036679324
128	0xbd244be2	-0.04011143
129	0xba9a1d12	-0.0011757931
130	0xbd8c56e2	-0.06852509
131	0xbd78a24f	-0.060701665
132	0xbca6b07e	-0.02034783
133	0xbd3a8fff	-0.04554748
134	0xb97bb22d	-0.00024003601
135	0xbdc50e6f	-0.096218936
136	0xbdc03d7f	-0.093867294
137	0x3caac64d	0.02084651
138	0xbc5e1b3a	-0.013556296
139	0x3d09acf6	0.033612214
140	0x3d21428e	0.039370112
141	0x3db0e324	0.08637074
142	0x3dbff8fc	0.09373662
143	0xbde55ec9	-0.111997195
144	0x3d11097a	0.03540943
145	0xbd941914	-0.07231346
146	0xbc9caef9	-0.019126402
147	0xbd834b94	-0.064109
148	0x3d761a8e	0.06008392
149	0xbb8d3add	-0.0043099956
150	0xbdb2307d	-0.08700655
151	0x3cd5317f	0.026024578
152	0x3c4b929b	0.01242509
153	0xbbb5b17e	-0.0055448404
154	0xbc0e48b2	-0.008684324
155	0x3d1da211	0.038484637
156	0x3aacef95	0.001319396
157	0x3cfd77bf	0.030940888
158	0xbdb7aae7	-0.08968144
159	0x3dec5e1d	0.11541388
160	0xbceb4ea6	-0.028724026
161	0xbdeac931	-0.114641555
162	0xbdc0c21e	-0.09412025
163	0xbca998d9	-0.020702766
164	0x3c41b1bf	0.011822163
165	0xbc53533c	-0.012898263
166	0x3c80391d	0.015652234
167	0xbcdbe316	-0.026841681
168	0xbc0fd8c5	-0.008779709
169	0xbd6f4b4f	-0.05842143
170	0xbd163c96	-0.036678873
171	0xbcda7a32	-0.026669595
172	0x3ba4796d	0.005019358
173	0xbc894d3a	-0.016760457
174	0xbd403b67	-0.04693165
175	0x3ce711ed	0.02820679
176	0x3df11395	0.11771313
177	0xbb95fe21	-0.0045774137
178	0xbdc01896	-0.093796894
179	0xbc148e02	-0.00906706
180	0x3d7d8f1c	0.061904058
181	0x3dc40936	0.09572069
182	0xbd8a4831	-0.06752051
183	0x3c86c193	0.016449725
184	0x3da12d1e	0.078699335
185	0x3c4caab1	0.012491868
186	0x3d2dece8	0.04246226
187	0x3ca220f6	0.019791108
188	0xbc63d12d	-0.013904852
189	0x3dd79598	0.105265796
190	0x3c37c6ef	0.011216863
191	0x3dc2cc0e	0.095115766
192	0xbd531321	-0.051531915
193	0xbc792609	-0.015206822
194	0xbc8a0868	-0.016849712
195	0xba39361b	-0.0007065252
196	0xbe000b64	-0.12504345
197	0xbc1bc9a1	-0.009508521
198	0x3d9c2188	0.07623583
199	0x3e25ddd8	0.16197908
200	0x3d771d6a	0.060330786
201	0xbd530310	-0.051516593
202	0xbdbc2c63	-0.091881536
203	0xbb740da6	-0.003723958
204	0xbc543021	-0.012950928
205	0x3dbdeec6	0.09274058
206	0x3c88938b	0.016671916
207	0xbad099dc	-0.0015914994
208	0xbdced856	-0.100998566
209	0x3d6f1056	0.05836519
210	0xbd21330e	-0.03935533
211	0x3d87c75f	0.06629824
212	0x3d188015	0.037231524
213	0xbd3567df	-0.044288512
214	0xbd5f8fbb	-0.05458043
215	0x3d234163	0.03985728
216	0x3d9f4187	0.0777617
217	0xbdd46217	-0.10370272
218	0xbd12b027	-0.035812523
219	0x3e0dd5d4	0.138511
220	0xbca65542	-0.020304326
221	0xbd6edb65	-0.0583147
222	0x3d2f0761	0.042731646
223	0xbe2587df	-0.16165112
224	0xbd77e4cf	-0.060520943
225	0x3c944596	0.018099587
226	0xbd3f1a17	-0.04665574
227	0xbe02d2d7	-0.12775742
228	0xbe0cc12d	-0.13745566
229	0x3da52cd5	0.08065192
230	0xbd8d17ee	-0.0688933
231	0x3dc25cab	0.09490331
232	0xbd5df0e9	-0.054184828
233	0x3d14abec	0.03629677
234	0x3dc2560e	0.0948907
235	0xbe0497a7	-0.12948476
236	0x3dcee486	0.10102181
237	0x3c9c5a29	0.01908596
238	0xbdbc6981	-0.09199811
239	0x3d41450b	0.047184985
240	0xbdf5f3d7	-0.120093994
241	0x3dd41f84	0.10357574
242	0x3da1a21e	0.078922495
243	0x3d81effb	0.06344601
244	0xbbdd3581	-0.006750763
245	0xbd31174d	-0.043235112
246	0x3dc52f45	0.096281566
247	0x3d5774b6	0.05260154
248	0x3d2979f8	0.041376084
249	0xbd604c25	-0.054760117
250	0xbdb9115a	-0.09036513
251	0x3c621209	0.013798245
252	0xbd3e6a32	-0.046487994
253	0xbd30f7ca	-0.04320506
254	0x3d29c1a8	0.04144445
255	0x3dcc7bf7	0.09984582

bias_ih_l0 f4 [512]
0	0x3df1fc28	0.11815673
1	0x3d88c8b5	0.06678907
2	0x3d946ef1	0.07247723
3	0xbd78850e	-0.060673766
4	0xbd92e790	-0.07173073
5	0xba056a9f	-0.0005089435
6	0x3dbe2398	0.09284133
7	0x3cd65383	0.026162868
8	0xbc4249fa	-0.011858458
9	0x3d4b77cc	0.049674794
10	0x3c11d18d	0.008900058
11	0x3c450eae	0.012027426
12	0xbc4e8f6a	-0.012607435
13	0xbcfbef39	-0.030753719
14	0x3ddc69c9	0.107623644
15	0x3e1e736b	0.15473716
16	0x3ceec917	0.029148621
17	0x3d48349b	0.048878293
18	0x3dd09b85	0.10185913
19	0x3e09ac24	0.13444573
20	0xbc705b7a	-0.014670247
21	0xbcd4ab2f	-0.025960533
22	0x3c01d8ca	0.007925222
23	0x3db36184	0.08758834
24	0x3d157798	0.036491007
25	0x3dcebe29	0.10094864
26	0x3d250fa6	0.040298127
27	0x3dc1e914	0.09468284
28	0xbd7b67f7	-0.061378445
29	0x3dc82524	0.09772709
30	0x3cf2220f	0.029557256
31	0x3bb88666	0.005631256
32	0x3da61f87	0.08111482
33	0x3e0e2da4	0.13884598
34	0x3e5856a4	0.21126801
35	0x3d1938fa	0.037407853
36	0x3e277ae2	0.1635547
37	0xbd18f550	-0.037343323
38	0x3da2c749	0.07948167
39	0x3dd22341	0.102606304
40	0x3d594fb2	0.05305452
41	0x3df52037	0.11969035
42	0x3e838065	0.25683895
43	0x3cfbcaf5	0.030736426
44	0xbd232f10	-0.039839804
45	0xbcbde42a	-0.023180086
46	0x3d74a9b1	0.059732143
47	0x3dc5e76e	0.09663282
48	0x3a51f01f	0.0008008498
49	0x3de095cb	0.10966071
50	0x3d0deed1	0.03465158
51	0xbaa87a9c	-0.0012853923
52	0x3c962cab	0.018331846
53	0x3dd766c1	0.105176456
54	0x3de20538	0.11036152
55	0x3db95a21	0.09050394
56	0x3daaa751	0.08332694
57	0xbc86716f	-0.016411511
58	0x3c8d872d	0.01727637
59	0x3d417071	0.047226373
60	0xbc8dfade	-0.017331537
61	0x3d3fb269	0.046801005
62	0x3d985eed	0.07439981
63	0x3d54a879	0.05191848
64	0x3dd44614	0.10364929
65	0x3e45bbd7	0.19309936
66	0xbd247cac	-0.04015796
67	0x3c790f3e	0.015201388
68	0x3d5c5a8d	0.053797293
69	0xbc70c9f1	-0.014696584
70	0x3e3bd2a8	0.18342078
71	0x3d681efb	0.05667017
72	0x3cef91c6	0.029244315
73	0xbc3364a9	-0.010949292
74	0x3d8e573e	0.06950234
75	0x3d99a876	0.075028345
76	0x3df9845c	0.12183449
77	0xbd3ec8ba	-0.046578147
78	0xbcc30944	-0.02380813
79	0xbc0645fa	-0.008195395
80	0x3d32d921	0.0436641
81	0x3d06d95a	0.032922126
82	0x3cb24445	0.02176107
83	0x3ca87970	0.020565718
84	0xbc0b3975	-0.008497586
85	0x3dffc617	0.124889545
86	0x3d154bf0	0.036449373
87	0x3d4ab3d5	0.049487907
88	0x3c9abee9	0.018889861
89	0x3dab3cd9	0.08361215
90	0x3dd41d38	0.103571355
91	0x3d565122	0.052323468
92	0xbc596fc8	-0.01327128
93	0x3dca22bd	0.09869907
94	0x3da23824	0.07920864
95	0xbd068f8d	-0.032851744
96	0x3dd90c3c	0.10598037
97	0x3c6f7528	0.014615335
98	0xbd04ddb6	-0.032438003
99	0x3cd8a92e	0.026447859
100	0x3d0a4c41	0.033764128
101	0x3e0d4d43	0.13799004
102	0x3d80220a	0.062564924
103	0x3da8d68e	0.08244048
104	0x3caa7041	0.02080548
105	0x3dc49388	0.09598452
106	0x3e51eb7d	0.20499988
107	0x3ca713d3	0.020395195
108	0x3d568914	0.05237682
109	0xbca54f8e	-0.020179536
110	0xbccb5987	-0.024822963
111	0x3d544534	0.05182381
112	0x3dfe92f8	0.12430376
113	0x3d8cf556	0.068827316
114	0x3e4d4c70	0.2004869
115	0x3d1b07d2	0.037849255
116	0x3da33bf3	0.07970419
117	0x3d38bdea	0.04510299
118	0x3d52ee87	0.05149701
119	0x3d19a2be	0.03750872
120	0xbcef94b5	-0.029245714
121	0x3d3f9468	0.04677239
122	0x3cedfe35	0.02905188
123	0x3d8daa6b	0.0691727
124	0x3d338d38	0.04383585
125	0x3d427ccc	0.047482297
126	0xbcb6f72c	-0.022334658
127	0x3c75a353	0.014992553
128	0xbcae94d3	-0.0213112
129	0x3d930eba	0.07180543
130	0x3df12fb8	0.1177668
131	0xbd778432	-0.060428806
132	0x3dc259e3	0.09489801
133	0x3d97194d	0.073778726
134	0x3cb2dd2a	0.021833975
135	0x3dc45243	0.09586003
136	0x3d18de65	0.037321467
137	0xbd0ee95c	-0.034890518
138	0x3d15a995	0.03653868
139	0x3cd14e29	0.025549965
140	0xbcba18af	-0.022716848
141	0x3d43941f	0.04774868
142	0x3dad50d4	0.08462682
143	0x3ca3ed77	0.020010693
144	0xbd3dab97	-0.04630622
145	0x3da1c064	0.07898024
146	0x3d70c40c	0.058780715
147	0x3de06e83	0.109585784
148	0x3e0ac57f	0.13551901
149	0x3d715f92	0.058929034
150	0x3dc1382e	0.094345436
151	0x3d92df0d	0.0717145
152	0xbd117d7c	-0.03552006
153	0x3db46b44	0.08809522
154	0x3dc4a2df	0.09601378
155	0x3d9211aa	0.071322754
156	0xbccb8745	-0.024844775
157	0x3db1c1ca	0.086795405
158	0x3e100226	0.1406332
159	0x3dc6e5fb	0.09711834
160	0xbc6d20d4	-0.014473159
161	0x3bd1c584	0.0064017195
162	0xba1c630f	-0.00059656886
163	0x3d7551b0	0.059892356
164	0xbd905b01	-0.070486076
165	0x3c57f7c4	0.0131816305
166	0x3cffedff	0.031241415
167	0x3d56d383	0.052447807
168	0x3db8ed40	0.09029627
169	0x3dcc2e6c	0.09969792
170	0x3ddbd1c4	0.10733369
171	0x3d4f22c5	0.05057027
172	0x3c05d889	0.008169302
173	0x3d90ce19	0.0707056
174	0x3dc83ede	0.09777616
175	0xbc9de818	-0.01927571
176	0xbcf3296b	-0.029682836
177	0x3d722afb	0.05912302
178	0x3dae0b2c	0.084982246
179	0xbce9722c	-0.028496824
180	0x3d392a69	0.04520646
181	0xbc0323b1	-0.008004115
182	0x3ba60257	0.005066197
183	0xbd002316	-0.03128346
184	0x3dcf9fd0	0.10137904
185	0x3de75504	0.11295512
186	0x3d6cf408	0.057849914
187	0x3c98b7dc	0.018642358
188	0x3cf30758	0.029666588
189	0x3d6dab2b	0.058024567
190	0xbd991167	-0.07474022
191	0x3ce1ff4f	0.027587561
192	0xbbe8a843	-0.0071001365
193	0xbd4940c1	-0.04913402
194	0x3dd2d89b	0.102952205
195	0x3dd19c0d	0.102348424
196	0x3d623bfa	0.05523298
197	0xbce5febf	-0.028075574
198	0xbc2211a0	-0.009891897
199	0xbd3560cb	-0.044281762
200	0x3d70687b	0.05869339
201	0x3dd9dbbd	0.10637615
202	0x3d8800c3	0.0664077
203	0x3e342bfc	0.17594904
204	0x3ba7dca7	0.0051227394
205	0x3ce6f54d	0.02819314
206	0xbd66b4d2	-0.056324787
207	0x3d8496bb	0.06474062
208	0xbd5e9dbd	-0.05434965
209	0x3d3d8162	0.046265967
210	0x3de5fd69	0.11229975
211	0xbbbfe168	-0.005855728
212	0x3a223abf	0.00061885634
213	0xbd80c796	-0.06288068
214	0xbd633346	-0.05546882
215	0xbcd6c6d5	-0.026217857
216	0x3ca217d9	0.019786762
217	0x3da73ae6	0.08165531
218	0x3de1dc8b	0.11028393
219	0x3d834c0d	0.0641099
220	0x3d264dec	0.040601656
221	0x3d8f1f64	0.06988409
222	0xbd99b7ec	-0.075057834
223	0x3d776786	0.060401462
224	0x3d7dbcc0	0.061947584
225	0x3dbce9bf	0.09224271
226	0xbdb3c92c	-0.08778605
227	0xbceed945	-0.029156337
228	0x3e03fe1a	0.12889901
229	0x3d729ed8	0.059233516
230	0x3d3447d9	0.04401383
231	0x3de08672	0.109631434
232	0x3d317564	0.043324843
233	0xbce2edd1	-0.02770129
234	0xbd3bf3e3	-0.045886885
235	0xbc499f1a	-0.012305999
236	0x3e0b172e	0.13583061
237	0x3db776c8	0.089582026
238	0x3d505f4a	0.050872125
239	0x3dd9bb19	0.10631389
240	0x3cc07147	0.023491515
241	0x3dd96a5b	0.10615989
242	0x3d155982	0.036462314
243	0x3de9cf7f	0.1141653
244	0x3d666b20	0.056254506
245	0x3da97974	0.082751185
246	0x3d0caf5a	0.034346916
247	0xbd5ae950	-0.05344516
248	0xbd0ab07a	-0.033859707
249	0x3dadbab7	0.08482879
250	0x3dbd5f70	0.09246719
251	0x3d62148e	0.055195384
252	0x3e1ed6a9	0.15511574
253	0x3d765dfb	0.06014822
254	0xbd7a2d09	-0.061078105
255	0x3df2e6a7	0.118604

bias_hh_l0 f4 [512]
0	0x3dc3f63a	0.09568448
1	0x3d56e2de	0.05246245
2	0x3d2c304e	0.042038254
3	0x3db006e1	0.08595062
4	0xbd90d0a7	-0.07071047
5	0x3c7618ad	0.015020532
6	0x3b518f48	0.0031976271
7	0xbd0e2b46	-0.034709238
8	0x3db1f8a4	0.086900026
9	0xbc247e7b	-0.010039921
10	0x3e022fb1	0.12713505
11	0x3d5482c4	0.05188252
12	0x3d76df3c	0.060271487
13	0x3d093d14	0.033505514
14	0x3dbeaac3	0.09309914
15	0x3e3589a7	0.17728291
16	0x3db4667a	0.08808608
17	0x3cdfcd0e	0.027319457
18	0xbc46211a	-0.012092853
19	0xbcbd5f39	-0.023116695
20	0xbca1c654	-0.01974789
21	0x3db98183	0.090579055
22	0x3d412634	0.047155574
23	0xbca76def	-0.020438163
24	0x3c02de75	0.007987608
25	0x3d0ecdf6	0.03486439
26	0xbbde922e	-0.0067923283
27	0xbc2f7f69	-0.010711529
28	0xbd0a2512	-0.03372676
29	0x3d7a229d	0.061068166
30	0x3cef3613	0.02920059
31	0x3df298a8	0.11845523
32	0x3d6176fa	0.055045106
33	0x3d8d7b85	0.06908325
34	0x3e805dbc	0.25071514
35	0x3d622d1f	0.055218812
36	0x3d20a4cf	0.039219674
37	0x3d41ad99	0.047284696
38	0xbd3f5ca3	-0.046719205
39	0x3c39885f	0.011324017
40	0x3d06ba5c	0.03289257
41	0x3dce25e9	0.100658245
42	0x3e424072	0.18969896
43	0xbdab02e6	-0.08350162
44	0xbd07c66b	-0.03314821
45	0x3cfbd74e	0.030742314
46	0x3d45e720	0.04831612
47	0x3e1768ae	0.14786026
48	0xbb89adca	-0.0042016255
49	0x3ddc88e5	0.10768298
50	0x3e06cf16	0.13164935
51	0xbd4e368b	-0.050344985
52	0x3d402b11	0.04691607
53	0xbaf8fb1d	-0.0018995736
54	0x3df5fc1b	0.12010976
55	0x3e10fe37	0.14159475
56	0x3d7225d6	0.059118114
57	0x3dfaf62d	0.122539856
58	0x3bfbbcd8	0.007682424
59	0x3aaeef70	0.0013346504
60	0x3dfa0b05	0.12209133
61	0x3d5d8d7c	0.05409001
62	0x3d367b3a	0.04455111
63	0xbbfd38e7	-0.0077277306
64	0xbcc61664	-0.024180599
65	0x3e6981b8	0.2280339
66	0x3dea5c11	0.114433415
67	0x3cc0ba03	0.023526197
68	0xbce8adf5	-0.028403262
69	0x3e17624f	0.14783596
70	0x3de46606	0.11152272
71	0x3e0a7af0	0.1352346
72	0x3d238287	0.039919402
73	0x3d8df896	0.0693218
74	0x3cfd3b6b	0.030912122
75	0xbd7791e8	-0.06044188
76	0xbc876452	-0.016527329
77	0x3d4baf96	0.049728
78	0xbd3edc82	-0.04659701
79	0x3c2b4225	0.010452782
80	0x3dc1fde2	0.094722524
81	0xbb98d608	-0.0046641864
82	0xbd033a5a	-0.03203807
83	0x3d5b58c0	0.053551435
84	0xbb38ca95	-0.002819692
85	0x3d3ae06a	0.045624174
86	0x3cc048fc	0.023472302
87	0x3dc591da	0.096469596
88	0x3d5b362f	0.05351847
89	0x3d295e77	0.041349854
90	0x3d60d515	0.05489071
91	0x3e0db2b1	0.13837697
92	0x3cc41daa	0.023939926
93	0xbae0d6ca	-0.0017153856
94	0xbd692fbf	-0.0569303
95	0xbbe4e0a8	-0.006984789
96	0x3dbf54e7	0.09342366
97	0x3e243586	0.16036043
98	0x3db5ed43	0.08883145
99	0x3cffb453	0.031213915
100	0xbd3dd712	-0.046347685
101	0x3d83c595	0.0643417
102	0x3d0482a3	0.032351147
103	0xbc96d577	-0.018412335
104	0x3d083cfc	0.033261284
105	0x3e4426c6	0.19155416
106	0x3d4b4eb7	0.049635615
107	0x3da722a2	0.081609026
108	0x3d20f32c	0.039294407
109	0x3ce3ec82	0.027822737
110	0x3def2e57	0.116787605
111	0x3dd224a0	0.10260892
112	0x3e10436d	0.14088221
113	0x3e2187bc	0.15774435
114	0x3e88ea09	0.26741055
115	0x3b873911	0.004126676
116	0xbcb77779	-0.022395836
117	0x3e198cc5	0.14995106
118	0x3e062de5	0.13103445
119	0x3c12250c	0.0089199655
120	0x3bcb03f4	0.0061955396
121	0x3e1ea389	0.15492071
122	0xbce88c46	-0.0283872
123	0x3d1072bc	0.03526567
124	0xbc1396f9	-0.009008163
125	0xbcaa8f1a	-0.02082019
126	0xbcf6229c	-0.0300458
127	0x3e0c67b1	0.1371143
128	0xbcc38366	-0.023866367
129	0xbcb80172	-0.022461627
130	0x3c6c8d00	0.014437914
131	0x3cecd5eb	0.028910598
132	0x3d6652c3	0.05623127
133	0x3ddef3a5	0.10886315
134	0x3bbb3f23	0.0057143136
135	0xbcbbd084	-0.022926576
136	0x3db5439c	0.08850786
137	0x3d425293	0.04744203
138	0x3dc3572c	0.09538111
139	0x3dc9751e	0.098367915
140	0x3de0457f	0.10950755
141	0x3d01adb4	0.031659797
142	0x3bbcb5a8	0.00575896
143	0x3de71eb1	0.11285151
144	0x3ce03964	0.027371116
145	0x3cb0f3a2	0.021600548
146	0x3d9e1d2e	0.07720409
147	0x3dc19e7f	0.09454059
148	0x3d2b8ca5	0.041882176
149	0xbd92d3cd	-0.07169304
150	0x3c68e4b0	0.01421468
151	0xbc613ad3	-0.013746935
152	0xbdad30a4	-0.08456543
153	0xbda173e1	-0.0788343
154	0x3d7643a9	0.06012312
155	0x3c0244ec	0.007951003
156	0xbcbd9ac1	-0.023145081
157	0x3db084c3	0.08619072
158	0x3dcac36c	0.09900555
159	0x3d00e220	0.03146565
160	0xbb1da8cc	-0.002405691
161	0xbcb429e7	-0.021992637
162	0x3d3775e4	0.044790164
163	0xbb8a5db1	-0.0042225947
164	0x3d894f34	0.0670456
165	0x3c736f4b	0.014858077
166	0xbd971f03	-0.07378962
167	0x3de43589	0.111430235
168	0x3d873b1b	0.0660307
169	0x3d97d95b	0.07414504
170	0xbd2ed3d1	-0.042682473
171	0xbbc4769b	-0.005995584
172	0x3e0131c4	0.1261664
173	0x3d1a26a4	0.037634507
174	0x3cc8bec7	0.024505032
175	0x3dbf028f	0.0932666
176	0x3dfea7ce	0.1243435
177	0xbca84f6d	-0.020545686
178	0xbd183623	-0.037161004
179	0xbd81369b	-0.06309243
180	0x3c5d7cd7	0.013518534
181	0x3da2d46a	0.07950671
182	0x3db39048	0.08767754
183	0x3e0ab16e	0.13544247
184	0x3daccfd4	0.084380776
185	0xbd5dcfb4	-0.05415316
186	0xbd01b568	-0.031667143
187	0xbca28f98	-0.019843861
188	0x3d7ed176	0.062211476
189	0x3ce33949	0.027737277
190	0x3dad023b	0.08447691
191	0x3d6e4de0	0.058179736
192	0x3d055365	0.032550234
193	0xbd78e7a7	-0.060767796
194	0xbd154181	-0.036439423
195	0x3d9d762a	0.07688554
196	0xbba8ab7e	-0.0051473966
197	0x3d18504c	0.037185952
198	0xbd61c8ec	-0.055123255
199	0xbaaf5b19	-0.001337859
200	0x3da394ff	0.07987403
201	0x3dcd1945	0.100145854
202	0x3dc8efed	0.09811387
203	0x3d9f2573	0.07770815
204	0x3c16a8fb	0.0091955615
205	0xbd996b9c	-0.07491228
206	0x3cbd0e24	0.023078032
207	0x3d5e3969	0.05425397
208	0x3b06c21d	0.0020562478
209	0xbcbcd4e3	-0.023050731
210	0x3de9b27d	0.11410997
211	0x3d364c2d	0.04450624
212	0x3d5c8149	0.053834233
213	0x3cd3fbad	0.025876844
214	0x3cfa5491	0.030557903
215	0x3bc4398c	0.0059883054
216	0xbc82af91	-0.015952857
217	0xbd3de515	-0.046361048
218	0x3d9da928	0.076982796
219	0x3da02b03	0.07820704
220	0x3e04c14a	0.12964359
221	0x3dd84f93	0.105620526
222	0xbcf40b8e	-0.029790666
223	0xbbda6550	-0.0066649094
224	0x3d79815f	0.060914394
225	0x3d6edc13	0.058315348
226	0x3d109543	0.035298597
227	0x3d2deef8	0.042464226
228	0x3d4ad024	0.049514905
229	0x3caef253	0.021355784
230	0x3d7fa9b8	0.062417716
231	0xbbcc9548	-0.0062433816
232	0xbd0f5b7e	-0.034999363
233	0xbd0adeb7	-0.033903804
234	0x3d6afd6d	0.057370592
235	0x3cfd51b1	0.030922743
236	0xbc8bf09f	-0.01708251
237	0xbc2ec50c	-0.010667097
238	0x3bd80da5	0.0065934234
239	0x3b4ed9d1	0.0031562934
240	0xbcebbe15	-0.028777162
241	0xbd7b1844	-0.06130244
242	0x3dcd8e91	0.10036958
243	0x3dd14dc5	0.102199115
244	0x3c6d98df	0.014501779
245	0x3d1233ee	0.035694055
246	0x3d4fb3ea	0.05070869
247	0x3b4d8238	0.0031358134
248	0xbca6282c	-0.020282827
249	0xbd8151a7	-0.06314402
250	0x3d79bce3	0.060971152
251	0xbc44360e	-0.011975778
252	0x3d067979	0.03283069
253	0xbd0c7aec	-0.034296915
254	0xbd008d5f	-0.031384822
255	0x3c8196e4	0.01581902

weight f4 [5, 128]
0	0xbda4609f	-0.080262415
1	0x3d5cad2c	0.053876087
2	0xbdb4928d	-0.08817015
3	0xbdb07531	-0.086161025
4	0xbe55b931	-0.20871426
5	0xbb60fc69	-0.0034330136
6	0xbb351569	-0.002763117
7	0xbd429cf3	-0.04751296
8	0xbd80b33a	-0.06284185
9	0xbe3555e5	-0.17708547
10	0xbdab665b	-0.08369132
11	0x3d4ee8bd	0.050514925
12	0x3e00dec9	0.12584986
13	0xbca6ad0d	-0.020346189
14	0x3dc96b6b	0.098349415
15	0xbb5589a5	-0.0032583263
16	0xbdf8b471	-0.121437915
17	0x3d9048d2	0.07045139
18	0x3e119096	0.14215311
19	0xbe255d5f	-0.161489
20	0x3e73b48d	0.23799343
21	0x3dc66c0b	0.09688576
22	0x3da8bb40	0.0823884
23	0xbd79a86a	-0.060951628
24	0xbddbe133	-0.10736313
25	0xbc8916f8	-0.016734585
26	0xbdcb40ed	-0.09924493
27	0x3c9bfe98	0.019042298
28	0x3bc0c7a8	0.005883176
29	0xbd57f7b0	-0.052726448
30	0x3e0ab9a6	0.13547382
31	0x3df78b2e	0.12087093
32	0x3de6fb4e	0.11278401
33	0xbe103a82	-0.14084819
34	0x3d9a21d4	0.075259835
35	0x3cb562aa	0.022141773
36	0x38125c04	3.489481e-05
37	0x3de9e97e	0.11421488
38	0x3d8b66dd	0.06806729
39	0xbbc6e64a	-0.006069933
40	0x3caaf6c1	0.020869615
41	0x3e1cfe83	0.15331464
42	0x3cb4595b	0.022015264
43	0xbd743922	-0.0596248
44	0xbe337983	-0.17526822
45	0xbcbea167	-0.023270322
46	0x3c8c874d	0.01715436
47	0xbd3780b5	-0.04480048
48	0xbcd77139	-0.026299106
49	0x3c41d048	0.011829443
50	0x3da3d1d1	0.07999004
51	0xbdf1cd81	-0.11806775
52	0x3d9da27a	0.076970056
53	0x3c658b4e	0.014010264
54	0x3d51a1dd	0.051179755
55	0xbd91ab65	-0.07112769
56	0x3d5bd9e6	0.0536746
57	0x3e364045	0.17797954
58	0x3ca427bd	0.02003848
59	0x3d2bced4	0.041945294
60	0x3d2a3a11	0.041559283
61	0x3d721f6b	0.059111994
62	0x3c8890c0	0.016670585
63	0x3dc6c606	0.09705739
64	0xbd883997	-0.066516094
65	0xbd895dac	-0.067073196
66	0x3e154289	0.14576162
67	0xbe61b8bd	-0.22043128
68	0xbe0c091d	-0.13675351
69	0x3d9336ac	0.07188162
70	0x3da4a740	0.08039713
71	0x3da6f7f5	0.08152763
72	0x3e084adb	0.13309805
73	0xbd490df7	-0.049085584
74	0xbded5a31	-0.11589468
75	0xbe20ab3e	-0.15690324
76	0x3d20ad52	0.03922779
77	0xbd6722f3	-0.056429815
78	0x3e0cba7d	0.13743015
79	0x3deb0b97	0.1147682
80	0x3dd132e1	0.102147825
81	0x3d4f0259	0.05053935
82	0xbc510190	-0.01275672
83	0x3b9b6f59	0.0047434983
84	0xbdde6a43	-0.108601116
85	0x3d866321	0.06561876
86	0x3d3ef1f3	0.04661746
87	0x3dc3ebfe	0.09566496
88	0xbe40a095	-0.18811257
89	0xbde525dd	-0.111888625
90	0x3df02d3c	0.11727378
91	0x3dddafde	0.1082456
92	0xbc0106b9	-0.007875138
93	0xbcee66da	-0.029101778
94	0xbddce174	-0.10785189
95	0xbe60c548	-0.21950257
96	0x3dcd3804	0.1002045
97	0xbcc8476d	-0.024448121
98	0xbcbf1c3a	-0.02332889
99	0xbd9bb307	-0.07602506
100	0x3daa543c	0.08316848
101	0xbe426df5	-0.18987258
102	0x3ae5d6ad	0.0017535292
103	0x3d03ca2a	0.03217522
104	0x3db0bba4	0.086295396
105	0x3e10ba01	0.14133455
106	0x3bfca62f	0.0077102403
107	0xbe4078d4	-0.18796092
108	0x3dcf92a1	0.10135389
109	0x3d4a3f84	0.04937698
110	0x3db6e12a	0.089296654
111	0x3d75658b	0.059911292
112	0xbcd54ba0	-0.026037037
113	0x3bbd5da1	0.0057789837
114	0x3d8d0a61	0.06886745
115	0x3bc53777	0.006018575
116	0x3e2526df	0.1612811
117	0xbc3ecc42	-0.011645379
118	0xbc1f2b65	-0.009714936
119	0xbc3cfeba	-0.011535341
120	0x3de8ccfe	0.11367224
121	0x3d68998f	0.05678707
122	0x3c5775b3	0.01315062
123	0xbd9f8f22	-0.07790972
124	0xbd2103fa	-0.039310433
125	0x3c83ab6a	0.016072948
126	0x3c5f735c	0.013638344
127	0x3dbe707f	0.09298801
128	0x3c101c7c	0.008795854
129	0x3dd776a6	0.10520677
130	0xbd165271	-0.036699716
131	0xbd8f66e8	-0.0700205
132	0xbcd4b095	-0.025963107
133	0xbd4e90c0	-0.050431013
134	0x3d8fe5a1	0.0702622
135	0x3d2fbf50	0.04290706
136	0x3cdbbc35	0.026823143
137	0x3d085deb	0.033292692
138	0x3dbca4c8	0.09211117
139	0x3d15f04d	0.03660612
140	0xbe0f3456	-0.13984808
141	0xbd13368b	-0.035940688
142	0x3e0fa9cd	0.14029618
143	0xbda9f8fb	-0.082994424
144	0xbd084696	-0.03327044
145	0xbe4a617e	-0.19763753
146	0xbd4116ed	-0.047141004
147	0xbdb419a5	-0.08793954
148	0xbd9b734c	-0.075903505
149	0xbd90d5b1	-0.070720084
150	0xbd86c34c	-0.06580219
151	0xbd2acab3	-0.041697215
152	0xbdde7307	-0.108617835
153	0x3d82599b	0.06364747
154	0x3e488d4d	0.19585152
155	0xbe106d06	-0.14104089
156	0xbcde70df	-0.02715343
157	0xbd69e0ad	-0.057099033
158	0xbe9a953e	-0.30191988
159	0x3d847d9b	0.0646927
160	0xbd94ead4	-0.072713524
161	0x3ca14853	0.019687807
162	0xbd009bb6	-0.031398498
163	0xbe18202d	-0.14856024
164	0x3d02427d	0.03180169
165	0xbdb73550	-0.089457154
166	0xbe5d81bb	-0.2163152
167	0xbb76b243	-0.0037642873
168	0xbe0e3fb8	-0.13891494
169	0xbe6de6b1	-0.23232533
170	0x3ce247ae	0.02762207
171	0xbd0843df	-0.033267852
172	0x3d1a6bb1	0.03770036
173	0x3e5c57a5	0.21517809
174	0xbc0adbe0	-0.008475274
175	0x3cd86047	0.026413096
176	0x3e0a052b	0.13478534
177	0x3dd4bbba	0.103873685
178	0x3cfcf0ae	0.030876484
179	0x3d581445	0.052753706
180	0x3bfdb452	0.007742443
181	0xbdd41c4c	-0.1035696
182	0xbe362495	-0.17787392
183	0x3da01325	0.078161515
184	0x3e4727d5	0.19448788
185	0xbdcd8459	-0.10035009
186	0x3e02bb00	0.12766647
187	0xbc8c22a1	-0.017106356
188	0xbdd4fe1c	-0.1040003
189	0x3d038fde	0.032119624
190	0xbe1cc054	-0.15307742
191	0x3dac4f0b	0.08413514
192	0x3e03c3d8	0.12867677
193	0x3e0dd999	0.13852538
194	0xbe127ff6	-0.14306626
195	0xbdbce672	-0.092236415
196	0xbddeef1c	-0.1088545
197	0x3da2029a	0.079106525
198	0xbb24b90a	-0.0025134706
199	0x3d82dfb9	0.06390328
200	0xbe0db4e7	-0.1383854
201	0x3c9bf397	0.019037051
202	0x3d90ff72	0.07079972
203	0xbcccad9b	-0.024985125
204	0x3cc9e00a	0.024642963
205	0xbdc7c5b6	-0.09754507
206	0xbd993061	-0.07479931
207	0x3d348bbe	0.04407858
208	0xbd2cb4c9	-0.042164598
209	0xbcdbae2e	-0.026816454
210	0x3deb49d7	0.11488693
211	0xbd614723	-0.054999482
212	0x3e0fcb10	0.14042306
213	0x3ccfb7b7	0.025356157
214	0xbdc6897c	-0.09694192
215	0xbd10227e	-0.035189144
216	0x3e11a644	0.14223582
217	0x3d0d3eb9	0.034483645
218	0x3dce7911	0.10081685
219	0xbca4b93f	-0.020107863
220	0x3d8cb6fd	0.0687084
221	0xbe14fbff	-0.14549254
222	0x3d8a3a43	0.06749394
223	0xbc4346e9	-0.011918762
224	0x3d840903	0.06447031
225	0xbd1a44f7	-0.037663426
226	0x3e4baa0c	0.19889086
227	0xbdf85ed1	-0.1212746
228	0x39edca9d	0.0004535512
229	0x3da45c72	0.08025445
230	0x3d4750d0	0.048661053
231	0x3cdcfae0	0.026975095
232	0xbc9846d1	-0.018588455
233	0xbda2d0a5	-0.07949952
234	0x3aae9eaf	0.0013322438
235	0x3cb7d8bc	0.022442214
236	0xbd21f5e2	-0.039541133
237	0x3d1b3fe5	0.03790273
238	0x3ce15340	0.027505517
239	0x3e28a718	0.16469991
240	0x3d46d215	0.048540194
241	0x3cf71784	0.03016258
242	0x3cbad884	0.02280832
243	0x3d5130cf	0.051071938
244	0x3d5fba22	0.05462087
245	0xbde95143	-0.113924526
246	0xbc713119	-0.014721178
247	0x3dc95dcd	0.09832344
248	0xbcb203db	-0.021730354
249	0xbdf6a5d6	-0.120433494
250	0x3d4b93e9	0.049701605
251	0x3cd1fa64	0.02563209
252	0x3b585259	0.0033008067
253	0x3c17975c	0.0092523955
254	0xbdc6a4ea	-0.096994236
255	0xbe037519	-0.12837638

bias f4 [5]
0	0x3d28d9c6	0.04122331
1	0xbcf8d523	-0.030375069
2	0xbd0cca73	-0.034372758
3	0x3d7f7f6a	0.06237737
4	0xbd1b4fbe	-0.037917845
