lab5/models/model_64_1_layer_60epochs_bidirectional.pth (torch, 72308 bytes, 6 tensors)

lstm.weight_ih_l0 f4 [256, 1]
00000000: 6e7d 76be 94c6 1d3d 7649 c3bc 26cd 7f3f
00000010: c34e 02bf b8c0 7dbe 4f4b 383d 7e58 f9bd
00000020: 29f3 90bd 256f 273e 2bb1 ae3d b13a 79be
00000030: 37de bbbd 5cc2 833d 1579 723d 2d2c f63b
00000040: ea1c fa3d 04e2 89be 4bf4 c03d 9a53 4dbe
00000050: 7c54 c23e 74e9 7bbd c7e0 943d 82c8 a8bd
00000060: cd95 1ebe 3a97 9dbe 9038 1cbe 881b e23d
00000070: 94fa 083e f35a a6bd a828 65be 1af8 3c3e
00000080: 5dff 7f3c d5d7 43be 6f69 9d3e b635 1dbe
00000090: 8228 3bbd 4e39 83be 2117 f73b 638d 293e
000000a0: 04f7 213d 32b4 b63d 14cc febc 8666 b53d
000000b0: 01b4 36be 2fed e43e ca39 80bc e92a 2cbd
000000c0: 7d39 e93e 3974 363e a929 263d 93df 003d
000000d0: 382c 3cbd 24e1 863d 9503 433c 131f 0b3d
000000e0: 0910 63be 2579 953f b40d a03c b78d f33d
000000f0: 4742 86bd 264c f5bd fec0 d13d 9a5d 20be
00000100: 4ea7 053d 56b9 433e 1e67 df3d 64d0 d4bd
00000110: a992 8b3e 432d 383c 0de2 48be ff16 bfba
00000120: 09f7 903c b99b 083e a68e 863e a8e1 8cbc
00000130: 2489 aebb a832 0e3e d6d8 a5bc 1ec0 1d3e
00000140: 1f4b 33be 50ba c33e dd69 c53d 33c0 cb3d
00000150: f6ca 7cbc 4007 8f3e a4cd 3b3d f59b 033e
00000160: 8ce5 963b b834 c93d 713b 433e a185 753e
00000170: 5b55 4b3e 0e5e f2bd fcbe c43c 1e22 24bd
00000180: 7c1a 843e e6ee a43d b013 ac3d 245f 59be
00000190: 6a92 b03b 8040 a43e b7fc 04bd 3aee ff3d
000001a0: e3bc 86bd 3577 43be 9c08 603b fd22 bd3c
000001b0: abf4 4fbd 8247 6b3d 3d81 6e3e 4d38 ac3d
000001c0: 4c37 7b3e 9b3f b4be dd4e 87be 284f 90bd
000001d0: 8df8 11bd b95c 773d f28e 2e3e 157a 963d
000001e0: 2d0b 64be 5210 57bd e8b5 e63d 4890 d43c
000001f0: 0ada 773b ff2b 813e 30e9 49be 43c8 323e
00000200: 5d52 39bd c9f0 08bd 7389 853d c833 9fbd
00000210: e5ac 763d caca 94be a378 17bd 4037 b63e
00000220: 1703 353d 8178 8ebd 6598 65bd 238f 86be
00000230: 60d9 94bd 0686 25bf 42ec 31be 84a9 713e
00000240: 3da9 29bc a78e 6ebe cf7a bf3d c244 58bd
00000250: 4506 b0be dad3 15be aa66 03bd 3453 e23d
00000260: 8687 1e3f dbc3 963e aaa6 ae3d 41f6 363d
00000270: 169b 2fbe 8f2d cfbe 67ed 5f3e 3650 a93d
00000280: f470 723d 983a f8be 3305 b73d dd3a 08bf
00000290: 48ea 833e f05e 453f ce87 d53d a8c0 dabc
000002a0: 0c36 96be 17a5 64be f1f5 98be ca24 e4bd
000002b0: 9c30 99be 5a3f 883d de22 103e 7b8d 603e
000002c0: 4d76 433e 2b07 39bc 5032 10bd cbed 363f
000002d0: 6b2b 193d d295 bfbd f5de 623d 68c9 ba3d
000002e0: f9e9 d83e 0ede 573e cdce ffbc 4103 4dbd
000002f0: 1834 a43e 43d7 0d3e ffa7 abbd 4b4e b8bf
00000300: cf1a 443d 3ac9 62be be90 9a3d 7b95 09bc
00000310: 9d8d 66bb 1618 2e3d 3ee2 733d ae77 f63d
00000320: 00ae 073e b70f e93c 58a4 4fbe 57a6 703e
00000330: 2e02 0a3e 6aaf 523c 93a9 613e 3ef3 293d
00000340: 2121 083e 98f5 b93d c4f8 41bd 1f58 8dbe
00000350: 3097 1e3e 4007 9b3d 3e7a 3f3d 35c1 3f3d
00000360: 0dbd 17be 357a 98bd 59d2 e83d 549d 883d
00000370: 0a9a 7f3d d3a9 3ebe d9f9 b53e 75af 693e
00000380: 0f20 263d c183 473d c4b3 813d 6859 0a3e
00000390: 2253 923d 1eca 78be 81c0 f0bd 6eeb 173d
000003a0: 2b32 80bd 47eb 9d3d fc0e 0b3f 6ff1 8bbc
000003b0: 70d8 043f 263f 2dbe 7636 443d 55a5 cebd
000003c0: d7da 833e 3fef c63d a883 a93c 7886 0fbd
000003d0: 4e3e 1ebd 7d22 7cbe ae1d 0bbe ecef 0f3d
000003e0: 2425 00bd b96d 0e3e 09c1 3abe e147 183e
000003f0: 0ab1 153c 0eb0 3f3e f6aa 093f 9699 cbbd
-0.24071285 0.038519457 -0.02383874 0.99922407 -0.5090143 -0.24780548 0.044993695 -0.12175082
-0.07077629 0.16350992 0.08529886 -0.24338795 -0.091732435 0.064335555 0.059197504 0.0075125904
0.12212546 -0.2693025 0.09421595 -0.20051423 0.3795508 -0.061501935 0.072694354 -0.08241369
-0.15486832 -0.3077944 -0.15255952 0.110404074 0.13376838 -0.08122816 -0.2237879 0.18454018
0.015624848 -0.19125302 0.30744502 -0.1535252 -0.045692928 -0.25629658 0.007540599 0.16557841
0.039542213 0.08921088 -0.031103171 0.088574454 -0.17842104 0.44712207 -0.015652556 -0.04203311
0.45551673 0.17817773 0.040567074 0.031463217 -0.045940608 0.06585911 0.0119027095 0.03396518
-0.22174086 1.1677595 0.019537784 0.11892264 -0.0655561 -0.11977415 0.102418885 -0.15660706
0.032630257 0.19113669 0.1090834 -0.1039131 0.2726033 0.01124126 -0.19617482 -0.0014578997
0.01769592 0.13340653 0.26280707 -0.017197445 -0.005326407 0.13886511 -0.020244997 0.15405318
-0.17509125 0.38228083 0.096393324 0.099487685 -0.015429249 0.2793522 0.04585041 0.12852462
0.004605001 0.098245084 0.19065644 0.23976757 0.1985678 -0.11834346 0.02401685 -0.0400716
0.25801456 0.08053379 0.084021926 -0.212277 0.0053885477 0.3208046 -0.03246757 0.1249661
-0.06578996 -0.19088443 0.003418482 0.023087973 -0.050770443 0.057441242 0.23291488 0.08409176
0.24532813 -0.35204777 -0.26427355 -0.07046348 -0.035637427 0.06039116 0.17046717 0.07347504
-0.22269888 -0.0525058 0.112651646 0.025947705 0.003781917 0.2522888 -0.1971786 0.17459206
-0.045244563 -0.033432756 0.06520357 -0.07773548 0.06022348 -0.29060966 -0.036980283 0.35589027
0.0441924 -0.06956578 -0.056053538 -0.2628108 -0.072680235 -0.6465763 -0.17375281 0.23599821
-0.010355291 -0.23296605 0.09349596 -0.052799948 -0.34379783 -0.14631596 -0.03208033 0.11051026
0.6192554 0.294463 0.085278824 0.04466844 -0.17149004 -0.40464446 0.21867906 0.08267252
0.05918975 -0.48482203 0.089365385 -0.5321482 0.2576468 0.7709799 0.10426293 -0.026703194
-0.2933811 -0.22328602 -0.29875138 -0.111398295 -0.299199 0.06652708 0.14075801 0.2192897
0.19088097 -0.011293213 -0.03520423 0.71456593 0.037394922 -0.09354748 0.05538841 0.091204464
0.42366007 0.21080801 -0.03122654 -0.05005193 0.32070994 0.13851647 -0.08381652 -1.4398893
0.04787713 -0.22147074 0.07547139 -0.008397455 -0.0035179623 0.04250344 0.059541933 0.12034546
0.1324997 0.028449876 -0.20277536 0.23500954 0.13477394 0.012859205 0.22037344 0.04149174
0.13293888 0.090800464 -0.047356382 -0.27606294 0.15487361 0.07569742 0.04674744 0.046815116
-0.14818211 -0.07445184 0.11368246 0.06670633 0.062402762 -0.1861947 0.3554218 0.22820838
0.040557917 0.048709635 0.06333116 0.13510668 0.071447626 -0.24295852 -0.11755467 0.037089758
-0.06259569 0.07710891 0.5431974 -0.017082898 0.5189276 -0.1691862 0.0479035 -0.10090128
0.257529 0.09713601 0.020692661 -0.03504035 -0.038633637 -0.24622531 -0.1358554 0.035140917
-0.03128542 0.13909043 -0.182377 0.1487117 0.009136448 0.18719503 0.5377649 -0.099414036

lstm.weight_hh_l0 f4 [256, 64]
00000000: 34f8 abbd bee9 8dbc 1e37 40be 53ce 3ebd
00000010: c853 8d3d 2a86 85bd 5e23 49bd da68 173e
00000020: d867 783d d605 e2bb def1 21bd 3dcf 2fbe
00000030: 3cf6 773d df3b 523d 5057 b7bd 8406 d339
00000040: e336 853d 3a3f f2be d5b0 813e 0621 523d
00000050: 4aed febd c5ec 033f b35d a1bd 95b3 033e
00000060: 64d0 9abc 8ab2 e8bd eac1 38be bec9 ef3c
00000070: e556 9bbd 07a8 06bd e75a 003e 27f6 243e
00000080: 4d6d 213e 8c4e c53d 2d2e 293e 4b68 a3bb
00000090: aef3 35bb f2fb 3fbe 4384 7b3d 1b54 5abe
000000a0: b2eb 143e e267 bbbd 9d09 dbbc d0b6 d2bd
000000b0: aa07 fb3e 251a d73d a708 d3bc 7e67 38bc
000000c0: 7dea b5bc 6cfe 80be 089c 37bd f1ff 9dbd
000000d0: aba6 203e 9ab1 86be 8a13 1d3e 74ea 0b3e
000000e0: c20f 8ebd 71be 0bbd 45c0 73bd 193b b33c
000000f0: fec5 a13d 447c 15bd f590 0a3d 9156 1c3e
00000100: a985 b1bc baf3 e63d b0a5 b9bb e289 f93d
00000110: 81dc 2dbe 52b0 483e c51f cdbd 34fe 8ebe
00000120: 0605 f7bc 6fe0 32be af4a 343c 90d5 7d3e
00000130: 89cd 9fbc aeeb 8d3e 47f5 893e b40d 2abe
00000140: dc7b 143c 584c 403e c5af b8bd 17c2 843d
00000150: a06f 233e 7d58 bdbd 24eb eabd 2020 033e
00000160: fdfb 34be 4c15 30be 9feb 843d 8990 93bd
00000170: a4fb 503e 4fb4 213e ebd0 15be 236f 423c
00000180: b8bf a83c ffca d9bb 0358 d43c bb2c 4e3e
00000190: 1e6e ffbd 74f1 5cbe 66b4 a0bd 194b 00be
000001a0: 3f95 1fbc ed04 c83e de3b a43e 254e 7abd
000001b0: 9a41 373e 986f c93c 8d13 b6bd 2bdf 3ebe
000001c0: 3753 bcbd 9416 39bd d186 bbbd 506f d3be
000001d0: a8b9 0b3d 9e75 bfbc f3dd c83d 5e2e 23be
000001e0: 25d5 44be 7fe7 22be 217d 0cbe 769c cfbc
000001f0: 76aa 99be 56fe a3bd 7c59 cf3d b706 d03e
00000200: 2c4a 273c ba48 23be 6f32 643d fcc8 ccbc
00000210: 8744 323e a7a5 e9bd bd04 89be c682 1a3e
00000220: 035e a0bc 8686 d7bd c3d5 f7bd 2a39 34be
00000230: 680d 34bd 0f12 43be 51b2 2bbe dd21 073e
00000240: 9339 a8be 4920 0b3e 5eb1 313e 9d4b f0bd
00000250: 43f2 62be fc46 c5be 3950 41be 4087 93bc
00000260: 503c d6bd 9488 8cbd d05a c83e a513 243e
00000270: 4249 2cbe 2110 c4bd 5fdd 0b3e 7d8e e33d
00000280: ffdb f5bc dbd0 90be 0b75 e43d b4bc b43d
00000290: deea a23d 83a5 bdba 1a8b 103e 3024 cdba
000002a0: 0efa 533d 5f37 72be 5d5c 8dbd 9489 443c
000002b0: 86e8 9b3c ec2f cbbd 77e9 6a3e 4a48 84bc
000002c0: e5b3 933e 3c94 abbe 6515 edbd c708 2a3e
000002d0: 1740 4e3d e76b f4be 3248 f9bb ddd2 723e
000002e0: 8cfe a0bd 7547 6e3e 6643 2a3d 8e7a 7fbe
000002f0: 8224 3b3d e10a 4f3e c5a9 12be fa61 d13d
00000300: 5d09 913d 71fc c8bd 68af 06be dd6c b63e
00000310: 34c2 303e 2a93 53be 628b e2bb 9b33 a23e
00000320: bbb4 a33d eed0 40bd 851e 553d 97cc bfbb
00000330: 4c0c 87be bcc3 f2bd 1370 2f3c 2e9a 783d
00000340: 8a7a 443d 9315 61bd 59e2 bf3e 91d4 713e
00000350: ece9 6abe f998 3cbe 33ed 1ebc e829 cd3e
00000360: a8e8 b23c 9229 873d 5832 3cbd 12ca 453d
00000370: 8bce 33be cacd ca3d ee65 ea3d 0189 ea3d
00000380: afa0 8b3d 7e6a 873c e5c2 283d 00bc acbe
00000390: b3be 813d 98c9 2e3e 131b 7c3d 285f a43d
000003a0: c26d 123e 6d30 51be 62a0 e3bd e0fe c63d
000003b0: d2e4 bc3d 3f77 72bd eeb5 ce3d d93d efbb
000003c0: 4db6 313e 8b3a 393e 3bfe 87bd b59c 0f3d
000003d0: 53c7 83be 070e 47be c103 b2bc 5bff 923d
000003e0: 5843 133e bf93 ffbd 7d2c 51be cb60 10bd
000003f0: 6a10 cc3e 562a 33be 7bcf ef3c 901b f7be
-0.0839695 -0.017323371 -0.18771026 -0.046583485 0.06900746 -0.065197304 -0.049105994 0.14786091
0.060645908 -0.0068976684 -0.039537303 -0.17168899 0.06053756 0.05132663 -0.089522004 0.0004024991
0.065046094 -0.47313863 0.25330225 0.051301025 -0.12447603 0.51533157 -0.078792 0.12861474
-0.018898197 -0.113621786 -0.18042722 0.029271003 -0.07584933 -0.032875087 0.12534676 0.16109525
0.15764351 0.09634122 0.16521521 -0.004986798 -0.0027763653 -0.18748453 0.06140543 -0.21321146
0.14543036 -0.091506734 -0.026737982 -0.10288775 0.49029285 0.105030335 -0.025760962 -0.011255143
-0.02220654 -0.25194108 -0.044826537 -0.077148326 0.15688579 -0.26307374 0.15339485 0.13663656
-0.06936599 -0.034117166 -0.059509534 0.021878766 0.07899092 -0.036495462 0.033829648 0.15267397
-0.02167018 0.11276956 -0.0056655034 0.12184502 -0.16978647 0.19598511 -0.10015825 -0.27928317
-0.030153763 -0.17468427 0.011004134 0.24788499 -0.019507186 0.27718872 0.26944944 -0.1660679
0.0090627335 0.18779123 -0.090179004 0.06482332 0.1596055 -0.092453934 -0.11470631 0.12805223
-0.17674251 -0.17195624 0.06490254 -0.07205302 0.20408493 0.15791439 -0.14630477 0.011867317
0.020599231 -0.0066465135 0.025920874 0.20134251 -0.12472175 -0.21576482 -0.07846908 -0.12528647
-0.009740173 0.39066258 0.32076925 -0.06110968 0.17896119 0.024589345 -0.08890448 -0.1863982
-0.091955595 -0.045187548 -0.091565736 -0.41295862 0.034112602 -0.023371514 0.098079585 -0.15935656
-0.19221933 -0.15908621 -0.13719608 -0.025343161 -0.30012864 -0.08007495 0.1012449 0.40630123
0.010210555 -0.15945712 0.05571216 -0.02499818 0.17408954 -0.11408549 -0.26761428 0.15088949
-0.019576078 -0.10523705 -0.12101319 -0.17599931 -0.043958098 -0.19049858 -0.16767241 0.13196512
-0.32856426 0.13586535 0.17352816 -0.11733172 -0.22162728 -0.3853072 -0.18878259 -0.018008828
-0.104607224 -0.06861988 0.39131784 0.16023119 -0.1682482 -0.09573389 0.13658665 0.11111162
-0.030012129 -0.28284344 0.11155137 0.08825055 0.079549536 -0.0014468882 0.14115563 -0.0015651044
0.051752143 -0.23653935 -0.069023825 0.011995692 0.019031774 -0.0992125 0.22940622 -0.016147751
0.28848186 -0.3351153 -0.11576346 0.16604911 0.05035409 -0.47738573 -0.0076074833 0.2371325
-0.07861051 0.23269446 0.041568182 -0.24949095 0.045689113 0.20218994 -0.14322574 0.10223766
0.07081864 -0.098137744 -0.1315285 0.3562993 0.17261583 -0.20661607 -0.0069135884 0.31679997
0.07993456 -0.04707425 0.05203106 -0.0058532464 -0.2637657 -0.118537396 0.010707873 0.060693912
0.047968425 -0.054952215 0.37477377 0.23616244 -0.22940797 -0.1841773 -0.009700107 0.40071034
0.021839455 0.06599726 -0.04594645 0.048288412 -0.17559259 0.099025324 0.11445223 0.11451913
0.06817757 0.016530272 0.04120149 -0.33737183 0.06335201 0.1706909 0.061549257 0.08025962
0.14299682 -0.20428629 -0.11114575 0.09716582 0.092233315 -0.059195753 0.10093294 -0.007301074
0.17354698 0.18088739 -0.066402875 0.035061557 -0.2573801 -0.19438945 -0.021730306 0.071776114
0.14381158 -0.12479352 -0.20427127 -0.03524856 0.39856273 -0.17496619 0.02927374 -0.48263216

lstm.bias_ih_l0 f4 [256]
00000000: de7c de3d 190f 8e3e be7f 013e 1632 263c
00000010: 6a89 07be b079 483d b792 acbd c4ed 873e
00000020: c174 363e 36a3 783e 0f0a 243d 8ec0 e53d
00000030: e439 043e cd61 fa3e 7be3 593e 4257 0f3f
00000040: 683d 8d3d 1ef8 03bd 7b05 113e e9b4 533d
00000050: 7aab 043e e80c 453d f16f 2f3f 4fbd 513d
00000060: 9e7a ab3c e577 5a3d 9c0c 96bd bf21 8b3e
00000070: 7884 1b3b cab7 083f d21a 263e 6a61 783d
00000080: 690c c4bb 44eb 633d d8ab 733d 8331 5f3e
00000090: df81 2b3e ed42 833e 6b32 a13e ca1c 1a3e
000000a0: cd00 873e 307c b63d 4b72 3f3e d3fe 333e
000000b0: a107 773c 0fdf 713e 2abf 1a3e 8649 c73e
000000c0: 1f45 3b3e 81a3 d53d 97d4 5ebe e75e 153f
000000d0: 3995 043d 37b5 4d3d de01 573f c568 a43e
000000e0: a74a 033e c111 9b3d 03ac 933d 5787 3b3e
000000f0: b03b 393e 7f8b 173c 957a 203e b33a a23e
00000100: ff55 63bd b019 0b3e 67d4 0dbe 4511 d1bc
00000110: 9b10 933e 7998 9f3d 4f9e ab3d 38ab 1dbd
00000120: 557a 36bb 2b37 243c 8ea1 53bc 6204 443e
00000130: e050 383e 8dab f73d c9d1 0d3e ec76 bc3d
00000140: 148a 7e3d 466b 2f3e 6781 96bd 3f77 5fbd
00000150: 6df5 c9bc dfcc 773e 2acc 903d cbe8 403d
00000160: 43a7 a63d bcad 9a3e f08c 4e3e 2a50 fb3d
00000170: 22c1 37bd 9d55 303e f756 b93d fa26 acbd
00000180: 2c49 bf3c f73b 1c3e 7ab9 3c3e 8082 643d
00000190: 932f 083e c5e4 fc3d e655 b53d 6b4e e23d
000001a0: 8469 1c3e 659c b1bd d403 20bd 5fdd 813c
000001b0: a46c 3e3e 32f8 6bbc 707b eb3d c068 4ebd
000001c0: 1b8c dd3d 84f9 6dbc 01fe 233e 3636 f3bb
000001d0: d69f 973c 2ece aabd 4afd 683e efed c43d
000001e0: bbbd 993e 0292 e93d a2ed 003e 0b24 8a3a
000001f0: 13ba 633d 1ee2 41bc 4e00 913d ae74 083e
00000200: 8ee4 24be 643e c1bc 593e 25be 0e05 f4bd
00000210: 7610 12be 73b0 be3d 390a 30bb 18d4 86bd
00000220: 634d cc3b b709 9f3d de90 543e 2c58 efbd
00000230: a857 613d c1a8 393d 51a1 e53b 0135 c9bd
00000240: 9f57 373d ff10 1dbc a750 b4bb 18e8 e6bd
00000250: f434 53bc a191 383d 8b4d 0cbf 7f38 763d
00000260: 9267 ae3c 5689 bebd f93b 15be fbeb 683d
00000270: f17e d3bd f358 22bc 9d4a d43e 6f22 163d
00000280: beaa 18be 6238 4c3e 3975 aabc 5756 7e3d
00000290: 5cb0 8abc 4f7e bbbd 0107 e23c 8e1a b83b
000002a0: 8d44 89bd ba87 c53d 6d5e c7bd c8d3 fcbd
000002b0: 8352 763d 3d4b d7bd dac8 98bd d97e 9abd
000002c0: 8554 c8bd 5cf6 573d 99dd 2abe 4698 b8bd
000002d0: 6dfc 1d3d 59ee aabc f256 c43e 23f6 d83d
000002e0: f53a 4e3c 09d5 093c 7666 723c 3607 4c3a
000002f0: 816c 3b3e 0442 ec3d 2e6e cebc f782 b1bd
00000300: bb0e c33d 47cc 773e f82a 3c3d caab 5f3d
00000310: 1568 d63e c2e2 973d 2d3e 303d 4e2a ac3c
00000320: 4133 5a3c a244 2f3e 429b 183e 529c 0b3e
00000330: 8cc2 213e ffb0 94bc 90ca 753e 4dca ce3d
00000340: 791a 64bc 018d db3d bcee 963e cc8f 8b3d
00000350: cf07 ca3d 936a ce3e 7de2 893c cce1 233d
00000360: f5e5 213e 3e1d d03d 5bca c63d c2a2 013e
00000370: 3730 02bd 9fd2 533d 39e0 2e3e 0a74 5b3c
00000380: e070 e63d 3ff0 fc3d 725a be3d 5a76 923e
00000390: 15c1 003d fd66 3c3e 2dcf e53d 1495 0b3e
000003a0: df4a 4c3e 474a 083c 42e9 a83d af75 393d
000003b0: b064 6abb a6ab 793d 7fe1 d63d f27d 513e
000003c0: f052 433e e8bb bb3e 623f 143e 87e0 423e
000003d0: 8349 183e e005 df3d 3ab2 8d3e 78f0 c2bc
000003e0: fee3 b93e 1fac 4a3d 976d cf3d a470 3f3e
000003f0: 0d4f 453e 46ff 403e d428 7d3d 4344 083f
0.1086366 0.27745894 0.12646386 0.010143777 -0.13236013 0.048944175 -0.08426421 0.26548588
0.17817976 0.2428101 0.040048655 0.112183675 0.12912709 0.4890274 0.21278183 0.5599252
0.06896478 -0.032219045 0.14162247 0.0516862 0.12956038 0.04810801 0.68530184 0.05120593
0.020932492 0.053336997 -0.07326624 0.27174184 0.002373008 0.5340544 0.16221169 0.060639776
-0.0059829247 0.05564429 0.059490055 0.21796231 0.1674876 0.25636998 0.31483778 0.15050045
0.26367798 0.08910406 0.18695943 0.17577676 0.0150775025 0.23620246 0.15111986 0.3892328
0.18288086 0.104315765 -0.21760784 0.58347934 0.032368872 0.050221648 0.83987224 0.32111183
0.12821446 0.07571746 0.07210543 0.18313347 0.18089175 0.009249567 0.15671761 0.3168541
-0.055501934 0.13584018 -0.13850556 -0.02552093 0.28723606 0.07792754 0.08379804 -0.038493365
-0.0027843912 0.010022919 -0.012916936 0.19142297 0.17999601 0.120932676 0.13849558 0.0920237
0.0621434 0.17130765 -0.073489 -0.05455708 -0.024653161 0.24199246 0.07070191 0.04709701
0.081373714 0.30210674 0.20170951 0.122711495 -0.04486192 0.17220159 0.0904979 -0.08405872
0.02335032 0.1525725 0.18430129 0.055788517 0.13299398 0.12348322 0.088542745 0.11050113
0.15274626 -0.08672408 -0.03906615 0.015852628 0.1859613 -0.014402436 0.11498153 -0.050392866
0.108177386 -0.014524821 0.16014864 -0.007422234 0.018508833 -0.08340107 0.22752872 0.09615695
0.30027565 0.11404802 0.1259065 0.0010539306 0.055597376 -0.011833696 0.07080136 0.1332576
-0.16102812 -0.02358932 -0.16137065 -0.119150266 -0.14264092 0.09310999 -0.0026861562 -0.065834224
0.006234811 0.07765525 0.20758387 -0.11686739 0.055015236 0.045326952 0.007007756 -0.09824563
0.044761296 -0.009586572 -0.0055027786 -0.11274737 -0.012891043 0.045060758 -0.5480582 0.060112473
0.02128962 -0.093035385 -0.14573659 0.056865674 -0.103269465 -0.009908902 0.41463175 0.036653932
-0.14908883 0.19943383 -0.02080785 0.06209406 -0.016929798 -0.09154951 0.02759123 0.0056184
-0.06702528 0.096450284 -0.09734807 -0.123450816 0.060137283 -0.105123974 -0.074601844 -0.075437255
-0.09781746 0.05272518 -0.16686095 -0.09013419 0.03857081 -0.020865606 0.38347584 0.10593822
0.012587299 0.008412608 0.014794936 0.0007783057 0.1830311 0.11536029 -0.025199022 -0.08667558
0.09524294 0.2419902 0.045939416 0.05460719 0.41876283 0.074162975 0.043028045 0.021016266
0.013317884 0.17116025 0.14902976 0.1363385 0.1579687 -0.018150805 0.24003053 0.100971796
-0.013922327 0.10720254 0.29479015 0.068145365 0.098647706 0.40315685 0.01683163 0.04001026
0.15810378 0.101618275 0.09706565 0.12659743 -0.031784263 0.051714536 0.17077722 0.013394365
0.11251998 0.12350511 0.09294595 0.2860592 0.031434137 0.18398662 0.11221156 0.13631088
0.19950436 0.00831849 0.082476154 0.045278247 -0.003576558 0.060954712 0.10492229 0.204582
0.19074607 0.366668 0.14477304 0.19030963 0.14871792 0.108897924 0.2767504 -0.023796305
0.36306757 0.049480554 0.101283245 0.18695313 0.19268437 0.18847379 0.061806515 0.5322916

lstm.bias_hh_l0 f4 [256]
00000000: 1391 443e 18da 913e 37c6 8d3e 718e b13c
00000010: 918c 6cbe f35b e23d 19f8 923d bd11 9b3d
00000020: f770 203e 21c4 d53d de3f cd3d 6281 6b3e
00000030: 2775 ab3d da12 af3e 7e1b c83e 3bc1 e43e
00000040: 67ba cf3d ce7a 18be baf2 b03d c9bb b33d
00000050: 9f1a b33d 1777 963d 1654 3b3f ca3f 2d3e
00000060: c5ab 2a3d 8a7d e03d 6a4d 7fbd fcd8 2b3e
00000070: 611e 473e 4cd7 d63e f822 4d3e 4b94 f43d
00000080: 4fae 363e c17e 4f3e eb0f 23bc 6bba 883d
00000090: b31b a83e 7d60 323e 3134 103e d4b0 9b3d
000000a0: dd20 8d3e 18a0 1fbd c8b1 963e f26e 9c3e
000000b0: fce9 103e 1151 003e 3a1c ac3e 1949 c33e
000000c0: 4e62 3e3e 8e65 c2bc ed8e 3bbe 7902 0f3f
000000d0: 8cd9 5f3e 6c28 d2bc 19e0 553f b75e 8d3e
000000e0: 46ad 613d 3ef0 ac3c d1f4 7cbc f5c6 373e
000000f0: ed43 903d f632 2dbe c400 0bbd 9221 513e
00000100: a11d 243e 7dab 8a3e 0c85 44bc 3b66 04bd
00000110: 7868 e83e 5780 273e 1ed7 053e c5d6 3a3e
00000120: 89ea 023c 7690 ba3d f49c dbbd 4e18 903d
00000130: 9d27 5f3e f9e8 383e 0dcc 253e 2a71 0d3e
00000140: fe4a 493c 2255 6e3e 70b2 4f3c c21e 21bd
00000150: 3b12 b7bd a40c 9a3e 97cb 563e 44dd 103d
00000160: 77b7 a03d 2ef6 643e 0702 723d 9e16 093e
00000170: 1892 433c f991 533c fe8d 043e 503d 313d
00000180: 8e1f db3b 0fa1 603e e5b3 473e 2f29 053e
00000190: ab45 91bd e21d 4f3d a334 2f3e badc 153c
000001a0: ebf0 1d3d 8b95 8e3b fc0d fabc f6cd 403e
000001b0: cf6a 013b 1041 8fbd ab23 673e 91cc 25bd
000001c0: 2a9d 0f3d a19d 403e 6347 6d3e df41 dabd
000001d0: e768 743e d65e e23c 3929 283d 95e6 5f3d
000001e0: 1199 983e b97e 063e fbd0 883e 6def 143d
000001f0: 68aa a53d 1ca0 2f3e d4ba c33d b53a 6f3d
00000200: 7b60 bebd dbc5 d53d b0fe 24be 6d47 d0bd
00000210: 459f 2dbe dd83 283c b822 a33d d406 84bd
00000220: fa13 9d3d 66ca ad3d 3c29 053e f41f 7e3d
00000230: 5a42 9abc aa68 e7bc 41d1 d6bd 68df 0dbe
00000240: 1b94 d63d 7b83 a63c 9658 163e bd11 933c
00000250: 19ff f9bd aadd 4a3e 2841 19bf d83e fcbb
00000260: 7477 8f3d a2b5 babc 332c 4b3d e20a 6e3e
00000270: 71b2 1fbd 6bbc c9bd 9633 aa3e c17b 1b3e
00000280: 7e2e dabc c031 343e 084b 3b3e d371 433d
00000290: 4976 14bd 3672 c8bd 1fc4 7f3d 550a 0abe
000002a0: e30c 21be af6d 2b3e 1602 16bd 0bf3 ebbd
000002b0: 10f5 20bd d6a7 e83d 3b97 0b3c ffd6 91bc
000002c0: a079 a03c a45c a03c 3880 60be cf2b b83d
000002d0: 40c3 80bd db2b 8dbd a84d 113f 81a0 573e
000002e0: bf21 f53d 1d6e 70bd a50e 9f3d 3ca7 94bd
000002f0: 3a2b babc 5c57 cdbd abbd 573d c75b 54bd
00000300: f695 51bd b2c0 cb3d 1d19 d8bd 4f56 d83d
00000310: 9ffe f93e a9be 9a3d 0c0b d2bd 5c25 893d
00000320: 35a7 bbbb ea6a ab3d 65da 693e fee5 d83d
00000330: 650e 903d 6aff 88bd 7d19 703e f156 823e
00000340: 0fb6 e6bc 5a7d 1b3e 3921 973e 1512 713e
00000350: 3ea2 353e 8585 8b3e fdf9 0b3d 9573 ddbb
00000360: b0d4 963e 612c 673e f8e5 c43d c53a 32bc
00000370: 4627 dbbd aace 9f3d 2eae 4f3c 8a9f 063e
00000380: ba19 bf3d b4ad 9c3e 177e 043d d77e af3e
00000390: e406 7dbc e70b 843e ebcb 2b3e b3d6 45bd
000003a0: ca1e 4e3e a008 b13b d307 4b3e 876d a83c
000003b0: 7d81 6f3d 7366 aa3c 42ab 24bc bee0 2e3e
000003c0: 9562 0b3d 8e6a 423e b4a4 523e a6e9 a53e
000003d0: 9861 3e3e 3067 bf3d 000e 4f3e 890d 21bd
000003e0: 04e3 d93e 2e4b e53d ab96 663e 5673 003e
000003f0: 9c4b 153e 9d7d 123e ea62 2e3e 4831 af3e
0.19195966 0.28486705 0.27690288 0.021674367 -0.23100497 0.11052694 0.07176227 0.07571743
0.15668093 0.10437799 0.10021947 0.22998574 0.083719544 0.3419407 0.39083475 0.44678673
0.10142975 -0.14890596 0.086400464 0.087760516 0.08745312 0.07346933 0.7317518 0.16918865
0.04166772 0.10961445 -0.062329687 0.16781992 0.19445182 0.41961133 0.20032871 0.11942347
0.17839931 0.20263197 -0.009952526 0.066761814 0.32833633 0.1741962 0.1408241 0.07602087
0.27564135 -0.038971037 0.2943251 0.30553395 0.14151758 0.12530924 0.33615285 0.38141707
0.18592188 -0.023730066 -0.1831624 0.5586315 0.21860331 -0.02565404 0.8354507 0.27611324
0.055096887 0.02111065 -0.015439228 0.1794699 0.07044206 -0.16913971 -0.033936277 0.20422962
0.16026928 0.2708396 -0.0119946115 -0.032324057 0.45392203 0.16357552 0.13070342 0.1824599
0.007990488 0.09109585 -0.10723296 0.07035886 0.21792455 0.18057622 0.1619112 0.138127
0.012285946 0.23274663 0.01267682 -0.039335974 -0.08939024 0.3008777 0.20976101 0.035367265
0.07847493 0.22359535 0.059083965 0.13387534 0.011936687 0.012913221 0.1294479 0.043271363
0.006687111 0.21936439 0.19502218 0.13003992 -0.07093366 0.050565608 0.17109923 0.009146864
0.038559835 0.004351323 -0.030524246 0.18828568 0.00197475 -0.069948316 0.225722 -0.040478293
0.035061993 0.1881013 0.23171763 -0.10657095 0.23868142 0.027633112 0.041054938 0.05466326
0.2980428 0.13134278 0.2672194 0.036361147 0.08089143 0.1715092 0.09557119 0.058405597
-0.09295746 0.104381286 -0.1611278 -0.101698734 -0.16955288 0.010285345 0.079656065 -0.06446615
0.07669826 0.0848587 0.13004011 0.06204219 -0.018830467 -0.02824815 -0.10489131 -0.13854754
0.104774676 0.020326367 0.1468223 0.017952794 -0.12206859 0.1981112 -0.59865046 -0.0076979212
0.07005206 -0.022791687 0.0496027 0.23246339 -0.038988534 -0.09850391 0.33242482 0.15183927
-0.026633497 0.17597103 0.18290341 0.047715973 -0.036245618 -0.09787409 0.062442895 -0.13480504
-0.15727572 0.1674106 -0.036623083 -0.11520966 -0.03929621 0.11360137 0.008519943 -0.017802713
0.019589245 0.019575424 -0.21923912 0.08992731 -0.06287241 -0.068931304 0.5675912 0.21057321
0.11969327 -0.058698762 0.07766465 -0.0725846 -0.02272569 -0.10026428 0.052671116 -0.05184534
-0.051168405 0.09948863 -0.10551665 0.10563337 0.48827073 0.07555897 -0.10256013 0.06696579
-0.0057267197 0.083700016 0.22837217 0.105907425 0.070339955 -0.06689341 0.23447223 0.25456956
-0.028162984 0.15184537 0.29517534 0.23542054 0.17737672 0.27250305 0.034173954 -0.006758163
0.29459143 0.22575523 0.096141756 -0.01087827 -0.1070085 0.0780309 0.012675805 0.13146797
0.09331079 0.30601275 0.03234681 0.3427646 -0.015443537 0.2579033 0.16777007 -0.048300456
0.20128933 0.0054026395 0.19827203 0.02056004 0.0584731 0.020800805 -0.010050597 0.1707792
0.034029562 0.1898596 0.20570642 0.32404822 0.18591917 0.09345853 0.20220184 -0.03931955
0.42556012 0.1119598 0.22518413 0.12543997 0.14579624 0.1430573 0.1702992 0.34217286

fc.weight f4 [5, 64]
00000000: 8912 b4be c1a5 b6bc ab7c 1ebe 2927 3bbe
00000010: 7c6d 32be ad99 c1be 2dbf bbbc 06ba c93e
00000020: cc3b 0c3f 18e9 ee3d 39dc 463e ac3b e6be
00000030: 5ba8 c13e 9dd9 9cbd 4830 a7bc 255a 893d
00000040: 8b56 a9be 59b3 18bf 1db1 a0be 5345 6d3d
00000050: 91f9 ad3e 83ce e73e c3dc debd 8850 f9bd
00000060: c173 b43d 9db4 d73d 57a3 023e 3183 f73c
00000070: b7a7 10bd 62a8 5f3e ec07 a13d 8c22 2d3d
00000080: 237a c4be 62df 70be 8598 d93d 2abd 5b3e
00000090: 59a0 8abd f26b a83d 063e 97bc 7b9d 80be
000000a0: c741 053e e334 28be 59ba 0a3f 1bb7 1dbd
000000b0: 0faf 933e ef18 ff3d 0763 df3d 07db 583d
000000c0: 4b5c 8abd 87c8 8bbe c77b 37be fcd6 65be
000000d0: b3d1 babd 08f0 843e c5a1 2ebe 471a fd3d
000000e0: d749 e8bc c14f 2a3e 56bc a03c f600 833e
000000f0: 769f 5abe c07f ad3e 877e 403e c472 61be
00000100: 505d 0c3e d35a 833b 5065 10be f56f 01be
00000110: 2325 a4be f259 dd3e e262 fe3d b7d9 f93d
00000120: e876 afbe 996b be3d b8ed 8c3e a40a a7be
00000130: 7d7c 183d fcb9 493e a344 3fbe 4128 143e
00000140: d287 4c3f b4de dd3e 4526 9e3e a030 f0be
00000150: 2498 bbbd 31d9 d33e a6a7 24be 296f ccbd
00000160: ef7e a33d 66d8 833e 9f9b a5be 5921 2d3e
00000170: fe97 053e bf70 4dbe d34a fb3c 8abf 9fbd
00000180: e167 6bbe a5b5 7a3f 74e4 8dbd 0658 38be
00000190: 249f 44bd 07e3 653e 595d 3dbe f3a1 24bd
000001a0: a9b9 86be e0b8 11bd bbed 27bf cedb 56be
000001b0: 4cfc 95be f082 963e 1116 0b3e 5576 a53d
000001c0: b498 423e d9b6 a6bd a820 27bd 93d6 1a3e
000001d0: 691d 03bf 102c 2fbe 2aeb 203e 1a2c f83d
000001e0: 44f8 903d b8cc a53e bed7 4dbe 9ed2 83be
000001f0: d1f8 1b3e 778b dbbc 8976 a83d c9c0 573f
00000200: fbf6 da3e d703 f4bc 8340 193b 65af 7c3d
00000210: 75c9 3abe 22ab 323f a29b 60bd fd6b f7be
00000220: f918 0dbf a643 b7be 3e08 903d 2102 7f3e
00000230: a51b a03d b373 e63d eada 933e 337a 7d3c
00000240: 9427 d83d 88f1 813e 8fd3 91be 287c ad3e
00000250: a57a 95be df21 2dbf 782a 4f3c 02bb 683e
00000260: a630 94be ca44 693e a689 843e eb16 31be
00000270: c8cb 06be 506c a0bd 65a0 8b3e 66c1 53be
00000280: 819b 38be 4680 9f3e b246 f1bc 76ee b83e
00000290: ca3a 1fbe bd0d 683e be88 9c3d 94f3 753d
000002a0: cd44 2bbf 4054 0d3e 2629 76be c2d0 db3e
000002b0: 1216 c9be c74c d8bd 34b5 22be ee54 83bd
000002c0: 14cd c43c 364a 78bd b982 a3bd a69f 8bbd
000002d0: 635f c83d 0341 13bc 356f f23b d675 05be
000002e0: 1c14 783e f64e 22be 5989 063e 6855 adbd
000002f0: ec39 8e3d 67d0 153f b886 7dbe a42d ae3c
00000300: c3d3 773d 1cf5 87bd c3e7 c03e 7265 a53e
00000310: 6695 113e 5bdb ddbd 499a 923d 2ff5 4fbf
00000320: 132c 06be 9dff cb3d 5ca1 56be 6da3 393f
00000330: 16ab 10bf d56c 79be 7bc5 cdbd 23d5 cc3d
00000340: 7f74 13bf b4da 4dbe 9580 b53e f537 1d3e
00000350: e4e7 9fbd a6fb 91be c6f7 373d 071f 13be
00000360: 8b70 233e 70c2 c1be ee71 023f 48e8 d4bd
00000370: dffb f83d 95fd d53d 4c5b eabe 8c60 153e
00000380: 3ee6 a43e 510e 9bbe 255e 243e 04d6 0a3b
00000390: be29 2d3c e110 233e e0c6 7cbd 8a64 bc3e
000003a0: f3cb 0d3f 1e2a f9bd ab31 2ebe 333d aebe
000003b0: 406c e33a 7828 98be 74ee 4ebd df20 293d
000003c0: 8051 5ebd 9dbd 56be fa95 283e 2895 b9be
000003d0: 0fa0 b93e 46bb a4be 924f 78bd f53a c8bc
000003e0: 884f 85bb b104 d7bd 3dd4 4bbd 374f 373c
000003f0: f5fe cebe 6afe 6f3e be8d 693d 4036 84be
-0.3517039 -0.022295834 -0.15477245 -0.18276657 -0.17424577 -0.37812558 -0.022918308 0.39399737
0.5477874 0.11665553 0.19419946 -0.449674 0.37823758 -0.07658694 -0.020408764 0.06706647
-0.3307384 -0.5964866 -0.31385127 0.05792744 0.33979467 0.45274743 -0.10881951 -0.12173563
0.08811141 0.10532496 0.12757622 0.030213924 -0.035316195 0.21841577 0.07862839 0.042269275
-0.38374433 -0.23522714 0.10624794 0.21458879 -0.06768865 0.08223714 -0.018462192 -0.25120148
0.13013373 -0.16426425 0.54190594 -0.0385047 0.28844497 0.124559276 0.1090756 0.052943256
-0.06755885 -0.27301428 -0.17918311 -0.22445291 -0.09122028 0.2596438 -0.17053898 0.12358528
-0.028355522 0.16631986 0.019621056 0.2558667 -0.21349892 0.33886528 0.18798266 -0.22016436
0.13707471 0.00400863 -0.14101148 -0.12640364 -0.32059583 0.43232685 0.12421204 0.12199729
-0.34270406 0.092978664 0.27525115 -0.32625306 0.037228096 0.19699854 -0.18678527 0.1446848
0.79894745 0.43333972 0.30888572 -0.46912098 -0.09159878 0.4137664 -0.16079578 -0.099821396
0.07983195 0.25751036 -0.32345292 0.16907252 0.13046262 -0.2006254 0.030675327 -0.07800205
-0.22988845 0.9793342 -0.069283396 -0.18002328 -0.04800333 0.22449885 -0.1849264 -0.04019351
-0.26313522 -0.0355767 -0.6559712 -0.20982286 -0.2929405 0.29396772 0.13582636 0.08079211
0.19003564 -0.08140344 -0.040802628 0.15120916 -0.5121675 -0.17106652 0.15714708 0.12117787
0.07078603 0.3238275 -0.2010183 -0.25746626 0.15231635 -0.0267999 0.08225734 0.8427854
0.42766556 -0.029786987 0.00233844 0.061690707 -0.18240912 0.6979238 -0.054835923 -0.48324576
-0.5511623 -0.357938 0.07032822 0.24903156 0.07817773 0.112525366 0.28877956 0.015471029
0.10554424 0.25379586 -0.2848172 0.33883786 -0.29195133 -0.6762981 0.012644403 0.22727588
-0.28943366 0.22780147 0.25886267 -0.17293899 -0.13163674 -0.07833159 0.2727081 -0.20679244
-0.1802807 0.31152552 -0.029452655 0.3611943 -0.1554977 0.2266149 0.07643269 0.060046747
-0.66901857 0.1380167 -0.24039134 0.42932707 -0.3927465 -0.10561519 -0.15889436 -0.064126834
0.02402357 -0.060617648 -0.07983918 -0.0681756 0.097838186 -0.008987668 0.007398511 -0.13033232
0.24226421 -0.15850434 0.13138331 -0.084635556 0.069446415 0.5852112 -0.24758422 0.021261998
0.060504686 -0.06638548 0.3767682 0.3230396 0.14217147 -0.10832854 0.07158334 -0.81233495
-0.1310275 0.09960864 -0.20959991 0.7251499 -0.56511056 -0.24357922 -0.10047432 0.1000159
-0.57599634 -0.2010296 0.35449663 0.15353377 -0.078079015 -0.28512305 0.04491403 -0.14367305
0.159609 -0.37843657 0.5095509 -0.10395867 0.121574156 0.104487576 -0.4577278 0.14587611
0.3220691 -0.3028436 0.16051538 0.0021184692 0.010569034 0.15924408 -0.0617131 0.36795455
0.55389327 -0.12166236 -0.17011134 -0.34031066 0.0017350987 -0.29718375 -0.050520375 0.041291114
-0.054276943 -0.20970769 0.16463462 -0.3624661 0.36254928 -0.32174128 -0.06062276 -0.024442175
-0.0040683188 -0.10498942 -0.049762953 0.01118832 -0.40428892 0.23436895 0.05701994 -0.2582264

fc.bias f4 [5]
00000000: 3f46 a53d b2e3 e1bc 1c3b dabd 473c efbd
00000010: d767 aa3c
0.08070039 -0.027574394 -0.106558055 -0.11681419 0.020801468
