Lab4 - RNN text classifier/models/model_128_1_layer_60epochs.pth (torch, 273177 bytes, 6 tensors)

lstm.weight_ih_l0 f4 [512, 1]
-0.20679411 -0.13835685 0.13596736 -0.087861 -0.15113321 0.007684098 0.25185743 0.0048562703
-0.04378579 -0.18985006 -0.04270489 -0.10997102 -0.17914355 -0.16623452 -0.07351672 -0.057605956
0.027828416 0.005937935 -0.09007323 -0.13930877 0.036272094 0.2889638 0.1622518 0.10021312
0.15571 0.24355437 0.13353589 -0.13809547 -0.047198042 -0.14202324 -0.20749295 -0.11827628
-0.020875014 0.06621207 -0.092610426 0.039570097 -0.05153856 -0.017600877 -0.045698464 -0.032130882
0.08338258 0.33733526 0.07842333 -0.13692556 -0.15555365 -0.047387518 -0.19204655 0.13558029
-0.051007148 0.06364111 0.10721572 -0.23911907 0.19403343 0.044425763 -0.15662178 -0.13253866
-0.050081417 -0.048934393 0.07215771 0.10510767 -0.005137636 -0.032961752 0.09612414 -0.18503493
-0.005295725 0.33144614 -0.029600292 -0.21831201 -0.004174695 0.1583578 -0.061355557 -0.22105631
-0.048908636 0.034618165 0.0855395 -0.17777523 0.04778254 -0.07154254 0.00396717 -0.055005513
-0.116863474 0.37133887 -0.13490188 0.027615758 0.18173018 0.121107146 0.52631325 0.17794059
0.061402433 0.32923368 -0.116847456 0.1212671 -0.26084563 -0.014021819 -0.084122255 -0.11610593
-0.07046147 0.046384703 0.20002271 -0.16773452 0.04284355 0.10915076 -0.17632884 0.06644926
0.04569682 0.14291853 0.37915474 0.04284142 0.2625626 0.010933855 0.75392085 0.27786836
-0.14949848 0.06296645 0.010143141 -0.1100262 0.12021039 -0.07704188 0.16135566 -0.1958196
-0.21046339 -0.04077258 0.5961919 -0.05018437 0.2543259 0.20295194 0.07089832 -0.028554268
-0.017951688 -0.05659641 0.15181474 0.04863602 -0.019047167 0.035170022 0.085484624 -0.07120243
0.04969418 0.28048748 -0.12156627 0.11151161 -0.020766264 -0.010040084 -0.020189317 0.16237934
0.0760414 0.14871724 0.16543509 -0.0074765976 0.03212078 0.012199266 0.07212603 -0.021220215
-0.024161378 0.12412597 0.22543779 0.2797505 0.12370627 -0.05221883 0.38708806 -0.10646666
0.042073183 -0.39471567 0.007136244 0.04197999 -0.05724696 0.04746508 0.04655027 0.0910951
0.03126925 0.20258941 -0.073900245 -0.009090627 -0.00093628716 -0.07181214 -0.017408084 -0.021849168
-0.0180156 -0.0699498 -0.22495948 0.04320986 -0.053114183 0.06829001 0.06954087 -0.049637333
-0.036395635 -0.084153585 -0.056274183 0.103877276 0.04853988 -0.071239136 0.05404837 0.0268006
0.1576502 0.147895 -0.34155512 0.13560513 0.03857612 -0.002837892 0.0292644 -0.0117234
0.15517552 0.04736233 -0.033623353 -0.21935332 -0.17514965 -0.015463602 -0.008774954 -0.038313523
0.0412737 0.19000606 0.19525115 0.08124091 0.090777 -0.18563472 -0.008877107 0.12667826
-0.01032356 0.15143557 0.06032197 -0.049568478 -0.20055781 -0.049303785 -0.015399532 0.29206017
0.10925873 -0.21542785 0.17876981 0.02361163 0.021487636 0.109980024 0.040919226 -0.00031826485
-0.13038245 0.069025226 -0.027218232 0.1031273 0.03788186 0.07123948 0.004271238 -0.1240137
0.1321603 0.021846425 -0.0015533736 0.025316196 0.114628926 0.06548318 -0.087135434 0.10782237
0.16792513 -0.01901412 0.05140829 -0.06063506 0.06335891 -0.00960341 -0.024138328 0.1263576
00000000: d6c1 53be 6bad 0dbe 073b 0b3e 78f0 b3bd
00000010: aac2 1abe e3ca fb3b 75f3 803e 5921 9f3b
00000020: bb58 33bd 0e68 42be 53eb 2ebd 7c38 e1bd
00000030: 6871 37be 6239 2abe ef8f 96bd 39f4 6bbd
00000040: 6bf8 e33c 0293 c23b 5078 b8bd f5a6 0ebe
00000050: 0c92 143d 10f3 933e 5625 263e 893c cd3d
00000060: 7172 1f3e 5166 793e a2bd 083e e668 0dbe
00000070: bc52 41bd 8a6e 11be 0879 54be d63a f2bd
00000080: 1402 abbc 329a 873d 89aa bdbd 4114 223d
00000090: 191a 53bd b72f 90bc 502e 3bbd ac9b 03bd
000000a0: 7cc4 aa3d 35b7 ac3e 699c a03d 3736 0cbe
000000b0: 7549 1fbe 6a19 42bd daa7 44be 8fd5 0a3e
000000c0: dfec 50bd 4556 823d ea93 db3d a1db 74be
000000d0: b3b0 463e caf7 353d 7661 20be 37b8 07be
000000e0: 2c22 4dbd 6e6f 48bd 6cc7 933d b142 d73d
000000f0: 9d59 a8bb e702 07bd bcdc c43d cc79 3dbe
00000100: c387 adbb 4fb3 a93e 507c f2bc 2f8d 5fbe
00000110: e1cb 88bb 8c28 223e f74f 7bbd 965c 62be
00000120: 6c54 48bd c7cb 0d3d 552f af3d b60a 36be
00000130: a0b7 433d e584 92bd 09ff 813b 764d 61bd
00000140: 1e56 efbd 2120 be3e b823 0abe 713a e23c
00000150: 7a17 3a3e 0607 f83d 77bc 063f 0f36 363e
00000160: 1e81 7b3d 5191 a83e b84d efbd e35a f83d
00000170: 8f8d 85be c6bb 65bc 4a48 acbd f2c8 edbd
00000180: 1a4e 90bd e3fd 3d3d c1d2 4c3e 99c2 2bbe
00000190: b87c 2f3d 6f8a df3d 8c8f 34be 8d16 883d
000001a0: 972c 3b3d 3c59 123e 9220 c23e 7c7a 2f3d
000001b0: 9b6e 863e e923 333c f500 413f c344 8e3e
000001c0: 2116 19be 8ef4 803d 6b2f 263c 6b55 e1bd
000001d0: dd30 f63d 22c8 9dbd 6b3a 253e ef84 48be
000001e0: b783 57be 2601 27bd 08a0 183f 208e 4dbd
000001f0: 0137 823e a2d2 4f3e 2333 913d a4ea e9bc
00000200: 6b0f 93bc a3d1 67bd 5375 1b3e 9036 473d
00000210: ce08 9cbc 710e 103d 9012 af3d 94d2 91bd
00000220: 208c 4b3d 0e9c 8f3e bdf7 f8bd 3360 e43d
00000230: 031e aabc 2a7f 24bc 1164 a5bc c546 263e
00000240: 98bb 9b3d 5549 183e d167 293e 3ffe f4bb
00000250: 1491 033d 6edf 473c d0b6 933d 04d6 adbc
00000260: 15ee c5bc c235 fe3d 2ad9 663e 753b 8f3e
00000270: b659 fd3d 69e3 55bd 6830 c63e 310b dabd
00000280: ee54 2c3d 2c18 cabe 27d7 e93b 36f3 2b3d
00000290: ca7b 6abd be6a 423d 7fab 3e3d 1190 ba3d
000002a0: 2f14 003d 9973 4f3e 0359 97bd daf0 14bc
000002b0: 2b71 75ba 3e12 93bd 669b 8ebc 07fd b2bc
000002c0: 7495 93bc d741 8fbd c75b 66be d2fc 303d
000002d0: 428e 59bd a2db 8b3d 726b 8e3d 8450 4bbd
000002e0: 9713 15bd b758 acbd c27f 66bd 9cbd d43d
000002f0: c1d1 463d d3e5 91bd d361 5d3d ef8c db3c
00000300: 0e6f 213e c971 173e 50e0 aebe 12dc 0a3e
00000310: fe01 1e3d edfb 39bb e5bb ef3c 8113 40bc
00000320: 55e6 1e3e 01ff 413d a4b8 09bd 289e 60be
00000330: 6e5a 33be 0c5b 7dbc d3c4 0fbc a4ee 1cbd
00000340: 9c0e 293d f390 423e ebef 473e a261 a63d
00000350: 4be9 b93d 0717 3ebe 4971 11bc f2b7 013e
00000360: 2624 29bc ed11 1b3e 2c14 773d 5108 4bbd
00000370: 075f 4dbe c4f2 49bd 524e 7cbc e988 953e
00000380: 0bc3 df3d 1e99 5cbe 6f0f 373e 2d6d c13c
00000390: d706 b03c 353d e13d eb9a 273d c9dc a6b9
000003a0: fa82 05be 195d 8d3d c5f8 debc 6834 d33d
000003b0: 022a 1b3d 01e6 913d bef5 8b3b e5fa fdbd
000003c0: 0855 073e 46f7 b23c 929a cbba e963 cf3c
000003d0: 92c2 ea3d 0c1c 863d 1074 b2bd fad1 dc3d
000003e0: 91f4 2b3e 80c3 9bbc 8091 523d 785c 78bd
000003f0: 51c2 813d 9f57 1dbc bebd c5bc e363 013e

lstm.weight_hh_l0 f4 [512, 128]
-0.007120755 0.07238464 -0.0616709 -0.057596605 0.069879435 0.06712071 0.055157155 0.08576715
-0.0020644888 0.12772842 0.060169462 -0.19424896 -0.497832 -0.0075193443 -0.08251834 -0.15549973
-0.050961982 -0.031578507 -0.0070954133 0.09342814 0.017265452 0.098675035 -0.24096985 -0.134533
-0.04258144 0.044176187 -0.08599663 0.027821124 -0.28793252 0.2916669 0.083908096 0.17869131
0.08028078 0.02845823 -0.0068670367 0.052645825 -0.15637113 0.034599084 -0.09189301 -0.110725835
-0.055111807 0.034616597 -0.05256441 0.054209877 0.08813638 0.08892775 -0.084047996 -0.027872453
-0.08160645 -0.010136862 -0.053937167 -0.09461176 -0.005880129 0.012655574 -0.23667845 0.16352579
-0.0040735896 0.013116097 -0.0684264 0.027765336 -0.02081202 -0.028056262 -0.022853807 -0.11097821
-0.0002282435 -0.10266804 0.07132297 -0.031936474 -0.072042726 0.016432472 0.0635193 -0.06882771
0.07206215 0.037374575 0.112709366 0.08215236 -0.0069040842 0.054371823 0.06184512 0.12472689
-0.009736765 0.14479086 -0.02292126 -0.029124182 -0.045251906 0.17601219 0.01579692 0.0809723
0.12335556 0.123091705 0.046721563 0.0038901381 -0.0060547814 0.07615427 0.0684066 0.19762333
-0.114122584 0.11161431 0.024906004 -0.0052898545 0.0016588677 -0.14047886 -0.08312339 -0.0018531899
0.04471612 -0.0011886483 0.0031571996 0.0023582433 -0.030542448 -0.09053998 0.06127305 0.05755756
-0.13046119 0.037385948 -0.05187828 0.17446601 0.07774491 -0.0032797093 0.044281065 0.022588866
-0.021455832 -0.026677558 -0.08192416 -0.0579048 -0.00015398834 -0.13299756 -0.07357413 -0.08186212
-0.056040436 -0.24305066 0.0343169 0.10133384 0.07072954 0.12971267 0.069629565 -0.21064152
0.28866506 0.06950267 -0.06790487 -0.046129245 0.106331155 0.04669943 0.06549259 -0.03988144
0.21791174 0.0796552 0.07013395 0.17603734 0.057153277 0.0352114 0.054789 0.15124117
-0.019779753 0.27146825 -0.0281906 0.02617776 0.11967302 -0.13728239 -0.18648103 0.18209505
0.030740848 0.02844747 0.052133713 -0.031170655 0.061351623 0.024917811 0.022878794 -0.15387358
0.10451334 0.07401806 -0.0947385 -0.015357622 -0.08883406 0.066450074 0.06349231 0.17115405
0.017604474 -0.111735724 0.031082647 0.04514466 -0.08626927 -0.06362921 -0.079460904 -0.055945154
-0.08609017 0.030536026 0.0750345 0.014656815 0.18088731 0.047454946 -0.020592256 -0.011739498
-0.058411628 -0.06505438 -0.003774283 -0.20657681 -0.04846787 0.04463685 0.14531499 0.0037427775
-0.19010444 -0.026108228 0.17014815 0.19049048 0.05520753 0.070376 -0.07691083 0.27187714
-0.04827199 -0.085966386 0.008954827 -0.0045837937 -0.106742226 0.003097209 -0.053230938 0.07383193
0.08269185 0.075031556 -0.042755343 -0.012840491 0.13679032 0.13721749 -0.02356139 0.10495823
-0.07333243 0.10345541 0.13124196 0.039283656 -0.1219179 -0.0797101 0.13053198 -0.13020235
-0.0703229 0.005812628 -0.14405341 -0.083735585 0.14828724 0.022562426 0.0409252 0.036379203
0.13694675 0.024916321 -0.048066154 -0.037515175 -0.10225682 0.11817232 0.037367098 -0.17707026
-0.13311446 0.0452708 -0.038748074 0.019968117 -0.08211118 0.0397838 -0.016197154 0.022130605
00000000: 3955 e9bb 663e 943d a09a 7cbd 6bea 6bbd
00000010: f31c 8f3d 9576 893d 78ec 613d b0a6 af3d
00000020: 604c 07bb 3dcb 023e 4174 763d 33e9 46be
00000030: d6e3 febe d564 f6bb 60ff a8bd 523b 1fbe
00000040: 83bd 50bd 7758 01bd a480 e8bb 4157 bf3d
00000050: 4770 8d3c 2316 ca3d cdc0 76be 05c3 09be
00000060: e069 2ebd 17f2 343d 001f b0bd 20e9 e33c
00000070: e46b 93be 5d55 953e 02d8 ab3d dbfa 363e
00000080: 406a a43d 3c21 e93c e104 e1bb 26a3 573d
00000090: c11f 20be c5b7 0d3d 6732 bcbd 3ac4 e2bd
000000a0: ebbc 61bd 22ca 0d3d c74d 57bd 2d0b 5e3d
000000b0: d980 b43d c11f b63d 5b21 acbd c554 e4bc
000000c0: 4821 a7bd 1515 26bc 38ed 5cbd cfc3 c1bd
000000d0: 19ae c0bb 5359 4f3c d65b 72be 4e73 273e
000000e0: bf7b 85bb e6e4 563c 2423 8cbd 2174 e33c
000000f0: f87d aabc 3fd6 e5bc e837 bbbc 8b48 e3bd
00000100: a654 6fb9 9f43 d2bd c711 923d d2cf 02bd
00000110: 238b 93bd 649d 863c 6816 823d 8bf5 8cbd
00000120: 5295 933d 1516 193d 2bd4 e63d 7f3f a83d
00000130: a83b e2bb fdb4 5e3d 4f51 7d3d d070 ff3d
00000140: f486 1fbc 0e44 143e 5ec5 bbbc d695 eebc
00000150: 105a 39bd 8a3c 343e 8b68 813c ced4 a53d
00000160: d7a1 fc3d 8117 fc3d 1c5f 3f3d b0f1 7e3b
00000170: 3067 c6bb c5f6 9b3d c218 8c3d c55d 4a3e
00000180: 1ab9 e9bd 0b96 e43d ad07 cc3c 8456 adbb
00000190: 5d6e d93a b1d9 0fbe 993c aabd bce6 f2ba
000001a0: 4028 373d 6bcc 9bba 05e9 4e3b c28c 1a3b
000001b0: 2834 fabc 066d b9bd 73f9 7a3d 7ac1 6b3d
000001c0: 9e97 05be 0222 193d 527e 54bd 38a7 323e
000001d0: b938 9f3d 64f0 56bb 1060 353d 490c b93c
000001e0: 24c4 afbc e58a dabc dbc7 a7bd 952d 6dbd
000001f0: ee77 21b9 8330 08be 09ae 96bd 54a7 a7bd
00000200: a88a 65bd 46e2 78be e18f 0c3d 1e88 cf3d
00000210: a6da 903d 66d3 043e f299 8e3d 69b2 57be
00000220: e8cb 933e 6a57 8e3d b511 8bbd 05f2 3cbd
00000230: 26c4 d93d e747 3f3d fb20 863d b95a 23bd
00000240: 4124 5f3e 4422 a33d 63a2 8f3d 2243 343e
00000250: 8e19 6a3d d439 103d 6e6a 603d f7de 1a3e
00000260: 2609 a2bc e3fd 8a3e f9ef e6bc be72 d63c
00000270: 2117 f53d c193 0cbe e2f4 3ebe 2077 3a3e
00000280: 3bd4 fb3c ab0a e93c 298a 553d 9a59 ffbc
00000290: d74b 7b3d 7020 cc3c 4f6c bb3c 0991 1dbe
000002a0: 170b d63d c896 973d 4206 c2bd 899e 7bbc
000002b0: a2ee b5bd fa16 883d 4208 823d 0243 2f3e
000002c0: 4237 903c b3d5 e4bd 09a1 fe3c 9be9 383d
000002d0: f1ad b0bd 0850 82bd 66bc a2bd bf26 65bd
000002e0: 0b50 b0bd b026 fa3c b0ab 993d 2323 703c
000002f0: 863a 393e 1e60 423d 17b1 a8bc 0657 40bc
00000300: 0841 6fbd 3b3b 85bd f659 77bb df88 53be
00000310: 3f86 46bd 21d5 363d 74cd 143e 6349 753b
00000320: bdaa 42be ece0 d5bc 513b 2e3e f00f 433e
00000330: 4a21 623d 4b21 903d 6d83 9dbd 7b33 8b3e
00000340: dab8 45bd 250f b0bd 44b7 123c a633 96bb
00000350: ab9b dabd 8bfa 4a3b af08 5abd 3235 973d
00000360: 585a a93d 25aa 993d 3a20 2fbd ec60 52bc
00000370: c312 0c3e be82 0c3e d103 c1bc 57f4 d63d
00000380: 502f 96bd 6ee0 d33d 4b64 063e e6e7 203d
00000390: 18b0 f9bd 0d3f a3bd 2daa 053e c453 05be
000003a0: 7405 90bd dc77 be3b bd82 13be 907d abbd
000003b0: 9cd8 173e d6d4 b83c 2fa1 273d 5c02 153d
000003c0: c53b 0c3e 501d cc3c 04e1 44bd 83a9 19bd
000003d0: 066c d1bd 5404 f23d 3e0e 193d e851 35be
000003e0: 284f 08be e06d 393d 4db6 1ebd 2d94 a33c
000003f0: e829 a8bd 56f4 223d e5af 84bc 3e4b b53c

lstm.bias_ih_l0 f4 [512]
0.028202586 0.022394001 0.23441404 0.035269655 -0.019665873 0.11633832 0.09464342 -0.09485991
0.05953174 -0.105079435 0.12977882 -0.026660463 0.09876187 0.1893006 0.015364494 0.09158526
0.11405759 -0.022544026 -0.04034341 0.3514754 0.23534489 0.112735316 0.021553544 -0.050994027
0.1492186 0.08807413 0.19583394 0.08639039 -0.07710712 0.13647966 -0.09905521 0.22596739
0.07086711 0.06157268 0.022765279 0.101161756 0.034910746 0.17804089 0.11104747 0.06556203
0.126402 0.1359617 0.051539775 0.046562936 0.123124495 0.060820624 -0.059224844 0.23000036
0.16225863 -0.091317214 -0.02580515 0.091500334 0.1315826 0.11888409 0.08101042 0.098667525
0.09382535 0.15413891 0.058308255 0.25760314 0.058381207 0.03633595 0.09749156 0.127677
0.3185213 0.024072971 0.12090507 0.042933945 0.28363374 0.11248053 0.14787485 -0.0049592606
-0.118089974 -0.062169217 0.15720089 0.06997783 0.04315464 -0.0011178808 0.13776456 0.22272597
0.06970089 0.17586014 0.019853685 0.0014469364 0.11506894 0.057008006 0.06420612 0.37590143
0.35922962 0.18676706 0.12491545 0.1753227 0.1928203 0.3217549 0.17936052 -0.15433936
-0.04741287 -0.006951912 0.18667676 0.12027069 0.14874013 0.10258147 0.14816247 0.095987484
-0.023091642 0.14529142 0.12508175 -0.077190675 0.07862946 0.058832463 -0.03962054 0.12149892
-0.068035364 0.08760619 0.11593597 0.05844694 -0.023045547 0.06766959 0.2179059 0.15158412
0.022133589 0.116974436 0.14055783 0.09613717 0.099445336 0.27208626 0.00041101992 0.11412709
0.11913827 0.09848968 0.16502386 0.0054919347 0.11101522 -0.017399298 0.10666153 0.10232653
0.088871814 0.12566863 0.09115375 0.13763551 -0.07110804 -0.029412152 0.04474031 0.037799586
0.04976 0.10557766 0.09414502 0.28209382 0.015289337 0.0208651 0.09714463 0.14147367
0.04901486 -0.0460843 0.006719067 0.07942511 -0.0031468612 -0.019254057 0.08795879 0.13801545
0.008963259 0.12991208 0.05025758 0.0247749 0.049190078 0.03127396 0.03862863 0.09480894
0.087320976 0.00011389106 0.056921873 -0.006617193 -0.004646107 0.04640449 0.03790682 0.03955973
0.16415577 0.2248289 0.032135002 -0.031690642 0.0313385 0.033335306 0.1844087 0.16536365
0.112962134 -0.0004909245 0.14104058 0.04322667 0.05991705 0.019635605 -0.033685073 0.06991188
0.07187738 0.07967637 0.12807907 0.026600268 0.0069417395 0.046625327 0.07469412 0.08650948
0.22277752 -0.09380125 0.11123157 0.020571016 0.05510889 0.08434297 0.039465412 0.090194196
-0.017514901 0.09933743 0.0130839795 -0.08558936 0.09136877 -0.025791572 0.058861766 0.08563743
0.07006371 0.15637152 0.21117626 0.0378491 0.11348686 0.018617373 0.16058832 0.090054765
0.1830096 -0.08207242 0.034158316 0.050487585 -0.00013504784 0.11831019 0.094736725 -0.028118733
0.14752834 0.04902403 0.03157947 -0.017971342 -0.048072744 0.05009196 -0.021760533 0.064199366
0.051298507 0.01550669 0.09469613 -0.012709293 0.03735021 -0.05779455 0.09018777 0.0042274455
-0.024908882 0.19082163 -0.003042475 0.0741834 0.08816072 0.10254773 0.0896644 -0.08821276
00000000: 1c09 e73c a073 b73c 3c0a 703e ea76 103d
00000010: 531a a1bc c942 ee3d 69d4 c13d ea45 c2bd
00000020: 8ed7 733d e333 d7bd bde4 043e 0b67 dabc
00000030: aa43 ca3d 04d8 413e 5cbb 7b3c 0e91 bb3d
00000040: 0797 e93d 40ae b8bc 223f 25bd 95f4 b33e
00000050: 40fe 703e c6e1 e63d 0f91 b03c 1ddf 50bd
00000060: c3cc 183e 3660 b43d b188 483e 72ed b03d
00000070: 56ea 9dbd 53c1 0b3e 75dd cabd ff63 673e
00000080: c622 913d a233 7c3d 407e ba3c e52d cf3d
00000090: 92fe 0e3d 5a50 363e db6c e33d 6345 863d
000000a0: 876f 013e 8b39 0b3e 5f1b 533d c7b8 3e3d
000000b0: b228 fc3d 0c1f 793d c095 72bd 3785 6b3e
000000c0: 2027 263e 8504 bbbd 5265 d3bc 8764 bb3d
000000d0: 97bd 063e 8079 f33d cbe8 a53d 3312 ca3d
000000e0: 8127 c03d 97d6 1d3e a3d4 6e3d 8fe4 833e
000000f0: 2221 6f3d 01d5 143d a8a9 c73d c2bd 023e
00000100: 3915 a33e ae34 c53c 149d f73d 81db 2f3d
00000110: 7138 913e 315c e63d 816c 173e 4b81 a2bb
00000120: 28d9 f1bd 26a5 7ebd 45f9 203e 8950 8f3d
00000130: ebc2 303d db85 92ba 2712 0d3e 4712 643e
00000140: 57bf 8e3d ae14 343e 32a4 a23c 21a7 bd3a
00000150: 44a9 eb3d 3a81 693d 807e 833d 2776 c03e
00000160: f2ec b73e dd3f 3f3e acd3 ff3d cb87 333e
00000170: af72 453e 0fbd a43e 49aa 373e 230b 1ebe
00000180: ff33 42bd ddcc e3bb 3128 3f3e 7b50 f63d
00000190: 554f 183e 3c16 d23d e7b7 173e 1695 c43d
000001a0: af2a bdbc 46c7 143e 6e15 003e 2516 9ebd
000001b0: 7b08 a13d 4ffa 703d 2649 22bd 6dd4 f83d
000001c0: 2056 8bbd e06a b33d d66f ed3d 0f66 6f3d
000001d0: 04ca bcbc 5b96 8a3d b922 5f3e de38 1b3e
000001e0: 8051 b53c 4b90 ef3d 64ee 0f3e 91e3 c43d
000001f0: ffa9 cb3d e44e 8b3e 297e d739 77bb e93d
00000200: c4fe f33d f5b4 c93d 04fc 283e b0f5 b33b
00000210: f35b e33d f988 8ebc 5c71 da3d 9290 d13d
00000220: 6d02 b63d 47af 003e d1ae ba3d 53f0 0c3e
00000230: 18a1 91bd c1f1 f0bc 9e41 373d bdd3 1a3d
00000240: 24d1 4b3d 1a39 d83d 1bcf c03d 9a6e 903e
00000250: 2180 7a3c 49ed aa3c c4f3 c63d 79de 103e
00000260: cec3 483d e4c2 3cbd 9f2b dc3b a2a9 a23d
00000270: 923b 4ebb afba 9dbc bd23 b43d ec53 0d3e
00000280: a2da 123c ac07 053e e4da 4d3d bbf4 ca3c
00000290: 897b 493d 2019 003d 0e39 1e3d 312b c23d
000002a0: 57d5 b23d ccd8 ee38 e926 693d 0ad5 d8bb
000002b0: 5f3e 98bb a212 3e3d 2f44 1b3d 6209 223d
000002c0: 7318 283e 8c39 663e fe9f 033d 0cce 01bd
000002d0: cd5c 003d 9a8a 083d a2d5 3c3e 1755 293e
000002e0: b158 e73d 63b1 00ba f16c 103e 730e 313d
000002f0: 956b 753d d9da a03c 5cf9 09bd f62d 8f3d
00000300: 7334 933d 5d2d a33d 2927 033e cee8 d93c
00000310: 8877 e33b 33fa 3e3d 3bf9 983d e22b b13d
00000320: ca1f 643e df1a c0bd 61cd e33d 8c84 a83c
00000330: dcb9 613d 02bc ac3d 7ca6 213d bcb7 b83d
00000340: 697b 8fbc 6c71 cb3d 305e 563c 7949 afbd
00000350: 8d1f bb3d d948 d3bc 0919 713d ad62 af3d
00000360: 907d 8f3d db1f 203e 973e 583e a807 1b3d
00000370: cd6b e83d 7683 983c 4471 243e a26e b83d
00000380: de66 3b3e 9615 a8bd 97e9 0b3d 12cc 4e3d
00000390: a19b 0db9 9d4c f23d 5405 c23d 4259 e6bc
000003a0: ab11 173e 6ccd 483d 7959 013d a338 93bc
000003b0: ede7 44bd 3a2d 4d3d 2543 b2bc f57a 833d
000003c0: 621e 523d c60f 7e3c 0bf0 c13d a33a 50bc
000003d0: 89fc 183d fab9 6cbd 5eb4 b83d 6286 8a3b
000003e0: b60d ccbc bf66 433e 4364 47bb 77ed 973d
000003f0: 9c8d b43d 8b04 d23d f8a1 b73d e4a8 b4bd

lstm.bias_hh_l0 f4 [512]
0.075036414 0.12554643 0.27900046 0.090783484 -0.0055905255 0.2643828 0.048314348 -0.041318614
0.1760431 -0.19791186 0.05602243 0.09522187 0.14517339 0.10966791 0.06920871 -0.025499938
0.022435173 0.122339785 -0.017710665 0.29397482 0.20678495 0.0970157 -0.0061813816 -0.035573386
0.023758784 0.096752286 0.14248224 0.12419342 -0.0066544455 0.061466556 -0.17639357 0.30390847
0.0998662 0.11108433 0.131046 0.206478 0.033587717 0.13447104 0.13146749 0.059235718
0.114825845 0.10396002 0.1172831 0.087287106 0.10522383 0.16305651 -0.016906427 0.2643614
0.14200953 -0.038242724 -0.02810396 0.02774866 0.14098755 0.232982 0.0026771664 0.20025897
0.09578973 0.097059645 -0.007371455 0.2363444 0.11301662 0.16603221 0.07099007 -0.02802794
0.21791586 0.18257605 0.053508386 0.117541425 0.14840364 0.11897032 0.07098005 0.03879986
-0.072916426 -0.019756492 0.14524266 0.062131997 0.040565018 0.07772655 0.18139485 0.22681902
0.10870248 0.048915196 -0.02436828 -0.015545239 0.24008758 0.1200635 -0.022921659 0.27674222
0.21086714 0.16934943 0.047426965 0.07182247 0.15406907 0.30636272 0.16480117 -0.11202997
0.011255411 -0.08857047 0.14024526 0.06826112 0.06679902 0.07018177 0.043814793 0.19967674
0.026492504 0.16942061 0.2303357 0.017575335 0.013104473 0.06393485 -0.10487734 0.11377007
0.04161009 0.11421227 0.14853562 0.09666581 0.014819914 0.124134436 0.19100718 0.07973388
0.04935712 0.1331935 0.109052524 0.09875495 0.10464551 0.14455678 -0.015109835 0.117556654
0.18092805 0.09293229 0.110674866 0.09902993 0.1431547 0.033701193 0.074710466 0.18217823
-0.036475983 0.067737564 -0.028672835 0.066749185 0.047060553 0.021164468 0.031460084 -0.06355526
0.027223496 0.0758276 0.16034214 0.21549343 -0.0502416 0.02436268 0.16759306 0.08426733
0.07537314 -0.038157526 -0.0015547791 0.15116943 0.099523075 -0.024510778 0.1884384 0.19693562
0.089202754 0.06788848 0.09883384 0.017166413 0.15530796 -0.0627863 -0.061447896 0.033048373
0.09102094 0.0110730035 0.17108335 0.04301635 0.08690146 -0.014692749 0.099744536 -0.03212133
0.13015409 0.12423023 0.04256645 0.04395648 0.04951401 0.1133503 0.17473541 0.11810124
0.064692914 0.06854417 0.07237229 0.04249357 -0.010184138 0.0012023884 0.02933247 0.011679933
0.029585512 0.12728554 0.016096503 0.009930286 0.11674073 0.0695681 0.09175007 0.1592179
0.1470102 -0.027008269 0.11747668 0.0487541 -0.003741734 0.16619991 0.039617408 0.10796427
0.025019791 -0.020135216 0.026690545 -0.06404187 -0.04675838 -0.035137627 0.0034875842 0.075879954
0.12817293 0.041772522 0.17564313 0.049594384 0.137678 0.008565449 0.10231178 0.03577363
0.10335726 0.06486569 0.08109383 -0.012258506 0.063257955 0.003761577 0.045193676 0.12950793
0.024975391 0.12717412 0.018042598 0.024493188 -0.015204629 0.02521389 0.05435225 -0.062077712
0.13796113 0.08142532 -0.044200987 -0.04204883 -0.05803886 -0.05328132 0.06795022 -0.076037675
0.0954694 0.17078017 0.0036665602 0.01709114 0.10110296 0.115477346 0.11906447 -0.009068142
00000000: b1ac 993d 3e8f 003e 26d9 8e3e b1ec b93d
00000010: ba30 b7bb 2f5d 873e 44e5 453d b53d 29bd
00000020: a444 343e 68a9 4abe c777 653d af03 c33d
00000030: 55a8 143e 9299 e03d 4cbd 8d3d 3fe5 d0bc
00000040: f8c9 b73c 488d fa3d f515 91bc de83 963e
00000050: 6fbf 533e 2bb0 c63d 308d cabb 66b5 11bd
00000060: c8a1 c23c 1026 c63d dde6 113e 1f59 fe3d
00000070: 890d dabb 5bc4 7b3d 84a0 34be e499 9b3e
00000080: a686 cc3d 2e80 e33d ec30 063e f86e 533e
00000090: 4693 093d c7b2 093e 6a9f 063e 27a1 723d
000000a0: d029 eb3d fee8 d43d 1f32 f03d 95c3 b23d
000000b0: 977f d73d 49f8 263e 597f 8abc 615a 873e
000000c0: f26a 113e 67a4 1cbd 473a e6bc 2851 e33c
000000d0: 0a5f 103e d592 6e3e 6673 2f3b b010 4d3e
000000e0: 682d c43d 35c7 c63d 3f8c f1bb 4404 723e
000000f0: 4275 e73d 5904 2a3e 3e63 913d da9a e5bc
00000100: 5625 5f3e 37f5 3a3e 9c2b 5b3d 8fb9 f03d
00000110: 20f7 173e b6a6 f33d fd5d 913d 9aec 1e3d
00000120: 3555 95bd 5ed8 a1bc 7eba 143e 1f7e 7e3d
00000130: 8127 263d 192f 9f3d 92bf 393e 3f43 683e
00000140: 689f de3d 4d5b 483d fd9f c7bc 75b1 7ebc
00000150: 85d9 753e dae3 f53d 34c6 bbbc 28b1 8d3e
00000160: 8eed 573e f069 2d3e c742 423d a917 933d
00000170: 48c4 1d3e 93db 9c3e a3c1 283e f86f e5bd
00000180: 9e68 383c 6f64 b5bd 749c 0f3e 7ccc 8b3d
00000190: edcd 883d 76bb 8f3d 2477 333d 0f78 4c3e
000001a0: cf06 d93c 997c 2d3e 1fdd 6b3e 26fa 8f3c
000001b0: 25b4 563c 46f0 823d eec9 d6bd 4800 e93d
000001c0: 576f 2a3d 1fe8 e93d b919 183e b9f8 c53d
000001d0: 39cf 723c 323a fe3d 6397 433e 844b a33d
000001e0: b12a 4a3d e063 083e ee56 df3d 0940 ca3d
000001f0: 6350 d63d b106 143e 3e8f 77bc 8bc1 f03d
00000200: 3445 393e 4953 be3d 81a9 e23d 34d0 ca3d
00000210: 2597 123e 430a 0a3d cd01 993d ee8c 3a3e
00000220: d767 15bd feb9 8a3d 4be3 eabc ccb3 883d
00000230: 91c2 403d 1b61 ad3c 4adc 003d 4329 82bd
00000240: cf03 df3c 804b 9b3d bb30 243e 4faa 5c3e
00000250: 23ca 4dbd 3e94 c73c 849d 2b3e 5a94 ac3d
00000260: 3c5d 9a3d 114b 1cbd bbc9 cbba 29cc 1a3e
00000270: c1d2 cb3d d4ca c8bc fff5 403e 7ea9 493e
00000280: efaf b63d 1e09 8b3d 6569 ca3d 94a0 8c3c
00000290: 0d09 1f3e 1b96 80bd cab0 7bbd bb5d 073d
000002a0: 3069 ba3d 8b6b 353c 7930 2f3e ea31 303d
000002b0: 65f9 b13d dbb9 70bc dd46 cc3d a891 03bd
000002c0: 1d47 053e 6b6c fe3d 285a 2e3d b60b 343d
000002d0: 34cf 4a3d 3424 e83d d7ed 323e 10df f13d
000002e0: b87d 843d e360 8c3d ec37 943d bd0d 2e3d
000002f0: 5fdb 26bc 7699 9d3a a64a f03c 315d 3f3c
00000300: 515d f23c 2457 023e d0dc 833c a3b2 223c
00000310: c415 ef3d b879 8e3d 76e7 bb3d 040a 233e
00000320: d889 163e 7240 ddbc 9d97 f03d 61b2 473d
00000330: e137 75bb 4f30 2a3e dd45 223d 5f1c dd3d
00000340: 4ef6 cc3c 9cf2 a4bc 21a6 da3c 6228 83bd
00000350: b785 3fbd 79ec 0fbd f48f 643b f366 9b3d
00000360: c43f 033e aa19 2b3d cbdb 333e 7b23 4b3d
00000370: 76fb 0c3e 1956 0c3c d788 d13d 5f87 123d
00000380: f9ac d33d 4ed8 843d 8614 a63d e7d7 48bc
00000390: 638d 813d ca84 763b 011d 393d ba9d 043e
000003a0: 3199 cc3c ef39 023e 12ce 933c f0a5 c83c
000003b0: d61c 79bc 5c8d ce3c 77a0 5e3d 3345 7ebd
000003c0: af45 0d3e 51c2 a63d 180c 35bd 653b 2cbd
000003d0: 28ba 6dbd 833d 5abd 7c29 8b3d a4b9 9bbd
000003e0: 7685 c33d ffe0 2e3e ac4a 703b b802 8c3c
000003f0: 120f cf3d 637f ec3d 13d8 f33d 8b92 14bc

fc.weight f4 [5, 128]
0.27576151 -0.17355148 0.03903242 -0.11835549 -0.0011776175 -0.07681824 -0.021449504 -0.4660856
0.09771044 0.23496017 -0.20926419 -0.09498261 -0.053967487 0.24989676 0.300387 -0.224976
0.09423775 -0.0016354048 0.25948474 0.13056625 0.072910324 0.019470017 -0.0040602693 0.19590615
-0.19775541 -0.24807435 0.030138843 0.16945316 -0.085995965 0.20697327 0.29003805 0.1572215
0.024965268 0.06365848 0.13440461 -0.18991768 -0.109255075 0.33176094 -0.2798816 -0.1655274
0.15145642 0.09710772 0.11710265 -0.07593969 -0.22133498 0.2812836 -0.16981775 0.15788065
0.087954774 -0.17252982 -0.00047937868 0.095185325 -0.2392696 -0.19824341 -0.3829826 -0.0040702466
-0.24513684 -0.28171468 0.07414483 0.013621546 -0.020127848 0.061779197 -0.33370236 -0.06458678
-0.004631112 -0.061506808 -0.23948495 -0.28368202 -0.18875416 -0.41106775 -0.28819242 0.23692913
0.19063468 0.20586973 -0.001868999 0.13588467 -0.0700174 0.13699546 -0.029394161 -0.04129939
-0.36260742 0.16142477 -0.42617723 0.047143128 -0.108488396 0.2398391 -0.002641206 -0.02042236
0.17513111 0.044061817 0.08322639 0.08065048 -0.0690402 0.009218202 -0.31733844 0.26450086
-0.31723174 0.10487259 0.15521115 0.027967136 -0.08545182 -0.005527542 -0.11516554 -0.20415074
0.12807216 -0.0452427 -0.120219745 -0.21221344 0.044325434 0.048295267 -0.36619174 -0.1328633
0.18835875 -0.2581294 -0.06335506 0.5319381 0.02122176 0.051805682 0.022542553 -0.32535744
0.2954487 -0.23504442 -0.033279702 0.29519966 -0.042344045 0.0036092952 -0.11707029 0.20293947
-0.068683006 -0.06309938 0.13493335 0.21811917 -0.18459545 0.10938627 -0.047211517 0.4010682
-0.23233853 -0.014721724 -0.18404439 0.32811224 -0.035579402 -0.11054069 -0.1163113 0.36686733
-0.23012464 -0.07368007 -0.31761336 0.15124997 -0.007441738 0.111890495 -0.056606762 -0.09614306
0.11827788 0.505392 -0.15145296 -0.10611777 0.16169736 -0.35786107 -0.42610937 -0.07598195
0.24776252 0.10518012 -0.29211497 0.3472703 0.09740428 0.37211066 0.026932143 -0.110112324
-0.07065365 0.03484771 0.24090578 -0.09800269 -0.122279845 -0.37640658 0.11891967 -0.34251097
0.17327078 0.17113458 0.10882625 -0.65836304 0.4906112 0.065708645 -0.20350254 -0.2100659
-0.26171723 0.19361429 0.06740202 0.17056265 0.077577956 0.11860248 0.24311432 0.05899486
-0.1369625 0.07088104 0.10124657 0.59475136 0.21133067 0.2110956 -0.2523758 -0.18498476
0.30791205 -0.22762641 0.20254059 -0.29459292 -0.13389032 -0.062545225 -0.2371649 0.19857562
0.047662884 0.07731559 0.27509457 -0.17701583 0.07917114 0.09341448 0.31584382 0.22312027
-0.3131114 -0.11268092 -0.07815871 -0.34344286 -0.3634465 0.1974083 -0.26639852 0.099044465
-0.18225664 -0.08460258 -0.1472089 0.17197795 -0.1684105 0.015268524 0.13902305 0.2841274
-0.3083325 -0.014219742 -0.32296807 0.09180116 0.0025972761 0.14140026 0.5253503 0.2694332
-0.5739722 0.2453801 -0.047254447 -0.11411675 -0.16656345 0.03551996 0.048392616 0.50182974
0.39616653 -0.15289445 -0.2762505 -0.7455568 0.18859698 0.050283667 0.05597724 0.027039073
00000000: 9d30 8d3e 7bb7 31be 75e0 1f3d 5d64 f2bd
00000010: 495a 9aba e252 9dbd dfb6 afbc c6a2 eebe
00000020: 691c c83d 6699 703e 5a49 56be 3e86 c2bd
00000030: 030d 5dbd f0e4 7f3e 53cc 993e 1c60 66be
00000040: b9ff c03d 145b d6ba 2fdb 843e 29b3 053e
00000050: 0252 953d 967f 9f3c 020c 85bb 9f9b 483e
00000060: 6580 4abe 3407 7ebe bce5 f63c 2185 2d3e
00000070: a71e b0bd cdf0 533e de7f 943e acfe 203e
00000080: f683 cc3c 615f 823d 5da1 093e c879 42be
00000090: 20c1 dfbd 92dc a93e a44c 8fbe 0480 29be
000000a0: 6417 1b3e 6ae0 c63d 84d3 ef3d 4586 9bbd
000000b0: a3a5 62be 6704 903e b4e4 2dbe 77ab 213e
000000c0: a221 b43d a8ab 30be 1e55 fbb9 86f0 c23d
000000d0: 1703 75be 5200 4bbe 4c16 c4be b45f 85bb
000000e0: 2705 7bbe e83c 90be 3fd9 973d e82c 5f3c
000000f0: 28e3 a4bc 2f0c 7d3d 09db aabe 1346 84bd
00000100: 95c0 97bb 90ee 7bbd 8b3b 75be c53e 91be
00000110: c548 41be 7977 d2be f58d 93be 8d9d 723e
00000120: bd35 433e 84cf 523e 33f9 f4ba 5a25 0b3e
00000130: 4865 8fbd 8a48 0c3e 06cc f0bc 8d29 29bd
00000140: aea7 b9be 894c 253e e733 dabe 2719 413d
00000150: 2a2f debd 6298 753e 1518 2dbb cb4c a7bc
00000160: 9255 333e 2a7a 343d 9972 aa3d 142c a53d
00000170: f364 8dbd f107 173c 2f7a a2be a86c 873e
00000180: 336c a2be 71c7 d63d acef 1e3e 561b e53c
00000190: 5d01 afbd 6220 b5bb e9db ebbd e40c 51be
000001a0: 5925 033e 6950 39bd c535 f6bd 7b4e 59be
000001b0: 968e 353d 42d1 453d 7c7d bbbe 510d 08be
000001c0: 1ee1 403e 8929 84be 4cc0 81bd 182d 083f
000001d0: 42d9 ad3c 3232 543d 29ab b83c 4095 a6be
000001e0: 0d45 973e 7caf 70be 4c50 08bd 6924 973e
000001f0: f370 2dbd ed89 6c3b 8cc2 efbd 5dcf 4f3e
00000200: ada9 8cbd 3f3a 81bd f82b 0a3e a25a 5f3e
00000210: 9706 3dbe e905 e03d dd60 41bd d058 cd3e
00000220: 27ea 6dbe 6333 71bc 2276 3cbe 54fe a73e
00000230: b5bb 11bd 2863 e2bd 9e34 eebd 09d6 bb3e
00000240: cba5 6bbe 94e5 96bd 389e a2be 46e1 1a3e
00000250: d3d9 f3bb d826 e53d 7edc 67bd a7e6 c4bd
00000260: ac3b f23d 5f61 013f 7c16 1bbe 4654 d9bd
00000270: fe93 253e 9139 b7be 022b dabe 6d9c 9bbd
00000280: 75b5 7d3e ad68 d73d 1890 95be 6acd b13e
00000290: e57b c73d 4a85 be3e cca0 dc3c 9282 e1bd
000002a0: dcb2 90bd 79bc 0e3d 01b0 763e a2b5 c8bd
000002b0: db6d fabd 5db8 c0be 288c f33d 995d afbe
000002c0: e56d 313e e73d 2f3e 4ce0 de3d 7b8a 28bf
000002d0: 6431 fb3e 4192 863d f862 50be 841b 57be
000002e0: cdff 85be d342 463e 120a 8a3d faa7 2e3e
000002f0: 31e1 9e3d dbe5 f23d f6f2 783e 98a4 713d
00000300: e63f 0cbe 142a 913d 5d5a cf3d a041 183f
00000310: 1167 583e 7229 583e 6737 81be a56c 3dbe
00000320: a6a6 9d3e e616 69be cd66 4f3e e2d4 96be
00000330: 8b1a 09be b617 80bd 5bdb 72be 6857 4b3e
00000340: 283a 433d a357 9e3d 32d9 8c3e a343 35be
00000350: 7b24 a23d 1750 bf3d 48b6 a13e a479 643e
00000360: 2350 a0be 41c5 e6bd ac11 a0bd bed7 afbe
00000370: a915 babe 6725 4a3e 6365 88be d3d7 ca3d
00000380: 7ca1 3abe 1e44 adbd eebd 16be fd1a 303e
00000390: cd73 2cbe d528 7a3c 0f5c 0e3e 2679 913e
000003a0: c2dd 9dbe ecf9 68bc 125c a5be 3f02 bc3d
000003b0: 1037 2a3b 3bcb 103e 5b7d 063f 26f3 893e
000003c0: d8ef 12bf ec44 7b3e e18d 41bd 0bb6 e9bd
000003d0: 9c8f 2abe 617d 113d 5637 463d ea77 003f
000003e0: 57d6 ca3e 5d90 1cbe b570 8dbe cfdc 3ebf
000003f0: 911f 413e 3ff6 4d3d 6448 653d 0c81 dd3c

fc.bias f4 [5]
-0.05640947 -0.06742923 -0.01716749 0.04687736 -0.15402049
00000000: 9e0d 67bd 5618 8abd d6a2 8cbc 7a02 403d
00000010: 8cb7 1dbe
