Lab4 - RNN text classifier/models/model_128_1_layer_50epochs_bidirectional.pth (torch, 544507 bytes, 10 tensors)

lstm.weight_ih_l0 f4 [512, 1]
0	0x3e40b1ac	0.18817776
1	0xbe4783bc	-0.19483846
2	0xbe274e84	-0.16338545
3	0xbd85b23a	-0.06528135
4	0x3e0df415	0.13862641
5	0x3d0538d0	0.032524884
6	0xbe328e1c	-0.17437023
7	0xbcfffcbf	-0.031248448
8	0x3e88cb6e	0.26717705
9	0xbdbfd3c6	-0.093665645
10	0xbd7ce042	-0.061737306
11	0xbdef22eb	-0.11676582
12	0x3e4cffe4	0.2001949
13	0xbe288df2	-0.16460398
14	0x3d86a1c9	0.06573827
15	0xbd8d17ce	-0.06889306
16	0x3caf72c6	0.021417033
17	0xbdbd0b2c	-0.092306465
18	0xbe38251d	-0.17982908
19	0x3e5c120c	0.2149126
20	0xbe11cd78	-0.14238536
21	0xbdc90d6f	-0.098170154
22	0x3d59a22d	0.05313318
23	0x3dc45f5a	0.09588499
24	0xbe1428f9	-0.14468755
25	0xbdf53281	-0.119725235
26	0x3f22136c	0.63310885
27	0xbe212b83	-0.15739255
28	0x3d901f69	0.07037241
29	0x3d8135e3	0.06309106
30	0xbde4d87e	-0.11174105
31	0x3e4f5332	0.2024658
32	0x3ced4474	0.028963305
33	0xbda1feda	-0.07909937
34	0xbdd2f657	-0.10300892
35	0xbbdf275f	-0.0068101133
36	0xbe5a738d	-0.21333142
37	0xbc86118f	-0.016365794
38	0xbe935604	-0.28776562
39	0xbd006448	-0.031345636
40	0xbcfa7bd3	-0.030576622
41	0x3d3e3067	0.04643288
42	0x3d07024b	0.03296117
43	0x3dbe4d1c	0.09292051
44	0x3de7c0da	0.113160804
45	0xbd95d389	-0.07315738
46	0xbd889f90	-0.06671059
47	0x3d38ad2c	0.045087025
48	0x3e0f7b01	0.14011766
49	0x3ec8fc8b	0.39255175
50	0x3d7125c2	0.0588739
51	0x3d72d8fb	0.05928896
52	0xbe876320	-0.26442814
53	0xbdda2370	-0.106512904
54	0xbdaf06f8	-0.08546251
55	0xbc9dadc2	-0.019247893
56	0x3d641799	0.055686567
57	0x3e450997	0.1924194
58	0xbd321151	-0.043473545
59	0xbd0de9e2	-0.034646876
60	0x3d46f75f	0.048575755
61	0x3eb5126c	0.35365617
62	0x3d96fe34	0.07372704
63	0xbd9e8b92	-0.07741465
64	0x3e8aadd2	0.2708574
65	0x3e9cf372	0.30654484
66	0x3ddf87fd	0.109146096
67	0x3c44870d	0.011995089
68	0x3e3ec5d2	0.1863015
69	0x3bffb94b	0.007804071
70	0x3b8d8b49	0.0043195826
71	0xbdf83035	-0.1211857
72	0xbdc8dc0e	-0.09807597
73	0xbde3ca7f	-0.111226074
74	0x3d3af44c	0.045643136
75	0x3dce646d	0.100777484
76	0x3db1e9ae	0.08687149
77	0xbd91b8e7	-0.071153454
78	0x3aba3302	0.0014205875
79	0x3d78d7ea	0.060752787
80	0x3e0e06ac	0.13869733
81	0xbd58d9a5	-0.052941937
82	0xbaba3e9e	-0.0014209335
83	0xbd92dc94	-0.07170978
84	0xbd3a64da	-0.045506336
85	0x3d36168d	0.0444551
86	0xbc5f8072	-0.013641464
87	0x3e718d38	0.23589027
88	0xbdb89856	-0.09013431
89	0x3da28ede	0.07937406
90	0xbd587a59	-0.052851055
91	0xbe99a723	-0.30010328
92	0x3d045b82	0.03231383
93	0x3f161f86	0.5864185
94	0xbda56ac5	-0.08077005
95	0xbdb0afc6	-0.08627276
96	0x3d7e3641	0.06206346
97	0x3ea17025	0.31530872
98	0xbccdadca	-0.025107283
99	0xbe432065	-0.19055326
100	0xbce72ac4	-0.028218634
101	0xbdc4fe3a	-0.09618802
102	0x3e400d8b	0.18755166
103	0xbdd70537	-0.104990415
104	0x3e763236	0.24042591
105	0x3d660f77	0.056167092
106	0xbd3a5eb5	-0.045500476
107	0x3b5d6fcb	0.0033788558
108	0x3cd67ca9	0.02618249
109	0x3d2f7cc3	0.04284359
110	0xbd1a1ee2	-0.03762711
111	0x3e7aa17a	0.24475661
112	0xbd177425	-0.036976
113	0xbe3b4a1e	-0.18289992
114	0x3d26d44f	0.040729817
115	0x3e5c1d21	0.21495487
116	0xbd71d504	-0.05904104
117	0x3e0c953b	0.13728802
118	0x3da1b6fa	0.07896228
119	0xbd0228b7	-0.03177711
120	0xbd365734	-0.044516757
121	0x3d849b03	0.06474879
122	0xbd286d79	-0.041120026
123	0xbddff9f0	-0.10936344
124	0x3c688639	0.014192157
125	0xbdcc8730	-0.099867225
126	0x3d1255fb	0.03572653
127	0xbe49d222	-0.19709066
128	0xbd92908f	-0.071564786
129	0x3dd3a5c9	0.103343554
130	0x3e226863	0.15860133
131	0xbe13ccd7	-0.14433609
132	0xbd623284	-0.055223957
133	0xbe3b5c43	-0.18296914
134	0xbdb913da	-0.090369895
135	0x3c11088a	0.0088521335
136	0x3e42baa8	0.19016516
137	0x3e24371c	0.16036648
138	0xbd556f7d	-0.052108277
139	0x3d051a0a	0.032495536
140	0x3da47fdc	0.080322
141	0x3e0673f6	0.13130173
142	0x3d7a5b54	0.061122254
143	0x3dd88f8d	0.10574255
144	0xbc6f3231	-0.014599369
145	0xbde35bee	-0.111015186
146	0xbe47735f	-0.19477604
147	0xbb4e7e90	-0.0031508543
148	0x3e00fb81	0.12595941
149	0x3e2c836f	0.16847013
150	0x3db25e9e	0.08709453
151	0xbe7140b6	-0.23559842
152	0x3d60d3c4	0.054889455
153	0xbca5b5b4	-0.020228244
154	0x3bf42129	0.007450242
155	0x3d3f35c1	0.046682123
156	0x3c5eb2bf	0.013592421
157	0x3d890dde	0.06692098
158	0xbba13f5a	-0.004920882
159	0x3d28863a	0.041143633
160	0x3d985c06	0.07439427
161	0x3e23aa10	0.15982842
162	0xbe80f36d	-0.2518572
163	0x3d336e46	0.043806337
164	0x3dbe4e34	0.0929226
165	0x3d12f650	0.035879433
166	0x3d5e63ad	0.054294277
167	0xbdb855c2	-0.09000732
168	0xbd7282d3	-0.059206795
169	0x3de37faf	0.11108338
170	0x3dff5025	0.12466458
171	0xbe704f3c	-0.23467726
172	0x3dcaecc2	0.09908439
173	0xbeada461	-0.33914474
174	0x3bd9c3c2	0.0066456506
175	0x3d5d4d59	0.054028843
176	0xb8d58e06	-0.000101830854
177	0x3d5d7c51	0.054073635
178	0xbbbf1b10	-0.0058320835
179	0x3dc6d39c	0.0970833
180	0xbc26c2fe	-0.010178326
181	0x3dd6e41e	0.10492729
182	0xbd4a4f63	-0.049392115
183	0xbdafee62	-0.0859039
184	0x3dea7c04	0.11449435
185	0xbee97d0b	-0.45603213
186	0x3e27efb7	0.16400038
187	0x3e07b952	0.13254288
188	0x3e1b7def	0.15184759
189	0xbdc6c960	-0.09706378
190	0x3d72d3a5	0.05928387
191	0x3cec116e	0.028816905
192	0x3d0a5047	0.033767965
193	0xbdc4b941	-0.09605647
194	0x3e031290	0.1280005
195	0x3d422946	0.047402643
196	0x3d9dfb62	0.07713963
197	0xbd37a29e	-0.04483282
198	0xbd4bb95a	-0.049737312
199	0xbdbeaf04	-0.09310725
200	0x3cab66a8	0.020922974
201	0x3de09743	0.10966351
202	0xbe97de9d	-0.29662028
203	0x3d3a13c0	0.04542899
204	0x3e013cd2	0.12620857
205	0x3d9cb277	0.07651227
206	0x3cf82761	0.030292215
207	0x3e007628	0.12545073
208	0x3d885b96	0.06658094
209	0xbd5484b4	-0.051884368
210	0x3e5a27e2	0.21304277
211	0xbd85e7b0	-0.065383315
212	0xbc8807e5	-0.016605327
213	0x3cb0b1d5	0.021569172
214	0x3d9048b0	0.07045114
215	0xbd9cb59a	-0.07651825
216	0xbab68652	-0.0013925529
217	0x3c1e5a86	0.009665137
218	0xbdce7456	-0.10080783
219	0x3d4d70ea	0.05015651
220	0x3d1d58a3	0.03841461
221	0xb9260085	-0.00015831187
222	0xbc401018	-0.011722587
223	0x3e28512d	0.16437216
224	0xbbdb8b03	-0.006699921
225	0xbdabce07	-0.08388906
226	0x3d80eaea	0.06294806
227	0x3d2095bf	0.03920531
228	0xbc280ba9	-0.010256686
229	0xbc54806e	-0.012970073
230	0xbdeb4447	-0.11487632
231	0x3d8a37ca	0.06748922
232	0xbd6dc1fa	-0.05804632
233	0x3d048a6a	0.032358564
234	0xbcc01070	-0.023445338
235	0xbd5dff51	-0.054198567
236	0x3e7bf42d	0.24604864
237	0x3de9898c	0.11403188
238	0x3e11067c	0.1416263
239	0x3d68579f	0.056724187
240	0xbd1af7f4	-0.037834123
241	0x3eb305c1	0.34965327
242	0x3d130232	0.035890765
243	0xbc331df1	-0.010932432
244	0xbdc7c9c6	-0.09755282
245	0x3d2a06d1	0.041510407
246	0xbe24b950	-0.16086316
247	0x3dd188f5	0.102312006
248	0xbd74299c	-0.059609994
249	0xbd15adbc	-0.03654264
250	0xbcc7ddfe	-0.024397846
251	0xbd8b24d6	-0.06794135
252	0x3d81ef3b	0.06344458
253	0x3cb40adf	0.02197784
254	0x3da73ae7	0.081655316
255	0xbddb4fe1	-0.10708595

lstm.weight_hh_l0 f4 [512, 128]
0	0x3ca8341d	0.020532662
1	0xbd3435f8	-0.04399678
2	0x3e2a453c	0.16627973
3	0x3eeace41	0.45860484
4	0xbd12e2ac	-0.035860702
5	0x3cf8da41	0.03037751
6	0x3e5bfa54	0.21482211
7	0xbdcd386c	-0.10020527
8	0x3e01447d	0.12623782
9	0x3c2e1842	0.010625901
10	0x3beaee55	0.0071695247
11	0x3e489029	0.19586243
12	0x3e103b7f	0.14085196
13	0x3e62adee	0.22136661
14	0xbdc093cb	-0.09403189
15	0xbe018efe	-0.12652203
16	0x3e050353	0.1298955
17	0x3e04dd91	0.12975146
18	0x3d5d41bd	0.05401777
19	0xbe6dd9a0	-0.23227549
20	0xbda0dca8	-0.07854587
21	0x3e407fb9	0.18798722
22	0x3dcd2ed4	0.100186974
23	0x3f081b9a	0.53167117
24	0xbcba37fc	-0.022731774
25	0xbe24ac90	-0.16081452
26	0x3d9463bf	0.072455876
27	0xbe30df56	-0.17272696
28	0x3db1d8fe	0.08683966
29	0xbd1dbd41	-0.038510565
30	0xbe7b2798	-0.24526823
31	0xbe084614	-0.13307983
32	0x3db3087f	0.08741855
33	0x3e049a14	0.12949401
34	0x3df14de5	0.11782435
35	0xbdfd7903	-0.12376597
36	0x3e4c7a26	0.19968471
37	0x3e2bd4d5	0.16780408
38	0xbded50a9	-0.1158765
39	0x3c88cfcf	0.016700653
40	0x3e68d381	0.22736932
41	0xbd6530cd	-0.055954743
42	0xbdd93caa	-0.10607274
43	0xbd9e64ee	-0.077340946
44	0xbe00ec84	-0.12590224
45	0x3b7f88ce	0.0038991454
46	0x3df4b3e7	0.11948376
47	0xbd8c42fd	-0.068487145
48	0x3ea6f436	0.32608193
49	0xbe0b3be5	-0.13597067
50	0xbdba0a7c	-0.09084031
51	0x3d830a1a	0.06398411
52	0x3dda383f	0.10655259
53	0x3cbd3d73	0.02310059
54	0xbd73f9df	-0.059564468
55	0x3d4dc1d0	0.050233662
56	0x3d2a9531	0.041646186
57	0xbd60fa3f	-0.054926153
58	0x3d734fda	0.059402324
59	0x3e2ee400	0.17079163
60	0x3e670fa4	0.2256456
61	0xbde683ac	-0.11255583
62	0xbd1539bf	-0.036432024
63	0xbebf0055	-0.3730494
64	0x3ce7d208	0.028298393
65	0xbd74c746	-0.059760354
66	0xbcdeeb36	-0.027211767
67	0xbcf405fa	-0.029788006
68	0x3e8aebad	0.2713293
69	0xbcebb563	-0.028773015
70	0x3ccc0a89	0.024907367
71	0x3d6d459e	0.05792772
72	0x3e63c5df	0.2224345
73	0x3c29a4b9	0.010354214
74	0xbd91bf4a	-0.071165636
75	0xbdc44e45	-0.09585241
76	0x3c2195b9	0.009862357
77	0xbd066605	-0.032812137
78	0xbcf43b3d	-0.029813403
79	0xbd3f77c0	-0.046745062
80	0xbe3719d4	-0.17880946
81	0x3deb0b21	0.11476732
82	0x3e06119a	0.13092652
83	0xbd45ce01	-0.048292164
84	0xbe0473f6	-0.1293486
85	0x3eab1fc4	0.33422673
86	0x3dc3d298	0.09561652
87	0x3c05ef5d	0.008174744
88	0x3e70dd93	0.23522024
89	0x3e045b11	0.12925364
90	0x3d067b41	0.032832388
91	0x3d7ade55	0.06124719
92	0x3d84cb81	0.06484128
93	0x3e00fdb0	0.12596774
94	0x3d93024f	0.07178175
95	0x3d5a8bda	0.05335603
96	0x3e7b6f8d	0.24554272
97	0x3d3ba160	0.045808196
98	0xbe3bee36	-0.18352589
99	0x3c26e492	0.010186331
100	0xbe141c1c	-0.14463848
101	0xbca9e415	-0.02073864
102	0xbe0d6bd9	-0.13810672
103	0xbdbcf5a6	-0.09226541
104	0xbd7ad3a9	-0.06123701
105	0x3d257233	0.040392112
106	0x3c26214b	0.010139774
107	0x3dc07371	0.09397019
108	0x3e400136	0.18750462
109	0x3e3dab3f	0.18522356
110	0x3e5118d0	0.20419621
111	0xbea73d2c	-0.32663858
112	0xbcebe490	-0.02879551
113	0x3eb9f610	0.36320543
114	0x3d10459c	0.035222635
115	0xbd87274f	-0.065992944
116	0x3d0fc6a3	0.035101544
117	0x3d858253	0.06518998
118	0xbd58eb6d	-0.052958895
119	0x3e0aa920	0.13541079
120	0x3d0e73fd	0.034778584
121	0x3e1525e0	0.1456523
122	0x3d6f724c	0.05845861
123	0x3dbba2db	0.091619216
124	0x3d970841	0.07374621
125	0xbd9e1179	-0.077181764
126	0xbd9554d3	-0.072915696
127	0xbe2a8d2e	-0.16655418
128	0xbe110404	-0.14161688
129	0x3d54ebc9	0.051982675
130	0xbd14b734	-0.03630753
131	0x3e2275db	0.15865271
132	0xbd7f1815	-0.062278826
133	0x3dd90ca9	0.10598118
134	0xbdb293f5	-0.08719627
135	0xbc668d04	-0.014071707
136	0xbd471caa	-0.04861132
137	0xbd5a075a	-0.053229667
138	0xbe9d9709	-0.30779293
139	0x3d2bb0b9	0.041916583
140	0xbe6c78d2	-0.23092964
141	0xbd7ebc4a	-0.062191285
142	0xbe167fc1	-0.14697172
143	0xbda47188	-0.08029467
144	0x3d68c4b4	0.056828216
145	0xba16d75b	-0.00057541364
146	0x3e09ff3d	0.13476272
147	0xbdfa7174	-0.12228671
148	0x3d85eec7	0.06539684
149	0x3d403ebe	0.046934836
150	0x3d398387	0.04529145
151	0xbe12ee76	-0.14348778
152	0xbdfdaa17	-0.12385958
153	0xbdf16a3a	-0.11787839
154	0xbcdfe1b4	-0.027329303
155	0x3d1da1bf	0.03848433
156	0x3cd2bb25	0.025724003
157	0xbe4f715b	-0.20258085
158	0x3d3a106b	0.045425814
159	0xbe055369	-0.130201
160	0x3a1f3763	0.0006073622
161	0x3d954a55	0.07289568
162	0x3c8eec4e	0.017446663
163	0x3d864ddb	0.065578185
164	0x3e0ac57c	0.13551897
165	0x3c45a62c	0.012063544
166	0xbe1c7da3	-0.15282302
167	0xbc5b016b	-0.013367037
168	0x3e231625	0.15926416
169	0x3cc0efc9	0.023551838
170	0x3d59349a	0.05302868
171	0x3e9b974b	0.30388865
172	0xbceb907c	-0.028755419
173	0x3e877989	0.2645991
174	0xbd281c13	-0.0410424
175	0x3dad84e5	0.08472613
176	0xbcd4a997	-0.025959773
177	0x3dc49795	0.095992245
178	0x3e232e74	0.15935689
179	0x3dbd9a7a	0.0925798
180	0xbd86ea83	-0.06587698
181	0x3dadf932	0.08494796
182	0x3ddc878e	0.107680425
183	0x3e0a5cae	0.13511917
184	0xbd09d2ea	-0.03364841
185	0x3e68d959	0.22739162
186	0xbd653233	-0.055956077
187	0x3ca6ffd9	0.02038567
188	0xbbb36c89	-0.005475585
189	0xbcf367cc	-0.02971258
190	0x3caf0eb6	0.02136932
191	0xbc21369f	-0.009839683
192	0x3e2a8cfd	0.16655345
193	0x3993263b	0.0002806651
194	0xbda8554f	-0.08219396
195	0xbd86d9e8	-0.06584531
196	0x3d16adae	0.036786728
197	0xbdd2e9ad	-0.10298476
198	0x3cf03fb1	0.029327245
199	0xbd4d3bc1	-0.050105814
200	0xbdfd31b1	-0.123629935
201	0x3d8cd4ef	0.06876551
202	0x3d7261c2	0.05917526
203	0xbd7e5cd1	-0.062100235
204	0x3e17aeb3	0.14812736
205	0xbc70b1a2	-0.014690788
206	0xbcf61a0c	-0.030041717
207	0x3d205610	0.039144576
208	0xbe12708e	-0.14300749
209	0x3ded0d31	0.11574782
210	0xbd742edc	-0.059615
211	0xbd24c9ba	-0.040231444
212	0xbde881fd	-0.11352918
213	0x3b965420	0.004587665
214	0x3df94c20	0.12172723
215	0xbae5b0ab	-0.0017523965
216	0xbdb92f30	-0.090422034
217	0xbdd9e642	-0.10639621
218	0xbd38e269	-0.045137797
219	0x3e20ad0b	0.1569101
220	0x3d612a79	0.054972146
221	0x3d67319c	0.056443796
222	0xbd694cd9	-0.056958053
223	0x3c94587c	0.018108599
224	0x3c42aa6e	0.011881454
225	0x3e3f570c	0.1868555
226	0xbd5cf872	-0.053947873
227	0x3d418be0	0.047252536
228	0xbd9c3dde	-0.07628988
229	0xbd129643	-0.035787832
230	0x3d842141	0.06451655
231	0x3d3c35ec	0.04594986
232	0x3dda54fe	0.10660742
233	0x3c8694b6	0.016428333
234	0xbe027ee0	-0.12743711
235	0x3da954a2	0.082680956
236	0xbd824b4a	-0.063620165
237	0x3e24e775	0.16103919
238	0xbd91826e	-0.071049556
239	0x3dd48edd	0.103788115
240	0xbe24a9a3	-0.16080336
241	0xbe19f17e	-0.15033528
242	0xbcef52ba	-0.029214252
243	0xbc0f64e4	-0.008752082
244	0x3cfe6537	0.031054122
245	0xbd9de1bc	-0.07709071
246	0x3e06db3f	0.13169573
247	0x3dfe796d	0.12425504
248	0xbd18da30	-0.037317455
249	0xbaa2c15d	-0.0012417246
250	0x3de892c7	0.113561206
251	0xbd9dde7d	-0.07708452
252	0x3dc21c18	0.09478015
253	0xbe5bedaf	-0.21477388
254	0xbdb4a1e1	-0.088199385
255	0xbd9b30eb	-0.0757769

lstm.bias_ih_l0 f4 [512]
0	0x3d8a3ce0	0.06749892
1	0x3c6987e0	0.0142535865
2	0xbdd07e5a	-0.1018035
3	0x3cfcef18	0.030875728
4	0x3e144b3d	0.14481826
5	0xbcd2f4f0	-0.02575156
6	0x3c6c74c7	0.014432139
7	0x3e420148	0.18945801
8	0x3d687900	0.05675602
9	0xbd1c1ec8	-0.038115293
10	0x3e310c6a	0.17289892
11	0x3ba48903	0.005021216
12	0xbd9487c3	-0.07252457
13	0xbbf8eb26	-0.0075963913
14	0x3e9f12aa	0.31068927
15	0x3c85692f	0.016285507
16	0x3d5c76a4	0.053824082
17	0x3da0e19e	0.07855533
18	0x3e727a4a	0.23679462
19	0x3e44394c	0.19162482
20	0x3d27f7ab	0.04100768
21	0x3d8aa832	0.06770362
22	0x3dd6a459	0.104805656
23	0xbdc2cdf0	-0.09511936
24	0x3e66195e	0.22470614
25	0x3e262e7b	0.16228668
26	0xbdc3accb	-0.09554442
27	0x3e12d0c6	0.14337453
28	0x3c200097	0.009765766
29	0x3e50c703	0.20388417
30	0x3d57bf3a	0.052672602
31	0x3dce0c21	0.10060907
32	0x3d0de92e	0.034646206
33	0x3e13c457	0.14430366
34	0x3e48c2ce	0.19605562
35	0x3e0384e1	0.12843658
36	0x3dcd35e8	0.100200474
37	0x3e301125	0.1719404
38	0x3bbec4d5	0.005821804
39	0x3d0229b7	0.031778064
40	0x3daae325	0.08344106
41	0x3e17966d	0.14803477
42	0x3d4a890a	0.049447097
43	0xbd0156b7	-0.03157684
44	0x3e6ccc16	0.23124728
45	0x3e1dfbfb	0.15428154
46	0x3db73fa8	0.08947688
47	0x3e5bef73	0.21478061
48	0xbcfc598b	-0.030804416
49	0xbcf8f67c	-0.03039097
50	0x3e032cf0	0.12810111
51	0x3e6f6a4b	0.23380391
52	0x3d92cec0	0.07168341
53	0xbc5bb3da	-0.013409579
54	0x3e49161f	0.19637345
55	0x3e8ecd06	0.27890795
56	0x3e28346d	0.16426249
57	0x3cc471a7	0.023979975
58	0x3da04466	0.07825546
59	0xbd6090b5	-0.054825503
60	0x3e2e3983	0.17014126
61	0xbd7b16b5	-0.061300952
62	0x3bd7ea88	0.0065892376
63	0x3e4d371b	0.20040552
64	0xbce9cd14	-0.028540172
65	0x3caedf62	0.021346752
66	0x3e210136	0.15723118
67	0x3e4da84a	0.20083728
68	0x3e8b4a86	0.27205294
69	0x3d175f2b	0.036955994
70	0x3e021703	0.12704091
71	0x3d9e5b31	0.07732237
72	0x3db637d2	0.08897366
73	0x3cc548f2	0.024082635
74	0x3e042a71	0.12906815
75	0x3e78f636	0.24312672
76	0xbc10b90c	-0.008833181
77	0x3e351ba6	0.17686328
78	0xbcac1335	-0.021005252
79	0x3e192880	0.14956856
80	0x3da41c5b	0.08013221
81	0x3e2cb7ea	0.16867033
82	0x3d8a2eba	0.06747194
83	0x3dc6b89a	0.09703179
84	0x3e77802b	0.24169986
85	0x3e3b58a1	0.18295528
86	0x3e35a0b7	0.17737089
87	0x3e0ee628	0.13954985
88	0x3d59cb86	0.05317261
89	0xbc84df42	-0.016219739
90	0x3ca83011	0.020530732
91	0x3c250e2d	0.010074181
92	0xbd93b022	-0.07211329
93	0xbd54c491	-0.051945273
94	0x3e2e62be	0.17029855
95	0xbd4d8ddd	-0.05018412
96	0x3e5c1dd2	0.2149575
97	0x3ca8b5a6	0.02059443
98	0x3e070e3c	0.13189024
99	0x3dcc3ff5	0.09973136
100	0x3d9416c4	0.07230905
101	0x3d4f24d6	0.05057224
102	0x3dcc40a0	0.09973264
103	0x3e170687	0.14748584
104	0xbd736983	-0.059426796
105	0x3d4ff56f	0.050771173
106	0x3d0228fb	0.031777363
107	0x3db00b65	0.08595923
108	0x3e17db5e	0.14829776
109	0x3d106030	0.03524798
110	0x3e0e0a3f	0.13871096
111	0x3d2fbc4b	0.04290418
112	0x3d4c3692	0.04985673
113	0xbdc4c46c	-0.09607777
114	0x3de9eb54	0.114218384
115	0xbd6d2d8a	-0.057904758
116	0x3bae3f20	0.0053175837
117	0xbb63d807	-0.0034766214
118	0x3d981d0a	0.07427414
119	0x3d1030a1	0.035202626
120	0x3e59f6b7	0.2128552
121	0xbd96f153	-0.07370248
122	0x3e3a0910	0.1816752
123	0x3e5ce227	0.21570645
124	0x3e2394dd	0.15974756
125	0x3e7778d3	0.24167185
126	0x3ce9e514	0.028551616
127	0x3e1566b9	0.14589967
128	0x3d8f562f	0.0699886
129	0x3e1fbade	0.15598628
130	0x3e1a114d	0.15045662
131	0x3d6c8b77	0.05775019
132	0x3e0c9379	0.13728131
133	0x3d274100	0.040833473
134	0x3de3d59a	0.11124726
135	0xbd143bd7	-0.03618988
136	0xbd0435f1	-0.032278005
137	0x3e11f6c6	0.14254293
138	0x3e02a4ef	0.1275823
139	0x3d503edc	0.050841197
140	0x3d991f32	0.07476653
141	0x3de2906e	0.11062704
142	0x3c72a3df	0.014809578
143	0xbd39e544	-0.04538466
144	0xbcc3e298	-0.02391176
145	0xbcf7fe6f	-0.03027269
146	0x3e3a2659	0.18178691
147	0x3ce2a424	0.027666159
148	0x3e0c4ef8	0.13701999
149	0x3cbe9040	0.023262143
150	0x3d42ee47	0.04759052
151	0x3dd30536	0.10303728
152	0x3da00299	0.078129955
153	0x3b8aa729	0.004231353
154	0x3c431ac2	0.011908235
155	0xbd4e2a74	-0.050333455
156	0x3de14ad0	0.110005975
157	0x3e3da0c6	0.18518361
158	0x3d0313c1	0.03200126
159	0x3d8953c0	0.06705427
160	0xbd1d0f8c	-0.038344905
161	0xbd3bac65	-0.045818705
162	0x3e1722c5	0.14759357
163	0x39a55af2	0.00031539012
164	0x3dc465e1	0.09589744
165	0xbc0c8649	-0.008576938
166	0x3c8a3290	0.016869813
167	0x3ddd8d49	0.10817964
168	0x3df85999	0.121264644
169	0x3e2ad41e	0.16682479
170	0xbd8a0701	-0.06739617
171	0xbca40416	-0.02002148
172	0x3da8dd44	0.08245328
173	0x3e180968	0.14847338
174	0x3cc05bbb	0.02348124
175	0xbd2c8336	-0.04211732
176	0x3d1d0e1e	0.03834354
177	0xbd460c95	-0.048351843
178	0x3c83761d	0.016047532
179	0xbd1fffe5	-0.0390624
180	0x3d8a056f	0.067393176
181	0x3d080eb8	0.033217162
182	0x3e1c93c7	0.15290748
183	0x3d96b743	0.07359173
184	0x3e09b7ad	0.13448973
185	0xbd981852	-0.07426514
186	0x3de4ba1f	0.11168312
187	0x3d9423a4	0.072333604
188	0xbd26edeb	-0.04075424
189	0x3cc968f1	0.024586173
190	0x3d40204c	0.0469058
191	0x3d060ba3	0.03272594
192	0x3daacb98	0.08339614
193	0x3da67c57	0.08129185
194	0x3d39c070	0.04534954
195	0xbbd0cbfb	-0.0063719726
196	0xbb9f88b3	-0.0048685907
197	0x3cd354cc	0.02579727
198	0xbd1dbb98	-0.03850898
199	0xbd970056	-0.07373111
200	0x3db24ec3	0.08706429
201	0x3ccc5cb1	0.024946542
202	0x3cb407e0	0.021976411
203	0x3dde5789	0.1085654
204	0x3ba665f3	0.0050780713
205	0x3c2e7e84	0.010650281
206	0x3dad2145	0.08453611
207	0x3ad67c40	0.0016363934
208	0x3d05a1aa	0.032624878
209	0x3d85a973	0.065264605
210	0x3d92842e	0.071541175
211	0xbd8b710d	-0.06808672
212	0x3e0d4c2f	0.13798593
213	0xbdc26d28	-0.09493476
214	0xbdc0781c	-0.09397909
215	0xbd82f32e	-0.06394039
216	0x3b8af128	0.004240174
217	0x3d225b57	0.03963789
218	0x3cb65b83	0.022260433
219	0x3db432d0	0.08798754
220	0xbda86922	-0.082231775
221	0x3d827d6c	0.063715786
222	0x3deb21b9	0.114810415
223	0x3e228f92	0.1587508
224	0xbb7b93b1	-0.0038387591
225	0x3d927167	0.07150536
226	0x3cfe297e	0.031025644
227	0x3d1b162b	0.037862938
228	0x3d2decd8	0.0424622
229	0xbd921326	-0.071325585
230	0x3dbc6b23	0.09200122
231	0x3ce5dedd	0.028060371
232	0x3d904f84	0.070464164
233	0x3d922bc9	0.071372576
234	0x3df70db0	0.120631576
235	0x3e0c93d7	0.13728271
236	0x3c5f0928	0.013613023
237	0x3db2fcff	0.087396614
238	0x3b42dce8	0.0029733721
239	0xbd679db8	-0.056546897
240	0x3cc581a3	0.024109667
241	0x3e50208b	0.20324914
242	0x3cbda796	0.0231512
243	0xbaa5c4ef	-0.0012647192
244	0x3d9d4214	0.07678619
245	0x3c7c1704	0.015386347
246	0xbd432729	-0.047644768
247	0xbd051a05	-0.032495517
248	0x3d743bd1	0.059627358
249	0x3e14f11e	0.14545104
250	0x3c1c419d	0.009537128
251	0x3d166b47	0.0367234
252	0x3d3bce67	0.045851137
253	0x3e0fcd84	0.14043242
254	0x3e019f65	0.1265846
255	0x3d561f5e	0.052276008

lstm.bias_hh_l0 f4 [512]
0	0x3d9c1a62	0.076222196
1	0x3d32d3c1	0.043658976
2	0x3cf708ae	0.030155506
3	0x3e1c792c	0.15280598
4	0x3e2d9725	0.16952188
5	0xbc49a46c	-0.012307268
6	0x3de06c3e	0.109581456
7	0x3dd89f1b	0.10577222
8	0x3e287786	0.16451845
9	0xbd0c0ebd	-0.034193743
10	0x3e2f0f16	0.17095599
11	0x3d8e831b	0.069586
12	0x3c53e7f7	0.012933723
13	0x3d326b01	0.043559078
14	0x3e597e04	0.21239477
15	0x3d067cd0	0.032833874
16	0x3dd4928e	0.103795156
17	0x3e1862d8	0.14881456
18	0x3e41980a	0.18905655
19	0x3d515a41	0.051111463
20	0x3d1ecdc6	0.03877046
21	0x3d7a31ba	0.06108258
22	0x3db9fadf	0.09081053
23	0xbd32ab32	-0.043620296
24	0x3e05b891	0.13058688
25	0x3d59df2f	0.05319136
26	0xbd61aafa	-0.055094697
27	0x3e10ba5c	0.1413359
28	0x3e139eb7	0.14416014
29	0x3e55c8a1	0.20877315
30	0x3e237f50	0.15966535
31	0x3da730b2	0.08163585
32	0x3cae5a48	0.021283284
33	0x3d86234c	0.06549701
34	0x3d8d9c75	0.069146074
35	0x3e011865	0.12606962
36	0x3d1c81e4	0.03820981
37	0x3e0ac1b1	0.1355045
38	0xbce1f8d8	-0.027584478
39	0xbcefa2c6	-0.029252421
40	0x3e5bc091	0.21460177
41	0x3dbaa31d	0.09113143
42	0xbd48a6dc	-0.048987255
43	0xba21c592	-0.0006171103
44	0x3e544afd	0.20731731
45	0x3da9acc9	0.08284909
46	0x3dbac8c1	0.09120322
47	0x3dc94d1e	0.09829162
48	0x3d731b04	0.059351936
49	0xbd292086	-0.041290782
50	0x3de93031	0.11386145
51	0x3ea4da46	0.3219778
52	0x3df6cefd	0.12051199
53	0xbd670304	-0.05639936
54	0x3d90c4a1	0.07068754
55	0x3ea309f6	0.31843537
56	0x3e104562	0.14088967
57	0x3ca7b8a3	0.020473784
58	0x3bd986f3	0.0066384017
59	0xbcb7f29a	-0.022454549
60	0x3d99564a	0.074871615
61	0xba4d6fdb	-0.0007836797
62	0xbda71eeb	-0.08160194
63	0x3d7c0f1c	0.061537847
64	0xbd2c1fea	-0.042022623
65	0x3ba89b35	0.0051454552
66	0x3e8100ed	0.2519602
67	0x3e39cdc2	0.18144897
68	0x3e85f282	0.2616158
69	0x3dad3dd7	0.08459061
70	0x3e054a84	0.13016707
71	0x3e0bed10	0.13664651
72	0x3ca2242f	0.019792644
73	0x3c63d9c7	0.013906903
74	0x3d9a8d0d	0.075464346
75	0x3de70173	0.11279573
76	0xbae3b488	-0.0017372528
77	0x3e22316a	0.15839162
78	0x3cb580f3	0.022156214
79	0x3d92aac2	0.07161476
80	0x3e1d3347	0.15351592
81	0x3e29f3e1	0.16596939
82	0x3d58ff8f	0.052978095
83	0x3d327492	0.0435682
84	0x3d8f03bd	0.06983135
85	0x3e58db74	0.21177465
86	0x3e239318	0.1597408
87	0x3dfe89a6	0.12428598
88	0x3db80ece	0.08987199
89	0xbdbbeb6b	-0.09175762
90	0x3d98be02	0.07458116
91	0xbc145b51	-0.009054975
92	0xbd2b7857	-0.041862812
93	0x3cad5ef7	0.021163447
94	0x3e5096bd	0.20370002
95	0x3d4e02c7	0.050295617
96	0x3eb56e42	0.35435683
97	0x3d5f4f11	0.054518763
98	0x3dda3431	0.10654486
99	0x3dfbeef2	0.123014346
100	0x3e1f65b8	0.15566146
101	0x3e0f3698	0.1398567
102	0x3d5a005b	0.053222995
103	0x3de35aaf	0.11101281
104	0xbc8ad3d4	-0.01694671
105	0x3cd2c9a7	0.025730921
106	0x3da42fdc	0.08016941
107	0x3e377819	0.17916907
108	0x3da23832	0.07920875
109	0x3da32ef9	0.07967944
110	0x3dc6d955	0.097094215
111	0x3db792a1	0.08963514
112	0x3d910873	0.0708169
113	0xbe2e97ec	-0.17050141
114	0x3c651bda	0.013983691
115	0xbc1a3df6	-0.009414187
116	0x3d68676e	0.056739263
117	0x3e164684	0.14675337
118	0x3e030fba	0.12798968
119	0x3d83655b	0.064158164
120	0x3da9247f	0.08258914
121	0xbdce49d4	-0.10072675
122	0x3db0e0b7	0.08636611
123	0x3e3b04d0	0.18263555
124	0x3e032e41	0.12810613
125	0x3dd19a7d	0.102345444
126	0x3d1c1ad2	0.038111515
127	0x3e192c1a	0.1495823
128	0x3d8d72d2	0.06906666
129	0x3d7b3e1b	0.061338525
130	0x3df56cae	0.1198362
131	0x3e02c48f	0.12770294
132	0x3d3a0949	0.04541901
133	0x3b8d22c8	0.0043071248
134	0x3df28df3	0.11843481
135	0x3c487c15	0.012236615
136	0x3dd0344e	0.10166226
137	0x3e122afa	0.14274207
138	0x3e422c4a	0.18962207
139	0xbd081d92	-0.033231325
140	0xbd27b04d	-0.040939618
141	0x3dacf72f	0.08445584
142	0x3e1de08c	0.15417689
143	0x3d5f51c1	0.054521326
144	0xbd056e99	-0.032576177
145	0x3dd61836	0.104538366
146	0x3dcfa24c	0.101383775
147	0x3cf4a743	0.029864913
148	0xbb1cf4ba	-0.002394958
149	0x3d710b8d	0.058848906
150	0x39898a5a	0.00026233756
151	0x3d0265b1	0.03183526
152	0x3c370191	0.011169807
153	0x3debca7f	0.115132324
154	0xbd31b2f9	-0.043383572
155	0xbd77ab23	-0.060465943
156	0x3dc53ba8	0.09630519
157	0x3dd7d794	0.10539165
158	0x3c92a313	0.017900025
159	0x3c7435d9	0.014905416
160	0xbd128219	-0.035768602
161	0x3cd22c4f	0.025655894
162	0x3e50a57f	0.20375632
163	0xbd67e110	-0.05661112
164	0x3d2bc0d3	0.04193194
165	0x3d8ade04	0.06780627
166	0x3dfe955c	0.12430832
167	0x3df65b29	0.12029106
168	0x3dda266e	0.10651861
169	0x3db641d7	0.08899277
170	0xbcdeef38	-0.027213678
171	0x3da22a5e	0.07918237
172	0xbc2b0ea4	-0.010440502
173	0x3e26b844	0.1628123
174	0xbd2d72fe	-0.042345993
175	0x3db08884	0.08619788
176	0xbd527790	-0.051383555
177	0x3d157ece	0.036497883
178	0xbd13a3bb	-0.036044817
179	0xbda4ce4c	-0.080471605
180	0x3dca8745	0.09889082
181	0x3dbe69f4	0.09297553
182	0x3de8f1a2	0.11374213
183	0xbd126c3a	-0.035747744
184	0x3d89b7f9	0.06724543
185	0x3cdba1f9	0.026810633
186	0x3d9442ac	0.07239279
187	0x3dba3bb5	0.090934195
188	0x3d4033de	0.046924464
189	0x3d2f1401	0.042743687
190	0x3dcc595b	0.09977981
191	0x3db3bc9c	0.08776209
192	0x3db77754	0.08958307
193	0xbb686dbd	-0.00354658
194	0x3da8d1a9	0.082431145
195	0xbd0470a6	-0.032333992
196	0x3b0d4fcc	0.0021562455
197	0x3dc868bd	0.09785602
198	0x3c9375c0	0.018000484
199	0x3d613d53	0.054990124
200	0xbcad2f3c	-0.021140687
201	0x3d817723	0.06321552
202	0x3e1253bd	0.14289756
203	0xbd037e0c	-0.03210263
204	0x3d15c9ec	0.03656952
205	0xbd87eb33	-0.066366576
206	0x3d2f1883	0.042747986
207	0xbba51933	-0.0050384044
208	0x3aa123b9	0.0012293971
209	0x3d9ca8b2	0.076493636
210	0x3e5f08f7	0.21780764
211	0xba8021b5	-0.000977567
212	0x3e38d504	0.18050009
213	0xbd8990c3	-0.06717064
214	0xbd96f126	-0.07370214
215	0x3cd6921d	0.02619272
216	0x3dd2dd56	0.10296123
217	0xbd980432	-0.07422675
218	0x3d6f8b6e	0.05848258
219	0x3d86ac54	0.06575838
220	0x3bf02113	0.0073281615
221	0xbcebfde3	-0.028807586
222	0x3e07cef1	0.13262536
223	0x3de3f156	0.111300156
224	0xbcdea2c1	-0.027177216
225	0x3d81924f	0.06326734
226	0x3d76d20e	0.060258918
227	0xbd03cf78	-0.03218028
228	0x3c9f6ba8	0.019460514
229	0x3cf41d26	0.029799055
230	0xbcb3d14c	-0.021950386
231	0x3de92c2b	0.113853775
232	0x3d8abac0	0.06773901
233	0xbd1a9d9d	-0.037747968
234	0x3db863f4	0.090034395
235	0x3d0304ca	0.03198699
236	0x3dd126fb	0.10212513
237	0x3d592cb5	0.05302115
238	0xbd8a5d93	-0.06756129
239	0xbd0ba342	-0.03409124
240	0x3d31ef8f	0.04344135
241	0x3dd95d7a	0.10613532
242	0x3d3580a5	0.044312138
243	0x3df02fb9	0.117278524
244	0xbc0c3711	-0.008558051
245	0xbc3e842b	-0.011628191
246	0x3d993918	0.07481593
247	0x3ce97b36	0.028501134
248	0x3d448c5c	0.04798542
249	0x3e204c45	0.15654095
250	0xbd1017d8	-0.03517899
251	0x3d8520af	0.065003745
252	0xbda412d5	-0.080114044
253	0x3dd29ce6	0.10283832
254	0x3d227c7d	0.039669503
255	0x3df6d4f3	0.120523356

lstm.weight_ih_l0_reverse f4 [512, 1]
0	0xbd87f3ad	-0.06638274
1	0xbe4f1da2	-0.20226148
2	0x3d41cbec	0.047313616
3	0xbe02a1c8	-0.12757027
4	0x3d31fb03	0.043452274
5	0x3cbd61fe	0.023118015
6	0xbd83fb2a	-0.0644439
7	0x3d952dfb	0.07284161
8	0xbd89da92	-0.06731142
9	0x3d00e672	0.03146977
10	0x3d8d6a98	0.06905097
11	0xbe5a5496	-0.2132133
12	0xbdfc3024	-0.123138696
13	0xbe1d372c	-0.15353078
14	0x3e2627db	0.16226141
15	0xbdbf0ebf	-0.093289845
16	0x3e3cd564	0.18440777
17	0x3d34279b	0.043983083
18	0x3c838eba	0.016059268
19	0x3d78798a	0.060662784
20	0xbce04ac1	-0.027379395
21	0x3dbe77b2	0.09300174
22	0xbe20fc46	-0.15721235
23	0xbd914da7	-0.07094889
24	0x3f18fcb6	0.59760606
25	0x3d91ca24	0.071186334
26	0xbd9bca49	-0.07606942
27	0x3da3c1e1	0.07995964
28	0x3df6a23f	0.12042665
29	0x3d882519	0.06647701
30	0x3da44a7b	0.080220185
31	0x3dc438c1	0.095811374
32	0x3e3b5d11	0.18297221
33	0x3de5d1ea	0.112216786
34	0xbdace202	-0.08441545
35	0xbd36dffd	-0.044647206
36	0x3e9fc912	0.31208092
37	0xbdbd4169	-0.092409916
38	0x3bddb6d8	0.0067661814
39	0x3cf67d8b	0.03008916
40	0x3e41c2ad	0.18921919
41	0xbd9ca7fb	-0.07649227
42	0xbdb25cbd	-0.08709095
43	0x3d912fdf	0.07089209
44	0xbd709953	-0.05873997
45	0x3e664cf5	0.22490294
46	0xb9f436e4	-0.00046580203
47	0xbe37d7fd	-0.17953487
48	0x3e4fa952	0.20279434
49	0x3d9be034	0.07611123
50	0x3e11f996	0.14255366
51	0x3b229e64	0.0024813646
52	0xbdc886bc	-0.097913235
53	0xbdaa32c4	-0.08310464
54	0x3cd6fca2	0.026243512
55	0x3d650cb6	0.055920325
56	0xbd5deda7	-0.05418172
57	0xbd9f6910	-0.07783711
58	0xbdf89aaa	-0.12138875
59	0x3dd40336	0.10352175
60	0xbe211133	-0.15729217
61	0x3c90c9ac	0.01767429
62	0x3dc22163	0.09479024
63	0x3d83a502	0.06427957
64	0xbe4ee590	-0.20204759
65	0xbdbe2142	-0.09283687
66	0xbe03bc3c	-0.12864774
67	0x3d6b5824	0.057457104
68	0xbd50923e	-0.050920717
69	0x3d7b61cf	0.061372574
70	0x3d00c6e8	0.03143969
71	0x3d71d0e1	0.059037093
72	0x3d835d04	0.06414226
73	0x3c8d777f	0.017268894
74	0xbdb59538	-0.08866352
75	0x3db1c3ef	0.086799495
76	0x3f0ee5a6	0.55819166
77	0x3c9d7915	0.019222775
78	0x3e46c2c9	0.19410242
79	0x3e0f3361	0.13984443
80	0xbd8daf3b	-0.06918188
81	0x3d303d66	0.043027304
82	0xbe0341aa	-0.12818018
83	0x3d570c19	0.05250177
84	0xbe7a3900	-0.24435806
85	0x3d8c7d4b	0.06859835
86	0x3d28134a	0.04103402
87	0x3e008f10	0.12554574
88	0x3de248ec	0.11049065
89	0x3cc97b84	0.02459503
90	0xbe055529	-0.13020767
91	0xbe2035b1	-0.15645482
92	0xbd735ac8	-0.059412748
93	0x3d973d3c	0.073847264
94	0x3bbb6b77	0.005719598
95	0x3de60635	0.11231653
96	0xbe14dfae	-0.14538452
97	0x3f844f45	1.0336691
98	0xbdd0c6b5	-0.1019415
99	0xbdab2c50	-0.08358061
100	0x3dc7ddc5	0.09759096
101	0xbd62bbde	-0.055354945
102	0x3c7078bf	0.014677226
103	0xbdaeacb1	-0.08529032
104	0x3d98abfc	0.074546784
105	0x3e920447	0.28518888
106	0xbdd27906	-0.1027699
107	0xbdc2c566	-0.09510307
108	0x3dd84b1a	0.105611995
109	0x3d836435	0.06415597
110	0xbd93e56c	-0.07221493
111	0xbd3b1a97	-0.045679655
112	0xbddd2ac5	-0.10799173
113	0x3ebc9205	0.36830154
114	0xbd004c24	-0.031322613
115	0x3dcd6935	0.10029832
116	0xbd84690e	-0.0646535
117	0x3d4637d6	0.048393093
118	0xbd87d97f	-0.06633281
119	0xbe0d3503	-0.13789754
120	0x3dcc943a	0.099892095
121	0xbd8cd1f3	-0.06875982
122	0xbc845f68	-0.016158774
123	0x3da29ba2	0.07939841
124	0x3c9e4ac4	0.01932276
125	0x3de10468	0.109871686
126	0xbe10ea5d	-0.14151902
127	0xbd2b3732	-0.041800685
128	0x3d26c919	0.040719125
129	0xbd1a3bed	-0.037654806
130	0x3e3bcbd9	0.1833948
131	0x3db22086	0.086976096
132	0x3d52b825	0.051445145
133	0x3dd6cd29	0.1048835
134	0xbd4145f9	-0.04718587
135	0xbe0966a8	-0.13418067
136	0x3e0ea366	0.13929519
137	0x3d20a4ca	0.039219655
138	0xbda22c6c	-0.07918629
139	0xbcacff6f	-0.021117894
140	0x3d513f90	0.05108601
141	0x3e368ae3	0.17826419
142	0x3d9af47d	0.07566164
143	0x3e900a59	0.28132895
144	0x3d0b1516	0.033955656
145	0xbdb1d810	-0.08683789
146	0x3c8ae83b	0.01695644
147	0xbcbc4de0	-0.022986352
148	0x3df75ff6	0.1207885
149	0x3d59ee68	0.053205878
150	0x3de17c14	0.11009994
151	0x3da55b10	0.080740094
152	0xbd550d3a	-0.052014567
153	0xbddd92fd	-0.108190514
154	0xbcf8e528	-0.030382708
155	0xbe2edb3e	-0.17075822
156	0x3da2a5c0	0.079417706
157	0xbe4c4ca8	-0.19951117
158	0x3cf431ea	0.029808957
159	0xbe4463b1	-0.19178654
160	0x3d84f40b	0.0649186
161	0xbe937529	-0.28800324
162	0xbdba27cc	-0.09089622
163	0x37f3d7ea	2.90684e-05
164	0x3d5adec8	0.053435117
165	0x3d4d3e01	0.05010796
166	0x3cfcf4cb	0.030878445
167	0xbda49722	-0.08036639
168	0x3ce1f24e	0.02758136
169	0x3ccac398	0.02475147
170	0x3d120919	0.035653207
171	0xbdf2375e	-0.11826967
172	0x3e10af6c	0.14129418
173	0x3e3390e7	0.17535745
174	0xbc891fb2	-0.016738746
175	0xbc6369b5	-0.013880183
176	0x3d6fe4fe	0.058567993
177	0xbd9bf82e	-0.07615696
178	0xbda99406	-0.08280186
179	0x3e2b0571	0.16701294
180	0xbc5fafd1	-0.013652758
181	0xbdb0d690	-0.086346745
182	0xbdf7bb5f	-0.12096285
183	0xbd3e48fa	-0.046456315
184	0xbc81a01e	-0.01582342
185	0xbda4b09e	-0.080414996
186	0x3db3ffb6	0.08789007
187	0xbc16ee62	-0.009212108
188	0xbe40774b	-0.18795507
189	0x3ec481b3	0.38380203
190	0xbcefafed	-0.029258693
191	0x3d84a8bd	0.06477497
192	0xbc1653fc	-0.009175297
193	0x3e0493b3	0.12946968
194	0xbd0ef7e5	-0.03490438
195	0xbcbd79e3	-0.02312941
196	0xbda877ad	-0.08225951
197	0xbcd5101f	-0.026008664
198	0x3d771fa7	0.06033292
199	0xbd09d204	-0.033647552
200	0x3d14b14c	0.036301896
201	0x3e650802	0.22366336
202	0xbd636783	-0.05551864
203	0x3d15770e	0.036490493
204	0xbd1a0751	-0.037604634
205	0x3e175eae	0.14782211
206	0x3d94013f	0.072268
207	0xbdc7c4cc	-0.09754333
208	0x3d8987c7	0.067153506
209	0x3c10d6d6	0.008840283
210	0x3e1a080a	0.15042129
211	0xbe2a52aa	-0.16633096
212	0x3da7239e	0.0816109
213	0x3d40dcc6	0.047085546
214	0xbd2aefbb	-0.04173253
215	0x3d83fee9	0.06445105
216	0x3d90ebb6	0.07076208
217	0x3e72fffb	0.23730461
218	0x3dc3a56d	0.09553037
219	0xbc04c278	-0.008103006
220	0xbd741003	-0.059585582
221	0xbdc4510d	-0.09585772
222	0xbd9a4622	-0.07532908
223	0x3d66b681	0.056326393
224	0x3cceda34	0.025250532
225	0xbb95aa25	-0.004567402
226	0x3b498a9c	0.0030752784
227	0x3b985d6c	0.0046498086
228	0x3c92f84b	0.017940661
229	0x3dd4fedc	0.10400173
230	0x3c4621d4	0.012093026
231	0x3e048f67	0.12945329
232	0x3e0e552a	0.13899675
233	0xbd86dbf3	-0.06584921
234	0x3d8cabf1	0.06868733
235	0x3e00b364	0.12568432
236	0xbdca3215	-0.09872834
237	0x3df9e1d6	0.12201278
238	0xbd9310b9	-0.07180924
239	0xbc6a94f1	-0.014317737
240	0x3dfdfc62	0.12401654
241	0x3d6f3fd0	0.058410466
242	0xbdbb7c73	-0.09154596
243	0xbe4e6994	-0.20157462
244	0x3df3a8e4	0.11897448
245	0x3d6bbcd6	0.057553135
246	0xbce0ada6	-0.027426552
247	0x3e524f4d	0.20538063
248	0x3d4b3193	0.049607825
249	0x3dc831ea	0.09775145
250	0x3e10a599	0.1412567
251	0xbe3d68c1	-0.18496992
252	0xbccee501	-0.025255682
253	0x3e1932ed	0.14960833
254	0xbe0aee88	-0.13567555
255	0x3e38e66b	0.18056647

lstm.weight_hh_l0_reverse f4 [512, 128]
0	0xbdde528a	-0.10855587
1	0xbd13ea8e	-0.03611236
2	0xbd814c46	-0.06313376
3	0xbe25e163	-0.1619926
4	0xbd8c6fe4	-0.06857279
5	0x3d9911ac	0.07474074
6	0x3d8dac6e	0.06917654
7	0x3c3c773d	0.011503038
8	0xbdef520c	-0.11685571
9	0xbdaa6867	-0.083206944
10	0xbd162df7	-0.03666493
11	0x3cdf472b	0.027255615
12	0x3b6d7f28	0.003623912
13	0x3ddb91bf	0.10721158
14	0xbc4c5122	-0.012470515
15	0x3e1d8c6b	0.15385596
16	0xbd884ba6	-0.06655054
17	0xbd40d2ee	-0.04707616
18	0xbd3d2290	-0.04617554
19	0x3d69845f	0.057011005
20	0xbe4ca3f9	-0.19984426
21	0xbd877e9d	-0.066159464
22	0x3db9032d	0.09033809
23	0xbb842e9e	-0.0040338775
24	0x3dce03b6	0.100593016
25	0xbd98d674	-0.07462779
26	0xbd689db7	-0.056791034
27	0x3d2d8513	0.042363238
28	0xbd70cdaf	-0.058789905
29	0x3cdd504d	0.02701583
30	0xbe0716d7	-0.13192306
31	0x3ccf8cbd	0.025335664
32	0x3e6ae14f	0.22937511
33	0xbb6bc29f	-0.0035974158
34	0xbdc4b1b3	-0.09604206
35	0xbdd1930d	-0.10233126
36	0xbc9c41bf	-0.019074319
37	0x3d383454	0.04497178
38	0xbbf01a06	-0.007327321
39	0x3d040feb	0.032241743
40	0x3d343836	0.04399892
41	0x3d8cf796	0.06883161
42	0x3d60715e	0.054795615
43	0x3d04518e	0.03230434
44	0xbe81ef4e	-0.25377887
45	0xbc31e8e3	-0.010858747
46	0x3d1a7302	0.037707336
47	0xbe4a2995	-0.19742425
48	0x3befd5f0	0.0073192045
49	0xbc16368c	-0.009168278
50	0xbd519549	-0.05116776
51	0x3e6d5fd6	0.2318109
52	0x3e3d4ebc	0.18487066
53	0xba3220ea	-0.0006795066
54	0x3dcd9758	0.10038632
55	0xbcf5c96c	-0.030003272
56	0xbea31d9a	-0.31858522
57	0x3cc9ff17	0.02465777
58	0x3eb32397	0.3498809
59	0xbe15f599	-0.1464447
60	0xbe0f628a	-0.14002433
61	0x3d9b0f0b	0.075712286
62	0x3dc16945	0.09443907
63	0xbd5d6f1b	-0.054061037
64	0xbe203953	-0.15646867
65	0x3d886095	0.066590466
66	0x3ca0a79e	0.019611176
67	0x3d8adcb0	0.06780374
68	0xbd5da084	-0.054108158
69	0x3df042ca	0.11731489
70	0xbd020506	-0.031743072
71	0xbcaa9bb3	-0.020826196
72	0x3da785bd	0.081798054
73	0x3e3c9ef1	0.18420006
74	0x3db31757	0.08744686
75	0xbd8f9948	-0.07011658
76	0x3d30c82d	0.043159653
77	0x3c774efc	0.015094515
78	0xbd8f5b19	-0.069997974
79	0xbd13df05	-0.03610136
80	0x3eb99826	0.36248893
81	0x3d055a22	0.03255666
82	0xbc0dcd0e	-0.008654846
83	0xbdc0d917	-0.094164066
84	0x3ce68adb	0.028142383
85	0xbb0f4151	-0.0021859
86	0x3d93151e	0.07181762
87	0x3c93ac73	0.018026566
88	0xbcedde0b	-0.029036542
89	0x3d987266	0.07443695
90	0xbdea5086	-0.1144114
91	0xbd038df0	-0.032117784
92	0xbe3266db	-0.17422049
93	0xbd51dcb2	-0.051235862
94	0xbe3e92dc	-0.1861071
95	0x3dc24628	0.094860375
96	0x3d15292b	0.036416214
97	0x3d93a135	0.07208482
98	0x3d083e47	0.033262517
99	0xbd8667f8	-0.06562799
100	0x3ddc77c0	0.10765028
101	0xbc1fbada	-0.009749139
102	0xbdc7b4d1	-0.09751285
103	0xbdf9b5c6	-0.12192874
104	0xbd1d557f	-0.038411614
105	0xbc608921	-0.013704569
106	0x3db743ad	0.08948455
107	0xbce29c43	-0.027662402
108	0x3db5324a	0.088474825
109	0xbe15f1bb	-0.14642994
110	0xbce0b327	-0.027429176
111	0xbbe49a08	-0.00697637
112	0x3e9ed871	0.31024507
113	0xbd67fd5b	-0.056638103
114	0x3d9056fa	0.070478395
115	0x3ce45416	0.027872127
116	0xbdf53128	-0.119722664
117	0xbc8f137d	-0.017465347
118	0xbd9615e8	-0.07328397
119	0xbe801a7f	-0.25020215
120	0xbd9b8bf1	-0.07595051
121	0x3ea263a5	0.31716648
122	0xbcda98fd	-0.026684279
123	0xbbdec9de	-0.006798967
124	0xbe44a5ea	-0.19203916
125	0xbd789132	-0.060685344
126	0x3ddf36f1	0.10899151
127	0x3d026096	0.031830393
128	0x3c5d7bc4	0.013518278
129	0xbb8cbfff	-0.0042953487
130	0xbe2696ff	-0.16268538
131	0x3de0639a	0.109564975
132	0x3e5f5016	0.21807894
133	0x3d997319	0.07492656
134	0xbd7194fc	-0.058979973
135	0x3bca6480	0.0061765313
136	0x3e23373e	0.15939042
137	0xbd1fc1cd	-0.039003182
138	0x3d67e6e4	0.05661668
139	0xbe09837a	-0.1342906
140	0x3e4d2180	0.2003231
141	0xbe3a5827	-0.1819769
142	0x3ca0cc4c	0.019628666
143	0xbdeebd4d	-0.116572
144	0xbe13afc0	-0.14422512
145	0xbde4561d	-0.11149237
146	0xbe18788f	-0.1488974
147	0x3b9b4460	0.0047383755
148	0xbd1e3f52	-0.038634606
149	0x3d304fb1	0.04304475
150	0xbdddf030	-0.10836828
151	0xbe53ba30	-0.20676494
152	0x3d6967c0	0.05698371
153	0x3db217b5	0.08695928
154	0x3e2dd385	0.1697522
155	0x3cae46fb	0.02127408
156	0xbdaa84c8	-0.08326107
157	0xbcc5af91	-0.024131568
158	0xbe270afb	-0.16312782
159	0x3e16964c	0.14705771
160	0x3e439070	0.19098067
161	0xbe0847fa	-0.13308707
162	0xbdfd724b	-0.12375315
163	0x3dd1e070	0.10247886
164	0xbdbb0e61	-0.09133602
165	0x3d893469	0.066994496
166	0x3b927fc4	0.0044707973
167	0xbe1fbc5e	-0.155992
168	0xbdfec5c1	-0.12440062
169	0x3bb5da07	0.0055496725
170	0xbea59b28	-0.32344937
171	0x3d12f6ee	0.03588002
172	0x3b88976a	0.0041684406
173	0xbc9534cf	-0.018213658
174	0xbe05208a	-0.13000694
175	0x3cf3bc1b	0.029752782
176	0xbe1a3a2a	-0.1506125
177	0xbe205e0b	-0.15660875
178	0xbdc5ba78	-0.09654707
179	0x3e091a97	0.1338905
180	0xbe002fab	-0.12518184
181	0x3e85814f	0.26075217
182	0xbe5710ec	-0.21002549
183	0xbe65106d	-0.22369547
184	0xbc630d81	-0.0138582
185	0x3e6f9a3f	0.23398684
186	0xbe26291d	-0.16226621
187	0xbd716919	-0.05893812
188	0x3dd5b8ff	0.10435676
189	0x3d32860c	0.04358487
190	0xbdb31412	-0.087440625
191	0xbd4ae6b5	-0.049536426
192	0x3d8e7cc4	0.06957391
193	0xbdeb593e	-0.11491631
194	0x3de73391	0.112891324
195	0xbe0e6df0	-0.13909125
196	0x3e035236	0.1282433
197	0xbda38c9b	-0.07985803
198	0xbe071463	-0.1319137
199	0x3cc71aa4	0.024304695
200	0x3cfa3b74	0.030545928
201	0x3d82aadd	0.06380246
202	0xbe53c0a3	-0.20678954
203	0x3d401019	0.046890352
204	0xbe297888	-0.16549885
205	0x3d8cfb67	0.06883889
206	0x3e1c437d	0.1526012
207	0xbcbe1f6d	-0.023208344
208	0x3d07b438	0.033130854
209	0x3e88f740	0.26751137
210	0x3d001e79	0.03127906
211	0x3d448805	0.04798128
212	0x3eb4251d	0.35184565
213	0x3e83c9f9	0.2574003
214	0xbe2bde27	-0.16783963
215	0xbca16c0c	-0.019704841
216	0xbd78cd49	-0.06074265
217	0x3e58dffb	0.21179192
218	0x3d9a3ec0	0.075315
219	0x3d98b73a	0.07456823
220	0x3d8c7352	0.06857933
221	0x3e38fc7c	0.18065065
222	0x3e82d526	0.25553244
223	0xbcecfb5b	-0.02892845
224	0x3dcfada0	0.10140538
225	0xbde57b9c	-0.11205217
226	0xbdc4c2a7	-0.096074395
227	0xbdf75564	-0.12076834
228	0x3d2c1796	0.04201468
229	0x3e26620b	0.16248338
230	0x3e393465	0.18086393
231	0xbdfc138b	-0.12308415
232	0x3d9f6d60	0.077845335
233	0xbbe12946	-0.0068713753
234	0x3b89e547	0.00420824
235	0x3e5ca2f2	0.21546534
236	0xbe0fe216	-0.14051089
237	0xbd7c8bea	-0.06165687
238	0x3dea80dd	0.1145036
239	0x3ad60488	0.0016328255
240	0xbd50fb18	-0.05102071
241	0xbe0bd5eb	-0.13655822
242	0x3c45cc45	0.012072627
243	0xbe08cef1	-0.13360192
244	0x3cf40b18	0.029790446
245	0x3e206f69	0.156675
246	0x3cb0b399	0.021570014
247	0x3d9bf51b	0.076151095
248	0xbe12dca3	-0.14341979
249	0xbd2ee7c4	-0.042701498
250	0x3e266648	0.16249955
251	0x3d103bc0	0.035213232
252	0x3d0ba838	0.034095973
253	0xbd8523c4	-0.065009624
254	0xbe788ed4	-0.24273235
255	0x3cc0a8f1	0.023518058

lstm.bias_ih_l0_reverse f4 [512]
0	0xbd43ecc5	-0.047833223
1	0x3e2d865c	0.16945785
2	0x3e2f341f	0.17109726
3	0x3d4b0929	0.049569283
4	0x3e7268d8	0.23672807
5	0x3e3f1103	0.18658833
6	0x3e445ea2	0.19176725
7	0x3dd69ff3	0.10479727
8	0x3c9a6d24	0.01885087
9	0x3e4370bd	0.19085975
10	0x3d18628c	0.037203357
11	0x3d881159	0.06643934
12	0xbbfcd5a2	-0.0077158967
13	0xbdb46834	-0.08808938
14	0x3cd8fc5e	0.026487526
15	0xbe1d4bea	-0.1536099
16	0x3e58383f	0.21115206
17	0x3e456f7e	0.19280812
18	0x3e687603	0.22701268
19	0x3df5196e	0.11967741
20	0x3d32ceca	0.04365424
21	0x3e0ab4a9	0.13545479
22	0x3d1a3b93	0.03765447
23	0x3e5b5892	0.21420506
24	0x3d8c8c30	0.06862676
25	0x3d3f4a62	0.046701796
26	0x3da5723d	0.0807843
27	0xbd6e63a1	-0.058200482
28	0x3e0b871e	0.13625762
29	0x3dd8dd4f	0.10589086
30	0x3e2c47b7	0.16824232
31	0xbd5c34e4	-0.053761378
32	0x3c0150bb	0.007892783
33	0xbd84edb9	-0.064906545
34	0x3e516b37	0.20451055
35	0x3de584c3	0.11206963
36	0x3de55c03	0.111991905
37	0xbbf0f48b	-0.0073533705
38	0x3e3dfae2	0.18552735
39	0x3e17185c	0.14755386
40	0x3e065719	0.13119163
41	0x3e46bf7b	0.19408982
42	0x3e188eb3	0.14898185
43	0xbd438132	-0.047730632
44	0xbda333e9	-0.079688855
45	0x3e0fe035	0.14050372
46	0x3dfe1412	0.12406172
47	0x3e058694	0.13039619
48	0x3e34676c	0.17617577
49	0x3e38b799	0.18038787
50	0xbc70d76c	-0.014699798
51	0x3e4a8953	0.19778948
52	0x3e059f6a	0.13049093
53	0x3da2be19	0.079464145
54	0x3cb95afa	0.022626389
55	0x3dac4836	0.08412211
56	0x3d9ed8f5	0.07756225
57	0x3df2500c	0.11831674
58	0xbc02d14d	-0.0079844715
59	0x3dad7b66	0.08470802
60	0x3df61d1c	0.12017271
61	0x3e8257ef	0.25457713
62	0x3dba34a1	0.090920694
63	0x3dece812	0.115677014
64	0x3e19e92b	0.15030353
65	0xbccd9fc4	-0.025100596
66	0x3d420d0f	0.047375735
67	0x3daf3275	0.08554546
68	0x3d72d9a0	0.059289575
69	0x3e331b17	0.17490803
70	0x3e7167ab	0.23574702
71	0xbced34d4	-0.028955854
72	0x3d16e081	0.036835197
73	0x3e541b7f	0.20713614
74	0x3e282626	0.16420802
75	0x3e744d3f	0.23857592
76	0x3ca7a11a	0.020462561
77	0x3e30b960	0.17258215
78	0x3d5102f2	0.0510282
79	0xbc6d55e6	-0.014485812
80	0x3dfc1238	0.123081625
81	0xbdcd2891	-0.10017503
82	0x3c7667c1	0.015039385
83	0xbc2c76f7	-0.01052641
84	0x3dac43eb	0.08411392
85	0xbce0d293	-0.02744416
86	0x3d5c281b	0.053749185
87	0x3d07ba12	0.033136435
88	0x3e2a52c6	0.16633138
89	0x3e0a6da8	0.13518393
90	0x3deaf801	0.11473084
91	0x3c590004	0.013244633
92	0x3e67bc9c	0.22630543
93	0x3de36e12	0.111049786
94	0x3d3a8426	0.045536183
95	0x3df31ad1	0.11870349
96	0x3d677948	0.056512147
97	0xbd1d6379	-0.038424943
98	0xbcf5fd78	-0.03002809
99	0x3d9c3989	0.076281615
100	0x3e0f0135	0.13965304
101	0x3d9ce1bc	0.07660243
102	0x3dc54dff	0.09634017
103	0xbc142ebe	-0.009044347
104	0x3e89bf12	0.26903588
105	0x3d86b4ef	0.06577479
106	0xbcc626f7	-0.024188502
107	0xbd2be820	-0.04196942
108	0x3e1fe794	0.15615684
109	0x3da34956	0.07972972
110	0x3df26d5d	0.11837266
111	0x3c6736ca	0.014112184
112	0xbd93b8b9	-0.072129674
113	0x3d1a6059	0.03768954
114	0x3e26ab29	0.1627623
115	0xbab6103c	-0.0013890336
116	0xbda2a046	-0.07940726
117	0x3d9dff28	0.07714683
118	0x3e31a6a8	0.1734873
119	0xbcba15d2	-0.022715483
120	0x3dc3415b	0.0953395
121	0xbd93bd8f	-0.0721389
122	0x3e303f08	0.17211545
123	0x3d9c2b70	0.076254725
124	0x3e45249b	0.19252245
125	0xbc845786	-0.016155016
126	0x3e48ed16	0.19621691
127	0xbd3d515c	-0.04622017
128	0x3c70ce83	0.014697674
129	0xbcc226ba	-0.023700107
130	0x3b6881bb	0.0035477716
131	0x3c552b69	0.013010838
132	0x3bf57b3c	0.0074914973
133	0x3d8b2638	0.06794399
134	0x3df51b26	0.11968069
135	0x3d869b52	0.06572594
136	0x3cea1020	0.028572142
137	0x3d20a8b1	0.039223377
138	0xbbab6f1a	-0.00523175
139	0x3cf010b9	0.029304849
140	0xbbc9fa66	-0.006163883
141	0x3da9591d	0.0826895
142	0x3db26c41	0.08712054
143	0x3e6cbb37	0.23118292
144	0xbd46c3a5	-0.048526425
145	0x3db49968	0.088183224
146	0x3defd5af	0.11710679
147	0xbc83a3bc	-0.016069286
148	0xbd250218	-0.0402852
149	0xbcf2dd40	-0.029646516
150	0x3e30a07a	0.17248717
151	0x3e273a33	0.16330795
152	0xbd5bb0c4	-0.053635374
153	0x3d545c54	0.051845863
154	0x3dad0bc3	0.08449509
155	0xbd822771	-0.06355179
156	0xbcb41e81	-0.021987202
157	0x3d6d10c5	0.05787732
158	0xbd9a722f	-0.0754131
159	0x3e6a00fe	0.22851941
160	0x3d530182	0.05151511
161	0x3dbd8fb1	0.092559226
162	0xbc98283b	-0.01857387
163	0x3d01128d	0.031511832
164	0x3dabdddb	0.08391925
165	0x3ad74ae9	0.0016425523
166	0x3d60a63d	0.054846037
167	0x3dbe0414	0.092781216
168	0x3e1941bc	0.14966482
169	0x3d4b43fd	0.049625386
170	0x3dd2b3ce	0.10288201
171	0xbdc9b198	-0.098483264
172	0x3d5cd6cf	0.053915795
173	0xbd840d95	-0.06447903
174	0x3daa9f03	0.0833111
175	0x3dfaba0e	0.12242518
176	0x3d413629	0.04717079
177	0x3d107c44	0.03527476
178	0xbda7efff	-0.082000725
179	0xbb327a6b	-0.0027233611
180	0x3d9577c1	0.07298232
181	0x3d7a6824	0.061134472
182	0x3d2a72db	0.04161344
183	0x3cef28b1	0.029194208
184	0x3dc1b461	0.09458233
185	0x3e1755fb	0.14778893
186	0xb84dc07d	-4.9055077e-05
187	0xbd01b81c	-0.03166972
188	0x3d7b8167	0.061402705
189	0x3dcc9410	0.09989178
190	0x3e25066c	0.16115731
191	0x3d418f26	0.047255658
192	0x3d204c15	0.039135057
193	0x3df4b53f	0.119486324
194	0x3db29d7d	0.08721445
195	0x3dd50ac0	0.10402441
196	0x3d8095f1	0.06278599
197	0x3d44d2fa	0.048052765
198	0x3dd9a5d4	0.10627332
199	0xbd5a1551	-0.053242985
200	0xbd333ced	-0.043759275
201	0xbdbcf8a2	-0.092271104
202	0x3d0a9aec	0.03383915
203	0xbcf6e326	-0.03013761
204	0x3cc924dc	0.024553709
205	0x3cfa22c7	0.030534161
206	0x3e1ae207	0.15125285
207	0xbd23b82f	-0.039970573
208	0xbd99bc1d	-0.07506583
209	0xbc071f6a	-0.008247236
210	0x3e05bb75	0.1305979
211	0x3a1e1e6a	0.0006031754
212	0xbceec5a8	-0.029146984
213	0xbcec9932	-0.028881643
214	0x3d0d16e7	0.03444567
215	0x3d94db51	0.07268394
216	0x3cbd7bd8	0.023130342
217	0xbc5404f5	-0.012940635
218	0xbcd09c12	-0.025465045
219	0x3c90aee4	0.01766152
220	0x3dae32b2	0.08505763
221	0x3df7b0e1	0.12094284
222	0xbb6fd3e9	-0.0036594814
223	0x3d7083de	0.05871951
224	0xbc31ba8a	-0.010847697
225	0xbcd9c4df	-0.026583133
226	0xbced0a2d	-0.028935516
227	0x3d8089e6	0.06276302
228	0x3c895118	0.016762301
229	0x3e0781d0	0.13233113
230	0x3d7e1c2e	0.062038593
231	0x3df544a0	0.1197598
232	0x3e2273d2	0.15864494
233	0x3e0d53b4	0.13801461
234	0x3d9ce6c5	0.07661203
235	0x3c2855a0	0.010274321
236	0x3e0725b5	0.13197978
237	0xbca75efe	-0.020431038
238	0x3e6aa609	0.229149
239	0x3d19f636	0.03758832
240	0x3cc1b764	0.023647018
241	0x3d0d04d5	0.034428436
242	0x3d2d5fc3	0.042327654
243	0x3e648ad2	0.22318581
244	0x3df5ee11	0.12008298
245	0x3defce96	0.11709325
246	0x3d4cd3ca	0.050006665
247	0x3df085ef	0.11744296
248	0x3b08dc92	0.0020883423
249	0x3d562fec	0.052291796
250	0x3df554e9	0.11979086
251	0x3ddcd827	0.10783415
252	0xbdc4637f	-0.0958929
253	0xbcd13e11	-0.02554229
254	0x3d987501	0.07444192
255	0x3e676ff9	0.22601308
