Lab4 - RNN text classifier/models/model_1.pth (torch, 803297 bytes, 10 tensors)

weight_ih_l0 f4 [512, 1]
000000 93 47 92 3d 5a f4 b4 3d 98 f4 80 3d 08 d5 12 bd
       0.07142558 0.08835669 0.062966526 -0.035847694
000010 a0 f1 ab 3d e1 87 29 bd 8f b5 ae bc b0 90 43 bc
       0.08395696 -0.04138935 -0.021326808 -0.011936352
000020 17 96 23 bd 87 50 f0 3c 4a 66 a1 bd 4c dc 59 bd
       -0.03993806 0.029335273 -0.07880838 -0.053188607
000030 c4 88 60 bc 58 41 68 3c 6c 19 bc 3d e0 ef 08 bc
       -0.0137044825 0.014175735 0.09184536 -0.008357972
000040 fb 30 1f 3c 1d d7 26 bc a3 48 10 3e 6d a2 32 bd
       0.009716268 -0.010183123 0.14090209 -0.043611933
000050 b5 d2 e4 3d 74 40 b3 bd e4 9e 29 bd 47 0e 74 bb
       0.11173002 -0.08752528 -0.041411296 -0.0037239955
000060 c4 f4 1c bd a4 bc 34 bd 8a 73 3f bd 11 45 4a bd
       -0.038319364 -0.044125214 -0.046741046 -0.049382273
000070 f9 ed c5 bc 0b 60 8f bd 02 43 a9 3d 0a fd 3c 3d
       -0.024161326 -0.070007406 0.08264734 0.046139754
000080 de d7 cb bc 01 41 fb bc 56 d9 cd bd 06 25 16 bd
       -0.024883207 -0.030670645 -0.10051219 -0.036656402
000090 37 3b ee 3c bf 81 22 3d d4 b2 88 3d b5 f1 eb bd
       0.02908097 0.039674517 0.06674734 -0.11520711
0000a0 b3 81 ca bd 19 57 a1 3d b3 22 07 3e fd 9a 11 bd
       -0.098880194 0.07877941 0.1319683 -0.0355482
0000b0 84 80 27 3d 3f 66 f9 3d 0c a7 b6 bd 4d 38 a6 3d
       0.040894046 0.12177705 -0.089185804 0.08116207
0000c0 ae 0a fd 3c 90 67 99 3d 48 f4 eb bc 5a ff 87 bd
       0.030888882 0.07490456 -0.028803006 -0.06640501
0000d0 65 68 b9 bc a5 af da bc 31 02 1b 3e 67 f3 0e 3c
       -0.022632787 -0.026695082 0.15137555 0.008725024
0000e0 ae 72 1c 3d 47 67 ac 3d 6e 6a c7 3c 94 bd a5 bc
       0.038195305 0.08418136 0.024342742 -0.020232
0000f0 af af 55 3b 5f 8c 96 3d 50 5f a5 bd ce a2 b8 3d
       0.0032605936 0.073509924 -0.0807482 0.090154275
000100 d7 6c fc bc 87 6b 20 bd cd 84 ce 3d df e4 86 3d
       -0.030813618 -0.039165046 0.100839235 0.065866224
000110 be 5b 9d 3d 3d 3f 56 bd 4d 7a a1 bd b7 9b 91 bd
       0.07683514 -0.052306402 -0.07884655 -0.071097784
000120 66 2a fb bd 2d 00 84 3d a8 ab f9 3b 9d 71 9d 3d
       -0.12263946 0.06445346 0.00761934 0.07687686
000130 d4 3c 92 bd 04 5a 8b 3c e8 04 a7 bc 41 19 8d bb
       -0.07140508 0.017010696 -0.020388082 -0.004305989
000140 b0 d7 b7 bd 43 0c 80 bd c0 46 3f bc 22 d6 19 bc
       -0.08976686 -0.06252339 -0.011674583 -0.009389432
000150 23 c0 12 b9 90 39 7e bd 36 f6 e8 3c 01 27 b4 3d
       -0.00013995222 -0.062066615 0.028437715 0.08796502
000160 f6 21 c5 3b 35 a5 08 be 5f 2c 1c 3d f9 b7 8d bd
       0.0060160113 -0.13344271 0.038128253 -0.069198556
000170 c5 90 ab bd c6 fd 7f 3d 74 ac cc 3d a5 8b 9c bd
       -0.08377222 0.062497877 0.0999383 -0.076438226
000180 90 75 58 3c 0c 75 b9 3c 77 fc 26 bd bd 92 75 bd
       0.013211623 0.02263882 -0.040768113 -0.059954394
000190 50 31 b3 3d dd ae 8f bd 7d 3e 91 bc 01 4f 9f bd
       0.0874964 -0.070157744 -0.017729992 -0.07778741
0001a0 11 6c 28 3d 68 9b aa 3d d9 e9 98 3d d5 18 9f 3d
       0.041118685 0.08330423 0.07466478 0.07768408
0001b0 f6 53 8e bd f3 0d 06 3e eb 63 91 bd 2b b3 f7 3d
       -0.06949608 0.13091259 -0.07099136 0.120947205
0001c0 03 85 eb bd 36 c0 32 3d e6 29 d7 bc 7d 9f f1 3c
       -0.11499979 0.043640338 -0.026265096 0.029494995
0001d0 2b 9c 40 3d d6 bd d3 3d 71 a9 b2 bd 7c 5e 51 3c
       0.047023933 0.10338943 -0.08723725 0.0127788745
0001e0 09 36 b5 3d a8 85 2f 3d 69 af 17 3d 02 11 80 3c
       0.08848197 0.042852074 0.03703252 0.01563311
0001f0 0c 9e c0 3c ae fe d4 3d 81 aa 3a 3d 9c 22 39 bd
       0.023512863 0.10400139 0.04557276 -0.04519902
000200 bb ab 21 bd 0a 52 51 bc cb c1 88 bc 1b 8d 8b 3d
       -0.039470416 -0.012775907 -0.01669397 0.06814023
000210 f9 bd 83 bd d3 40 36 bc 8f d7 0f bd 6e 55 ea 3d
       -0.06432719 -0.011123854 -0.035117682 0.11442076
000220 90 c2 5e bc c0 d0 5e bd c6 03 ad 3d 02 cd 3d bb
       -0.013596192 -0.0543983 0.08447985 -0.0028961306
000230 7f be c8 3d 44 0c 5a bd 8f 7a ad bc bf 02 a5 3d
       0.09801959 -0.053234354 -0.021176605 0.080571644
000240 ea 01 b2 3d 52 3f 97 39 8b a0 ef bc e7 d5 69 bd
       0.08691771 0.00028848142 -0.029251358 -0.05708876
000250 b7 c1 a4 3b 6e 53 6d bc f1 27 dd 3d ae 43 b3 3c
       0.0050279754 -0.014485223 0.10798634 0.021882858
000260 76 88 11 bd 18 58 bb 3d 6d bb 7c bb 6f e9 77 3d
       -0.03553053 0.09147662 -0.0038563863 0.060525354
000270 28 09 b3 3d 2d 86 d1 bb 81 3c a6 bc 08 17 b2 bd
       0.08741981 -0.006394169 -0.020292522 -0.08695799
000280 0b 26 0c bc 65 43 21 3d d7 9f a8 3d 62 b3 a7 3d
       -0.008553992 0.039370913 0.08233612 0.081885114
000290 26 33 6b 3d 5a 3b 89 3d dd 34 5f 3d 94 60 aa 3d
       0.057421826 0.067007735 0.054493774 0.08319202
0002a0 21 0b c1 bd a9 22 53 3d 5a 36 6a 3d 3e 0b 8c 3d
       -0.09425951 0.051546726 0.05718074 0.06838082
0002b0 fe 10 1c 3d 88 3a 96 3d 2a 61 37 3d e8 15 d7 3b
       0.038102143 0.07335383 0.044770397 0.0065638907
0002c0 f0 f5 0e 3d b3 52 46 3d 32 12 3f bd f3 36 b3 3d
       0.034902513 0.048418712 -0.04664821 0.08750715
0002d0 3e 29 97 bc b5 5f ae 3d bb 21 eb 3c ba 0b 4c 3d
       -0.018452283 0.085143484 0.028702607 0.04981587
0002e0 ff 76 5c bc 11 6d 61 bd 3b bf e1 3c 6d ba 89 3d
       -0.013456105 -0.055035654 0.027557006 0.06725011
0002f0 a8 fe d5 3d 83 1c 10 bd 1b 48 5d 3d f2 e5 a7 3d
       0.104489625 -0.03518344 0.054023843 0.081981555
000300 8f 2f 48 bd 56 28 a7 3d a6 7e c3 3d e0 a9 c6 3d
       -0.04887348 0.0816199 0.09545641 0.0970037
000310 07 d9 da bc 63 f7 b1 3d 7e 14 14 3d 34 a2 db 3a
       -0.026714815 0.086897634 0.036152355 0.0016756714
000320 49 a4 c1 bd 73 87 81 3d 9b e7 8f 3d 82 bc 8f bd
       -0.09455163 0.06324663 0.07026597 -0.07018377
000330 1f 07 47 bd f4 35 b6 bc e6 2b 8b bc f0 38 32 b9
       -0.048590776 -0.022242524 -0.016988706 -0.00016996614
000340 2b 86 7b 3d 41 c1 ec 3c 0b 1b b8 3d 5e ca 89 3d
       0.06140725 0.028900744 0.08989533 0.067280516
000350 cf 0e 4c 3d d5 09 a2 3d 48 61 82 3d 60 f4 6f bc
       0.04981881 0.079120316 0.06366211 -0.014645666
000360 65 33 35 3d fe a9 e6 3d f5 b9 d3 bd a4 f1 c3 3d
       0.044238467 0.11262892 -0.10338203 0.09567574
000370 d9 4c 98 3d de 50 65 bc 03 f2 d3 bc ba 1e bb bd
       0.074365325 -0.013996331 -0.025872236 -0.0913672
000380 d0 29 25 bd 0b af 1d 3d 53 27 26 bc f7 bc d1 bd
       -0.04032308 0.038497012 -0.010141212 -0.1024112
000390 29 ce 9d bd 14 f0 0b bd 3a 85 9b 3d 8e 70 2c bb
       -0.077053376 -0.034164503 0.0759377 -0.0026312205
0003a0 d4 d1 08 3d d7 ec 03 bd ee 0e f2 bb 5c fa a6 bd
       0.033403233 -0.03220829 -0.0073870337 -0.08153221
0003b0 6e 04 e3 3d 90 df 22 bd 58 89 e1 3b 01 9f 3d 3c
       0.11084829 -0.039763987 0.0068828277 0.011573554
0003c0 eb 06 97 bd 88 77 2f bb b8 cd ba 3d 05 2d 7e 3c
       -0.073743664 -0.0026774127 0.09121269 0.015513663
0003d0 2d 2f 8d 3d 8f 0a ba bc 51 e4 32 bd aa 81 a6 3d
       0.06893764 -0.022710113 -0.04367477 0.081302
0003e0 ed a7 93 3d 12 44 ba 3b 91 08 71 bd e1 d2 7c 3d
       0.07209764 0.005684384 -0.05884606 0.061724547
0003f0 4b 70 f7 bc 75 ce 9b bd ca 27 00 3d e2 d7 9c bc
       -0.030204913 -0.07607738 0.031287946 -0.01914591

weight_hh_l0 f4 [512, 128]
000000 2c e7 90 3d 99 c8 58 3d 74 62 27 3d b1 1b 85 3d
       0.070753425 0.05292568 0.040865377 0.06499422
000010 d6 3a 11 39 40 05 80 bd ec 60 d0 3c 5a 46 34 3d
       0.00013850196 -0.06251001 0.025436841 0.044012405
000020 fd f6 a3 bd 75 71 1c bd 41 7f 3d 3c e3 3f ae bd
       -0.08006094 -0.03819414 0.011565984 -0.08508279
000030 55 4d 5b bd 90 46 5b bc a1 ba ce bc 60 2f 57 bc
       -0.053540546 -0.013383523 -0.025235476 -0.013133854
000040 d7 48 1f bd 6a a4 1b bc 65 c0 14 bd 8c 7e 70 bc
       -0.038887825 -0.009499649 -0.036316294 -0.014678609
000050 29 b6 80 3d d5 67 7e bd c8 a9 a0 3c 78 88 a2 3d
       0.06284744 -0.06211074 0.019612208 0.079361856
000060 8e e0 21 bd 73 f5 03 bd b1 22 bb bd e0 fb 14 3b
       -0.039520793 -0.0322165 -0.09137476 0.0022733137
000070 7b 67 5e 3b a4 e3 1e bd 24 43 cc bc 14 5f 7f 3d
       0.003393619 -0.038791314 -0.024934359 0.062346533
000080 32 65 bf 3d cf f0 bb 3b 8f 52 a0 bc de 86 8d 3c
       0.09345473 0.0057354937 -0.019570617 0.017276224
000090 d5 7f e5 bc 36 88 fa bc b1 99 a9 3d 81 43 21 bd
       -0.028015057 -0.030582529 0.082812674 -0.039371017
0000a0 ce ea b6 bd 89 2f 39 3d 00 66 66 3d 9d 07 95 3c
       -0.08931504 0.04521135 0.05624962 0.018192107
0000b0 72 e3 78 bc af b8 97 3d f4 f7 6a 3d 9a b9 c2 3d
       -0.015190946 0.074082725 0.057365373 0.09508057
0000c0 29 33 1d 3d 19 63 a3 bb 31 47 d2 3d ca 3f 11 3d
       0.03837887 -0.0049861786 0.10267485 0.035461225
0000d0 b0 5c b5 bc 30 c2 8d bc 08 dc 4b bd 43 f4 24 bc
       -0.022138923 -0.01730451 -0.049770385 -0.010068002
0000e0 d5 f0 1e bd c3 a1 23 3d 10 49 1d bd d0 66 64 3d
       -0.038803894 0.03994919 -0.038399756 0.055762112
0000f0 51 b3 a7 bd df dc 4b bd 4c e8 bb 3d ca 82 9a 3d
       -0.08188499 -0.049771186 0.091751665 0.07544477
000100 39 20 76 ba 83 d7 14 3c dc 33 30 bd 3b 5b 4c 3d
       -0.0009388957 0.009084585 -0.043018207 0.04989169
000110 c6 58 ae bc 79 c3 df 3c ce d8 bf 3d f1 6a b5 bd
       -0.021282565 0.027314888 0.09367524 -0.08858288
000120 18 0d b4 3d 18 86 77 3c 35 fd 66 bd 52 b1 31 bd
       0.0879156 0.015107654 -0.05639382 -0.043381996
000130 9d 63 71 bd 06 62 b8 bd d2 51 37 bc d3 6a bf 3c
       -0.05893289 -0.090030715 -0.011188941 0.023366367
000140 ba 89 33 3d 0d bf 8d 3c 66 e7 80 3c d1 2c ae bb
       0.04383252 0.017303014 0.01573534 -0.005315401
000150 cd c1 5e 3d 16 86 4a bd 9a 0c 03 3d 8e d3 28 bd
       0.05438404 -0.04944428 0.03199444 -0.04121738
000160 d2 a9 37 3c b3 2b a1 bd cb d5 63 bd 04 e3 a3 bd
       0.011209922 -0.07869663 -0.05562381 -0.08002284
000170 52 79 cc 3d 4b fd 42 3d ee 25 21 38 e9 31 08 3d
       0.099840775 0.04760484 3.8420716e-05 0.033250723
000180 90 f7 39 3d 6a a7 3f 3d c5 00 2a 3d 3c 4f ff 3b
       0.04540211 0.046790518 0.04150464 0.007791428
000190 ee 5d b1 bc d1 3c a0 3d 0b ee a7 bd cb a4 bd 3d
       -0.021651234 0.078241 -0.081997 0.092599474
0001a0 7f 17 61 3c 3b b2 da 3d e6 c8 d2 bd 6c 71 d4 bd
       0.013738512 0.10678526 -0.102922246 -0.10373196
0001b0 51 60 0a 3c cf f0 ef bb 9a 57 fc 3c 5d 9c 2a 3d
       0.008445815 -0.007322408 0.03080349 0.041653026
0001c0 5e 38 8a 3d 31 e4 0a 3d cb 51 1c 3d d6 1f 80 bc
       0.067490324 0.033909027 0.03816394 -0.01564018
0001d0 e9 92 27 bd 86 88 bd bb 01 09 8e bd 1b 1a b6 3d
       -0.04091159 -0.005784097 -0.06935311 0.08891698
0001e0 91 c8 0a 3c 52 e6 6a bd a2 92 a0 bd 43 e2 e6 bc
       0.00847067 -0.057348557 -0.07840468 -0.028184062
0001f0 19 e3 40 b7 d8 70 1f 3d 47 15 b7 3d c5 45 89 bd
       -1.1496967e-05 0.038925976 0.08939605 -0.067027606
000200 ba cb dd 3d 90 7a 8b 3b a0 9c 9a 3d f9 96 8e bc
       0.108298734 0.004256554 0.07549405 -0.017405974
000210 ad 2f 59 3d 9b 71 b9 3c 3e d6 10 3e d8 9f 3d 3d
       0.053023983 0.02263718 0.14144227 0.046295017
000220 a1 35 1e bd 74 05 77 3b bd 7b 21 3d 93 1d db bd
       -0.038625363 0.003769246 0.039424647 -0.10699
000230 fa 10 60 bd e7 31 1c be 35 82 1b 3e d8 fe d8 bc
       -0.05470369 -0.15253411 0.15186389 -0.026488706
000240 cb 41 99 3b 95 ba 43 3c 54 d1 c7 bc 79 83 f5 bc
       0.0046770326 0.01194634 -0.024391808 -0.029969918
000250 75 4b 0f 3e f6 5a 65 3d f5 80 3e bd 96 5a 02 3e
       0.13993628 0.05599495 -0.0465097 0.12729868
000260 88 c4 07 3e bb 62 6b bd d7 d7 e2 bc 10 19 40 bd
       0.13258564 -0.057467204 -0.027690811 -0.0468989
000270 e4 26 e9 bb e7 14 40 3d 20 7b dc 3d 70 e6 31 bc
       -0.007115232 0.046894934 0.10765672 -0.010858163
000280 36 2e 91 3d 21 7d 88 3d 8b 9e 2b 3d 9e 73 18 bc
       0.07088892 0.066644914 0.041899245 -0.009304909
000290 25 03 d5 3d 30 94 e7 3d 64 c6 f4 bc 46 79 e8 3c
       0.104009904 0.113075614 -0.029879756 0.02837814
0002a0 cd 3f 00 3d 7f 46 6f bc cd c5 da bc 52 91 71 bd
       0.031310845 -0.01460421 -0.026705647 -0.05897648
0002b0 77 ca f4 3d c4 92 07 3e e8 3a ae 3d 3b 0d ae 3d
       0.119526796 0.1323958 0.08507329 0.08498617
0002c0 cf 93 74 bc b7 8a 2f bd 23 5c 89 bd f2 85 ec 3d
       -0.014927818 -0.0428569 -0.06707027 0.115489855
0002d0 82 c4 54 bd af 27 ce bd 4c 9f e3 bc 68 7c df 3b
       -0.051945217 -0.10066163 -0.02778592 0.0068202503
0002e0 41 29 51 3d f1 13 8c 3c f3 5e 19 3d e5 6d 97 3d
       0.051064733 0.017099353 0.037444066 0.073940076
0002f0 16 ca b6 bd 09 34 be 3d 0b a8 7a 3d 87 48 09 3e
       -0.089252636 0.09287269 0.061195415 0.13406573
000300 2d c6 4f bb 3b 87 e9 bd c0 88 4e ba 72 ee 86 bd
       -0.0031703815 -0.11402746 -0.00078786537 -0.065884486
000310 ca 0e af bc 1c ea f8 bd 2b d3 78 3d a5 41 0f be
       -0.021369357 -0.12154028 0.06074826 -0.13989885
000320 d6 e8 ad 3a 4e 51 09 be 8f 60 9b bd 0b 28 cd 3d
       0.0013268243 -0.13409922 -0.075867765 0.10017403
000330 b5 8f 89 bd f6 5d bb 3c 54 4c c5 3d 22 e4 21 3c
       -0.06716863 0.022871953 0.09633699 0.009881051
000340 a0 b5 62 bd ec a7 b9 bd ec a6 1f bc c9 20 f8 bd
       -0.055348992 -0.09065232 -0.009744387 -0.12115628
000350 90 2b d4 3b bd cd ae ba d1 ce f5 bc 1c b5 d0 3d
       0.0064749196 -0.0013336461 -0.030005844 0.10190794
000360 04 3c 00 be 03 ac dc bd c6 06 25 3d 4d 5e 07 3d
       -0.12522894 -0.10774996 0.040289663 0.033048917
000370 5d 0b d2 3d e9 83 b6 bd fb 5d 53 bb 51 61 4a bc
       0.102560736 -0.089118786 -0.0032252062 -0.012352304
000380 32 f3 20 3c b5 d1 92 3d ec 25 f2 3d fd be 85 3c
       0.009823607 0.07168905 0.11823639 0.016326422
000390 f5 16 35 3d b0 97 4d bd 57 be f9 3c 41 7f cd 3d
       0.044211347 -0.05019349 0.030486269 0.100340374
0003a0 1e de 58 3d 8e a8 67 3d cb e2 18 be d5 d5 0a be
       0.052946202 0.05655723 -0.14930265 -0.13558133
0003b0 0b 3e b1 3d 7f 9e 9d bd 69 e3 a3 3c 77 ac 2a bd
       0.08654412 -0.07696246 0.020005899 -0.04166838
0003c0 e3 3f 14 3e 3d 15 6f bd 9d 8a 9e bd 3a 66 ff bd
       0.14477496 -0.058369864 -0.07741282 -0.1247067
0003d0 16 68 a5 bd b4 b7 23 3d 8f 21 54 bd 33 60 e9 3c
       -0.080764934 0.039970115 -0.051789816 0.028488254
0003e0 ac e7 80 3d 6b 81 3b 3d 58 b3 fc 3c 93 28 fd 3c
       0.06294188 0.04577772 0.030847237 0.030903136
0003f0 54 24 d1 3d 17 ee 65 bd 26 90 af 3d c6 0e ef 3c
       0.10212007 -0.056135263 0.08572416 0.02918185

bias_ih_l0 f4 [512]
000000 b7 bd 8e 3d 06 99 b5 3c 52 b7 b4 3d 41 cc 7d 3d
       0.06969779 0.022167694 0.08824028 0.06196237
000010 36 bf 94 3d c5 79 cc 3b 77 72 c6 3a 09 47 33 bb
       0.07263033 0.006240102 0.0015140314 -0.0027355573
000020 00 86 ff 3c eb 42 33 bd 8a 98 c0 bd 07 1a d1 3c
       0.031191826 -0.04376499 -0.094040945 0.025525106
000030 eb ed 42 3d 45 0b b9 3c 42 7f 9c bc 12 f4 da 3b
       0.047590178 0.022588382 -0.01910365 0.0066819275
000040 90 49 a2 3d e1 76 5a bd 59 41 9e 3d a4 09 ca 3d
       0.07924187 -0.053336028 0.07727308 0.0986512
000050 a8 42 33 3e 84 8d 04 3e 74 1b 22 bc 9e 42 40 3e
       0.17505896 0.12944609 -0.009894241 0.18775412
000060 72 ec 43 3b f7 77 64 3c d4 15 89 bb 7f 63 57 bd
       0.002989557 0.0139446175 -0.0041835103 -0.05258512
000070 c3 51 86 3e 91 57 62 bd 23 a0 e5 3d 5b 29 e9 bc
       0.26234254 -0.05525929 0.11212184 -0.028462103
000080 7a 61 f5 bb d4 6a 54 3d de 88 08 3d 42 3d 82 3d
       -0.0074884268 0.05185969 0.03333365 0.0635934
000090 1e 1d a4 3c 12 b2 84 3e e9 72 25 3e 1d 84 0d bc
       0.020033415 0.25917107 0.16157116 -0.008637455
0000a0 0e e3 98 3c 96 0f 20 bd cd 71 8b bd 63 c5 21 3c
       0.018662956 -0.039077364 -0.06808815 0.009873721
0000b0 17 78 d6 bc bb 9f 9e bd b5 fd 76 3d 18 3e 86 3d
       -0.02618031 -0.0774531 0.060300548 0.06554812
0000c0 6e 74 b3 3c 79 09 27 bd e4 83 ad 3d d7 ba 93 3d
       0.021906104 -0.04078052 0.08472422 0.07213371
0000d0 28 f8 30 3c a3 06 a1 bd e6 1a 0c bb ea 80 58 bc
       0.010801353 -0.07862594 -0.0021378337 -0.013214329
0000e0 c4 47 13 3c de 84 4f 3d 24 5a 41 3d 56 fa 60 3d
       0.008989278 0.05066382 0.047205105 0.05492624
0000f0 be 64 ef bd ca d3 85 bc 31 8d 91 bd 5b e9 14 3e
       -0.11689137 -0.01633634 -0.07107008 0.14542143
000100 d6 91 a9 3d c0 22 da bc 7a ca 8c 3c 1f 83 1c 3e
       0.08279769 -0.026627898 0.017186392 0.15284394
000110 4f f3 af 3d e5 16 70 bd 26 e2 69 bd dd 4d f3 3c
       0.08591329 -0.058615584 -0.057100438 0.029700214
000120 e3 ea d8 3c 74 e2 a5 3c 91 54 84 3c 3e 3e 32 bd
       0.02647919 0.020249583 0.016153606 -0.04351639
000130 44 4d 78 3d 26 5d da 3c fe 2b e8 3c b5 5b 8e 3d
       0.06062056 0.026655745 0.02834129 0.069510855
000140 da 8c e9 3b 7f d5 1f bd 69 9e 01 bd 95 a4 b7 3b
       0.0071273865 -0.039021965 -0.031645212 0.0056043365
000150 bf 2e b9 bd a2 80 a3 bd 98 1d 6e 3e 69 b1 7c bd
       -0.09042119 -0.07983519 0.23253477 -0.06169263
000160 b0 54 d3 bc ca ed b6 3c a8 9c 1e 3d 59 73 8d bd
       -0.025797218 0.022330184 0.038723618 -0.069067664
000170 9a 8d 93 3c 47 af 63 3d d0 17 46 3d 87 77 a9 3d
       0.018011857 0.05558708 0.048362553 0.08274751
000180 65 9b 03 bc e2 bf 11 3d 32 de a8 bc f2 f3 a3 3d
       -0.008032654 0.035583384 -0.020613763 0.08005513
000190 a7 99 ab bd 31 c7 d1 3d db 34 a4 bd 37 58 ab bc
       -0.08378916 0.10243071 -0.08017894 -0.020916088
0001a0 76 05 99 bd e3 ca cd bc 59 1d 09 3e 64 90 9c 3d
       -0.07471745 -0.025121158 0.13390101 0.07644728
0001b0 47 03 76 bd 46 e9 e7 3d b3 2e 1b bd ca 3b 02 3e
       -0.06006172 0.1132379 -0.037886333 0.1271812
0001c0 12 55 d2 3d 54 38 5b 3c 14 59 ae bd c3 94 0b 3d
       0.10270132 0.013380129 -0.08513084 0.034077417
0001d0 2a 93 06 3e 64 77 85 3d ba e6 ce 3d 36 9b 94 3d
       0.13142076 0.065169126 0.10102601 0.07256167
0001e0 29 60 80 3d 49 4a d3 3d 60 c1 10 3c d1 b0 ee bc
       0.06268341 0.10316903 0.008835167 -0.029137047
0001f0 4f 08 cd 3c c0 f3 70 bd 3e 4a 90 bd a8 56 89 3b
       0.025028376 -0.058826208 -0.070454106 0.0041912384
000200 f4 4d ca 3d 90 d4 4c 3d 0f b4 1e 3d f7 2f 10 3c
       0.0987815 0.050007403 0.038745936 0.008800498
000210 07 1c d0 bb 09 95 85 bd 1c ed 33 bd 70 3c 29 bd
       -0.0063509974 -0.06522567 -0.043927297 -0.041317403
000220 b4 e7 1c bd bb 8d 86 3d d5 c1 32 3d fa d3 4a bd
       -0.038306907 0.06570002 0.043641884 -0.049518563
000230 a2 1b 9a bd 4d 88 8f 3d 0e 25 9a 3d 6a b4 43 3d
       -0.07524802 0.07008419 0.07526599 0.047779478
000240 38 8f a6 3d 08 2b 7d bd 96 dd fd 3c 3e fc da 3d
       0.081327856 -0.061808616 0.03098945 0.10692643
000250 58 74 be 3c 6d 9b d8 3d 22 b8 97 3d ec 69 01 3e
       0.023248836 0.1057652 0.074081674 0.12638062
000260 91 d1 dc bc 8d c1 4b 3d cd 5d df 3d 0a 16 84 3d
       -0.026955398 0.04974513 0.10906563 0.06449516
000270 21 13 c9 3d ce a9 36 3d d9 f6 05 3d 7a ac 2c bd
       0.09818102 0.044595532 0.032706115 -0.042156674
000280 2a e8 29 bd 6a c7 0f 3d 58 76 b4 bc 93 c0 8c 3c
       -0.041481175 0.035102285 -0.022029087 0.01718167
000290 ec 1b 15 bd bc 50 23 3e be ac 26 39 3a b9 e3 bc
       -0.03640358 0.15948766 0.00015895345 -0.027798284
0002a0 42 1d 14 3c 32 76 85 bc b5 2b f3 bc b8 4d 91 bd
       0.009040179 -0.016291711 -0.029683927 -0.07094902
0002b0 23 a9 5f 3d e4 10 b7 3d 9f 18 9d 3d 25 32 8f 3c
       0.05460466 0.089387685 0.07670712 0.017479965
0002c0 f2 0c 19 3c 06 bb e6 3d d1 23 96 3d b8 18 48 bc
       0.009341465 0.11266141 0.0733105 -0.012212925
0002d0 27 7b a6 bc 21 ef 0b bd ad af 1e bd 15 55 0b 3d
       -0.020322395 -0.034163598 -0.038741756 0.034016687
0002e0 74 50 02 bc c6 04 90 bd 9d 73 ab bc 43 d8 d0 3c
       -0.007953752 -0.070321605 -0.020929152 0.025493747
0002f0 63 e9 89 3a 44 87 5f bd c6 8d 21 3d 02 aa 12 3d
       0.0010521825 -0.05457236 0.039441846 0.035806663
000300 5c 3b 8f 3d ef d9 91 bd e8 32 82 bd 69 3f bd 3d
       0.06993744 -0.07121646 -0.06357366 0.0924061
000310 5a d2 46 3d d9 58 3a bd 60 77 a2 3d 5f 6d d1 3d
       0.04854045 -0.045494888 0.07932925 0.10225939
000320 04 bd 11 3d 51 8d d3 3d 30 55 95 3d 07 89 bf 3d
       0.03558065 0.10329688 0.07291639 0.09352308
000330 aa 9e d9 3d f2 4c 67 bc ac f8 54 bd 19 c0 32 bd
       0.10625966 -0.014117466 -0.051994964 -0.04364023
000340 c7 bc 46 bd 39 bf 7e 3c 5b ec 33 bb 05 41 d6 3c
       -0.048519876 0.015548521 -0.0027454111 0.02615405
000350 9f 16 06 3c 72 09 27 bc fb 32 ac 3d 3a 74 51 3d
       0.008184104 -0.010195123 0.08408161 0.051136233
000360 5c 3a 37 3d e1 69 86 bc a7 a5 98 3d 5c 8d a4 3c
       0.04473339 -0.016407909 0.07453471 0.020086937
000370 4b 92 71 bd 33 db 53 3d c8 0f 02 bc ea 79 ce 3d
       -0.058977406 0.051722717 -0.007938333 0.10081847
000380 69 f0 8c 3c 5c 7c 67 bc d0 a3 a5 3d 7a 19 cf 3d
       0.01720448 -0.014128771 0.080878854 0.10112281
000390 8e 56 a2 bd ac 6a 1b bd a8 0f a5 3d 1e 52 3e bd
       -0.07926665 -0.037943527 0.08059627 -0.04646503
0003a0 6a e3 d0 bc ef b5 5d bd 3e 9f 9e bc c8 cd 0e bd
       -0.025499064 -0.054128584 -0.019363042 -0.034864217
0003b0 27 09 2d 3d c7 fe 65 3d 1c 41 75 3d 36 22 6b 3b
       0.042245056 0.056151178 0.059876546 0.0035878546
0003c0 b7 42 7d bc cd 0d 31 3d 52 14 c2 3c 85 c9 9c 3c
       -0.015457801 0.043226052 0.02369133 0.01913906
0003d0 c9 79 cf 3c 30 ec 17 bb b4 d6 9d 3b d9 d9 07 bd
       0.025326626 -0.002318155 0.0048168544 -0.03316674
0003e0 e5 1b 16 3d 83 ae 8b 3d 47 a3 88 3d 0a d2 4c bc
       0.036647696 0.06820395 0.06671768 -0.012501249
0003f0 fb 24 84 bd 35 b6 8f 3d 56 cd 41 bc 99 d0 c5 3d
       -0.06452366 0.07017175 -0.011828741 0.096589275

bias_hh_l0 f4 [512]
000000 bf d9 9c 3d 6a 02 0d ba b7 f2 f0 bc 89 55 b6 3c
       0.07658719 -0.0005379083 -0.02941261 0.022257583
000010 ce dd 43 38 70 b9 66 bc 1a a6 1b 3d ac 8f 94 3b
       4.6698195e-05 -0.014082298 0.038000204 0.0045337286
000020 36 76 04 3d eb 79 57 3c 3a af 91 bd c5 7f dc bc
       0.032339297 0.013151626 -0.071135 -0.026916394
000030 41 ea 58 3b c4 a1 df bc c8 65 08 3e 83 2c 13 bd
       0.003309861 -0.027298816 0.13320076 -0.03593112
000040 56 c9 ec 3c dd 95 15 bd 47 b6 2f 3b dc fc c2 bb
       0.028904598 -0.036519874 0.0026811527 -0.0059505533
000050 49 d7 4f 3e 1c 44 13 bd a5 44 f3 3c 4d 5e 02 3e
       0.20296969 -0.035953626 0.029695818 0.12731285
000060 e4 db bf 3d 8f e2 0f bd 68 6d cd 3d 5f de 93 bd
       0.09368113 -0.035128172 0.10030633 -0.07220148
000070 54 04 7c 3e b6 a8 6f 3d 24 88 0b 3d 1f 05 89 bc
       0.24611026 0.058510505 0.03406538 -0.016726075
000080 aa b8 b8 3d 7f 89 0f 3d e7 68 80 bd b1 a4 bb 3d
       0.09019597 0.035043236 -0.062700085 0.09162272
000090 ec 9e ce 3d af 7e 49 3e 5c ca 7a 3d f3 52 a7 bd
       0.10088906 0.19677232 0.06122814 -0.08170118
0000a0 9d 3f 67 3d 05 ca 83 bd 84 7f 36 3d 59 f0 9d 3c
       0.05645715 -0.064350165 0.044555202 0.019279646
0000b0 9d 99 ab 3d c5 42 e6 bb 4f 4f 94 bd b3 31 7d bb
       0.08378909 -0.0070270025 -0.072416894 -0.003863436
0000c0 a5 2a c0 bc 5a c3 98 3d f5 0a 33 bd 84 f4 2d bd
       -0.023457834 0.07459135 -0.04371162 -0.042469516
0000d0 bf 88 7c 3d e8 bf 90 3b 6a 6a 84 3d 84 7a 7e bc
       0.06165385 0.0044174083 0.06465609 -0.01553214
0000e0 8e a3 af 3d c5 62 98 bd c8 18 a2 3c f0 55 38 bd
       0.085761175 -0.07440714 0.019787207 -0.04500383
0000f0 cc cd e2 bd 4c 83 93 bc 51 7d 88 3d 58 a5 ab 3d
       -0.11074409 -0.018006943 0.06664527 0.08381146
000100 6d 9a 8a 3d d5 d9 39 bb 5b 68 8c 3d 0b 5f 76 3e
       0.06767736 -0.0028358598 0.06855842 0.24059694
000110 3f ee ed 3c 4e 2a e8 bc 70 9a b4 3d a1 52 ce bc
       0.029044269 -0.028340485 0.08818519 -0.025185885
000120 e8 a0 11 bd f0 d0 8e bc 69 86 7d bc 7e 84 a0 3d
       -0.035553843 -0.017433614 -0.01547394 0.07837771
000130 e4 a5 24 3d 5d ed 11 3c 24 49 69 bb 47 2d 38 3d
       0.040197268 0.0089066895 -0.0035596574 0.044965055
000140 2c 52 8c bd 67 1e cf 3c e6 27 a7 3c 57 79 dd 3b
       -0.068516105 0.025283052 0.020404767 0.0067588496
000150 bb 77 96 3b b5 bd a6 3d ce 3c 0e 3e 9a bc bd 3d
       0.0045919097 0.081416525 0.13890383 0.092644885
000160 f1 c2 a3 3d de 80 e1 bc e3 56 0f 3d c3 bf c9 bc
       0.079961665 -0.027527269 0.03499497 -0.024627572
000170 ff 09 14 bc e3 9b 29 3d cf 32 16 3d e8 f0 5a 3c
       -0.009035586 0.04140843 0.03666955 0.013363101
000180 35 2c bf 3d e8 56 4f 3d d8 c8 82 3d 53 66 9a 3d
       0.09334604 0.05061999 0.06385964 0.07539048
000190 20 d5 b2 bd f1 52 91 bc c4 84 51 bd f9 3d 41 3d
       -0.087320566 -0.017739745 -0.051152006 0.047178242
0001a0 25 5b e3 3b cc b7 09 3b b5 9e 48 3d 81 bc e3 3d
       0.0069383555 0.0021014092 0.04897948 0.11119939
0001b0 99 dc 83 bd 46 70 09 3e 40 92 e3 3d c6 ce 02 3e
       -0.0643856 0.13421735 0.11111879 0.1277419
0001c0 d0 62 ba bc 1d ac 12 3e bd 0b 13 3c 07 ff 18 3d
       -0.022752196 0.14323469 0.008974967 0.037352588
0001d0 ab 74 82 3d 09 ac ff 3d f2 be 3e bc 45 3c 9c 3d
       0.06369909 0.12483985 -0.011642205 0.07628683
0001e0 23 b6 93 3b a5 d6 0b 3d 05 dc 1c bc 48 75 07 3e
       0.0045077964 0.034140248 -0.009573941 0.13228333
0001f0 87 04 3b bd 65 1a ae 3c e8 38 94 bd a1 5f d0 3b
       -0.045658614 0.02125282 -0.072374165 0.006359056
000200 11 c7 86 3d 49 ba f0 bc 02 cf 8e bc df 23 aa 3d
       0.06580938 -0.029385703 -0.017432693 0.08307623
000210 37 72 1d 3d d8 cc 27 bd 36 24 52 bc 1b f0 11 3c
       0.038439002 -0.04096684 -0.012826016 0.008907343
000220 bc 2b 80 bd 75 89 69 bd 7e 84 36 3d 62 dc dc 3c
       -0.06258342 -0.057015855 0.04455995 0.026960555
000230 58 1c 86 3c 64 ef 62 3d 48 88 dc bc 05 2f 9c 3c
       0.016370937 0.055404082 -0.026920453 0.01906539
000240 74 95 fe bb 48 95 ea bc df 79 83 3d 2c 82 dd 3d
       -0.007769281 -0.028635636 0.064197294 0.10815844
000250 74 65 a3 3d b2 06 61 3d 03 70 e4 3d 04 69 a6 3d
       0.07978335 0.054938026 0.11154177 0.08125499
000260 b6 f1 44 bc 65 bd b4 bc 61 7f 38 bd af ee db 3d
       -0.012020519 -0.022062967 -0.045043353 0.10738885
000270 57 7d 14 3d 6d b7 ef 39 a0 b1 6f bd 52 85 3a 3c
       0.036252346 0.00045722295 -0.058519006 0.011384325
000280 a0 68 50 bd 1a 19 67 3d 1a 6f 9e 3b 76 f0 47 bd
       -0.05088103 0.056420423 0.0048350217 -0.048813306
000290 b4 c8 17 3d 9a 20 19 3d 12 56 0a bd 0a 15 c3 3d
       0.03705664 0.037384607 -0.03377349 0.09525497
0002a0 b0 32 05 bd 22 aa 45 bc d0 21 99 bd 85 51 87 bd
       -0.032519042 -0.012064489 -0.07477152 -0.066073455
0002b0 37 65 1e bd f2 6d 9c 3d 3e b6 0b 3e 7f 4a 95 3d
       -0.038670745 0.07638158 0.13643739 0.072895996
0002c0 57 26 50 3d f5 e0 2d bd 80 87 ab 3d 6e 37 8d bd
       0.050817814 -0.042450864 0.08375454 -0.06895338
0002d0 b4 b2 ef 3d 18 87 d7 bd 8d b5 de bd 94 b5 28 bb
       0.11704007 -0.10523814 -0.10874472 -0.0025742995
0002e0 b0 eb 07 bd 38 0b 17 bd d1 3a 9c 3c 94 67 88 3d
       -0.033183753 -0.036875933 0.019071015 0.06660381
0002f0 04 b2 26 3d d6 63 10 3d 91 40 dc 3a 8f 8b 5e bc
       0.040697113 0.03525146 0.001680391 -0.013583078
000300 2d fc b2 3d 86 cb 6f bd 60 b0 9e bd 88 48 33 bc
       0.08739505 -0.058543704 -0.077484846 -0.010942586
000310 5c 86 de 3c 06 19 2d 3b 7f df 62 3d e8 51 42 3d
       0.027163677 0.002641262 0.055388924 0.047441393
000320 c6 e4 b9 3d d0 22 4d bd 62 b3 f5 3c 40 fe 16 3c
       0.09076838 -0.050082028 0.029992763 0.009215891
000330 ac 8b c7 3d 63 16 31 3b 08 68 22 bc e6 62 20 3d
       0.09743437 0.00270214 -0.009912498 0.039156817
000340 81 4e 4c bc e3 34 8c 3b 20 40 ee 3d 37 d0 b6 3d
       -0.012469889 0.0042787655 0.116333246 0.089264326
000350 b2 dd a4 bd da 5f e9 ba be 33 72 bc 85 4a aa 3d
       -0.080500975 -0.0017805055 -0.014782844 0.08314995
000360 a0 03 b1 3d ec 85 7b bc 36 f4 ea 3c 66 e9 2d 3d
       0.086432695 -0.015351754 0.028680902 0.042458914
000370 b2 89 06 3d 39 47 a9 bc dd d5 d5 ba 3c 03 76 bd
       0.03284616 -0.020663844 -0.0016314347 -0.06006168
000380 e0 d7 8f 3d 8d b8 a7 3c e2 7b 10 bd 15 75 d6 3d
       0.07023597 0.020473743 -0.035274394 0.104715504
000390 9e bd 6d bd e0 6a a4 3d 3c 9d 27 3d 31 c9 a0 3d
       -0.05804216 0.08028197 0.040921435 0.07850874
0003a0 42 b3 1a 3d b8 34 36 bd 3b c8 ba 3d 0c 71 86 3d
       0.03776861 -0.04448387 0.09120222 0.06564531
0003b0 b4 65 ea 3c 6a 38 50 3d be fa 71 3d 36 ef 89 bd
       0.028612949 0.05083505 0.059077017 -0.06735079
0003c0 57 4d 4f 3a 1f e6 c4 3d c9 55 ae 3d b8 1a 30 3d
       0.0007907948 0.096142046 0.08512456 0.04299423
0003d0 97 7d 85 bd 03 96 b0 3d f2 61 f7 3d e5 58 93 bd
       -0.06518095 0.086223625 0.120792285 -0.0719469
0003e0 8d 22 7c bd a0 bf 63 bc 08 54 4a 3d 85 a0 be bd
       -0.061556388 -0.013900667 0.049396545 -0.093079604
0003f0 72 e3 69 bb 85 5a ba 39 63 4e 37 3c 40 2f bc 3d
       -0.0035688546 0.00035544127 0.011188122 0.091887

weight_ih_l1 f4 [512, 128]
000000 5e ff c5 bc 7d 8c a7 bd 05 1f 93 bc fb ee 55 bd
       -0.02416962 -0.08181093 -0.017959127 -0.052229863
000010 92 1c 90 3d f8 8f 11 3d c9 91 f9 bc e9 d5 ac bc
       0.07036699 0.03553769 -0.030465024 -0.021098094
000020 db 15 de 3c f3 d1 92 3d 5a e7 bb bd c0 1e a8 bd
       0.02711003 0.07168951 -0.09174986 -0.0820899
000030 4f 01 32 bd 2e dd 08 3d 17 00 3c 3d a6 3e 8d bd
       -0.04345828 0.03341406 0.045898523 -0.06896715
000040 02 46 b9 3d a4 d6 7d 3d 24 f7 c3 3c 33 96 a8 3d
       0.09046556 0.061972275 0.023921557 0.08231773
000050 80 c2 0d bd ab 83 b1 3b d3 83 c6 3c dd 5a 37 3d
       -0.034609318 0.0054173074 0.02423278 0.04476439
000060 3a b8 38 bd a1 5c f7 3c 94 10 b5 3d 87 44 80 bc
       -0.045097567 0.030195536 0.08841053 -0.015657676
000070 a4 27 d7 bc c8 40 88 3d 27 54 bb 3d ef f1 0b 3d
       -0.02626402 0.06652981 0.0914691 0.034166273
000080 85 86 6e 3c a5 27 0c 3d 1e 19 0e 3d 53 02 b0 3b
       0.014558439 0.034217495 0.034691922 0.005371371
000090 26 70 c4 bb 6a 24 81 bd 6f 5e 97 3d e9 52 d1 bd
       -0.0059948144 -0.063057736 0.07391059 -0.10220892
0000a0 04 54 e0 3d b4 1e a1 3a d2 6e f0 3c bf b7 ff 3c
       0.10953525 0.0012292475 0.029349718 0.031215547
0000b0 87 9a 93 3d 4e ab 7b 3d 41 d2 1d bd 95 20 8b 3d
       0.07207208 0.061442666 -0.038530592 0.06793324
0000c0 15 6a 6e 3d d4 d6 1f bc 25 2c 8f 3d f4 99 49 bd
       0.058206636 -0.009755809 0.06990842 -0.049219087
0000d0 23 f2 92 3c fc f7 41 bd 65 21 63 3d 57 de a1 bd
       0.017937725 -0.047355637 0.05545177 -0.07903736
0000e0 bc 73 8f bd cd de 5b 3d bc 08 9e bd 16 f7 be 3d
       -0.070044965 0.053679276 -0.0771651 0.09324472
0000f0 ee 31 2c 3d 3c 92 eb 39 64 1a 27 3d ad 64 a8 3d
       0.042039804 0.00044931646 0.040796652 0.082223274
000100 d7 c4 8f 3d b3 24 9f bc 58 7b 8b 3b 1a 9a 21 bd
       0.07019966 -0.01942668 0.004256647 -0.039453603
000110 c2 8c aa 3d 76 65 ad 3d 77 30 18 3d 4a 14 51 bc
       0.08327629 0.08466618 0.037155595 -0.012761185
000120 0e ea 60 3d af 51 7c 3d cb 06 61 3d e0 ac 6b bd
       0.054910712 0.061601337 0.05493812 -0.057537913
000130 29 f4 a8 3c d9 2d 9a 3d 75 6f 12 bd 9e b0 ec 3c
       0.020624237 0.07528276 -0.035750825 0.028892811
000140 b5 ee d8 3d 35 5c 90 bd 77 74 8b 3d 95 b0 8a bc
       0.10592405 -0.07048837 0.06809323 -0.016929904
000150 9e ff a9 bd 09 67 66 3d c8 e4 81 3d b5 21 3c bb
       -0.08300708 0.056250606 0.06342465 -0.0028706614
000160 70 a1 3c 3d bc 07 15 3e e7 0b 30 3d 4a fe c8 bd
       0.046052396 0.14553732 0.0429801 -0.09814127
000170 92 c4 21 bd 76 50 6c bc 5a 16 e2 bb 7c b0 37 3d
       -0.039494105 -0.01442348 -0.006899637 0.044846043
000180 7a 9f 86 3d 9e 9a 31 3d 9d f5 af b9 0e e6 c3 3d
       0.065733865 0.043360345 -0.00033561597 0.09565364
000190 06 3b 20 bd 3e 53 84 3d 20 90 37 bd cd a2 83 bd
       -0.03911879 0.0646119 -0.044815183 -0.06427536
0001a0 6f 8c 57 3d 9d 53 07 bd 33 29 b9 bd 89 33 91 3d
       0.052624162 -0.033038724 -0.09041061 0.07089908
0001b0 cd 71 47 3c 32 3f 07 bc 0c 40 1b bc ed dd 2b 3d
       0.012173128 -0.008254813 -0.009475719 0.04195969
0001c0 04 3c d5 3b 4f e9 3d 3c c3 38 d9 bc 2b 77 30 bd
       0.0065073986 0.01159127 -0.026516324 -0.043082397
0001d0 8e 75 f7 3c eb af 13 3d 57 f3 7d 3d 7b 53 07 3d
       0.030207422 0.03605644 0.061999645 0.033038598
0001e0 b7 10 ed 3c 00 37 ae bb 98 f6 54 bd d7 91 4a 3d
       0.028938634 -0.005316615 -0.051992983 0.04945549
0001f0 da 1a 98 bd 51 c0 f8 bc 10 ca e7 3c 7c 7f b8 bd
       -0.074269965 -0.030365141 0.028294593 -0.09008691
000200 be 78 a6 3c 4a 7d f2 3c ee 2d 62 3b e5 09 23 3d
       0.020321246 0.029600758 0.003451224 0.039804358
000210 af 51 0a 3d b3 8d aa 3d 96 46 25 3d df b0 0b 3d
       0.033769306 0.08327808 0.04035052 0.034104224
000220 a1 01 9f bd 75 e1 07 3d 39 4d e0 3d 11 99 8a bc
       -0.077639826 0.033173997 0.10952229 -0.01691869
000230 2e 7f 2e bd de 41 4a bd 89 c7 ba 3d 87 63 96 bc
       -0.042601757 -0.049379222 0.091200896 -0.018358005
000240 1c 9d 14 bc 4a f4 46 3c 16 88 f4 ba a5 45 69 3d
       -0.009070661 0.012143204 -0.001865628 0.056951184
000250 24 eb 9c bd 9f 45 06 bd db fa de bc c2 c8 8a 3d
       -0.07662037 -0.03278124 -0.027219227 0.06776573
000260 ef 2e 61 bd cb 45 7f bd 82 91 cd bb 28 f9 ec bc
       -0.0549764 -0.06232242 -0.0062734494 -0.0289274
000270 7d 53 23 bd f8 6d e8 3d 0d 8f 92 bd 2e d5 a8 3d
       -0.039874543 0.113491 -0.07156191 0.08243786
000280 27 82 49 3d 54 e6 cb 3c 57 cc 0c bd d9 72 61 bc
       0.04919639 0.024890102 -0.03437456 -0.013760292
000290 3b a5 bf bc b6 08 1d 3d 8d 63 4b 3c bb b4 7a bd
       -0.023394218 0.038338386 0.0124138715 -0.061207514
0002a0 3a ec 4d bd e7 23 5c bc a2 9f a3 3c 59 9a 9e bc
       -0.05027411 -0.013436294 0.01997358 -0.019360708
0002b0 66 00 ec 3c cf 82 b6 3d 62 c6 05 3d 83 4d 9b 3d
       0.028808784 0.089116685 0.032659896 0.075831436
0002c0 20 50 c0 3c d3 6a 7a 3d 32 65 83 bd 70 42 57 bd
       0.023475707 0.06113703 -0.06415786 -0.052553594
0002d0 1e 72 9f bd 77 00 a5 3d 27 0a 36 3d 81 40 98 bd
       -0.07785438 0.08056729 0.044443276 -0.07434178
0002e0 ae 56 4a bd 43 96 31 bd 18 da b5 3d 99 da a3 3c
       -0.04939907 -0.04335619 0.08879489 0.020001696
0002f0 86 c4 15 3d 3d ba 21 3d 73 da b8 39 5c 96 ab 3d
       0.036564372 0.03948425 0.00035257972 0.08378288
000300 64 a9 de bc 56 10 e8 bc dd 72 ad 3d cf 4c 9c bd
       -0.027180381 -0.028328102 0.08469174 -0.076318376
000310 14 f7 8c bd 9a c2 85 bb f8 55 cd bc ba 22 88 bd
       -0.06883064 -0.004082036 -0.025065407 -0.066472486
000320 99 b3 0f 3d ed 76 c3 3c 7e 49 a0 3c 79 aa 60 3d
       0.035083387 0.02386042 0.019566294 0.054850075
000330 02 cf 1d bd 50 c5 8b bb be 5b 20 3c 81 32 21 bd
       -0.038527496 -0.004265465 0.009787498 -0.039354805
000340 b5 03 93 bd 13 66 a1 bc c2 54 56 3c 44 41 e2 3c
       -0.071784414 -0.019701993 0.013081731 0.027619012
000350 1c 55 59 3d 3b 1f bd bc 9f 0c 95 3d 45 43 6b bd
       0.053059682 -0.02308618 0.07277798 -0.0574372
000360 90 f1 45 ba 16 9e b1 bd 73 6a 7f bd 16 30 22 3e
       -0.0007550949 -0.086727306 -0.062357377 0.15838656
000370 1f 78 0e bd 4a 20 a3 bd f2 4e 8b 3d 5b 99 13 bd
       -0.034782525 -0.07965143 0.06802167 -0.036034923
000380 b6 45 c4 3c 44 8a 05 bb dc f1 c0 bc 70 7b 44 3d
       0.023959022 -0.0020376602 -0.023552828 0.04796928
000390 12 19 b4 bd 65 62 cc bd 68 a7 82 3d 46 6b 81 3d
       -0.08793844 -0.09979705 0.063795865 0.06319289
0003a0 64 bc ac 3d 4e 31 71 bc 4e 2f a0 bd 54 c3 c2 bc
       0.0843437 -0.014721228 -0.07821523 -0.02377478
0003b0 5e d5 2b 3d cf 71 90 3d ce 3f 9c bc c6 04 b7 bc
       0.04195153 0.07052957 -0.019073393 -0.022341143
0003c0 ca c4 01 3c 21 2d 0f bd 36 cb 7d bc f4 dd af 3c
       0.007920453 -0.034955148 -0.015490344 0.02146814
0003d0 53 fd a8 bb 8c 70 08 bd 7b 1a 02 bd 98 16 5a bb
       -0.0051571517 -0.033310458 -0.031763535 -0.0033277627
0003e0 c8 75 01 3d 89 98 03 3d 57 3c 81 3d 10 06 91 3d
       0.031606466 0.03212789 0.06310337 0.070812345
0003f0 43 1d 1e bc 97 e4 c0 bd 06 26 7f 3d bd 28 ea bc
       -0.009650531 -0.094186 0.06229212 -0.028583879

weight_hh_l1 f4 [512, 128]
000000 53 24 8d 3d 52 e6 80 3d 17 0c 83 3c fa 4a 86 bd
       0.06891694 0.0629393 0.015996976 -0.065572694
000010 3a d1 d5 3c dc 2f f5 bc af cf 86 bd fd 9e 7a bd
       0.026100744 -0.029930048 -0.06582581 -0.06118678
000020 ec a6 b6 bd 26 f2 9a 3d 95 01 22 3c d9 4a 81 3d
       -0.089185566 0.075657174 0.0098880725 0.06313104
000030 99 22 f6 3c 08 4a 35 bc 5f 3f 95 3c 29 23 27 3c
       0.030045794 -0.011065014 0.018218694 0.010201254
000040 1e 19 67 3d ae 47 19 bd 4b d7 63 3d 2f c3 98 bb
       0.056420438 -0.037421875 0.05562524 -0.0046619396
000050 db 87 d4 bd 9a 84 ae 3b 96 69 00 3a 0d ac 70 3d
       -0.10377475 0.005325866 0.0004898546 0.05875783
000060 02 b1 ee 3c 42 7a 9e bd 0e f5 3f bc 8f 36 93 bd
       0.029137138 -0.077381626 -0.01171614 -0.071881406
000070 7a 3f f9 3c 36 45 f3 bc 5c 4a 70 3d 88 e6 3e bc
       0.030425776 -0.029696088 0.058664665 -0.011651643
000080 b1 98 9f 3c 80 bd a1 3d 1f ff 82 3d e1 ac ff 3a
       0.019481989 0.078974724 0.06396317 0.0019506478
000090 4c 5e 36 bd c6 a6 a4 3c 05 a6 54 3d 64 0d 96 bd
       -0.044523522 0.020099055 0.05191614 -0.07326773
0000a0 ff aa 2a 3d 32 f1 02 3d 4b 05 45 bd 82 3b 63 bd
       0.04166698 0.031968303 -0.04810075 -0.055476673
0000b0 eb 82 df 3b e6 8d 93 3d 3f ed f9 bc 70 ca 30 3d
       0.0068210266 0.07204799 -0.030508636 0.04316181
0000c0 40 11 58 bd b9 8a 11 bd 00 b8 97 bc aa 9e 31 3d
       -0.052750826 -0.035532687 -0.018520355 0.043364204
0000d0 19 26 c5 3d a5 51 81 bd 4f dc 61 3d 3b 13 30 bd
       0.09626407 -0.063144006 0.055141743 -0.04298709
0000e0 7a e8 a0 bd 7a cb a0 3d 42 ae 24 bd 20 cb f0 3c
       -0.078568414 0.0785131 -0.040205248 0.029393733
0000f0 24 ba e5 bc 26 e3 5e bd 53 e7 b0 3c 9f a6 16 bd
       -0.02804286 -0.054415844 0.021594679 -0.036779996
000100 82 c9 e9 3c 83 75 fb 3b 19 4c 0f 3c 80 30 ad bc
       0.02853847 0.0076739206 0.00874617 -0.02114129
000110 95 79 ba bd 54 b0 c3 bd c5 db 3c bd 80 b5 34 bd
       -0.09105221 -0.09555116 -0.046108026 -0.044118404
000120 a0 c1 8c bd 77 05 f5 3d 30 70 0b bd ff 92 87 bd
       -0.068728685 0.11963933 -0.034042537 -0.06619834
000130 cc f4 93 3d 50 a4 41 bd 7b 62 d8 bd d2 73 65 3d
       0.07224426 -0.04727584 -0.10565659 0.056018658
000140 44 14 fb 3c 92 61 bb bc f9 0c 93 3d cf f2 8e bc
       0.030649312 -0.022873674 0.07180209 -0.017449765
000150 02 94 0d bd c2 59 bd 3d d7 f0 da bc af b5 9e bd
       -0.03456498 0.092456356 -0.02672617 -0.07749497
000160 6b 1b e3 bd f3 7a 15 bd f1 df b3 3d f0 5d 9b 3c
       -0.11089214 -0.036494207 0.08782948 0.018965691
000170 45 ca e0 bd c0 11 91 bd 90 52 23 3d d0 d6 1e 3d
       -0.1097608 -0.07083464 0.03987366 0.03877908
000180 83 e5 5d 3c 01 70 d8 3c 81 89 8a 3c 33 f7 cd 3d
       0.013543489 0.026420595 0.01691127 0.10056915
000190 9d 96 e7 3c 75 b9 26 3d 02 60 6e bd c0 13 a5 3d
       0.02827006 0.04070421 -0.05819703 0.08060408
0001a0 5e 0a 3b bd c2 7a f7 bc ae bd 78 bc da 00 39 3d
       -0.045664184 -0.030209903 -0.015181942 0.045166828
0001b0 d4 9e 97 bc c3 cf fc 3c 94 34 d3 3d 56 96 67 bb
       -0.018508352 0.030860787 0.10312763 -0.003533741
0001c0 87 7b d9 3c 7f d5 7d bd 55 aa 9e bb 63 f7 54 bd
       0.02654816 -0.061971184 -0.0048420825 -0.05199374
0001d0 99 7a 0d 3d 20 22 90 bd 81 55 9f 3d 16 d7 ad 3c
       0.034540746 -0.07037759 0.077799805 0.021220725
0001e0 31 14 43 3d 49 ba 8d 3d 50 1d b4 3d 9c 4a 8c bd
       0.047626678 0.06920297 0.087946534 -0.06850168
0001f0 c5 86 9d bc 83 b2 58 3d 29 0e 84 3d 3e b3 93 bc
       -0.019229302 0.052904617 0.06448013 -0.018029805
000200 4f aa 85 3d 55 fa 82 3d e4 d2 41 bd 15 02 dd 3c
       0.065266244 0.06395403 -0.04732026 0.026978532
000210 d9 b3 81 bc e6 bf 5c bd 72 90 58 bc d7 e1 6f bd
       -0.015832828 -0.053893946 -0.013218032 -0.058564987
000220 e4 66 50 3d dc 42 f5 3c f9 eb 8c 3c 81 75 06 3d
       0.050879374 0.029939108 0.017202364 0.032826904
000230 2c 25 92 3c f0 d5 0d bc 95 0f be bd 0b 23 c6 bd
       0.01783999 -0.008656964 -0.09280316 -0.09674653
000240 bb c7 94 3d d6 16 33 3d c2 2c 53 bc b9 d6 27 3d
       0.07264658 0.04372295 -0.012889089 0.04097626
000250 95 f7 d1 3c ca 96 f1 3c e3 05 96 3c 63 70 3d 3d
       0.025630752 0.029490847 0.018313354 0.04624976
000260 1b 38 30 bd 32 f8 8a bd 96 94 9f 3d c2 19 42 3d
       -0.043022256 -0.06785621 0.077920124 0.047387846
000270 a8 1d 5e 3d 5f df 20 3d 95 50 8b bd da 73 69 3d
       0.0542275 0.039275523 -0.06802479 0.05699525
000280 f2 f6 89 3d cf 32 61 3d f6 1c 15 3c 3f ab 8b bd
       0.06736554 0.054980095 0.009101143 -0.06819772
000290 a2 65 75 3d 4e c7 48 bd 7c a3 85 3d 33 92 dc 3d
       0.059911378 -0.049018197 0.06525323 0.10770073
0002a0 cb a1 86 bd 76 64 25 3d 58 f3 0f 3d 19 6e 01 bd
       -0.06573828 0.04037901 0.03514418 -0.031599138
0002b0 84 43 92 bd eb 7c 1b 3c 18 30 bf 3d db 56 5b 3d
       -0.07141784 0.009490232 0.09335345 0.05354963
0002c0 ad 19 f7 bc ce 4d 3a 3d 1f ab f3 bb b1 1e 54 bd
       -0.03016361 0.045484357 -0.0074361707 -0.051787082
0002d0 49 69 7c bd 1d 1f e3 bb eb 26 82 3c 3e e6 4c 3b
       -0.061623845 -0.006931199 0.015887698 0.0031265165
0002e0 ee f2 14 3a e2 f8 97 bd 5c 36 09 3b d5 dd 5c bd
       0.00056819513 -0.074205175 0.0020936942 -0.053922493
0002f0 d5 26 39 bd bb c9 76 3d 78 e4 07 3d 9e b8 e0 3c
       -0.04520305 0.06025098 0.03317687 0.027431782
000300 2f 82 62 3d 8a 33 22 bd 8d d7 42 3d 26 6f b1 bd
       0.055299934 -0.039599933 0.047568846 -0.08663778
000310 5a d1 8f 3d 0f 9d b4 bd 18 da b4 bd 11 33 bb 3d
       0.070223525 -0.08819019 -0.088306606 0.091405995
000320 c7 a0 a9 bd 98 bf 2a bb 11 47 f3 3c b4 c4 3f 3d
       -0.08282619 -0.002605414 0.029696973 0.04681845
000330 da 95 a5 bc 68 29 b5 bc 77 0f 3d 3d 04 8d b4 3d
       -0.020213056 -0.02211447 0.046157327 0.08815959
000340 69 93 12 bd 28 d0 d7 3c e5 2d 32 bd db 0f 51 bd
       -0.035785113 0.026344374 -0.0435008 -0.05104051
000350 ee 41 26 3d f2 90 ba bd da c5 6c 3c a7 a3 22 bb
       0.04059022 -0.091096774 0.014451468 -0.0024816783
000360 79 53 db 3c a1 c0 f9 3c 43 f6 68 bd 10 2e 38 3d
       0.026773201 0.03048736 -0.05687548 0.044965804
000370 76 a2 a5 3b e0 9c e9 bc 15 79 7f bb 4b ae 71 3d
       0.0050547672 -0.028517187 -0.0038982083 0.05900411
000380 09 94 8d bd ed 1d ac 3d d9 b5 d9 bc ee 53 cf ba
       -0.06913001 0.084041454 -0.02657597 -0.001581786
000390 f6 20 7c bd 17 f6 2a bd 05 03 92 3c 84 5b 12 3d
       -0.06155487 -0.041738596 0.017823705 0.035731807
0003a0 09 d8 d3 bc 9c 84 0d 3d f9 af 1c bd 8d 44 3c 3d
       -0.02585985 0.034550294 -0.038253758 0.045963813
0003b0 c8 35 b5 bd 55 ad 56 bd a8 fc 57 3d 8e b3 a0 bd
       -0.088481486 -0.052411396 0.052731186 -0.07846747
0003c0 26 81 9b 3c 87 bb 83 bd b2 cc 83 3d b0 85 26 3d
       0.018982481 -0.064322524 0.06435527 0.040654838
0003d0 6e 27 58 bd aa ea c5 bd 21 a1 85 bb eb f3 aa 3c
       -0.052771978 -0.09663899 -0.004078046 0.020868262
0003e0 8b ae a4 bd 34 b1 b6 3c 61 3d 6c bc 07 aa 26 3d
       -0.08041104 0.022301294 -0.014418931 0.040689494
0003f0 c9 2d c3 bc e2 1d 08 3d 43 a7 08 39 aa cd 00 bd
       -0.023825543 0.033231623 0.0001303228 -0.031446137

bias_ih_l1 f4 [512]
000000 b9 91 62 3d fa 7b 81 3d 2f 0e 6b 3c 2b 0c 56 3d
       0.055314753 0.06322475 0.014346643 0.052257698
000010 a5 48 a4 bd 8d fd 94 3d 05 cb 8e 3d bd ae 21 3d
       -0.08021668 0.072749235 0.06972317 0.039473284
000020 5c 8b 97 3c f6 7c ea 3c ef 7a 68 3d 8b e5 57 bd
       0.018499069 0.02862404 0.056757864 -0.052709144
000030 b1 c4 b9 3c 55 a0 84 3d 04 f5 3b 3b 0f 63 f1 bc
       0.022676798 0.064758934 0.0028679976 -0.02946618
000040 be 73 5b 3c 55 28 00 bd 4b 7e f8 3c 73 22 b4 3b
       0.013394294 -0.031288464 0.030333659 0.0054972707
000050 51 63 9b bb dc e3 98 3d ad e0 2e bd c4 d0 85 3d
       -0.004742064 0.07465336 -0.042694736 0.065339595
000060 0b 53 34 3c 3d 89 99 bd 39 1e e6 bb 29 48 9c 3c
       0.011006127 -0.07496879 -0.007022646 0.019077377
000070 a9 2d 98 3d 29 1f 40 3b a7 8d 49 3d f0 30 d9 bc
       0.07430584 0.0029315448 0.049207356 -0.026512593
000080 4d 72 9f 3d 31 72 65 3d a9 61 53 bd 79 28 ba 3d
       0.07785473 0.056017105 -0.051606808 0.09089751
000090 1e f1 02 3d 22 5d 0b 3c 31 da 8b bd 76 d6 ed 3c
       0.03196823 0.008506091 -0.06828726 0.029032927
0000a0 9f 1c 0e bb ec df 40 3d f5 aa a4 3d a2 00 a2 3b
       -0.002168454 0.04708855 0.0804042 0.004943923
0000b0 61 a6 07 3d 44 ba de bc 42 2e a1 3d 02 0b 72 bd
       0.033117656 -0.027188428 0.07870151 -0.05909253
0000c0 41 c6 2d 3c 97 84 ec bc 8c 30 1d 3d 81 c4 29 bd
       0.010606349 -0.028871818 0.038376376 -0.041447166
0000d0 bc 69 cd 3d c8 db 70 3d 44 30 c9 3d 31 9c 9c 3d
       0.10029933 0.05880335 0.09823659 0.07646979
0000e0 99 b9 09 3a 57 32 31 bd 8a bf c1 3c af 97 89 bd
       0.00052537915 -0.0432609 0.023650903 -0.067183845
0000f0 d4 54 aa bd 27 53 09 3d ce ca 9f 3d e0 e2 c9 bc
       -0.08316961 0.033526566 0.07802354 -0.024644315
000100 40 8f c9 3d d0 ce ba bc 98 ee 53 3d d0 fe 11 bd
       0.09841776 -0.022803694 0.051741213 -0.0356434
000110 76 7c b5 bc 70 1f c6 3b 5f a7 27 3d 5a e1 d2 3d
       -0.022154074 0.006046228 0.040931102 0.10296889
000120 ae 7d 42 3d 59 87 4e bd 63 e0 68 bd c0 fe 65 3d
       0.04748314 -0.050422046 -0.056854617 0.05615115
000130 1c 6c 82 bc 3e 0a 64 bd c6 07 6a 3d 84 59 49 bb
       -0.015920691 -0.05567383 0.05713632 -0.0030723521
000140 80 6e 50 3c 47 96 58 bd 54 52 a5 3d 4d 38 a2 3d
       0.012721658 -0.05287769 0.080723435 0.07920895
000150 99 44 ac bd 2a c9 36 bd 78 bb da bc 24 d7 ab bd
       -0.084115215 -0.04462544 -0.02670072 -0.08390644
000160 2e 94 bb 3d fd b7 8b bd a0 36 22 3d fc ac 7c 3d
       0.091591224 -0.06822202 0.039602876 0.06168841
000170 64 5f a6 3b 1d 70 bf 3d e0 d3 a1 3b c6 95 be 3d
       0.0050772894 0.09347556 0.0049385875 0.09305911
000180 52 64 5a 3c 9a d8 97 3c 55 71 81 3d a5 8d 71 3d
       0.013329582 0.0185359 0.063204445 0.058972973
000190 b7 53 0e 3d b1 e7 92 3b f0 cf 92 3d fc e3 a9 3d
       0.034747805 0.004483186 0.07168567 0.08295438
0001a0 bb 22 32 3d 92 49 86 3d 52 d6 c8 3d 46 18 35 bd
       0.043490153 0.06557001 0.09806503 -0.044212602
0001b0 88 5f 2a 3d 44 fa 58 3c 89 a7 9d 3d 93 b2 2d bd
       0.041595012 0.013243262 0.076979704 -0.04240663
0001c0 1f de ba 3d da dc cb 3d 5e e1 c5 bc 71 9e 44 3b
       0.091243975 0.099542335 -0.024155315 0.0030001665
0001d0 14 a8 30 bd 69 6a 7a 3d d7 49 41 bd 1f 06 08 3e
       -0.04312904 0.061136637 -0.04718956 0.13283585
0001e0 9f 98 88 bd ed 88 14 3d ae fa 5e 3c 0e 05 4f bc
       -0.06669735 0.036263395 0.013609571 -0.0126354825
0001f0 98 13 10 bd 34 25 26 bc 9b 49 aa 3d 2e 2d 09 3d
       -0.035174936 -0.010140706 0.083148204 0.033490352
000200 7b 07 bb bc 98 2a 29 bc 3c 0a e3 bc 86 0c f1 3c
       -0.022830715 -0.010325097 -0.027714841 0.029424917
000210 95 dd 68 bd 8b 4f 7c bd 9e 57 8d 3d 8a e0 e9 3c
       -0.056851942 -0.061599296 0.06901477 0.028549451
000220 24 eb eb bc 98 79 dd 3c 8c c6 76 3c 87 36 b5 3d
       -0.028798647 0.02703552 0.015061986 0.08848291
000230 22 2f 8f bd 0e 86 91 bd d0 d8 45 bd 81 14 14 bc
       -0.06991412 -0.07105647 -0.04830247 -0.009038092
000240 df 0c ae 3d ef 59 64 3c 37 4a a8 3d 30 b6 b2 3d
       0.08498549 0.013937457 0.0821728 0.08726156
000250 d7 c3 5b 3d 82 20 a0 3d d4 ec 28 3d e2 64 89 bb
       0.053653564 0.078187004 0.041241482 -0.0041929344
000260 5c 6d 0f 3d ea 60 4e bd d3 73 7d bd 0d 27 99 3d
       0.035016403 -0.050385393 -0.061878037 0.074781515
000270 46 01 80 bc 66 f5 15 3d 40 58 61 bd 19 93 bd bb
       -0.015625607 0.036610983 -0.055015802 -0.0057853577
000280 2e 80 7d 3d c3 75 a4 3d 83 87 5a 3d 44 a3 94 3d
       0.06188982 0.08030274 0.05335189 0.07257703
000290 29 cb b1 3d b5 bf 46 bd f3 20 83 bd a3 23 3e bd
       0.08681328 -0.04852267 -0.06402769 -0.046420705
0002a0 e6 fe 8c bd 7a 2e 9e bd f5 68 5b bd 6f 20 46 bb
       -0.068845555 -0.077237085 -0.05356689 -0.0030231734
0002b0 21 5b 68 3d 97 d1 c8 bc 50 50 a0 3b 1a 9e ac bc
       0.056727532 -0.024514003 0.0048923865 -0.021071482
0002c0 97 91 83 3d ab 93 f0 3c 94 1d 1b 3d 38 b0 6d 3d
       0.064242534 0.029367289 0.037870005 0.058029383
0002d0 b9 c9 6f 3d 86 87 9d 3d d9 a1 53 bc 4c a0 64 3d
       0.058541987 0.07691865 -0.012917005 0.055816934
0002e0 79 9f 2d 3b 2a 76 11 bd 3a 21 46 3d 3b 97 a1 3d
       0.0026492758 -0.03551308 0.04837153 0.07890173
0002f0 9a 72 ff bc d5 68 08 3d 8b 2a b5 3d df 58 62 3d
       -0.031182576 0.0333031 0.08846005 0.055260535
000300 d0 db c4 3d 96 38 d1 3d 51 a4 2a bd 60 a6 26 3d
       0.096122384 0.10215871 -0.04166061 0.04068601
000310 0b 4a 94 3d 7b 54 71 bd a3 9d 84 3c 79 af b7 3d
       0.07240685 -0.058918457 0.016188448 0.08969016
000320 a1 36 59 3d 03 85 15 bd 62 47 77 bd 8d fc 3d bb
       0.053030614 -0.036503803 -0.06037081 -0.0028989643
000330 ae 04 70 3d 41 35 83 3d 28 d4 89 bd fa 11 b7 bc
       0.058598213 0.06406642 -0.06729919 -0.02234744
000340 1a 92 87 3d 69 53 3b bd 95 58 10 bb 7b c8 49 bd
       0.066196635 -0.045733843 -0.0022025455 -0.04926346
000350 54 d0 54 3b d2 ab c5 3d 76 ba 89 3a ea ef 8e bd
       0.0032472806 0.09651913 0.001050784 -0.06979354
000360 e1 18 91 bd 02 00 f7 bc b2 f4 af 3d 2b 64 cc bc
       -0.070848234 -0.03015137 0.08591594 -0.024950108
000370 88 84 62 bd 26 08 ab 3c 35 6c 22 bd 3e 22 aa bc
       -0.055302173 0.020877909 -0.039653976 -0.020768281
000380 01 cd 92 3d a7 c8 40 3d 3a 9f 8d 3d 19 6a 2e ba
       0.07168008 0.047066357 0.06915136 -0.0006653383
000390 e5 65 c1 3d 0d 20 88 bd 98 5c 0e bd c8 ce 5d 3d
       0.09443263 -0.06646738 -0.034756273 0.05415228
0003a0 70 79 65 3d e9 74 1d bd b8 bc 3e bd bf 07 76 bd
       0.056024015 -0.038441572 -0.046566695 -0.06006598
0003b0 8c c5 41 3d 29 20 8a 3d d8 2a ae bc 05 f8 a6 3c
       0.047307536 0.06744415 -0.021260664 0.020381937
0003c0 f0 34 ba 3c 01 7f 4d bd ea ee 72 3d 0c a7 77 bd
       0.02273032 -0.05016995 0.059309877 -0.060462043
0003d0 70 ac 89 bc a8 9c d2 3d ba 5e 7a 3d 79 81 aa bc
       -0.016805857 0.10283786 0.061125495 -0.02081369
0003e0 d0 cb 68 3d 41 34 f5 3c e9 43 29 3c 59 18 60 3d
       0.056834996 0.029932143 0.010331132 0.05471072
0003f0 61 fd 13 ba b7 5d 42 3d b7 e1 0f bd c5 3b 43 3d
       -0.00056453614 0.047452655 -0.035127368 0.047664423
