Lab4 - RNN text classifier/models/model_5.pth (torch, 604193 bytes, 10 tensors)

weight_ih_l0 f4 [384, 1]
0.041268524 -0.0769506 -0.030322295 -0.14192134 0.051665876 -0.06639898 -0.12598535 -0.05099162
0.16445453 -0.07607982 -0.030849421 -0.00037140265 -0.083141424 -0.21915565 0.04042862 0.14451507
-0.086551376 0.02028639 0.05152888 -0.038528875 0.040562823 0.05746585 -0.19044065 -0.17792603
0.074658744 -0.13832867 0.20757678 -0.033929873 -0.011161163 -0.18584886 -0.08483521 -0.14721456
-0.0024956947 0.09018093 -0.14796428 0.12589127 0.01898593 0.15367116 -0.12116489 -0.09413123
0.08829441 0.018067908 0.02458113 0.07175213 0.016167011 0.030032123 -0.0037696105 -0.05924128
0.07493901 0.014621382 -0.047093425 0.015492928 0.08603267 0.3199458 0.0031976374 -0.13475534
0.096824065 0.08889887 0.13059132 0.12963803 0.036321517 0.123939894 -0.14067304 0.07053274
-0.01955924 -0.19699991 -0.03339178 -0.056122404 0.037675638 -0.04266114 -0.056589004 -0.027994843
0.14692873 0.015474932 0.05437572 -0.14002807 0.13644587 0.12446544 0.13744277 -0.088559784
-0.015265133 -0.049687818 0.112701535 0.18478172 0.09602893 0.16608231 0.2071278 -0.09098226
0.029990202 -0.05384535 -0.072302155 0.125558 -0.097400144 0.10691433 0.062303264 0.03027169
-0.08166154 0.18051283 0.020088758 -0.08447796 0.0020698926 0.021619024 0.03773423 -0.04573243
0.18816154 0.15163314 -0.101432025 0.14714542 0.10181978 -0.021317258 0.033556253 -0.069772884
-0.14659598 0.12217723 -0.00083293254 -0.22423464 0.078109875 0.23792619 -0.16027881 -0.22636414
0.010094853 0.036430657 0.18372616 -0.10001223 0.11715542 0.097074516 -0.13461308 0.064195506
-0.0883091 -0.09943884 -0.0893508 0.11242398 0.115231976 0.048631135 0.1745344 0.14167045
0.03280986 0.004085026 -0.22113518 0.041688174 0.05172417 -0.4113859 0.032614805 -0.006864796
0.036048632 0.040689934 -0.12909892 -0.044486176 0.17566888 -0.009140646 0.103493065 0.0698224
0.017409526 0.04392462 0.04216743 -0.19035594 0.02092037 -0.33283773 0.041571636 -0.25274485
0.14835398 -0.24033387 -0.24160738 -0.015843576 -0.074013956 0.06929699 -0.12891114 0.02703807
0.04799583 0.055445317 0.039779514 0.08306793 0.099504374 0.051311575 -0.30993125 -0.030960025
-0.018627461 0.049338493 -0.0067965416 -0.071094096 0.106480874 0.006155445 -0.04683791 -0.21799713
-0.023822038 -0.23540168 -0.09897608 0.09715355 0.16442144 0.051709954 0.034481037 0.067522466
-0.08463025 -0.42616963 -0.002733942 -0.19883506 -0.12430388 0.084307835 0.09802895 0.104838505
0.0449374 -0.06774553 -0.15266901 -0.09261332 -0.035941523 -0.06382538 0.05310413 -0.05748551
0.08787855 -0.0011157584 0.0638762 -0.16810916 -0.073833674 0.118469596 0.0634549 -0.08245269
-0.025933916 0.041394062 -0.18269123 0.07790665 -0.13165896 0.004942316 -0.14799896 0.08681953
-0.20151104 -0.0070445505 0.11193512 0.09196192 0.06688887 -0.297412 -0.027204426 0.017606862
-0.022679664 -0.008231121 0.0744065 0.03378791 0.0774557 0.019300964 -0.10898583 -0.1942859
0.06528303 0.06733409 -0.073615365 -0.22476022 -0.13116838 -0.12626448 -0.20537448 -0.05077752
-0.14435217 -0.039077904 0.068854585 0.05922495 -0.098292366 0.050713025 0.15125214 0.023199076
00000000: 2f09 293d 4798 9dbd 7666 f8bc d453 11be
00000010: 999f 533d 30fc 87bd 4e02 01be 97dc 50bd
00000020: c566 283e bdcf 9bbd edb7 fcbc d2b8 c2b9
00000030: 0d46 aabd 576a 60be 7b98 253d c2fb 133e
00000040: d941 b1bd a52f a63c f20f 533d 74d0 1dbd
00000050: 3425 263d 5061 6b3d e002 43be 3e32 36be
00000060: afe6 983d 08a6 0dbe 028f 543e 0dfa 0abd
00000070: 50dd 36bc 2a4f 3ebe 15be adbd 6abf 16be
00000080: cf8e 23bb c8b0 b83d f383 17be a4e9 003e
00000090: 6288 9b3c f95b 1d3e 4c25 f8bd e0c7 c0bd
000000a0: b3d3 b43d 2603 943c 5e5e c93c c8f2 923d
000000b0: ae70 843c ed05 f63c 920b 77bb fca6 72bd
000000c0: a079 993d 858e 6f3c 09e5 40bd 0dd6 7d3c
000000d0: e631 b03d f0cf a33e 748f 513b 4efd 09be
000000e0: b24b c63d 9c10 b63d bbb9 053e d5bf 043e
000000f0: dfc5 143d 33d4 fd3d 980c 10be 7873 903d
00000100: b33a a0bc 58ba 49be d2c5 08bd 9be0 65bd
00000110: c551 1a3d 73bd 2ebd dfc9 67bd 7155 e5bc
00000120: 7c74 163e 928a 7d3c 13b9 5e3d 8563 0fbe
00000130: 77b8 0b3e bde7 fe3d ccbd 0c3e d55e b5bd
00000140: 9c1a 7abc 7485 4bbd 10d0 e63d 6b37 3d3e
00000150: d1aa c43d 7b11 2a3e 4f19 543e e854 babd
00000160: 03ae f53c f18c 5cbd 2713 94bd 4792 003e
00000170: ba79 c7bd e6f5 da3d b531 7f3d 56fc f73c
00000180: 2a3e a7bd 5bd8 383e 2e91 a43c c802 adbd
00000190: 09a7 073b 611a b13c 358f 1a3d ee51 3bbd
000001a0: 6bad 403e b845 1b3e 98bb cfbd 4aad 163e
000001b0: e486 d03d 88a1 aebc 4872 093d 16e5 8ebd
000001c0: 421d 16be 0e38 fa3d 2859 5aba c49d 65be
000001d0: 12f8 9f3d eca2 733e 2120 24be 00cc 67be
000001e0: e264 253c 5038 153d b622 3c3e 36d3 ccbd
000001f0: 2eef ef3d 01cf c63d 03d8 09be ef78 833d
00000200: 67db b4bd 97a6 cbbd 8dfd b6bd 8b3e e63d
00000210: befe eb3d 7131 473d 25b9 323e 0f12 113e
00000220: a263 063d afdb 853b 4371 62be 38c1 2a3d
00000230: b9dc 533d 2ca1 d2be 1a97 053d 15f2 e0bb
00000240: bba7 133d 7daa 263d 8232 04be 2337 36bd
00000250: 8be2 333e a6c2 15bc 2cf4 d33d 0cff 8e3d
00000260: 6c9e 8e3c 4dea 333d c1b7 2c3d abec 42be
00000270: 3261 ab3c b569 aabe 0547 2a3d c667 81be
00000280: 1bea 173e 151a 76be ed67 77be 63ca 81bc
00000290: a194 97bd 95eb 8d3d 4801 04be f17e dd3c
000002a0: 4797 443d a11a 633d d8ef 223d 851f aa3d
000002b0: f3c8 cb3d 162c 523d 4faf 9ebe e19f fdbc
000002c0: 9e98 98bc 2917 4a3d 86b5 debb c899 91bd
000002d0: a512 da3d 9db3 c93b 1cd9 3fbd a43a 5fbe
000002e0: 6f26 c3bc 230d 71be f9b3 cabd 71f8 c63d
000002f0: 185e 283e d1cd 533d fd3b 0d3d 3849 8a3d
00000300: a052 adbd e832 dabe ef2b 33bb 6b9b 4bbe
00000310: 0893 febd 96a9 ac3d 67c3 c83d 92b5 d63d
00000320: 4710 383d 2bbe 8abd 4455 1cbe 0dac bdbd
00000330: 6b37 13bd e1b6 82bd b783 593d ed75 6bbd
00000340: abf9 b33d a43e 92ba 86d1 823d cf24 2cbe
00000350: 1c36 97bd 30a0 f23d a5f4 813d f5dc a8bd
00000360: 5d73 d4bc d28c 293d 6913 3bbe 868d 9f3d
00000370: 9bd1 06be 27f3 a13b 0a8d 17be 70ce b13d
00000380: e958 4ebe f9d5 e6bb 3d3e e53d 8856 bc3d
00000390: 08fd 883d 6346 98be d1db debc 443c 903c
000003a0: b4ca b9bc d3db 06bc 6f62 983d 3165 0a3d
000003b0: 18a1 9e3d 0e1d 9e3c f633 dfbd e2f2 46be
000003c0: 1cb3 853d 75e6 893d a7c3 96bd 8b27 66be
000003d0: 0151 06be 7a4b 01be b04d 52be 17fc 4fbd
000003e0: 0ed1 13be 2710 20bd a203 8d3d dc95 723d
000003f0: 824d c9bd 76b8 4f3d d7e1 1a3e fd0b be3c

weight_hh_l0 f4 [384, 128]
-0.11449961 -0.16558903 0.047375783 0.06255627 0.16007957 0.22634792 0.025374351 0.1655138
0.08993622 -0.021056635 0.2392766 0.09416416 -0.007019251 0.061812993 -0.1318607 -0.021075066
-0.08544287 -0.03167167 0.097137034 0.04217429 0.08143753 -0.08663859 0.011383537 -0.010467719
0.14250833 -0.1423819 -0.021391619 -0.1972119 0.08381264 -0.016839804 -0.036457475 -0.048124593
0.05357526 0.12983264 -0.1805274 0.057137925 -0.17065117 0.030193128 -0.15474103 0.15092237
-0.091193065 0.13448098 -0.06500805 -0.10799353 0.16049232 0.017400516 0.06297071 -0.22002114
-0.07503274 -0.16852255 -0.09722721 -0.18702061 -0.014861915 -0.1413681 -0.041532397 -0.0011771846
0.11459467 0.17008354 -0.08330042 0.053397637 -0.01828477 0.0745091 0.07646998 0.09980184
-0.04116328 0.013509011 0.084358834 -0.029910695 -0.16992438 0.19023186 -0.1828512 0.066511326
-0.103769556 0.12305177 -0.123142034 -0.06998189 -0.029386623 -0.0013569881 -0.0015519393 0.031697664
-0.15248191 0.07860254 -0.055625547 0.018436551 -0.10961669 0.067380205 -0.10093724 0.187297
-0.046202574 -0.17482455 0.09818855 -0.073836446 0.10503344 0.084774174 0.08506676 0.05117217
-0.037499677 0.00830126 0.056120258 -0.14978373 -0.07141983 -0.033518597 -0.089997575 -0.028673422
-0.023604725 0.06196897 -0.054862782 -0.025483338 -0.14306992 0.060758125 0.16861318 0.040887725
-0.06653743 0.07585474 0.10885888 -0.015719315 -0.12804413 -0.10295474 -0.025994029 -0.16157706
0.051602494 0.098300315 0.095580705 0.009460927 -0.14111845 0.008410033 0.09577497 0.07475742
-0.16691981 -0.0624599 -0.09869921 -0.024231995 0.07279546 0.0743653 0.07066961 0.096756324
0.04449634 -0.11187724 0.123724096 -0.047868237 0.009694043 -0.09019118 0.01076922 0.07840421
-0.10402411 0.019987557 0.033352014 -0.05589062 -0.078586794 -0.02996653 -0.045159105 0.08825595
0.021220127 -0.09106703 0.03457302 -0.071139395 0.10655974 -0.059052944 -0.13514633 -0.1395844
-0.16185567 0.03295233 -0.1150519 0.08373784 -0.0359488 -0.10656694 0.0056560473 0.055669498
0.016064474 0.024446813 0.011244706 0.05477182 0.1752126 -0.0062084175 -0.0708213 -0.13956276
-0.093870714 -0.11734987 -0.11697894 0.005908419 0.028621878 0.0042148586 -0.010274953 0.0055235294
0.14132753 -0.0011547263 -0.024637932 -0.057559244 0.053272214 -0.006771609 0.09236073 0.13393843
0.07525377 -0.066227145 0.037410285 0.086924866 -0.047683064 0.109629564 -0.12451032 0.16057903
-0.06615347 0.005265765 -0.036161594 -0.072701536 0.029136281 -0.11489445 0.06256269 0.011034562
-0.0411517 0.059205186 -0.06476497 -0.11378947 -0.088492066 0.06045933 0.030048423 0.06386391
-0.07930365 -0.008726674 -0.032384478 -0.06699298 -0.01804297 -0.060361657 0.15611315 0.05210411
-0.019995414 0.040734842 -0.0137090385 -0.14674307 -0.11219798 0.019280246 -0.012621335 0.06726854
0.045656886 -0.05567459 -0.081819996 0.08192434 -0.10691874 0.119423635 0.14443259 0.13579212
0.07341707 0.046493467 0.053825825 0.042447504 0.039665215 -0.01835151 0.049138226 0.016355073
-0.025943004 0.13445058 0.06051667 0.08812436 -0.121957324 0.0044842204 -0.035902683 0.102555886
00000000: c67e eabd 2c90 29be 1c0d 423d 801d 803d
00000010: e6eb 233e c0c7 673e dfdd cf3c 737c 293e
00000020: 7b30 b83d f77e acbc ed04 753e 24d9 c03d
00000030: bf01 e6bb 9f2f 7d3d 7e06 07be 9ea5 acbc
00000040: acfc aebd 27ba 01bd c8ef c63d f3be 2c3d
00000050: b8c8 a63d 936f b1bd 0482 3a3c cc80 2bbc
00000060: b4ed 113e 90cc 11be 7a3d afbc ebf1 49be
00000070: f6a5 ab3d a1f3 89bc 6f54 15bd 4b1e 45bd
00000080: bb71 5b3d d9f2 043e 2ddc 38be 7509 6a3d
00000090: 2ebf 2ebe 9457 f73c 6f74 1ebe 658b 1a3e
000000a0: 6ec3 babd 62b5 093e f122 85bd b62b ddbd
000000b0: 1958 243e 878b 8e3c caf6 803d 394d 61be
000000c0: c4aa 99bd 2d91 2cbe 0f1f c7bd 5582 3fbe
000000d0: 647f 73bc cdc2 10be e01d 2abd c34b 9aba
000000e0: 9cb0 ea3d 612a 2e3e 6999 aabd 7bb7 5a3d
000000f0: f1c9 95bc 3a98 983d 4b9c 9c3d e864 cc3d
00000100: d49a 28bd e654 5d3c 53c4 ac3d 4607 f5bc
00000110: a800 2ebe 24cc 423e 583d 3bbe 1737 883d
00000120: 2285 d4bd 9102 fc3d e431 fcbd aa52 8fbd
00000130: 37bc f0bc f7dc b1ba 716a cbba 69d5 013d
00000140: 3824 1cbe 5efa a03d 9dd7 63bd 4008 973c
00000150: b77e e0bd a2fe 893d 2fb8 cebd c9ca 3f3e
00000160: e93e 3dbd 3505 33be 1417 c93d 9037 97bd
00000170: c61b d73d 159e ad3d 7b37 ae3d e999 513d
00000180: 4399 19bd 0202 083c 5bde 653d e860 19be
00000190: 8f44 92bd cc4a 09bd a650 b8bd 86e4 eabc
000001a0: b25e c1bc 2dd3 7d3d ccb7 60bd 6fc2 d0bc
000001b0: ec80 12be 83dd 783d efa8 2c3e e379 273d
000001c0: c744 88bd bb59 9b3d 68f1 de3d cbc5 80bc
000001d0: 001e 03be efd9 d2bd 6ef1 d4bc 7574 25be
000001e0: 235d 533d ad51 c93d d1bf c33d 0102 1b3c
000001f0: 5b81 10be 3cca 093c ab25 c43d 6b1a 993d
00000200: 07ed 2abe f4d5 7fbd d022 cabd 2d82 c6bc
00000210: c915 953d d64c 983d 3abb 903d 2e28 c63d
00000220: cb41 363d e51f e5bd 0f63 fd3d 7c11 44bd
00000230: c3d3 1e3c 27b6 b8bd 6271 303c 6392 a03d
00000240: 980a d5bd f2bc a33c 1f9c 083d 90ed 64bd
00000250: 1df2 a0bd 5e7c f5bc c1f8 38bd 89bf b43d
00000260: d5d5 ad3c 5a81 babd 709c 0d3d 88b1 91bd
00000270: fe3b da3d 80e1 71bd cd63 0abe 37ef 0ebe
00000280: 7ebd 25be 06f9 063d 55a0 ebbd bf7e ab3d
00000290: 0d3f 13bd c53f dabd 5d56 b93b b305 643d
000002a0: a599 833c af44 c83c b73b 383c 6a58 603d
000002b0: ef6a 333e fb6f cbbb c20a 91bd 8ae9 0ebe
000002c0: 4a3f c0bd 2155 f0bd a892 efbd 699b c13b
000002d0: 6e78 ea3c cc1c 8a3b 4758 28bc b9fe b43b
000002e0: 2ab8 103e 2f5a 97ba 7dd5 c9bc 3ec3 6bbd
000002f0: f733 5a3d 60e4 ddbb 9f27 bd3d 2827 093e
00000300: a61e 9a3d 19a2 87bd 873b 193d aa05 b23d
00000310: 514f 43bd 7785 e03d 44ff febd d46e 243e
00000320: 787b 87bd 708c ac3b 2e1e 14bd 8be4 94bd
00000330: 36af ee3c c84d ebbd de20 803d 4fca 343c
00000340: af8e 28bd 2381 723d 7fa3 84bd 740a e9bd
00000350: 543b b5bd 34a4 773d 1c28 f63c 15cb 823d
00000360: f469 a2bd 53fa 0ebc 96a5 04bd 9e33 89bd
00000370: dace 93bc c93d 77bd 20dc 1f3e 1f6b 553d
00000380: 6ccd a3bc 94d9 263d e09b 60bc d143 16be
00000390: 0ec8 e5bd 9bf1 9d3c b7c9 4ebc 17c4 893d
000003a0: b702 3b3d 0a0b 64bd 3e91 a7bd f3c7 a73d
000003b0: 36f8 dabd 6194 f43d 23e6 133e 170d 0b3e
000003c0: b05b 963d ef6f 3e3d 7878 5c3d 6fdd 2d3d
000003d0: fe77 223d e855 96bc 2a45 493d 13fb 853c
000003e0: 6c86 d4bc 6aad 093e 54e0 773d 8b7a b43d
000003f0: c3c4 f9bd 5ef0 923b b10e 13bd d208 d23d

bias_ih_l0 f4 [384]
0.16786078 0.14193529 -0.030284509 0.06446119 0.0945176 0.007862816 0.13901629 -0.061397947
-0.06365525 0.027808066 0.07736196 0.1332844 -0.013822017 -0.028684013 0.034534372 0.14943124
-0.052391186 0.12496067 0.07732436 -0.022221057 0.08234789 0.039018974 0.086980045 0.09542336
-0.06794227 0.11377521 0.00822611 -0.032652065 -0.0074843904 -0.036119375 0.04314001 0.06776684
0.097212225 0.07231797 0.059858795 -0.057119034 0.08147104 -0.062348276 0.043037552 0.14131087
-0.002839699 -0.032089986 0.1056178 0.17869373 0.11868465 0.015392496 0.11461303 0.19478719
0.056705426 0.069962986 0.022759747 -0.04147795 -0.02289508 0.059688378 0.06947301 0.0351202
0.017147297 0.15141821 0.087506786 -0.009771921 0.101477936 -0.018489618 0.12278297 0.008862416
0.11933147 0.08306933 0.10416816 0.13052952 0.120659895 0.044727407 -0.021274708 -0.06653874
0.1581128 0.10970993 0.18201295 0.09433461 0.039574616 0.20158361 -0.021241628 0.03173507
0.049775433 0.05213092 -0.0033404655 0.16791476 0.08071995 -0.00077412813 -0.012743713 0.02703862
-0.03355132 0.02864186 -0.013423916 0.0141314715 0.07300323 -0.036150813 0.19366615 0.08376899
-0.0062935976 0.11567298 0.16488059 -0.05756291 0.03134547 0.17048508 -0.012951966 -0.026676092
-0.073076636 -0.0035614201 0.0030570447 0.061610207 -0.046456292 -0.003001306 0.062078826 0.019581093
-0.05611494 0.034683876 0.1709654 0.0012782047 0.097862974 0.16702586 -0.04724974 0.09641636
0.0041649695 0.06232953 0.12662882 0.06697152 0.022722753 0.057982862 0.01617211 0.04920749
-0.023231644 -0.035000347 -0.029680455 0.06592168 0.08560463 -0.06616734 -0.022745565 0.0043818667
-0.10742132 -0.0043606833 -0.008981879 0.06989186 -0.022971757 -0.093191124 0.003840397 -0.1986777
-0.04674865 0.0029744906 0.051185925 -0.0036292635 0.016105538 -0.06576144 -0.021426382 -0.014932699
0.01752016 -0.02649411 0.0018976098 0.0091353385 0.05658876 -0.0722032 -0.028226586 0.028620195
0.021873718 0.0694794 -0.0066431253 0.06370933 -0.0012934017 -0.032722063 0.102347516 0.013501482
0.11531229 0.09868572 -0.04407406 -0.009885568 -0.0521714 0.04585548 -0.07895698 -0.10754783
-0.10436177 0.0062467665 0.09685283 0.025498906 0.031078165 -0.15645313 -0.08776003 0.056277312
0.05209243 0.039587576 -0.1324444 0.0674073 0.0072245155 -0.11995438 -0.07066289 0.065073505
-0.027864173 0.038945664 0.031443436 -0.06742381 -0.102025814 0.048040554 -0.0037502903 -0.074149534
0.07210188 0.024786025 -0.100639686 -0.09342377 -0.07564352 -0.18125208 0.017802678 0.04672572
0.0067689116 -0.08849363 -0.025958605 -0.07750887 -0.026998313 0.042839706 -0.04249386 0.0076200035
-0.057573844 0.07546581 0.09098727 0.11123776 0.018072544 -0.04284474 -0.013734572 0.0027063715
-0.05324764 -0.06002552 0.13875465 0.094685294 -0.032994192 0.08346785 -0.0057868618 -0.069443986
0.042789932 0.004512686 0.09434028 -0.08091904 0.05553831 -0.06967728 -0.056347985 -0.030165216
-0.032513864 0.05899183 -0.06502303 0.025706947 0.032596357 -0.05467465 -0.084831655 0.001764089
-0.10844866 -0.07219481 -0.016174894 0.060063243 -0.07519403 -0.06098102 -0.0046420274 0.06978253
00000000: b2e3 2b3e 7c57 113e 3817 f8bc 3a04 843d
00000010: 7292 c13d 0ad3 003c 495a 0e3e 6a7c 7bbd
00000020: af5d 82bd becd e33c f36f 9e3d b57b 083e
00000030: be75 62bc bcfa eabc ea73 0d3d 8104 193e
00000040: 2498 56bd 61eb ff3d 3c5c 9e3d ef08 b6bc
00000050: 03a6 a83d 5cd2 1f3d 9822 b23d 536d c33d
00000060: 5125 8bbd fa02 e93d cec6 063c 2cbe 05bd
00000070: 9e3f f5bb e9f1 13bd 94b3 303d 57c9 8a3d
00000080: 3417 c73d 721b 943d 7f2e 753d a6f5 69bd
00000090: 4ada a63d e860 7fbd 2548 303d ccb3 103e
000000a0: 3e1a 3abb ca70 03bd 254e d83d 7dfb 363e
000000b0: f010 f33d cf30 7c3c 3cba ea3d 4b76 473e
000000c0: f343 683d c148 8f3d a672 ba3c c8e4 29bd
000000d0: 768e bbbc cd7b 743d de47 8e3d 33da 0f3d
000000e0: 7d78 8c3c 600d 1b3e c236 b33d 681a 20bc
000000f0: aad3 cf3d 8a77 97bc a375 fb3d ab33 113c
00000100: 0f64 f43d 4120 aa3d 1e56 d53d 88a9 053e
00000110: 891c f73d 1634 373d 4c48 aebc 7745 88bd
00000120: 52e8 213e 9aaf e03d 9a61 3a3e 8132 c13d
00000130: fe18 223d ef6b 4e3e ec02 aebc a2fc 013d
00000140: 53e1 4b3d 3b87 553d b6eb 5abb d9f1 2b3e
00000150: 8050 a53d dcee 4aba 02cb 50bc 1980 dd3c
00000160: 1c6d 09bd 55a2 ea3c fcef 5bbc b087 673c
00000170: b882 953d e012 14bd 6b50 463e 148f ab3d
00000180: 863a cebb f5e5 ec3d 75d6 283e 16c7 6bbd
00000190: 1c64 003d a493 2e3e 7c34 54bc d287 dabc
000001a0: 34a9 95bd b766 69bb b358 483b fc5a 7c3d
000001b0: f448 3ebd 8fb1 44bb 5e46 7e3d 8768 a03c
000001c0: c8d8 65bd ae10 0e3d 8e11 2f3e 6f89 a73a
000001d0: 626c c83d d408 2b3e f288 41bd f175 c53d
000001e0: 4c7a 883b 404d 7f3d fcaa 013e 5d28 893d
000001f0: 1125 ba3c 707f 6d3d 5f7b 843c cb8d 493d
00000200: 4a50 bebc 865c 0fbd 6d24 f3bc f201 873d
00000210: 7b51 af3d be82 87bd e854 babc c395 8f3b
00000220: b6ff dbbd 10e4 8ebb bb28 13bc 7723 8f3d
00000230: 442f bcbc fdda bebd 2caf 7b3b 2b72 4bbe
00000240: 837b 3fbd acef 423b 55a8 513d f0d8 6dbb
00000250: c3ef 833c efad 86bd 6186 afbc 47a8 74bc
00000260: 7086 8f3c 2d0a d9bc 38b9 f83a 63ac 153c
00000270: 9ec9 673d 45df 93bd 713b e7bc e674 ea3c
00000280: 8330 b33c 374b 8e3d 93ae d9bb 0a7a 823d
00000290: 5c87 a9ba 9207 06bd 939b d13d 5235 5d3c
000002a0: da28 ec3d bd1b ca3d 0087 34bd 14f7 21bc
000002b0: aeb1 55bd f5d2 3b3d 32b4 a1bd 0942 dcbd
000002c0: a0bb d5bd adb1 cc3b c75a c63d 15e3 d03c
000002d0: a397 fe3c 4035 20be 88bb b3bd 0a83 663d
000002e0: df5e 553d 9526 223d 819f 07be d70c 8a3d
000002f0: a1bb ec3b a4aa f5bd b5b7 90bd 4245 853d
00000300: 6843 e4bc 7d85 1f3d d5ca 003d 7f15 8abd
00000310: e9f2 d0bd 2cc6 443d 6ec7 75bb b6db 97bd
00000320: 27aa 933d 100c cb3c 2e1c cebd f654 bfbd
00000330: fdea 9abd 259a 39be ecd6 913c 7863 3f3d
00000340: bfcd dd3b 263c b5bd 24a7 d4bc f8bc 9ebd
00000350: 912b ddbc b078 2f3d 0b0e 2ebd 39b1 f93b
00000360: 8dd2 6bbd d28d 9a3d 8957 ba3d 9fd0 e33d
00000370: df0c 943c f77d 2fbd f806 61bc 615d 313b
00000380: 331a 5abd 52dd 75bd b315 0e3e 5dea c13d
00000390: eb24 07bd 31f1 aa3d b79f bdbb a638 8ebd
000003a0: 7f44 2f3d 27df 933b 7a35 c13d e2b8 a5bd
000003b0: 247c 633d f6b2 8ebd 25cd 66bd 0b1d f7bc
000003c0: 422d 05bd 6ba1 713d cb2a 85bd 6097 d23c
000003d0: c283 053d 87f2 5fbd 38bc adbd 0139 e73a
000003e0: 551a debd dfda 93bd 3681 84bc e004 763d
000003f0: 54ff 99bd 3cc7 79bd 261c 98bb 25ea 8e3d

bias_hh_l0 f4 [384]
0.13552164 0.113772474 0.009151565 -0.034709956 -0.009763124 0.015706059 0.107989565 0.050408024
-0.0473301 0.10699626 0.019690512 0.060792863 0.04120466 0.004226692 0.13543323 0.14228705
-0.060757976 0.19785771 0.118140936 -0.020711025 0.05562027 0.010291188 0.014241622 -0.06794647
0.015727824 0.1202598 -0.020625904 -0.043291155 -0.03596182 0.083401494 0.074127726 0.08628715
0.025079096 0.098283984 0.09388797 0.0039381087 0.004439034 0.030013762 -0.04155244 0.062432304
0.05790561 0.00016995409 0.043202374 0.14593679 0.042962078 -0.010221397 0.05001464 0.18750899
0.051745817 -0.0011353567 0.09411559 0.06632627 -0.07478863 0.11593462 0.038068444 -0.011175869
0.02530711 0.049355354 0.18110953 0.025667276 0.11120585 -0.088284776 0.046593945 -0.0231152
0.03322939 0.047102593 0.112268545 0.13243015 0.029827356 0.021002457 0.00036553037 0.08373944
0.13093291 0.0013607619 0.045589056 0.056114726 0.12228021 0.2218603 0.030666692 0.081040815
-0.00993317 0.033027552 -0.00840287 0.048315298 0.08984766 -0.031455837 -0.04988623 0.16390616
0.031941727 0.0046932474 0.07403444 0.03817233 -0.012445776 -0.01972458 0.14216879 0.021035813
0.02116802 0.077179395 0.14566572 0.04115397 -0.018923242 0.16420929 -0.009101532 -0.04848748
0.013903957 0.011915652 0.0396782 0.016603138 0.04092597 0.066101745 0.11619365 -0.011679552
0.004700577 0.048363846 0.20998195 -0.033243358 0.095562294 0.02664194 -0.007944512 0.07984344
0.05254585 -0.034421463 0.05860327 0.047585424 0.09629948 0.011127126 -0.03968015 0.07631251
-0.091498084 0.0064918846 0.0902773 0.030403914 -0.007015331 -0.094465815 -0.16316295 0.101485185
-0.07070899 0.015552566 -0.00602322 0.00702838 -0.08180648 -0.01634996 -0.031041864 -0.11081837
0.01113973 0.08753731 -0.030727778 0.062431164 0.03397015 -0.033104178 -0.08865143 -0.058631245
0.052630175 -0.023882153 0.001751228 0.026643189 0.04598779 -0.023068886 0.058130823 0.03870009
0.08274101 -0.08341219 -0.033995576 0.08720216 0.02847956 -0.015986627 -0.03216161 0.13468036
0.06778305 0.08543017 -0.0020342462 0.08841464 0.07557586 0.0699696 0.036259912 -0.19099866
0.06990649 0.06355631 -0.042243786 -0.035621703 0.03134443 -0.043071147 -0.021735542 -0.069162115
-0.0652146 0.07062315 -0.014373096 -0.0065569193 0.012525059 -0.11659128 -0.061114706 -0.019800592
0.050280634 -0.10814218 -0.09256792 -0.08322852 -0.0053415396 0.0396408 0.092211425 -0.05851452
-0.021079462 -0.074481726 -0.100709766 -0.030600034 0.04174706 -0.17219779 0.15292038 -0.094930366
-0.028411055 -0.035717197 0.11294364 -0.07612935 0.005566909 -0.008704248 -0.019996598 -0.07713371
-0.086921036 0.11654469 -0.079554856 0.02562579 -0.038799364 -0.018354924 -0.054945137 0.06769952
-0.016563613 0.06388061 0.104119025 0.05142169 -0.03167302 -0.04954233 0.11241282 0.048416574
-0.07642036 -0.019673975 0.03959718 -0.10523675 -0.033114243 -0.122892134 0.052823562 -0.09264235
-0.108529374 0.06248142 -0.09851385 0.0055665267 -0.11118366 -0.021032972 0.028384393 -0.044091683
-0.03354351 0.073815465 0.009630841 -0.0505183 -0.16685621 0.061922103 0.014352943 0.06484481
00000000: 2fc6 0a3e 8b01 e93d 72f0 153c 072c 0ebd
00000010: 83f5 1fbc fea9 803c a229 dd3d a578 4e3d
00000020: 35dd 41bd db20 db3d ff4d a13c f001 793d
00000030: 38c6 283d 1080 8a3b 02af 0a3e b2b3 113e
00000040: 5bdd 78bd 369b 4a3e e0f3 f13d 2baa a9bc
00000050: 15d2 633d 5f9c 283c b155 693c 8527 8bbd
00000060: a3d7 803c c54a f63d a8f7 a8bc 1152 31bd
00000070: b44c 13bd 67ce aa3d 47d0 973d 51b7 b03d
00000080: ad72 cd3c 1d49 c93d 5648 c03d 400b 813b
00000090: 5175 913b 6cdf f53c e432 2abd 04b9 7f3d
000000a0: 6f2e 6d3d b435 3239 f9f4 303d 7470 153e
000000b0: 01f9 2f3d a577 27bc 27dc 4c3d 5b02 403e
000000c0: 6cf3 533d 40d0 94ba adbf c03d 11d6 873d
000000d0: c82a 99bd 216f ed3d a8ed 1b3d fe1a 37bc
000000e0: db50 cf3c d728 4a3d c774 393e 2e44 d23c
000000f0: e5bf e33d a6ce b4bd 4bd9 3e3d 175c bdbc
00000100: 8a1b 083d a6ee 403d 0ded e53d c59b 073e
00000110: 8058 f43c 580d ac3c a8a4 bf39 957f ab3d
00000120: 4713 063e 985b b23a 97bb 3a3d 8ed8 653d
00000130: 0c6e fa3d 592f 633e b738 fb3c baf8 a53d
00000140: bcbe 22bc e647 073d 31ac 09bc 43e6 453d
00000150: 0d02 b83d d6d7 00bd 8155 4cbd 04d7 273e
00000160: 54d5 023d d0c9 993b 5e9f 973d 975a 1c3d
00000170: 5ee9 4bbc 7195 a1bc b294 113e 4c53 ac3c
00000180: 8e68 ad3c 3b10 9e3d 6529 153e 1191 283d
00000190: ea04 9bbc 7b26 283e 981e 15bc cf9a 46bd
000001a0: 6ccd 633c de39 433c 9c85 223d 4e03 883c
000001b0: fda1 273d 5a60 873d f0f6 ed3d 975b 3fbc
000001c0: 4c07 9a3b 2b19 463d 8205 573e 302a 08bd
000001d0: 2ab6 c33d 3340 da3c b329 02bc f584 a33d
000001e0: 513a 573d 85fd 0cbd fc09 703d efe8 423d
000001f0: a938 c53d 8d4e 363c a787 22bd bc49 9c3d
00000200: 5963 bbbd e0b9 d43b 4ee3 b83d a111 f93c
00000210: dde0 e5bb 4b77 c1bd 3014 27be 77d7 cf3d
00000220: e0cf 90bd 31d0 7e3c 6e5e c5bb 534e e63b
00000230: 288a a7bd 5af0 85bc 824b febc bef4 e2bd
00000240: 6a83 363c c346 b33d d2b8 fbbc d2b7 7f3d
00000250: 4924 0b3d 3f98 07bd e28e b5bd 5127 70bd
00000260: bd92 573d 81a4 c3bc 7689 e53a d142 da3c
00000270: b15d 3c3d f6fa bcbc 961a 6e3d fc83 1e3d
00000280: 1e74 a93d 03d4 aabd f23e 0bbd 0c97 b23d
00000290: f74d e93c 63f6 82bc e4bb 03bd a6e9 093e
000002a0: d7d1 8a3d 03f6 ae3d fd50 05bb bc12 b53d
000002b0: 84c7 9a3d 394c 8f3d 4685 143d 2795 43be
000002c0: 222b 8f3d d029 823d d207 2dbd 10e8 11bd
000002d0: 0463 003d 5f6b 30bd bc0e b2bc dea4 8dbd
000002e0: 3b8f 85bd dfa2 903d 227d 6bbc 6ddb d6bb
000002f0: e835 4d3c 69c7 eebd 6a53 7abd da34 a2bc
00000300: 11f3 4d3d a679 ddbd 4094 bdbd b773 aabd
00000310: 1508 afbb 645e 223d 58d9 bc3d ecac 6fbd
00000320: d6ae acbc e089 98bd ec40 cebd ecac fabc
00000330: f7fe 2a3d 9e54 30be 2997 1c3e da6a c2bd
00000340: 4dbe e8bc 324c 12bd ff4e e73d b4e9 9bbd
00000350: 9e6a b63b 439c 0ebc e8cf a3bc 47f8 9dbd
00000360: a803 b2bd fcae ee3d a8ed a2bd 2ded d13c
00000370: 15ec 1ebd 115d 96bc 270e 61bd 0ca6 8a3d
00000380: 6ab0 87bc d6d3 823d 5b3c d53d 8d9f 523d
00000390: 92bb 01bd e6ec 4abd b138 e63d 7550 463d
000003a0: 4782 9cbd 512b a1bc a730 223d 5d86 d7bd
000003b0: cda2 07bd dfae fbbd 855d 583d 46bb bdbd
000003c0: a644 debd 84ec 7f3d a1c1 c9bd 6967 b63b
000003d0: 42b4 e3bd 574d acbc 6386 e83c 7b99 34bd
000003e0: eb64 09bd 902c 973d adca 1d3c 47ec 4ebd
000003f0: 5bdc 2abe 08a2 7d3d 9b28 6b3c 5bcd 843d

weight_ih_l1 f4 [384, 128]
-0.06487141 -0.06690336 -0.116097644 -0.07183097 0.16539976 0.062762685 0.009386478 0.008273145
0.026703674 -0.022341993 0.013510308 -0.004137012 -0.006931428 -0.0129544325 0.007876892 0.04475626
-0.00078890775 0.051218864 0.043518767 0.120963134 0.04421412 -0.046904903 0.060674977 0.017723404
0.21435963 0.01860063 0.059157755 -0.08148994 0.049416453 -0.052368816 -0.04739834 -0.025071686
-0.012445274 -0.07109683 -0.07254566 0.017340682 0.021119276 -0.059426066 0.011669484 0.01287075
-0.051725402 0.021024726 0.09920398 0.07657008 0.15570538 0.086710334 0.07648375 0.0028031382
-0.010076521 -0.05174541 -0.10294435 0.041468047 -0.03338089 -0.12723482 0.021821188 0.0024529796
0.079424255 0.084514745 -0.077743575 -0.047957096 0.06307511 0.09204128 0.051672693 0.016494514
0.022579776 -0.01010013 0.02842125 0.18768732 0.023054618 0.061411213 0.0065428694 0.0041151755
-0.07504288 0.038097702 0.024638498 -0.0015936602 0.051602025 0.018497307 -0.0044816644 0.13233635
-0.066140436 -0.048303347 -0.1391479 -0.08435394 -0.020200754 -0.09069802 -0.041968297 0.10092398
-0.008244329 0.0059815906 -0.009897649 0.052981455 -0.08943017 -0.1323588 0.03653057 0.103862636
-0.14390321 0.06506633 0.03669411 -0.12481486 -0.066001266 -0.025977274 0.061285883 0.12082224
-0.06558366 0.090850234 0.047842458 0.098691516 -0.026746882 0.05279307 0.08128884 -0.09352839
-0.04626773 0.055392474 0.12161346 0.08539284 -0.049934097 0.025591165 0.05874765 0.044241402
-0.040915333 -0.04159376 -0.052424144 -0.08791527 0.015627405 -0.0025087812 0.05912225 0.07291867
-0.022238657 -0.07445884 -0.0057100556 0.107896045 -0.16976735 0.1798616 0.046387516 0.061641905
0.0053769937 -0.00626648 -0.0047320295 -0.09314464 0.059868407 -0.15692836 -0.0741221 -0.057362273
0.004396777 -0.065818995 -0.023040773 -0.053124543 -0.029454105 -0.0552066 -0.10352895 0.20101994
-0.00322943 -0.089678265 0.11268471 0.010409229 -0.046263088 -0.123081066 0.0011139206 -0.089776054
0.081972644 0.09336463 0.001121254 -0.04998622 -0.012623649 0.019344334 -0.047654998 0.10018032
0.03852762 0.08443138 -0.13750793 -0.019144464 -0.01681047 -0.0043571135 -0.10526421 -0.091368236
-0.02349024 -0.071596496 0.13371079 -0.03253031 0.049249534 -0.082527645 -0.029348915 0.0028327627
-0.021560559 0.04282356 -0.019333612 0.021141099 0.08646036 -0.18900684 0.14613026 -0.12673855
0.006460075 0.057195593 0.009472066 -0.1282968 -0.019689074 -0.15194331 -0.063720964 0.0008662554
-0.029385632 -0.020851152 0.08923463 0.059043437 -0.051522743 -0.050025035 -0.03706222 -0.01656983
0.1671904 -0.039151765 0.04458799 -0.094632335 -0.08332507 0.024519796 0.034771055 0.018962516
-0.035600923 0.04314456 0.13447331 -0.039278287 0.06680531 0.020327527 0.0454921 0.07440249
0.036857575 -0.027739508 0.07494968 0.15941225 -0.053636774 -0.029988091 0.023762966 -0.16938318
-0.018047336 0.04907319 0.018515956 0.0869091 0.0079953205 0.024138672 -0.017369928 0.1274257
0.064292125 0.10610505 0.0025472338 0.023596048 -0.06420674 0.056095246 -0.047830686 -0.056872196
0.063334286 0.012366424 0.109916516 0.1547729 -0.09523255 0.0078992415 -0.19807732 0.09867861
00000000: 4ddb 84bd a104 89bd 9ac4 edbd 1e1c 93bd
00000010: 8e5e 293e b989 803d bec9 193c 168c 073c
00000020: aac1 da3c 8e06 b7bc 575a 5d3c c68f 87bb
00000030: 0821 e3bb d43e 54bc 140e 013c 5752 373d
00000040: b4ce 4eba dfca 513d bc40 323d 85bb f73d
00000050: dd19 353d 5b1f 40bd 5386 783d ac30 913c
00000060: 1781 5b3e 5960 983c 674f 723d 33e4 a6bd
00000070: e868 4a3d af80 56bd c324 42bd 2363 cdbc
00000080: 43e7 4bbc 379b 91bd d292 94bd 0c0e 8e3c
00000090: 5502 ad3c bf68 73bd 5d31 3f3c d7df 523c
000000a0: 04de 53bd 0c3c ac3c 752b cb3d c6d0 9c3d
000000b0: 3b71 1f3e 3095 b13d 83a3 9c3d dbb4 373b
000000c0: fe17 25bc fff2 53bd 7dd4 d2bd 66da 293d
000000d0: 66ba 08bd d849 02be 59c2 b23c 2bc2 203b
000000e0: 2fa9 a23d 1116 ad3d 0638 9fbd a96e 44bd
000000f0: 862d 813d 2380 bc3d bfa6 533d 811f 873c
00000100: 39f9 b83c 047b 25bc aed3 e83c 1b31 403e
00000110: 0add bc3c 538a 7b3d 9165 d63b 98d8 863b
00000120: 15b0 99bd 560c 1c3d add6 c93c 5de2 d0ba
00000130: a55c 533d aa87 973c edda 92bb 2e83 073e
00000140: a374 87bd bbd9 45bd c97c 0ebe c2c1 acbd
00000150: 0d7c a5bc e2bf b9bd f3e6 2bbd 3bb1 ce3d
00000160: 3913 07bc 3801 c43b c029 22bc 1503 593d
00000170: 2a27 b7bd 1189 07be 14a1 153d efb5 d43d
00000180: 5d5b 13be 7f41 853d 904c 163d ef9e ffbd
00000190: ac2b 87bd 4bce d4bc e806 7b3d a771 f73d
000001a0: ba50 86bd b00f ba3d 74f6 433d c71e ca3d
000001b0: 471c dbbc 8c3d 583d c37a a63d d08b bfbd
000001c0: 3b83 3dbd 38e3 623d 7a10 f93d 71e2 ae3d
000001d0: b287 4cbd 90a4 d13c 60a1 703d 7936 353d
000001e0: d696 27bd 385e 2abd b3ba 56bd ec0c b4bd
000001f0: 0b05 803c 5d6a 24bb 2c2a 723d 6256 953d
00000200: d82d b6bc e07d 98bd 6b1b bbbb 9af8 dc3d
00000210: 7ed7 2dbe a42d 383e d600 3e3d 397c 7c3d
00000220: 7e31 b03b 0b57 cdbb 240f 9bbb 9ec2 bebd
00000230: 9338 753d d4b1 20be 54cd 97bd b4f4 6abd
00000240: d712 903b 1ccc 86bd 01c0 bcbc 1f99 59bd
00000250: bc49 f1bc 5120 62bd fc06 d4bd 2cd8 4d3e
00000260: d8a4 53bb 3da9 b7bd 3ec7 e63d 798b 2a3c
00000270: 5d7e 3dbd ed11 fcbd f900 923a 82dc b7bd
00000280: 46e1 a73d f535 bf3d 0bf7 923a 5abe 4cbd
00000290: 6cd3 4ebc 0278 9e3c e331 43bd 572b cd3d
000002a0: 23cf 1d3d 5cea ac3d e1ce 0cbe dad4 9cbc
000002b0: 1cb6 89bc 1ec6 8ebb c394 d7bd 451f bbbd
000002c0: 9b6e c0bc 2fa1 92bd 7beb 083e 813e 05bd
000002d0: e1b9 493d 4104 a9bd 236d f0bc dfa5 393b
000002e0: c59f b0bc c267 2f3d 8661 9ebc 1930 ad3c
000002f0: 2112 b13d 028b 41be 2ca3 153e c0c7 01be
00000300: 09af d33b ed45 6a3d b930 1b3c 3d60 03be
00000310: fb4a a1bc 0797 1bbe 2380 82bd 6a15 633a
00000320: 23ba f0bc 09d0 aabc a5c0 b63d 88d7 713d
00000330: 8309 53bd 0de7 4cbd 8ece 17bd 74bd 87bc
00000340: f633 2b3e 9a5d 20bd e5a1 363d 99ce c1bd
00000350: 56a6 aabd bddd c83c 186c 0e3d 4757 9b3c
00000360: 46d2 11bd 5ab8 303d 5fb3 093e 45e2 20bd
00000370: 39d1 883d ea85 a63c ed55 3a3d 5560 983d
00000380: f8f7 163d f73d e3bc 387f 993d f73c 233e
00000390: 3cb2 5bbd 96a9 f5bc 8daa c23c c972 2dbe
000003a0: 02d8 93bc f800 493d c6ae 973c 66fd b13d
000003b0: cefe 023c 77be c53c 614b 8ebc e27b 023e
000003c0: 97ab 833d 9b4d d93d 7eef 263b 804c c13c
000003d0: d37e 83bd 21c4 653d 1cea 43bd d2f2 68bd
000003e0: 68b5 813d 8b9c 4a3c e91b e13d c97c 1e3e
000003f0: 4809 c3bd d26b 013c c8d4 4abe 0318 ca3d

weight_hh_l1 f4 [384, 128]
-0.05660376 -0.10436025 -0.00041089565 0.007915219 -0.027088912 0.018556634 -0.03892444 -0.14022732
0.083528474 0.03597752 -0.09631099 -0.027397407 -0.09815397 0.09793009 -0.03345455 0.028897231
0.014761618 0.039298996 0.062240597 -0.08012529 0.070691705 0.017252536 -0.033433866 0.12155409
0.050303068 -0.035576653 0.08374881 0.07305974 -0.032087214 -0.074674144 -0.07309288 -0.042124793
0.046741035 0.053009115 0.033936944 -0.03855857 -0.003018127 -0.036448874 0.10328448 0.011867279
0.05456776 0.04120807 -0.09100587 -0.032402217 -0.03823351 0.11321924 -0.021127185 -0.10495958
-0.017179705 0.03230482 -0.045234777 0.009108331 -0.09954243 -0.052851606 0.09370693 0.059207886
0.022545388 -0.062740244 -0.15663213 0.012061356 0.0035318213 0.05652882 -0.019685445 0.008618465
-0.005730692 -0.022426095 0.0023191047 0.02515687 -0.05465791 0.08899891 -0.040336676 -0.014668661
0.18682289 0.019376872 -0.03657317 0.05383941 0.19968638 0.011484219 -0.025996683 0.08095106
0.1060179 0.0514369 -0.035513077 -0.09566007 0.073498905 -0.014791059 0.1639022 0.025176557
0.077819414 -0.021824175 -0.121965796 -0.016333448 -0.0032677336 0.095417835 0.045828894 -0.05932836
-0.055580772 0.19091183 0.06368746 -0.060586978 0.0038673792 0.055140994 0.030566612 -0.089588284
-0.090828165 -0.08320247 0.12897092 0.06690203 0.09283381 -0.12013745 -0.024351524 -0.013936971
-0.012629387 -0.09649949 0.032434035 0.016326545 -0.00963214 -0.0016489573 -0.030175086 -0.004595141
0.06453278 -0.033583492 0.0403344 -0.084888466 -0.14358187 0.0063067377 -0.044937786 0.075560845
-0.06576448 0.08207115 0.0019554032 -0.011333284 0.12886932 -0.08724508 -0.09207902 0.0056447363
-0.098944604 -0.0034431112 0.029225037 0.031964466 0.08184472 0.04815936 -0.18013634 0.048681397
0.0048218123 -0.0009365524 -0.08661368 -0.035964817 -0.01627351 0.15029086 0.05113711 0.037337754
0.00016467393 -0.061241288 -0.11980523 0.16091828 -0.0010739968 -0.010974602 -0.07448148 -0.024139667
-0.046842225 0.07538755 -0.069677025 -0.096688546 -0.07652827 -0.054265372 -0.06793057 0.20852378
0.023644794 0.017591104 0.018867074 -0.10628679 0.001391396 0.021437045 -0.09253928 0.0075429403
0.142694 -0.04316556 0.06346148 -0.06313231 0.07375353 -0.014189979 -0.0061788713 -0.097207844
-0.07699807 0.03391375 0.07775648 -0.03413165 -0.020232795 -0.070030406 -0.070335805 0.011179816
0.059410583 0.057847098 -0.11600884 0.0035646562 0.16255265 -0.059942957 0.12328451 -0.12461051
-0.091068916 0.04936418 -0.019940503 -0.05082474 0.026868584 -0.055511612 -0.073492505 0.1267707
0.033768672 0.16002525 0.13423653 0.09032179 0.053704094 -0.06695901 0.16453418 0.093009435
-0.12334606 -0.08488591 -0.0040707844 0.06317895 -0.0590673 -0.031317722 0.04113736 0.06277383
0.11291775 -0.09034395 0.046706825 -0.054825753 0.021424333 -0.011077043 -0.067410685 0.050926
-0.07063365 -0.13305911 -0.020391887 -0.07143853 0.091688 -0.20302533 0.05208138 0.026233908
-0.0018427097 -0.05298772 0.008263277 -0.085499994 -0.054071948 0.10338236 -0.024197295 -0.039108288
-0.030642916 -0.1934764 0.0051183263 -0.18316196 0.014634605 -0.002084518 -0.014210974 0.07391148
00000000: 58d9 67bd d4ba d5bd 7b6d d7b9 d6ae 013c
00000010: 91e9 ddbc 1504 983c 3c6f 1fbd c097 0fbe
00000020: fa10 ab3d 2a5d 133d b23e c5bd 8770 e0bc
00000030: f304 c9bd 928f c83d a307 09bd e3b9 ec3c
00000040: b7da 713c fcf7 203d ffef 7e3d ba18 a4bd
00000050: d0c6 903d 3155 8d3c f3f1 08bd 5af1 f83d
00000060: 970a 4e3d d3b8 11bd 7f84 ab3d 58a0 953d
00000070: e26d 03bd c2ee 98bd b8b1 95bd 0c8b 2cbd
00000080: 8773 3f3d 1620 593d 7701 0b3d 97ef 1dbd
00000090: c5cb 45bb 6a4b 15bd d086 d33d fa6e 423c
000000a0: 7282 5f3d cbc9 283d 4961 babd 30b8 04bd
000000b0: be9a 1cbd 7ddf e73d eb12 adbc 0cf5 d6bd
000000c0: 74bc 8cbc 0f52 043d 1a48 39bd 1c3b 153c
000000d0: e7dc cbbd ed7a 58bd 6be9 bf3d f883 723d
000000e0: 1bb1 b83c f57d 80bd 2c64 20be fe9c 453c
000000f0: 2176 673b c48a 673d 5f43 a1bc 7634 0d3c
00000100: 87c8 bbbb eeb6 b7bc 1ffc 173b c815 ce3c
00000110: f9e0 5fbd 0f45 b63d 1238 25bd d354 70bc
00000120: 804e 3f3e 3fbc 9e3c c0cd 15bd b786 5c3d
00000130: 967a 4c3e 4e28 3c3c fff6 d4bc abc9 a53d
00000140: ea1f d93d 80af 523d 2976 11bd 6de9 c3bd
00000150: 9886 963d 3356 72bc fad5 273e 113f ce3c
00000160: c95f 9f3d 9dc8 b2bc 34c9 f9bd b9cd 85bc
00000170: 7927 56bb 6d6a c33d 14b7 3b3d 4b02 73bd
00000180: aaa8 63bd 647e 433e 926e 823d 0d2a 78bd
00000190: db73 7d3b 86db 613d d566 fa3c 107a b7bd
000001a0: 1e04 babd 0e66 aabd f410 043e ee03 893d
000001b0: a71f be3d a00a f6bd d97c c7bc e557 64bc
000001c0: 7deb 4ebc 86a1 c5bd 8dd9 043d 3fbf 853c
000001d0: 20d0 1dbc d321 d8ba be31 f7bc d692 96bb
000001e0: c329 843d d88e 09bd af35 253d 01da adbd
000001f0: 2007 13be c0a8 ce3b af10 38bd a5bf 9a3d
00000200: 87af 86bd eb14 a83d 3926 003b 3daf 39bc
00000210: 52f6 033e 8cad b2bd ed93 bcbd 7bf7 b83b
00000220: 78a3 cabd d2a5 61bb 5869 ef3c 2ced 023d
00000230: 349e a73d c042 453d a975 38be 2566 473d
00000240: 4b00 9e3b f882 75ba 8362 b1bd d84f 13bd
00000250: 0650 85bc d9e5 193e 2575 513d 79ef 183d
00000260: 52ac 2c39 25d8 7abd 725c f5bd c3c7 243e
00000270: 5ac5 8cba d1ce 33bc bf89 98bd 8dc0 c5bc
00000280: a2dd 3fbd ca64 9a3d d4b2 8ebd a504 c6bd
00000290: dbba 9cbd 5e45 5ebd 2f1f 8bbd 4287 553e
000002a0: bab2 c13c 381b 903c 1f8f 9a3c e3ac d9bd
000002b0: 815f b63a be9c af3c 3c85 bdbd c52a f73b
000002c0: 601e 123e 5fce 30bd 18f8 813d 834b 81bd
000002d0: 170c 973d 167d 68bc 2178 cabb e814 c7bd
000002e0: 2ab1 9dbd 25e9 0a3d ca3e 9f3d a1cd 0bbd
000002f0: 3fbf a5bc 1a6c 8fbd 380c 90bd 8c2b 373c
00000300: 8358 733d 14f1 6c3d 0b96 edbd 029d 693b
00000310: 3474 263e bf86 75bd 977c fc3d cc33 ffbd
00000320: 5782 babd 1832 4a3d 445a a3bc 9a2d 50bd
00000330: 811b dc3c 2560 63bd 3d83 96bd 2ed0 013e
00000340: 0551 0a3d a9dd 233e 4d75 093e a1fa b83d
00000350: d3f8 5b3d ce21 89bd a67b 283e bb7b be3d
00000360: dc9c fcbd aad8 adbd 3764 85bb f763 813d
00000370: 8ef0 71bd 0347 00bd a67f 283d 918f 803d
00000380: 6c41 e73d 4006 b9bd a84f 3f3d f890 60bd
00000390: 1582 af3c 7c7c 35bc 9d0e 8abd c897 503d
000003a0: 60a8 90bd a640 08be e30c a7bc 5d4e 92bd
000003b0: ebc6 bb3d dfe5 4fbe 4953 553d 7ee8 d63c
000003c0: 1487 f1ba a709 59bd b262 073c 9f1a afbd
000003d0: 8c7a 5dbd 21ba d33d 6839 c6bc 0330 20bd
000003e0: da06 fbbc ad1e 46be a2b7 a73b cf8e 3bbe
000003f0: fbc5 6f3c 699c 08bb 25d5 68bc e75e 973d

bias_ih_l1 f4 [384]
0.10960004 0.09144778 -0.015022185 0.0455512 -0.007670592 0.024593027 -0.022191092 0.06207331
-0.022825962 -0.037572004 -0.04106402 0.028557222 -0.07149804 -0.0038414488 -0.055849943 0.065398626
-0.011095895 0.013433877 -0.057422284 0.13575734 0.074832365 0.0025132813 0.04416647 0.027519856
0.08920103 0.08301573 0.051654145 0.049215604 0.11973567 0.053036835 0.09710093 -0.040268976
-0.0173686 0.010007507 0.04487565 -0.021868574 0.0652783 0.03921762 0.008685351 0.001063531
-0.042554352 0.0066057234 0.0053581824 0.06924852 0.06907409 0.07867227 -0.04046547 0.056027144
0.03690113 0.1550581 0.0010717587 -0.022867508 0.054214563 -0.036846556 0.033875294 0.009149601
0.014342596 0.05980364 0.10455132 0.083103426 -0.04539942 0.13158047 0.028746802 0.042532757
0.0848693 -0.0761815 0.043999713 0.02139096 0.062454242 -0.09024583 -0.08738887 -0.004876904
0.07320619 0.112717725 0.08964168 -0.060321607 0.0990201 -0.04953673 -0.033770096 0.009153426
-0.011470813 -0.06854646 0.02643044 0.10586544 -0.06090647 0.13396962 0.041907564 0.05522148
-0.05564679 0.092707135 0.07517001 0.039289918 0.019702166 0.059703875 0.06981037 0.021831905
-0.0025089476 0.077104114 -0.0056676087 -0.036904782 -0.039864626 -0.06345256 0.07196348 0.045797136
0.009734402 -0.049163096 -0.04645807 -0.0070863096 0.1009708 -0.037965972 0.10448483 -0.027524028
0.10572291 -0.0031936574 -0.029780706 -0.017423682 0.10877006 0.06765498 0.040068828 -0.039945077
0.08297599 0.1049434 0.079084516 0.080680564 0.08295735 0.031702965 0.086898535 0.026478792
-0.013638329 0.024431191 -0.08817928 0.092634834 -0.03308767 -0.038088966 -0.017830318 0.029014854
-0.0036332498 -0.053908378 0.013782612 0.04858056 -0.0008816065 0.044307146 -0.12950711 -0.030474357
-0.09088919 0.061847832 0.027935812 0.07561202 0.06079294 0.0538032 -0.119822934 -0.1322585
0.08401767 0.029322369 -0.058914386 0.04200442 0.026205568 0.08042408 0.10108496 -0.03977699
-0.068516776 0.039085366 0.015218284 0.042547498 -0.009428449 -0.08897987 -0.06879831 0.08065952
0.026743434 0.0628475 -0.08546441 0.082236744 -0.018824805 0.08642287 -0.011835097 0.038892474
-0.08476343 0.035434578 -0.068472244 0.09195291 0.03871134 0.03135503 0.041460823 -0.016958313
0.08275605 -0.0022721498 -0.08338571 -0.089021616 -0.052377205 -0.07618428 -0.06944615 -0.05998913
0.00739504 -0.04965356 -0.022981398 -0.0020750843 0.13234109 -0.013486341 0.004460144 0.04161734
-0.107741304 -0.0817584 -0.046769556 0.031145716 0.0034575108 -0.08662285 0.0068188147 0.06260997
-0.040409263 0.035219256 0.10266255 0.022569358 0.02053773 0.090204135 -0.10364682 -0.052287918
0.06903783 0.076840006 -0.05621392 -0.06298266 0.012070043 0.012565157 0.0072291885 0.044745345
0.0040175556 0.08098543 0.059217833 0.08613545 -0.020473827 0.02906717 -0.01332742 -0.0697932
-0.05796933 0.16252467 0.02992857 0.0059614386 0.09007509 0.0028143951 0.05646693 0.08710449
0.044580195 0.03732291 0.060569108 -0.032587048 0.055748973 -0.10017286 0.071076766 0.049456898
0.013979769 -0.021954903 -0.08693416 0.17715243 -0.059751444 0.082802534 -0.09471241 -0.025134673
00000000: fc75 e03d f948 bb3d 9c1f 76bc e593 3a3d
00000010: 9759 fbbb 5177 c93c 18ca b5bc 9540 7e3d
00000020: 83fd babc 1ae5 19bd bf32 28bd d6f0 e93c
00000030: 906d 92bd d1c0 7bbb e9c2 64bd b7ef 853d
00000040: 8fcb 35bc c419 5c3c a133 6bbd f903 0b3e
00000050: b641 993d ddb5 243b e7e7 343d 5271 e13c
00000060: 08af b63d 2704 aa3d 4c93 533d 4d96 493d
00000070: fa37 f53d 273d 593d dadc c63d 15f1 24bd
00000080: 9848 8ebc 87f6 233c 88cf 373d b925 b3bc
00000090: a1b0 853d a8a2 203d 014d 0e3c 2e66 8b3a
000000a0: 794d 2ebd d374 d83b b193 af3b 2bd2 8d3d
000000b0: b776 8d3d ed1e a13d 1fbf 25bd b87c 653d
000000c0: a425 173d 8dc7 1e3e 417a 8c3a a454 bbbc
000000d0: 1710 5e3d 6aec 16bd d2c0 0a3d 35e8 153c
000000e0: 35fd 6a3c a9f4 743d 011f d63d 2132 aa3d
000000f0: bef4 39bd 08bd 063e 6a7e eb3c d436 2e3d
00000100: f5cf ad3d 0c05 9cbd 0b39 343d 183c af3c
00000110: 05d0 7f3d ced2 b8bd f0f8 b2bd 70ce 9fbb
00000120: 20ed 953d 8dd8 e63d 0f96 b73d ca13 77bd
00000130: 0dcb ca3d 07e7 4abd 8352 0abd 40f8 153c
00000140: 14f0 3bbc 1662 8cbd a684 d83c fbcf d83d
00000150: 1079 79bd 552f 093e 44a7 2b3d eb2f 623d
00000160: e3ed 63bd 3ddd bd3d bcf2 993d 77ee 203d
00000170: 7066 a13c 0d8c 743d bdf8 8e3d d3d8 b23c
00000180: 286d 24bb c3e8 9d3d 59b7 b9bb 7829 17bd
00000190: 1749 23bd 6af3 81bd 9761 933d c795 3b3d
000001a0: 0b7d 1f3c 3e5f 49bd d14a 3ebd 4634 e8bb
000001b0: c7c9 ce3d 3582 1bbd 24fc d53d 127a e1bc
000001c0: 4185 d83d ae4c 51bb abf6 f3bc 1cbc 8ebc
000001d0: d6c2 de3d b28e 8a3d 361f 243d 739d 23bd
000001e0: 51ef a93d 91ec d63d 10f7 a13d da3b a53d
000001f0: 8be5 a93d f8da 013d dcf7 b13d 0dea d83c
00000200: 4c73 5fbc ec23 c83c 5797 b4bd 55b7 bd3d
00000210: f086 07bd 2d03 1cbd e310 92bc 8fb0 ed3c
00000220: d11b 6ebb 08cf 5cbd 77d0 613c 69fc 463d
00000230: 9c1b 67ba 697b 353d 839d 04be 5ca5 f9bc
00000240: 1d24 babd 2754 7d3d a5d9 e43c 7ada 9a3d
00000250: 0502 793d bf60 5c3d ba65 f5bd c66e 07be
00000260: 7511 ac3d 7735 f03c 3650 71bd d40c 2c3d
00000270: 0fad d63c 61b5 a43d a205 cf3d 32ed 22bd
00000280: 8652 8cbd fa17 203d 1c56 793c 4946 2e3d
00000290: c879 1abc 143b b6bd 21e6 8cbd d230 a53d
000002a0: 0c15 db3c 31b6 803d f707 afbd bd6b a83d
000002b0: 7a36 9abc 79fe b03d ffe7 41bc b74d 1f3d
000002c0: 7398 adbd d923 113d 2d3b 8cbd cf51 bc3d
000002d0: c88f 1e3d 226e 003d d3d2 293d 29ec 8abc
000002e0: 017c a93d 59e8 14bb 21c6 aabd f750 b6bd
000002f0: 7b89 56bd 8106 9cbd c839 8ebd 29b7 75bd
00000300: 1752 f23b 8861 4bbd 7c43 bcbc 23fe 07bb
00000310: 6c84 073e d0f5 5cbc 6626 923b f276 2a3d
00000320: 79a7 dcbd f370 a7bd 6f91 3fbd 4d25 ff3c
00000330: 6897 623b 5267 b1bd 5d70 df3b a839 803d
00000340: 2f84 25bd 1142 103d be40 d23d 60e3 b83c
00000350: be3e a83c f2bc b83d c944 d4bd db2b 56bd
00000360: b563 8d3d 4b5e 9d3d 9140 66bd 0efd 80bd
00000370: 6ec1 453c 17de 4d3c d4e2 ec3b e546 373d
00000380: b3a5 833b b0db a53d 668e 723d c867 b03d
00000390: bab8 a7bc 461e ee3c 405b 5abc bdef 8ebd
000003a0: 4071 6dbd de6c 263e c32c f53c 2c58 c33b
000003b0: 4a79 b83d b771 383b de49 673d d763 b23d
000003c0: b999 363d e8df 183d 5017 783d ff79 05bd
000003d0: 0959 643d 6e27 cdbd b290 913d 5193 4a3d
000003e0: 670b 653c c5da b3bc 890a b2bd 7267 353e
000003f0: eebd 74bd 6094 a93d 94f8 c1bd 3be7 cdbc
