Lab4 - RNN text classifier/models/model_4.pth (torch, 207457 bytes, 6 tensors)

weight_ih_l0 f4 [384, 1]
000000 af 6a f3 3d fe 7b fb 3c 77 36 be b9 13 59 b6 bc
       0.11885583 0.030698773 -0.00036280203 -0.02225927
000010 10 1d c9 3d 9b f3 dc bc 12 a5 9a 3d 22 4a 9d bd
       0.09819996 -0.026971629 0.07551016 -0.07680155
000020 43 ef 99 3d 28 33 a8 bd bb eb 1f 3e 61 cb 14 bb
       0.07516339 -0.08212882 0.15617268 -0.002270423
000030 d3 bb 85 be be 55 cf 3b 64 ab 28 be 4c d2 62 3d
       -0.2611986 0.00632736 -0.1647163 0.055376336
000040 37 af 7b bc 0b 18 96 bc b6 40 9e bd 8d 9f 48 bd
       -0.015361599 -0.018322011 -0.077271864 -0.048980284
000050 c7 e7 34 3c 87 c7 c5 3b 25 12 0c 3e b6 2b da 3d
       0.011041588 0.0060357484 0.13678797 0.106528684
000060 be b8 39 3e 13 84 dd bc 7b a9 1e 3c ad 1f 44 be
       0.1813688 -0.027040517 0.009683962 -0.19152708
000070 4c 51 ea bd 7f e3 a2 bd e0 a3 33 3e 87 51 91 3d
       -0.114412874 -0.07953548 0.17542982 0.07095628
000080 c8 5a 5a bd df 2e dd 3d d3 e8 1a 3e 11 0c 9a 3d
       -0.053309232 0.107999556 0.15127878 0.07521833
000090 0c bf 95 be ef ec 15 bd 2f 6d 23 be 6a d8 be 3d
       -0.2924732 -0.03660291 -0.15959619 0.093186215
0000a0 f1 a3 bc bc 06 01 9a 3d 7e 1a 52 bd 6b 3c 7d be
       -0.023027392 0.075197265 -0.051294796 -0.24730079
0000b0 7f 9f 03 3e c6 b1 d0 3d 96 a1 9a 3b 43 74 8c 3b
       0.12853812 0.101901576 0.0047189696 0.0042863204
0000c0 71 81 59 3d 6e 81 d0 3d 85 4f 3a 3c 97 c0 e6 3c
       0.05310196 0.10180937 0.011371498 0.028168006
0000d0 a0 d1 b9 3d 75 dd ab 3d 42 47 a6 3b 22 72 6e bd
       0.09073186 0.08391849 0.0050744126 -0.058214314
0000e0 3c 74 d3 3d be e9 14 bb d9 29 af 3b 10 f1 08 3d
       0.10324904 -0.002272233 0.005345565 0.03343302
0000f0 ac 0c 0f 3e 58 1a 64 bd 8c e6 1a 3d 42 6e aa bc
       0.13969678 -0.055689186 0.037817523 -0.020804528
000100 24 79 52 3c 02 c9 e1 bd 6e 77 16 3e 32 59 40 3d
       0.012846265 -0.11024667 0.14693996 0.046960063
000110 a1 9d a6 3d ac 11 cf 3d 88 96 16 bd 15 81 06 3e
       0.08135534 0.101107925 -0.03676465 0.13135178
000120 03 02 b3 3d 3f dd 09 3d 9c fe f6 3d 00 d8 4f bd
       0.08740618 0.033658262 0.12060282 -0.050743103
000130 b4 f6 c2 bd a5 24 3d 3e d1 2d 55 3d 4c 78 35 bd
       -0.09519711 0.1847101 0.052045647 -0.044304177
000140 83 c8 7f bd a8 39 0c be e6 2d 07 3d 29 31 d2 3d
       -0.062447082 -0.13693869 0.033002757 0.10263283
000150 68 4e 96 bc 6c 49 47 3d 80 ad bb 3c 9a 1c eb 3d
       -0.018347934 0.048654005 0.02290988 0.11480065
000160 a9 bb 10 3d e6 39 02 be a8 c3 02 3c e1 c1 a4 3d
       0.035335217 -0.12717399 0.007981218 0.08044792
000170 07 85 90 bc f2 22 1f 3d 37 25 ce 3d d8 d0 49 3d
       -0.017641557 0.038851686 0.10065692 0.049271435
000180 28 7d a0 bc c9 e3 34 bd d6 59 ab 3d eb 22 8e bd
       -0.01959093 -0.044162545 0.08366744 -0.06940254
000190 77 97 6a 3d de b0 8c 3c 9d 85 8e 3d 95 7f 99 bd
       0.057273354 0.01717418 0.069590785 -0.074950375
0001a0 bf 98 8e bd 1d a0 04 3e 5f a0 aa bc 0f 0d 9a bc
       -0.06962728 0.12951703 -0.020828424 -0.018805055
0001b0 13 78 c9 bd 4f 3f 3d bd 23 87 1b 3e 79 06 25 be
       -0.098373555 -0.046202954 0.1518827 -0.1611575
0001c0 ab cc ab 3c aa ae 75 3d c5 1d d3 bd 7a 99 c9 3e
       0.020971617 0.059981026 -0.103084125 0.39374906
0001d0 20 03 8f 3d 87 5e 42 bd 07 2e 2e 3e 15 b4 09 3d
       0.06983018 -0.04745343 0.17009746 0.033619005
0001e0 d3 b1 08 be 5a f4 91 3d 99 5f 4b 3d f7 7e 82 bd
       -0.13349085 0.071266845 0.049651716 -0.06371873
0001f0 da 90 b9 3c 10 46 41 3e ac e8 b6 3c 73 05 d0 3c
       0.022652078 0.18874383 0.022327743 0.025393223
000200 0c a1 69 be 0d 43 40 bc b2 62 f7 bb 62 54 96 3d
       -0.22815341 -0.011734736 -0.007549607 0.073403135
000210 43 2c 84 3d 7a 8c bd 3c 0f e5 0f 3e 0b 1f 1b be
       0.06453755 0.023138274 0.14052223 -0.1514856
000220 19 3e 53 bd 68 e2 03 3d 2f fe 90 3d 83 39 9b 3d
       -0.051572893 0.03219834 0.07079732 0.07579329
000230 37 f1 4f be 91 f6 04 bd 9c d8 ad be 02 8e e0 3c
       -0.2030686 -0.032461707 -0.33954322 0.027411465
000240 38 49 c5 3d 5b 95 23 3c 1c a1 ea bd 90 6a 20 3e
       0.09633106 0.00998434 -0.114565104 0.1566565
000250 c8 fa 16 3d f1 33 20 3c 5b bf 3e 3d eb 2b 2a 3e
       0.036860257 0.009778009 0.04656921 0.16618316
000260 7b 72 9c be 80 9d 11 3c 3c 55 af 3d 5a 13 3d 3e
       -0.30556092 0.008887649 0.08561179 0.18464413
000270 5b cc c9 3d 6c 9c 94 bd 3e e8 13 3e ea a4 8d 3c
       0.09853431 -0.072563976 0.14444062 0.017290551
000280 60 87 f7 bd 9e ac 65 3c 05 ac 18 3e 15 25 00 3e
       -0.120863676 0.014018206 0.1490937 0.12514146
000290 18 f2 8f be a2 5b 23 be 09 84 10 be 06 fc bf 3d
       -0.2811439 -0.15952924 -0.14112867 0.093742415
0002a0 b3 e1 da 3c 55 06 2c bc f9 b9 a0 bd ef 1b 05 bd
       0.02671895 -0.010499557 -0.078479715 -0.032497343
0002b0 d8 b6 ba bd b1 a1 ce 3b fa 13 10 be 3e 2c e5 3d
       -0.09116906 0.006305896 -0.1407012 0.11190079
0002c0 1f ce 36 be ec e2 d9 39 66 a1 14 3e 1a 1f 19 3e
       -0.17852066 0.00041558535 0.14514694 0.1495327
0002d0 8b 1d 1a bd 86 6e 1d 3b af 68 d6 bd cc 90 84 bd
       -0.03762583 0.0024022176 -0.104691856 -0.0647293
0002e0 b2 a7 48 bd dd 90 d5 3d ee cb ba bd 01 c0 29 bc
       -0.04898805 0.10428021 -0.09120928 -0.010360719
0002f0 9b 86 01 be bd 23 3a be 6f 3f 56 be 63 a1 97 3b
       -0.12649004 -0.18177696 -0.20922635 0.004627393
000300 bc a0 69 3c 5c 24 15 bd 3b cf ef bd 6d c4 d4 3c
       0.0142595135 -0.036411628 -0.11709448 0.02597257
000310 25 a9 22 bd a1 f8 83 bd 1b 56 eb bc ce bc e0 bd
       -0.03971209 -0.064439066 -0.028727582 -0.10973512
000320 09 ae 88 bd 0a 7d 9e 3d ac 90 8b 3d d4 c8 c6 3b
       -0.066738196 0.07738693 0.06814703 0.006066421
000330 52 d0 c4 bc 0e 26 4c 3d 74 5d 3f bc 81 4c 70 3d
       -0.024025116 0.04984098 -0.011679996 0.05866671
000340 4b 88 bc 3c 5c 91 9f bc de 3d 00 bd 17 91 31 be
       0.023014208 -0.019478492 -0.031309 -0.17340504
000350 bc d8 cc bd be e8 dc bd 61 bc be 3d 5d 75 e9 3d
       -0.10002276 -0.107865795 0.09313274 0.113993384
000360 2d 1a b0 3d 2e d3 84 be 1d bf ce 3d 4e 46 fa bc
       0.08598743 -0.25942367 0.10095046 -0.030551102
000370 13 ed 0a bd c4 88 77 3d c4 68 14 3e 52 8a 6e 3d
       -0.033917498 0.060433164 0.1449309 0.05823738
000380 24 55 40 3c 17 c1 ae bb 74 c9 5e 3c c6 da 26 bd
       0.011739049 -0.0053330767 0.013597835 -0.040735982
000390 22 aa 8f bd 68 1c e7 bd cf 7a 00 3d d2 83 2f bd
       -0.07014872 -0.11284715 0.03136712 -0.042850323
0003a0 58 d5 5b 3d 4f 22 d7 3d 05 9d 59 be a2 a5 a6 bd
       0.053670257 0.10504591 -0.21251304 -0.08137061
0003b0 90 a9 b5 3d 29 38 a4 3d 55 c1 94 3c f3 d4 32 3e
       0.08870232 0.08018524 0.018158594 0.17464046
0003c0 18 01 4d 3d ab 18 93 3d 05 a6 17 be e5 85 b7 3d
       0.05004987 0.071824394 -0.14809425 0.08961085
0003d0 cc 1c 4a bd bb b5 fc 3d 7a b5 06 3d 5d 54 9c bd
       -0.04934387 0.1233935 0.032887913 -0.076332785
0003e0 cd 5e e4 3c 03 48 31 bd ab 35 33 3d 0f 8c 28 3e
       0.027877236 -0.043281566 0.043752354 0.16459678
0003f0 96 43 36 be 76 d4 da bd 0e a6 a5 3b 7e 6a 79 be
       -0.1779922 -0.10685055 0.0050551957 -0.2435703

weight_hh_l0 f4 [384, 128]
000000 86 4a 82 bd 46 97 06 3c 1d 03 87 3d 58 15 50 bd
       -0.063618705 0.008214777 0.06592391 -0.050801605
000010 4a 33 a6 bd 7a b3 13 3d 9d 6a 12 3d c9 36 b7 3d
       -0.08115251 0.036059834 0.035746206 0.08945996
000020 93 ee d8 bd cc 03 33 bd e7 0c 68 bd e6 fc 00 3d
       -0.105923794 -0.043704793 -0.05665293 0.031491183
000030 ea 2a 8a 3a 01 1d c2 3d 11 42 ec 3c 6b 60 26 3c
       0.0010541354 0.09478188 0.028840097 0.010154824
000040 5b bd 99 3c 32 9c 86 3d 38 0b 32 3d 68 22 39 3d
       0.01876705 0.06572761 0.04346773 0.045198828
000050 4e c8 b8 3c 06 96 47 bd 96 5e 84 bc 6a 35 24 3d
       0.02255645 -0.048727058 -0.016158383 0.040090002
000060 ee b3 7c 3c 21 0f 9c bd 80 5d 55 3e 88 62 81 3c
       0.015423758 -0.07620073 0.20836449 0.015794054
000070 23 02 de bd 10 cb df bb 5c ee f5 bd 46 33 9c 3c
       -0.10840251 -0.006829627 -0.12008354 0.019067418
000080 06 18 f1 3d 0c cf 9e 3d 15 3f 07 bd 5e c5 0c 3e
       0.1177216 0.07754335 -0.033019144 0.13747165
000090 d6 f6 56 3d 7b c3 16 3e e1 6c 5b bd 94 6b 80 3d
       0.052481495 0.14723007 -0.053570632 0.06270519
0000a0 ab b4 99 3d 3f a3 96 3d 4b ad b0 3d 18 d0 36 bd
       0.07505163 0.073553555 0.08626803 -0.044632047
0000b0 9e 86 0c bd 5c 4e b5 bd 50 b4 d3 3d df 03 bf 3b
       -0.03430807 -0.088528365 0.10337126 0.005829319
0000c0 e9 b9 9a ba 94 da 17 be c5 4a be 3c 9c 4e f6 3d
       -0.0011804673 -0.14829475 0.023229012 0.12026712
0000d0 cc 87 6b bd 5c c5 26 bd c1 f3 fd 3c 03 ea d6 bc
       -0.057502553 -0.04071556 0.03100002 -0.026234632
0000e0 dd fc 82 3d c4 bd d2 bd 0a 4a ce 3c ad 16 61 3d
       0.06395886 -0.10290101 0.025181789 0.054953266
0000f0 6d 25 88 3d e4 76 0d bc 8c bb 5b bd ba 7f 90 3d
       0.066477634 -0.008634303 -0.053645656 0.07055612
000100 8c e3 e0 bd a7 a5 87 3d 20 28 9c bd 48 f6 29 bd
       -0.10980901 0.066233926 -0.07624841 -0.041494638
000110 6a 3d 87 bd b0 1d 71 3d 84 8c 86 bd 8f ec d6 bd
       -0.06603511 0.058866203 -0.0656977 -0.10494339
000120 6d 55 8a 3d c0 d8 a0 bd 38 15 92 3d ae c3 8a bd
       0.06754575 -0.07853842 0.071329534 -0.06775604
000130 ac c1 82 ba 13 0a 31 3d 18 73 f1 3d f3 2e 27 bd
       -0.0009975932 0.0432225 0.117895305 -0.04081626
000140 42 48 20 3e 7a 93 93 3d bf af 68 bd 36 c4 4e bd
       0.15652564 0.07205863 -0.05680823 -0.05048009
000150 ea 8c cb 3d 93 17 17 bd d1 76 68 bd 11 78 e3 bd
       0.099389866 -0.036887717 -0.056753937 -0.11106885
000160 8d 89 83 bd 00 3d aa 3d 8c d5 db bd 44 5c c1 3c
       -0.0642272 0.08312416 -0.1073409 0.023603566
000170 13 4e 14 bd 8e 12 f1 bd 08 44 ce bc 22 eb 2f bd
       -0.03620727 -0.11771117 -0.025178924 -0.04294885
000180 68 7c b2 bd a1 35 d2 3d bf a7 f0 bd 5e be 96 bc
       -0.08715135 0.10264135 -0.11750745 -0.018401321
000190 78 59 ac 3c 49 c4 a7 3d 13 17 15 3d 2e ed bb bd
       0.021038756 0.08191735 0.03639896 -0.09176098
0001a0 ab 16 04 3d 51 16 71 3d 60 c8 c6 bc 1f cf 1b 3e
       0.03224818 0.058859173 -0.024265468 0.15215729
0001b0 46 48 bc bc 23 70 a2 bd 84 61 0e 3d f4 01 34 3d
       -0.022983681 -0.07931545 0.034760967 0.043947175
0001c0 85 2b 03 ba da a3 91 bd 33 f5 2f bc 20 67 c1 3b
       -0.00050037383 -0.0711133 -0.010739612 0.005902186
0001d0 f6 fd 2e 3d 1a a7 bb 3d 69 94 37 bd 9e 85 c9 bc
       0.042722665 0.091627315 -0.04481927 -0.024599846
0001e0 64 74 8f bd 69 69 dc 3d 1b 12 8a bd 73 df c5 3c
       -0.070046216 0.10762293 -0.067417346 0.0241544
0001f0 32 96 31 bd 35 cc 98 bd c7 e5 95 bd 9e 9b 62 3b
       -0.043356128 -0.074608244 -0.07319217 0.0034577618
000200 73 5d 64 3d 98 d1 62 3b 7c df 69 3d ce 6b 8b 3d
       0.055753183 0.003460979 0.057097897 0.068076715
000210 50 d1 34 bc d1 93 a7 bb 4e 52 65 3d c0 b6 af 3c
       -0.011036232 -0.0051140566 0.055986695 0.021449447
000220 b9 30 04 bd f9 97 f9 3c a6 b9 8f 3d 01 f0 d3 3d
       -0.032273028 0.030467974 0.070178315 0.103485115
000230 e2 3d dd bd c8 df 1d 3c 33 b3 d5 3d 96 3f c9 3d
       -0.10802819 0.009635873 0.1043457 0.09826581
000240 8f 3a 4f bd c5 66 b5 3d 33 56 3b bd be a9 df bc
       -0.050592955 0.08857492 -0.045736503 -0.02730262
000250 d4 2c ab bd 78 b3 c2 bd b5 eb d5 3d a0 77 74 bd
       -0.0835816 -0.09506887 0.10445348 -0.059684396
000260 66 78 00 3d 69 d1 0b 3e 3c 9d 17 3d a2 73 89 bd
       0.03136482 0.13654102 0.037015185 -0.06711508
000270 33 07 a0 bd ea c0 d1 3d 29 cc 01 bd b0 6e 44 3c
       -0.07813873 0.102418736 -0.031688843 0.011989281
000280 e0 05 e8 3d e3 e8 7e 3c 8c 7f 0b 3e 2a ae 20 bd
       0.113292456 0.015558454 0.13622874 -0.039228596
000290 ec 9b c3 bd bd 23 e9 3d 39 cd fe bb 54 4a a5 bc
       -0.09551224 0.1138377 -0.0077759293 -0.020177044
0002a0 45 96 cd 3d 15 3b 25 3b d3 a9 d5 3d 61 b0 62 bd
       0.10038427 0.0025212218 0.10432782 -0.05534399
0002b0 e7 2b c4 3d c4 df 0b bd 81 ee 10 3d fe 1d 56 bd
       0.09578686 -0.034148946 0.035383705 -0.052274697
0002c0 a5 cb 15 be 00 30 a9 3c c6 94 cd 3d 85 ec d7 3a
       -0.14628465 0.020652771 0.10038142 0.0016473687
0002d0 49 4b a8 bd 4d ff 02 be a6 a9 50 bc 78 89 a8 bd
       -0.082174845 -0.12792702 -0.01273576 -0.08229345
0002e0 06 db 83 3b e1 5f 15 bc cf e4 3d bc f6 3c 4c 3d
       0.0040239124 -0.009117098 -0.011590197 0.049862824
0002f0 66 6b 61 bd 26 9b 48 3d c5 aa 89 bd b1 96 f6 3d
       -0.055034064 0.048976086 -0.06722025 0.12040461
000300 b3 e1 11 3d a1 0a 06 3e f2 d0 c7 bc 97 d7 4a bd
       0.035615634 0.13089992 -0.024391625 -0.04952201
000310 b0 28 e2 bd 54 f3 25 bd 57 64 c6 3d df fc fa 3c
       -0.11042917 -0.04051526 0.09687107 0.030638156
000320 6f 43 22 3e b9 65 42 3c 30 57 b6 bb 6c 16 0a 3d
       0.15846036 0.011865073 -0.005564593 0.03371279
000330 48 98 1d 3e 64 28 87 3d e1 6e 88 3d 14 af e2 bd
       0.15390122 0.06599501 0.066617735 -0.1106855
000340 60 86 1e bd 91 ed 8e bb 1c a6 9f 3c 30 84 a6 bd
       -0.03870237 -0.004361816 0.019488387 -0.081306815
000350 7b 31 88 3c 9c ad 28 3c e5 2a 06 bb 6f 2c 02 be
       0.016625157 0.010295298 -0.0020472344 -0.12712263
000360 85 fe bf bd d5 f4 57 bd 67 f5 a0 3d 40 b0 3d bd
       -0.093747176 -0.052723724 0.07859307 -0.046310663
000370 2c 6f 6d 3c 7c 5f 68 bd f4 4c a9 bd 3f ad 06 3b
       0.0144918375 -0.056731686 -0.08266631 0.002055004
000380 f8 a6 8b bc 6a 69 88 3d 4d 7f d3 bd a7 80 27 bc
       -0.01704739 0.06660731 -0.10327015 -0.010223544
000390 47 33 d8 3d cf b1 0c bd 63 10 91 bd 19 a9 c9 bd
       0.105566554 -0.03434926 -0.07083204 -0.09846706
0003a0 3e e7 0d 3e 39 53 55 ba f8 da 81 3b 3d d0 88 bc
       0.13857743 -0.00081377063 0.0039628707 -0.016700858
0003b0 4f 84 2a be 5e 39 96 bc e2 1a 88 3c 96 eb cb bd
       -0.16652034 -0.018337902 0.016614381 -0.09957044
0003c0 dd 18 23 be cf cc 82 3c ba 08 29 bd 39 b0 ed 3d
       -0.15927453 0.015966801 -0.041268088 0.116058774
0003d0 d4 04 dc bc af e2 81 bd 54 56 99 3d 7d c3 7e 3d
       -0.026857771 -0.063420646 0.07487169 0.06219815
0003e0 d1 19 3e bd 1d b9 28 3d 25 50 9f bd aa 69 a5 3b
       -0.04641134 0.041192163 -0.07778958 0.0050479965
0003f0 5f 03 e3 3d 11 44 b6 3d 76 bd 68 bd 84 66 fa bc
       0.11084627 0.088997014 -0.05682131 -0.030566461

bias_ih_l0 f4 [384]
000000 b6 7d c6 3c 61 a1 b2 3d 76 24 9c 38 10 3f 1a 3c
       0.024229866 0.08722187 7.445451e-05 0.009414449
000010 5c 26 e4 3d 40 24 97 3c 61 6e 91 3d d5 ae 05 3e
       0.11140129 0.018449903 0.07101131 0.13054974
000020 9b 8c 02 3e 51 5e 98 3c d0 b2 11 3c 12 3a b5 3d
       0.12748949 0.018599661 0.00889273 0.08848967
000030 c7 cb 9e 3d c6 a8 eb 3d 5a 9d 87 3d ea 5b 1d 3e
       0.07753711 0.115068 0.06621809 0.15367094
000040 e8 91 17 3e d7 8b b8 3d 5c c8 c0 3b c8 ec ec bc
       0.14801753 0.09011047 0.0058832597 -0.0289215
000050 04 69 80 3c d0 de ef bb 18 03 28 3d 8c 9b 15 3e
       0.015675075 -0.0073202625 0.041018575 0.14610118
000060 b6 f2 67 bd 4a 55 98 3d e3 81 9d 3d e1 e3 bf 3c
       -0.05662795 0.074381426 0.076907896 0.02342409
000070 ae f6 e9 3d 3b da 60 3d b5 37 41 3d e2 cc 81 3d
       0.114240035 0.05489562 0.047172267 0.063379064
000080 a9 87 d9 3d 32 03 d7 3d 77 ab 73 3c 83 71 4b 3c
       0.10621578 0.10498656 0.014872423 0.0124172
000090 04 03 08 3d ae 7d 3e 3d ec ce d4 bc 5c e5 5b 3d
       0.033206 0.046506576 -0.025977574 0.05368553
0000a0 40 6f a4 3d 74 29 e3 3d e4 70 66 3d 9d da 0d bd
       0.08029032 0.11091891 0.056260005 -0.034632314
0000b0 ab 7a 90 3d c7 68 ad bd a1 67 20 3e 50 1c d3 3d
       0.07054647 -0.0846725 0.15664531 0.103081346
0000c0 a5 0a 24 3d 2a 13 ca 3d 51 51 b4 3c 5e cc fd 3c
       0.040049214 0.098669365 0.022011431 0.030981239
0000d0 56 36 1b 3c dc 14 14 3d 95 e9 af 3d 62 a8 58 3d
       0.009473404 0.036152706 0.08589474 0.052894957
0000e0 a1 6a 8f bd d1 c5 d7 3d 07 f2 36 3e 1f a8 09 3e
       -0.0700276 0.10535777 0.17865764 0.1344304
0000f0 06 0c de bc 4c bd 99 3d 96 77 5d 3e a4 d0 47 3e
       -0.027105343 0.07506809 0.2162765 0.19513184
000100 51 a4 09 3e b5 18 3a 3d 16 d9 11 bc 37 80 eb 3d
       0.13441588 0.04543372 -0.008901855 0.114990644
000110 5b 0a 1d 3e de 1e 74 3d de cc 63 3c 01 78 ab 3d
       0.15335982 0.05959975 0.013903825 0.08372498
000120 5a 62 29 3d 0b 95 ee bc 18 60 e9 3d d3 0f 6d bc
       0.04135356 -0.029123804 0.113952816 -0.014469105
000130 e5 5f 4b 3e 3e e0 37 3d 82 7f 52 3d a4 fc 8c 3e
       0.198608 0.04489159 0.051391132 0.275365
000140 15 2a a7 3d fe 02 1d 3d 81 68 d3 3d e9 e5 1b 3d
       0.081623234 0.03833293 0.10322667 0.038061056
000150 3a 59 0f 3e d5 ec 92 3d 63 f2 ae 3d 16 21 ab 3d
       0.13998881 0.071740784 0.08542325 0.0835592
000160 f3 68 e5 bc 22 5d a0 bd 51 20 14 3d 0a ed 99 bc
       -0.028004145 -0.07830264 0.03616363 -0.018789787
000170 c5 6f 18 3e 4f f2 8f 3c dd bf 80 3c ad 58 41 3d
       0.14886387 0.017571596 0.015716488 0.04720371
000180 d0 70 59 3d db 84 25 3d 01 cb fb 3d fa 9c 74 3c
       0.053086102 0.040409904 0.12294579 0.014930004
000190 10 39 19 bd 0e 89 5c 3b ba 8c 85 3d 94 6a cd 3d
       -0.037407935 0.0033651027 0.06520982 0.10030094
0001a0 aa 40 e2 bc 1d 59 36 3e 04 6d 64 3d 9b 9b 25 3d
       -0.027618725 0.17807432 0.055768028 0.0404316
0001b0 11 6a 37 bd 97 2c 5d bd 1c 1b 90 3c e8 f8 a3 bd
       -0.044778887 -0.053997602 0.017591052 -0.080064595
0001c0 95 09 03 3d cd fc 11 3d 78 1f e8 3d 09 90 89 bd
       0.03199156 0.03564148 0.11334127 -0.06716926
0001d0 b6 3d 5c 3d a4 c8 a5 3d e3 b9 ca 3d 37 84 f8 3d
       0.05376979 0.0809491 0.09898736 0.12134593
0001e0 41 bd 0c 3e 76 1a 77 3d 5f b3 bb 3d dc 34 a4 3d
       0.1374407 0.06032797 0.09165072 0.080178946
0001f0 2c 7e 34 3c 8b 68 30 bd 4d 09 d4 3c 2c fd e3 3d
       0.01101641 -0.04306845 0.025883341 0.11132273
000200 93 fd 8f 3c b9 54 e7 3c ad 29 99 3c 9c 4d ab 3d
       0.017576968 0.028238641 0.01869663 0.08364412
000210 82 27 ae 3c 96 74 8a bc a8 c9 b4 3b 45 2d 97 bd
       0.021259073 -0.016901296 0.0055172034 -0.07381681
000220 fa f2 95 bd ca 7c f0 bd 15 6e f0 3d d0 b7 03 3e
       -0.07321735 -0.117425516 0.117397465 0.12863088
000230 0b 58 3c bd 25 c5 63 bd 18 57 13 3a 1c 70 6e 3d
       -0.0459824 -0.055607934 0.0005620583 0.058212385
000240 7e 2f 1c 3c 76 5d 91 bd 4e 74 97 bd e7 92 bc bb
       0.009532807 -0.070979044 -0.0739523 -0.005754817
000250 6d 02 2e bc 54 0a 86 bd fb ed cd 3d 50 ad 90 bc
       -0.010620696 -0.06544939 0.10055157 -0.017660767
000260 a3 69 59 bd 9a 3d 81 bd ed 7d 71 3d 07 81 55 bd
       -0.05307926 -0.06310578 0.058957983 -0.052125003
000270 f2 6c 58 bb 40 e1 6e bd 82 d4 92 bc fc 35 12 be
       -0.003302392 -0.058320284 -0.017923597 -0.14278406
000280 97 e9 b0 bc 67 17 f6 bc 9e 09 8a bd e5 ba 02 bd
       -0.02159576 -0.030040456 -0.067401156 -0.031916518
000290 28 c5 ce bd 93 e2 28 3d 20 1c b0 bd 84 06 73 3d
       -0.10096198 0.041231703 -0.085991144 0.059332386
0002a0 76 8d cc bd e1 25 d1 bd 3e 22 8a bc ef d8 15 3d
       -0.09987919 -0.10212303 -0.016862031 0.036583837
0002b0 cd 8a d0 3d 45 9f 36 3d 30 ee ee 3b f7 57 54 3d
       0.10182724 0.044585485 0.0072915778 0.051841702
0002c0 b1 a4 45 3d 1c 96 9b 3d 9b 49 1b bc 05 98 65 3d
       0.048252765 0.075969905 -0.009477998 0.05605318
0002d0 9d 55 e1 3c 73 f5 a0 bb 09 9f dd bd f2 a0 7a bd
       0.027506644 -0.0049120723 -0.10821349 -0.061188646
0002e0 7b 59 99 3d dc 63 74 3c 42 5d 92 3d 84 03 1d bd
       0.0748777 0.014916386 0.07146694 -0.03833343
0002f0 8a be 24 3c e8 25 99 bd 78 d2 27 3d f5 d6 a9 3d
       0.010055194 -0.07477933 0.040972203 0.08292953
000300 c5 00 a2 3b 75 01 36 bd bd e1 de bc 17 5e 61 3c
       0.0049439394 -0.044434983 -0.02720725 0.013755343
000310 05 81 cf 3c c8 3f 31 3d c1 cc 98 3c 51 14 83 3d
       0.025330076 0.043273717 0.018652322 0.064003594
000320 bf 52 83 bc e5 4d 49 bd fc 2f be 3c 84 c8 b3 bc
       -0.016030667 -0.04914655 0.02321624 -0.0219462
000330 ed 5a 03 be 08 9c 71 bb 51 42 19 3e 9b 33 dc 3c
       -0.12827654 -0.0036866684 0.14966704 0.026880076
000340 95 97 e2 bb 66 3d 1e bd 1f 59 a9 bd 71 fd 15 bd
       -0.0069150426 -0.038632773 -0.082689516 -0.036618654
000350 3c 45 bc 3a 85 e8 82 bd 77 f7 14 bd 8f d5 83 bc
       0.0014363895 -0.06392006 -0.036368813 -0.016093044
000360 7a 46 a2 3d fd df d5 bd e0 56 43 3d 49 fd b4 3c
       0.079235986 -0.10443113 0.047690272 0.022093432
000370 b8 bb 26 ba 34 59 fe 3d 39 ee 40 3e a4 90 e3 3d
       -0.000636037 0.12419358 0.18840875 0.111115724
000380 b5 17 cd bc 93 9f cf 3d e7 ae 9b bd 29 3e 90 3d
       -0.025035718 0.10137858 -0.07601719 0.07043106
000390 e9 d1 9d bd 2c f0 16 bd 70 1f 32 bd 53 11 6a bd
       -0.07706053 -0.03685014 -0.043487012 -0.057145428
0003a0 0f 8b 06 3e cb 15 48 bd 44 80 95 bc b1 02 25 bc
       0.13138984 -0.04884891 -0.018249638 -0.010071442
0003b0 65 00 94 3d d0 ec 8b 3d 38 e9 56 3d 54 ec 33 bd
       0.07226638 0.06832278 0.05246851 -0.043926552
0003c0 ab 5d 31 3d e2 57 36 bd 65 44 7c 3d c1 0b 15 3d
       0.04330222 -0.044517405 0.061588664 0.036388163
0003d0 8d 4e 42 bb 76 2b 21 3d f3 65 3b bc 7c b0 37 3d
       -0.002964887 0.03934809 -0.011437881 0.044846043
0003e0 de 1b 3a 3d b5 84 8d 3d 98 66 a9 3d e7 a1 c0 3d
       0.045436732 0.069100775 0.08271521 0.094058804
0003f0 00 d8 63 bd 3c 09 92 bd 69 9f 89 bd 1b 41 be 3d
       -0.055625916 -0.071306676 -0.06719858 0.09289762

bias_hh_l0 f4 [384]
000000 17 41 de 3b 06 34 08 3d 97 2e f7 3c d1 98 77 3c
       0.0067826617 0.03325274 0.030173583 0.015112118
000010 13 99 0e 3e 43 49 ca 3d 78 d7 b2 3d 7f c7 26 3e
       0.1392558 0.09877255 0.08732504 0.16287039
000020 dc 4b b0 3d f0 3d c8 3a fa 58 d0 3c 1f 8d 4f 3e
       0.08608219 0.0015277248 0.025433052 0.20268677
000030 95 79 a8 3b f0 06 a5 bc d5 57 f6 bb ac 56 46 3e
       0.005141447 -0.02014491 -0.0075177946 0.19369
000040 e1 a6 1f 3e 62 1d f3 3d 90 49 b4 3d c5 41 a5 3c
       0.15591003 0.11870839 0.088030934 0.020172963
000050 95 b9 9b 3c 9c a9 94 3d d9 b7 a5 bc 17 8f 3a 3e
       0.01900939 0.07258913 -0.020229267 0.18218647
000060 44 39 65 3d 6a 28 ef 3d b0 7e 88 3d d2 41 6e 3d
       0.055962816 0.1167763 0.06664789 0.05816824
000070 1e 0f 11 3d a0 03 a5 3d ec c9 f9 3c b6 12 b8 3c
       0.035414807 0.08057332 0.030491792 0.02246986
000080 99 d9 03 3e 93 fa ea 3d 49 82 d1 3d ca e5 10 3e
       0.12875976 0.114735745 0.10229928 0.14150158
000090 ba 28 9c 3d 79 15 e0 3d 15 65 41 3c 7a bb 5a bc
       0.076249555 0.109415956 0.011803885 -0.013350362
0000a0 f7 52 6c 3d 3c be aa 3d 13 d2 29 3d 7c 2f 0b 3e
       0.05769631 0.083370656 0.041460108 0.13592333
0000b0 25 d1 13 3d cd e8 cc bb 7f 54 10 3e b9 43 ba 3d
       0.036088128 -0.006253338 0.14094733 0.09094948
0000c0 2d e9 3b 3e c9 fb cc 3d d9 4a 22 3e 4f e7 b1 3d
       0.18350668 0.10008962 0.15848865 0.08686697
0000d0 09 a9 05 3e 1b f9 1c 3d 40 f9 55 3e b1 7b dd 3d
       0.13052763 0.038323503 0.20895863 0.10814608
0000e0 2e 1b 6c 3c 41 09 a5 ba 8b 02 9c 3d 09 e6 20 3e
       0.014410777 -0.0012591259 0.076176725 0.15712751
0000f0 9c eb 89 bd bf 66 a0 3d 17 83 3f 3e 5b c9 de 3d
       -0.06734392 0.07832097 0.1870235 0.10878249
000100 7e 4d 0d 3e 52 48 ac 3d 2e a7 e4 bc 5e 31 60 3d
       0.13799092 0.084122315 -0.027911749 0.05473458
000110 b3 fb a8 3d 57 0d a5 bd c3 89 b4 bb 1e c5 dc bb
       0.08251133 -0.08059185 -0.0055095865 -0.0067373654
000120 39 13 ea 3b 4c 01 a3 3d fe 08 1e 3d 29 7d f0 3d
       0.007143405 0.07959232 0.038582794 0.117426224
000130 8b 1e 21 3e af a1 1f 3e cf 5c ee 3d 77 d9 20 3e
       0.15734307 0.15589021 0.116387956 0.15707956
000140 27 c2 13 3d 56 87 06 3c d6 47 a9 bc 2f 7c 99 3d
       0.03607383 0.008210978 -0.020664137 0.07494389
000150 7c d9 15 3e b6 0b cd 3d 83 e8 95 3d 24 c6 95 bc
       0.14633745 0.10011999 0.07319739 -0.018282957
000160 ff 14 10 3d 68 e1 33 3d 15 49 1d 3e a3 18 93 bc
       0.035176273 0.043916136 0.1535991 -0.017956084
000170 21 6b d8 3c 3e 29 c0 3d 41 b9 0a 3c 64 31 a4 3d
       0.02641827 0.09382866 0.00846702 0.08017233
000180 b2 31 2a bb 65 9b a3 bb 97 19 99 3d c2 d1 f8 3d
       -0.0025969562 -0.0049928897 0.07475584 0.12149383
000190 b7 87 30 bd 5c 74 d1 3c 79 7d c2 bc 41 f3 bd 3d
       -0.043098178 0.02556818 -0.02374147 0.092749126
0001a0 99 17 40 bd b6 c3 14 3e 23 02 25 3e a0 ff 12 3d
       -0.046897504 0.14527783 0.16114096 0.035888314
0001b0 81 32 9f 3d 9e 30 d7 3d 66 72 0c 3e c9 b3 a8 3d
       0.07773305 0.1050732 0.13715515 0.08237416
0001c0 2a 4d b4 3d d8 ce 0e 3e 38 3a 56 3d dd 25 2e bd
       0.088037804 0.13946092 0.052301615 -0.042516578
0001d0 e3 8e f6 3d 7d 15 e5 3d 9b 02 01 bc fb 5f ae 3d
       0.12038972 0.11185739 -0.007874156 0.085144006
0001e0 a8 95 ce 3d 28 94 8e 3d 42 1c a4 3d c3 3a 2a bd
       0.100871384 0.06961852 0.08013202 -0.041559946
0001f0 7d ba e2 3d e3 aa 38 bd 8a 97 78 3c c3 c1 0f 3e
       0.11070726 -0.045084845 0.0151728485 0.14038758
000200 10 24 19 bd 58 45 d8 bc 37 6f 9f 3b 9e 21 6e 3d
       -0.037387908 -0.026400253 0.0048655528 0.05813753
000210 7a 15 c0 bc cb cc 88 3d af 8c 54 bc 1d 3a ba bd
       -0.02344774 0.06679686 -0.012972995 -0.090931155
000220 26 7f b5 bd e9 b4 05 be d6 47 53 3c fc 33 e7 3b
       -0.08862142 -0.13057293 0.012895545 0.0070557576
000230 f1 13 95 bd 73 12 12 bd a5 00 81 3d f9 8a cb bc
       -0.07279194 -0.035662126 0.06298951 -0.02484654
000240 ee 6b 14 bd 8d 20 29 3d 77 13 70 3d 53 89 94 3d
       -0.036235742 0.04129081 0.058612313 0.07252755
000250 36 4c 0d 3e 19 57 8d bc a1 76 dc 3d b0 ad 2c bd
       0.13798603 -0.017253445 0.10764814 -0.04215783
000260 54 1d 2e 3d 30 83 69 3d 51 bd 72 3d bd f0 f1 ba
       0.04250844 0.057009876 0.059262577 -0.0018458586
000270 78 48 61 bd 44 ab ae 3c 28 f2 c9 bd 85 a3 00 bd
       -0.055000752 0.0213219 -0.09860641 -0.031405944
000280 04 6b 9f bc 12 1b f6 3d 1b 7b 51 bd 33 f3 c9 3d
       -0.019460209 0.12016882 -0.051142793 0.0986084
000290 cb db ff bc 1e 9e 59 3d 5f 28 8a bd 4c ba f3 3b
       -0.031232735 0.053129308 -0.067459814 0.00743798
0002a0 df 9c e0 bd c6 bf 2b bd b5 63 3d 3d 24 f5 de bc
       -0.10967421 -0.041930936 0.046237666 -0.027216502
0002b0 df dc b8 3c b0 18 03 bd e8 e8 01 3d 18 5f 10 bc
       0.022566257 -0.032005966 0.031716257 -0.008811735
0002c0 81 d0 69 3d 24 78 2a bd fe 45 c3 3c cc ba 10 3e
       0.05708361 -0.04161848 0.023837086 0.14133757
0002d0 b2 b2 fc bc 5c 49 4d bd b3 07 a7 bd 80 e3 c2 bd
       -0.030846927 -0.05011879 -0.081557654 -0.095160484
0002e0 ff ab ab 3d 3b 8b cc 3c 01 86 c3 bc fe d7 ba bd
       0.08382415 0.024968734 -0.023867609 -0.091232285
0002f0 9b 46 94 bd 33 b6 cd bd 07 02 7c bd 9d 8a 4c bc
       -0.072400294 -0.10044517 -0.06152537 -0.01248422
000300 99 97 bb bd 6c 3c 14 be 05 6a 6c 3d d5 c6 4c 3c
       -0.09159774 -0.14476174 0.057718296 0.012498577
000310 db 5d 8e bd 70 32 b9 3d 2b d3 ca bd 06 1d 37 3d
       -0.06951495 0.09042823 -0.09903558 0.044705413
000320 c5 6a 2f 3d 90 6b bc 3d e6 31 de 3d 2c 47 2c 3d
       0.042826433 0.092002034 0.10849361 0.042060062
000330 28 3d 35 bd 9e b0 ba bd 66 8f 2c 3d ab f0 c5 b9
       -0.044247776 -0.09115718 0.042128943 -0.0003775408
000340 3c 4a 75 bd bb e4 98 bd 41 8c 99 bb 82 07 bd 3d
       -0.05988525 -0.07465502 -0.004685909 0.092299476
000350 f9 7f ed 3c 2a cd 29 bc 26 16 a3 bd 69 ac 08 3d
       0.028991686 -0.010363856 -0.07963209 0.03336755
000360 a6 12 17 3e 6b 5c a5 bd a0 66 00 bd f5 89 c6 3d
       0.14753208 -0.08074268 -0.03134787 0.09694282
000370 d5 73 2a bc 56 74 0d 3e 83 11 c9 3d 80 c6 2f 3d
       -0.010403593 0.1381391 0.09817793 0.042913914
000380 8d 9e 81 3d 23 f0 0f 3e 94 a9 d6 bc 33 2c f9 3c
       0.06329069 0.14056449 -0.026203908 0.030416584
000390 69 d9 51 3c af 4a 82 3d 4d ad 14 be 33 fe b3 bd
       0.012808182 0.06361901 -0.14519234 -0.08788719
0003a0 d0 1c 8d bb 68 69 95 3d c4 e0 e8 bc fb d2 77 3d
       -0.0043064132 0.07295495 -0.02842749 0.06050394
0003b0 1c a9 6a 3c b2 4e 21 3e 19 9d 3f 3e fc 61 a6 3d
       0.014322545 0.15752676 0.18712272 0.08124158
0003c0 2e 69 8f bd af 4d 9d 3c dd b4 4a bd 27 42 4c 3d
       -0.07002483 0.019202081 -0.04948889 0.049867775
0003d0 b2 9c 69 bb 40 2c 3e bd a4 44 b5 3c 0e 75 70 3c
       -0.0035646376 -0.04642892 0.022127457 0.0146763455
0003e0 7a ed 4a bc ee 0c f9 bc c5 04 cb 3c 6d c1 cc 3d
       -0.01238572 -0.030401673 0.024782548 0.099978305
0003f0 6a 40 c0 3c a0 40 01 bd b8 bc 89 bc ac 22 f0 3d
       0.023468215 -0.03155577 -0.01681362 0.11725363

weight f4 [5, 128]
000000 52 26 ab bd 8c 8c 9a bd f2 4d 34 3c 86 d2 39 3d
       -0.083569184 -0.075463384 0.011004912 0.045366786
000010 d2 35 23 be 0d 22 e0 bd 22 95 32 bc 58 68 ae bc
       -0.159385 -0.10943995 -0.010899814 -0.02128999
000020 0c f8 29 bd a9 91 24 bd e4 8a 0a 3b a0 c7 a4 3d
       -0.04149632 -0.040177975 0.0021139914 0.08045888
000030 a4 36 eb bd ac c4 37 3e a8 da 13 bd 69 07 81 bd
       -0.11485031 0.17946118 -0.0360972 -0.063002415
000040 b0 a8 54 3e 6e 94 5d 3d 9e 72 b7 3d bc bb cf bd
       0.20767474 0.05409663 0.08957408 -0.10143229
000050 f6 12 0a bd 2c 58 5c 3d 62 b5 a9 3d b5 9a b4 3d
       -0.03370949 0.053795025 0.08286549 0.088185705
000060 21 90 3d 3c 09 8c b0 bd 22 5d 0f 3e 03 bf ec bd
       0.011570008 -0.086204596 0.14000371 -0.1155987
000070 60 bd 90 bd 4a 95 a3 3d 45 75 57 be c4 33 47 be
       -0.070673704 0.07987459 -0.21040829 -0.19453341
000080 f9 c4 08 3c f1 78 b4 3b df 4a 03 3e 9d 01 2d be
       0.008347743 0.0055075814 0.1282153 -0.16895147
000090 63 2f e4 bd 1d 24 3b be 49 b1 8e 3d 22 eb f6 3d
       -0.11141851 -0.18275495 0.06967408 0.12056567
0000a0 70 75 7e 3d 96 a7 20 bd b8 20 b4 3d 12 35 d2 3d
       0.062123716 -0.039222322 0.08795303 0.102640286
0000b0 0a 4f 43 bd 8d 01 c8 bd e7 cb 80 3d 42 44 a5 3a
       -0.0476828 -0.09765921 0.06288891 0.0012608843
0000c0 07 8b 28 bd 83 c0 6d bd 6c 95 d3 3d 45 6a 9c 3c
       -0.04114821 -0.05804492 0.10331234 0.019093642
0000d0 da ee 8c bd c4 1c b7 bd 50 ea 09 bd 32 2e 02 3d
       -0.06881495 -0.089410335 -0.033670723 0.031782337
0000e0 01 12 8a bd 23 47 fe bd 6d fd 87 bd 1b b4 8c bd
       -0.06741715 -0.12415912 -0.06640134 -0.0687029
0000f0 30 bb 19 bd d5 a6 60 bd a5 3b f6 bc 65 58 77 3d
       -0.03753203 -0.054846603 -0.030057738 0.060387034
000100 f7 43 55 be 35 c6 05 3d 1e 3b 2a 3e b0 36 66 bd
       -0.20826708 0.032659728 0.16624114 -0.056204498
000110 5b d6 d2 bc 2f 0b 35 bb f0 0f b4 3d f6 98 a1 bd
       -0.025736978 -0.0027625074 0.08792102 -0.07890503
000120 34 66 0d bd 1c 0f 70 bd a2 e9 b1 3d 93 92 ef bd
       -0.034521297 -0.05860816 0.0868714 -0.11697879
000130 4f 4d 2f bc de bb cb 3d 0f 11 7e 3e ee 67 0b 3c
       -0.010699584 0.09947942 0.24811195 0.0085086655
000140 fe f6 fe bd c7 a3 cd 3d ec 51 12 3d 95 82 c0 bd
       -0.12449454 0.10041004 0.035722658 -0.093999065
000150 40 70 b2 3d 64 7e a5 bd f5 06 ce bd de 68 d7 bd
       0.08712816 -0.08080748 -0.10059921 -0.10518049
000160 52 7c 13 3d 3e f2 e4 bd e0 61 89 bd 7f 4a 1a 3d
       0.036007233 -0.111790165 -0.06708121 0.0376687
000170 53 a5 9b 3d 37 ec 75 be b5 47 ee 3c 26 6f 09 bb
       0.075998925 -0.2401589 0.029086927 -0.002097079
000180 04 10 49 bd 5b 0c 60 3e c6 84 59 3c 91 92 91 bd
       -0.04908754 0.21879713 0.013276285 -0.071080334
000190 9f cd df 3d d7 31 c7 bd 71 b9 32 3c 4d d3 da bc
       0.10927891 -0.09726303 0.0109084705 -0.026712084
0001a0 0f 77 2e 3e b1 d0 02 be 00 08 11 3d 05 97 dc 3d
       0.17037605 -0.12774922 0.03540802 0.10770992
0001b0 6a fd 44 bd 1d 19 c9 bd ee 20 16 3e 0d 8a d5 bd
       -0.048093237 -0.09819243 0.14660999 -0.10426722
0001c0 49 ec e2 bd f6 b6 e8 3d 94 02 af bd 6a 22 bb 3d
       -0.11080224 0.11363022 -0.085454136 0.09137423
0001d0 3f 81 cf bd bc 8d de bd c9 69 4a bd 8b 7e c2 3d
       -0.101320736 -0.108668774 -0.04941729 0.094967924
0001e0 a4 33 d4 3d 89 94 01 3e 63 63 b5 3d 43 38 4b 3c
       0.10361412 0.12654318 0.08856847 0.012403551
0001f0 e9 57 42 bd b3 6f 52 39 1f fc 60 3d ec c5 6b bc
       -0.04744712 0.00020068772 0.05492794 -0.01439045
000200 b2 5a fb bd 6c 56 4b 3d 76 4d 09 3d 45 19 10 be
       -0.12273158 0.049642965 0.033521138 -0.1407214
000210 7a e3 76 bd 7e ef 87 bd 22 48 11 3e 13 07 31 3d
       -0.060275532 -0.066374764 0.14187673 0.043219637
000220 b0 f1 f4 3b ef 4f 07 3e 0d 99 4c 3e 79 1b c3 bc
       0.0074751005 0.13214086 0.19980259 -0.02381681
000230 0c c3 1f bd fc f1 ae 3d c8 2b ae 3d 08 11 b3 bd
       -0.03900437 0.085422486 0.08504444 -0.08743483
000240 64 fb 44 be 71 33 dd 3d b4 c0 c2 bd eb 17 b7 bc
       -0.19236523 0.10800827 -0.095094115 -0.022350272
000250 fc 65 22 3e bd fa 7a bd c2 70 30 be c5 fb 14 bc
       0.15859216 -0.06127428 -0.17230514 -0.00909323
000260 e1 61 ec bd 97 5c 76 3c 05 1d 98 bc ab 78 c8 bd
       -0.115421064 0.015036724 -0.018568525 -0.097886406
000270 e6 c4 66 3c e4 eb 8c 3d f1 0e fc 3d cf 54 31 3e
       0.01408503 0.0688093 0.12307537 0.17317508
000280 e6 c7 61 3d e2 38 25 3b 03 9c 7c bd c0 1d a7 3d
       0.05512228 0.0025210907 -0.061672222 0.08159971
000290 70 aa e9 3d b8 34 e5 bb 28 09 12 bd 70 d2 a4 bd
       0.114094615 -0.00699481 -0.035653263 -0.0804795
0002a0 af 7e 93 3d dc 31 a6 3c b0 43 ce 3d 26 fd 8c bd
       0.07201897 0.020287447 0.10071504 -0.06884222
0002b0 99 ed 42 3e fc f0 d1 bc aa 5e f1 3d b8 a9 4e 3e
       0.19035949 -0.025627606 0.11785634 0.2018193
0002c0 d3 e4 92 bd e5 80 b2 bd 60 3d 30 be 0b a5 1f 3e
       -0.07172551 -0.08715991 -0.17210913 0.15590303
0002d0 0a 3d e5 bd 86 3b 04 3c 47 32 a8 bd 8a 70 e8 bc
       -0.11193283 0.008070832 -0.08212715 -0.028373975
0002e0 fc 12 70 3e 3f 18 ae bd ef 5e 74 bd 0a ac 04 3e
       0.23444742 -0.08500718 -0.05966085 0.12956253
0002f0 81 e7 8c 3e 4b 06 74 3d fd c3 93 bd 2e ee 11 3d
       0.27520373 0.059576314 -0.07215116 0.035627536
000300 5a 5a ad bd 6b a0 0c 3d 2e 4f 3c be c0 61 b8 3d
       -0.08464499 0.034332674 -0.1838958 0.09003019
000310 ed a0 7d bd f5 0d d6 bd c6 76 24 bd 09 88 1d bd
       -0.06192105 -0.10451881 -0.040152334 -0.03845981
000320 13 51 b7 3c 1a 96 1d 3e 2e 83 d1 3d 53 62 18 bd
       0.022377526 0.1538929 0.10230099 -0.037203144
000330 3a 43 2c 3c 46 a2 0b 3c 78 e9 9c 3d f3 79 6e 3d
       0.010514075 0.008522576 0.07661718 0.05822177
000340 5d 31 f8 3d 6e c0 e3 bd 7a f8 25 bd ab d2 7f bd
       0.1211879 -0.111206874 -0.04052017 -0.062456768
000350 3a d3 28 3d e5 05 1d bd a7 b1 9c 3d 8b ba ea bd
       0.041217066 -0.0383357 0.07651072 -0.114613615
000360 64 02 17 3e b8 43 90 3d 7e 6f e7 bd ab 3c 10 3d
       0.14747006 0.07044166 -0.11300562 0.035214107
000370 a1 88 ca 3d 33 4d 66 bd a6 aa 2b be 9e d3 26 bc
       0.09889341 -0.056225967 -0.16764316 -0.010182289
000380 3a 7d 8a bc 58 ab a0 3d e9 55 87 be b2 81 17 3c
       -0.016905416 0.07845181 -0.26432732 0.00924723
000390 c8 a5 31 bd 7e ee ed bc 2c 53 91 bd 6d 7d b4 bd
       -0.043370992 -0.029044386 -0.07095942 -0.088129856
0003a0 be 91 80 bc 72 16 06 3b ca c7 6c bd b7 df bb 3d
       -0.015694495 0.0020460156 -0.05780772 0.091735296
0003b0 cb ab 83 3d d5 3a 1c 3e 66 52 0e 3e 48 71 2d 3e
       0.06429251 0.15256818 0.1389862 0.16937745
0003c0 cf 69 9d 3d 7e 7a bc bd b1 7d 7f bd f0 36 b5 bd
       0.07686197 -0.09203051 -0.062375728 -0.08848369
0003d0 70 e9 3d 3d d1 09 08 3e 12 e3 e0 bd 6c 96 54 bd
       0.0463652 0.13284995 -0.1098081 -0.051901266
0003e0 cb ba 05 be 8c 7e f1 bd 67 c3 28 be 91 75 ac 3d
       -0.13059537 -0.11791715 -0.1648079 0.084208615
0003f0 b1 3c a6 3d f4 95 85 3d 01 fb d4 bb d9 d0 23 3e
       0.08117045 0.06522742 -0.0064996486 0.15997638

bias f4 [5]
000000 02 f1 f3 3c f4 16 96 bc 1a e1 5b ba a5 83 bd bd
       0.029778007 -0.018321492 -0.000838773 -0.09253625
000010 6c 4a ce bd
       -0.100727886
