Lab4 - RNN text classifier/models/model_128_2_layers_80epochs.pth (torch, 801888 bytes, 10 tensors)

lstm.weight_ih_l0 f4 [512, 1]
00000000: 9f89 f03d 606c ae3e 6898 353e abd0 333d
00000010: 2946 84bd b3e0 a6bd 946e 27be 6f0e 46be
00000020: 32a2 063f 71f9 f5bd 02cd 43be cbbc da3d
00000030: b63f 2b3e bb8c 523e 31d4 31be 72de e5bd
00000040: cb35 143e 94c1 80bd 85ef 4fbd edc6 463e
00000050: a31d d9bc b41f 39be 8771 823d b91c f6bd
00000060: fb22 983d 44af 6cbe 36d1 023e b80c 1c3f
00000070: 69ba 76bd 118e ba3d 1bce d63e b247 6c3e
00000080: 262d cd3d 18d1 69bd 64c1 85bd 616c 1e3d
00000090: b154 e53d b83b a7bd 9f55 af3d e2c5 4fbe
000000a0: d7d9 353e 9fba 453e 63d6 2f3e 15c5 afbd
000000b0: 9231 71bd 7e0b e2bd d7c9 943e b8b8 8d3d
000000c0: fd43 253e 2a98 983e ac89 243e 3052 68bd
000000d0: e1cf 2a3e 590e 823d 514d 2a3e 9df1 a73d
000000e0: 71d9 0bbd 4120 98bd 2a04 8f3d 7457 9f3d
000000f0: 90c7 ac3d eade b83d 9fa6 323e 8c3f f2bd
00000100: b012 41bd 95bb 96be f6f8 fb3d 8371 45be
00000110: fc11 7d3d e8af dabd 5f6f 6c3c 2145 ee3d
00000120: 98a3 ffbb f263 5abd 401b fbbd f982 0c3e
00000130: d5df 5e3d 8bde 553b 94f8 bcbd a7ef 113e
00000140: 8c8b 5b3c 1275 4d3e 235c cdbd a47c 57bd
00000150: 557e 48bd 4f3b 1c3e 91b3 b2bd 1d61 47bd
00000160: f319 a8b8 d4b6 f83d e265 1dbe d644 e63e
00000170: f4a2 e73c aef7 633d cfa8 203d cc0e 75bd
00000180: bd06 a63e a573 ae3c 877c 073d 3d0e 0dbe
00000190: d7ae 013e e48c 813d 8540 45bd da48 86bd
000001a0: 214e 67be b1d6 6fbe 82ac 113d 5413 d63d
000001b0: 1c58 613e 1820 bbbd 3393 3a3e 4229 8c3d
000001c0: d42e 383e 620c e03e 6097 1abe 73a8 cbbd
000001d0: 7240 033e d2f3 723d 9747 13be 81f9 133e
000001e0: 533f 9abd 5ae8 643d 9e4b 4cbd 2f2b 023e
000001f0: 8e6b 5bbd 8964 2bbe a238 81bd 6aec 2b3e
00000200: 009b e63d c6f2 313d 605a dd3d 2887 ae3d
00000210: cac3 17be a488 f63d 4453 223e d6a6 19be
00000220: d9e6 1dbd 52f4 97bd 6526 70bd 7051 cabd
00000230: 51a6 46bd 08d7 143e 5eae 213e 1421 2f3e
00000240: a5c2 18bd 8304 063e 743f 80bc be4e a23d
00000250: 307c 513d ec15 0ebe 5964 eabd 5be6 073e
00000260: 42d2 df3d e767 e53c 308f e1bc 1b0f ddbc
00000270: ef0c efbc f60d 99bd 8255 4e3d 6230 7a3d
00000280: 59c4 e3bd 2022 963d e8ce ed3d ad2f 453d
00000290: 6011 4cbd 86dd 37bc bc73 12be d804 173e
000002a0: a210 6b3d db87 f33d 56bf 5abd 36e8 fc3c
000002b0: 3fc9 6f3d 9510 113c 9b1c ccbc 3b44 463e
000002c0: 33a1 62be cd53 083e f5a6 e6bd 9a97 e0bd
000002d0: 56c2 2abd f010 423e 5c1f cdbd 1581 983d
000002e0: 3f70 dbbc 45f2 e43d 09de 4f3d fbfe 08bd
000002f0: 0886 3f3e c3ba 8a3d d993 ac3d 1384 043e
00000300: e2b8 1dbd 59df 06be 8c00 24be 91e3 29be
00000310: 8ccd 12bd 008b 1e3e d575 ba3d 2849 d33d
00000320: 9692 1c3e 0f82 e93c 615c 643d f82b e33d
00000330: 0b4f b73d f3f8 5c3e 53c9 cbbc 655f a7bd
00000340: b854 f73d 3205 a0bd ec4e 19be 57ab 24bd
00000350: 71d1 cbbc cf13 a0bd 0ae5 763e 3f49 a1bd
00000360: c0ce 523e c4bd c03d 6b4e 213d 0d26 2d3d
00000370: 263f 16be 4774 a3bd e3f0 22be 540e ecbd
00000380: 0135 c03d af29 3f3e c950 c3bd ae5d babe
00000390: f73c 073e 7a5b 283e 32b5 a9ba 9fa3 fabd
000003a0: d141 ee3b ee59 533e dfa7 153d 7b34 d1bd
000003b0: dcd3 2a3d d86c 213e 9e56 0cbe ed79 9f3d
000003c0: 05ca c43d b762 23bd 4171 d5bd 6b21 343e
000003d0: 3a4a 823d 10c7 a53d 151d 1d3d 2218 d63d
000003e0: f643 193e 9641 24be dabe 31bd df5a 8fbc
000003f0: da55 1cbd d27d 1bbe f4a7 003e bcbe d23d
0.11744999 0.3406706 0.1773392 0.043900173 -0.064586945 -0.08148327 -0.16350776 -0.19341443
0.5259124 -0.12010468 -0.19121173 0.10680541 0.16723523 0.20561497 -0.17366101 -0.11224069
0.14473645 -0.06286922 -0.050765533 0.19411822 -0.02650339 -0.180785 0.0636931 -0.12017197
0.07428547 -0.23113734 0.1277512 0.6095691 -0.06023637 0.09109128 0.4195412 0.23074225
0.10018377 -0.057084173 -0.06531027 0.038677577 0.11197794 -0.08165687 0.08561253 -0.2029033
0.1775888 0.19309472 0.17171626 -0.08582512 -0.058885165 -0.11037348 0.29060242 0.06919998
0.16139217 0.29803592 0.16068143 -0.056719005 0.16680862 0.06350393 0.16631056 0.08200381
-0.034142915 -0.07428027 0.06983216 0.07780352 0.08436501 0.090268925 0.17446373 -0.11828527
-0.047136962 -0.2943999 0.12303345 -0.19281583 0.06178473 -0.10678083 0.01443085 0.11634279
-0.0078014843 -0.05331797 -0.12261057 0.13721837 0.05441268 0.0032633867 -0.092271 0.14251576
0.01339997 0.2006419 -0.10027339 -0.0526091 -0.048948605 0.15257 -0.08725656 -0.0486766
-8.015698e-05 0.12144247 -0.15370896 0.44974393 0.028275944 0.055656128 0.03922349 -0.059828565
0.32427016 0.021295378 0.033077743 -0.13774963 0.12664352 0.06325701 -0.048157234 -0.06556864
-0.22588398 -0.23421742 0.035564907 0.10452905 0.22006267 -0.09136981 0.18220215 0.06843807
0.17986614 0.43759447 -0.15096807 -0.099442385 0.12817553 0.059314556 -0.14382778 0.14450647
-0.075316094 0.05588565 -0.0498768 0.12711786 -0.05356937 -0.1673757 -0.0630963 0.16789404
0.11260033 0.043444417 0.10808253 0.08521873 -0.14820781 0.12037781 0.15852076 -0.15005049
-0.03855023 -0.07419647 -0.058630366 -0.09878814 -0.048498455 0.14535153 0.15789172 0.17102462
-0.037295002 0.13087659 -0.015655257 0.07925175 0.051143825 -0.1387555 -0.11444921 0.13271467
0.10928775 0.028003646 -0.027534097 -0.026984742 -0.029180972 -0.07473366 0.050374515 0.061081298
-0.11121435 0.073307276 0.1161173 0.04814117 -0.049821258 -0.011222249 -0.14301962 0.14747941
0.05738891 0.11891147 -0.05340513 0.030872446 0.058541533 0.008854051 -0.024915984 0.19361965
-0.22131805 0.13313217 -0.11262313 -0.10966416 -0.04168924 0.18951774 -0.10015747 0.074464954
-0.026786922 0.11179022 0.05074886 -0.033446293 0.18703473 0.06773903 0.08426637 0.12941007
-0.038506396 -0.13171138 -0.16015834 -0.16590716 -0.035840556 0.15482712 0.09104506 0.10316688
0.15290293 0.0285044 0.055752162 0.11092371 0.08950623 0.21579342 -0.024876272 -0.08172492
0.12076706 -0.07813491 -0.14971513 -0.040202465 -0.024880143 -0.07816278 0.24110809 -0.07875299
0.20586681 0.09411195 0.039381426 0.042272616 -0.14672527 -0.079811625 -0.15912203 -0.115261704
0.0938511 0.18668245 -0.09536893 -0.36399597 0.1320685 0.16441146 -0.0012947677 -0.122382395
0.0072710295 0.20639774 0.036537047 -0.10215088 0.04170595 0.15764177 -0.13704917 0.07786927
0.09608845 -0.039889064 -0.10421992 0.17590873 0.06361814 0.08094609 0.038357813 0.10453822
0.14967331 -0.16040644 -0.0433949 -0.017499385 -0.038167812 -0.15184715 0.12564069 0.10290286

lstm.weight_hh_l0 f4 [512, 128]
00000000: 743d 343d 3c84 40bd a13d 82bc 81a5 7dbd
00000010: 11db 3f3d edb8 4cbd 77fe 3abd 9e35 64bd
00000020: 0d67 053d 213c 603d 88b4 423e 3994 733c
00000030: 11fa 363e 8071 d6bc 3acc 81bc 851d 843d
00000040: d15e 1b3e 425b fcbd 55b1 623e e7be 843d
00000050: 9b68 17bd 39de 4f3e 2a6a 8abd b50c a93c
00000060: b423 1e3b b3d9 dc3a 3725 7bbd 2fb1 6abe
00000070: 8b5b 0bbe 19f9 f33c 176c 68bd 6f94 713d
00000080: a165 ac3c 1189 163e dd9c 4bbe fa29 2dbc
00000090: 1057 033e 9735 a6bd 00f7 733d 675b a3bd
000000a0: 6091 55bd 1bae da3c 36f6 87bd a81b 03be
000000b0: 75aa 333e a2e2 1abe 08ee 6f3d bc29 73bc
000000c0: 1691 273e 41d2 c63d 1891 b6bc ca66 453e
000000d0: 19ab 5ebe 2eef c5bd e1fb ea3b 76b3 08be
000000e0: 1997 ac3d 7a53 0b3d 0a85 eebd 9bee dfbd
000000f0: 5c9a 0abd de2b a43c cc4f 373d bfc0 50bd
00000100: 9b8d 233e a1aa 8cbd adc8 b0bd fd1b c8bd
00000110: cee0 cebd 52a6 613d 4f4e 11be 7163 debc
00000120: 0530 b33d 4361 a63b 666a f63c d452 b0bd
00000130: d5e2 5c3c 0a5f c3bd d3ae 2cbe 2090 b6bc
00000140: d1d3 80bc 85aa b43e e06b 823d bdef e5bc
00000150: 60b9 fd3d 4e49 983e ac30 523d 64ce 3f3e
00000160: af20 09be bfca 863d 75b8 6c3d 7b00 d0bd
00000170: 97e4 8f3b 30c8 d5be 493a 5dbd 1f75 c5bc
00000180: 23f3 dc3d a550 01be 518f 913c 74ce 123e
00000190: 4c76 5f3d bc2c 253d 3b4a b93d ca08 8fbd
000001a0: 3b62 e3ba b40d ee3d 500a 07bc 814d 09bd
000001b0: a43f 99bd 0bb8 1abe 4876 ad3e 1d76 143d
000001c0: 93f7 b53d f832 143e 499b 253e 6bf1 e83c
000001d0: 22e0 963d 27f3 093d d040 d63c b175 8dbd
000001e0: e195 ef3b ad8e 1c3e 25ee b83d 7da9 0abd
000001f0: 8971 71bc 2d5e 003d 6a6e b0bc 9a01 d63d
00000200: f37f a63d e86d 97be 3486 443e 9938 093d
00000210: 8ed5 f7bc 1779 333e ac1d 743a 9c8c 4c3d
00000220: 9367 753e dc4f d63d af4d 093e a9fc fa3c
00000230: 21c5 4c3d 63a3 33bd ae84 363c 4921 1ebc
00000240: 26eb a33d 0f44 773d badf 7a3d ecf2 b9bc
00000250: fa84 773d c7a2 233d aadd 7e3d f47b 233d
00000260: b333 25bc 620e 89bd 4359 8ebd a0f8 60bd
00000270: 4e34 4a3d ffc4 33bb 1ef6 84bc a68f 8c3b
00000280: b85b 95bd 2efc ebbc ae23 f23d 85ae 21be
00000290: 4f0b 23bd 2ca7 d3bd d3b1 963b 57ad 08bd
000002a0: baaf 3ebd 4ac1 a33d fa67 84bc 4f13 b43d
000002b0: f421 353d 82d7 d6bd 5e39 a83d 0ff5 73bd
000002c0: 363a e1bc d7f4 31bd acc6 46bd 4716 20bc
000002d0: 1517 aebd 8ce0 2d3d 607d 1abd 2850 1f3d
000002e0: d2ed 863d 46d3 82bd 2e56 933d 51e8 10be
000002f0: e386 23bd bb3b d03a 67ee 26be bafb 9dbe
00000300: 2750 393d 9a5d 403c 595c 973d 685a 98bd
00000310: 0d9c 6bbd 5f60 44bd ca1c 0cbe fba6 e23d
00000320: dec9 cdbd a273 17bd 0aca 05be 73e0 66bd
00000330: 5a4c 07bd 153f 233e 4a78 4f3d 46f8 d43d
00000340: 1ce6 d03d a830 053e 9c7c adbd fd7d 3a3d
00000350: 40e0 1d3d 0c3d cf3c 2a75 b73d f534 8e3c
00000360: 7c9e e3bc 2971 cdbd decc 5abd ed0b b13d
00000370: b655 7d3d 6ea7 17bc 18ed 193c 215b 983c
00000380: 1894 213c d156 cc3c 9949 7abd 392b ae3d
00000390: 8268 b9bd 42a7 b43b 87a5 48ba ab35 4a3c
000003a0: e65c b13c 9027 783d 107e 3ebd 4d4a 49bc
000003b0: c9d6 a03d 4e25 883d 8167 d6bd 9653 2d3d
000003c0: c296 b93d d400 8dbb a533 8e3d a3fa b6bd
000003d0: ac3b 623d 2bfe 92bc 954b 7d3d 7e47 6b3d
000003e0: a60b b33c 8ac4 38bd cef5 d1bd 0537 bebd
000003f0: d9e8 523d 8889 25be 0f3e 33bd 4344 793c
0.04400392 -0.04700111 -0.015898528 -0.061925415 0.046839777 -0.049981046 -0.045652833 -0.055715196
0.03256898 0.054744843 0.1901418 0.014866882 0.1786883 -0.026177168 -0.015844453 0.06450943
0.15172888 -0.123220935 0.2213796 0.06481724 -0.036964994 0.20299615 -0.067585304 0.020635942
0.0024130167 0.0016849547 -0.061314788 -0.22919153 -0.1360914 0.029781865 -0.056743708 0.058979448
0.021044554 0.14700724 -0.19884057 -0.01056909 0.1282618 -0.0811569 0.05956173 -0.07976418
-0.052140594 0.026694348 -0.06638758 -0.12803519 0.17545493 -0.15125516 0.058576614 -0.014841493
0.1636394 0.097080715 -0.022285983 0.19277492 -0.21744956 -0.096647605 0.0071711396 -0.13349709
0.08427257 0.034015156 -0.11646469 -0.10934182 -0.033838615 0.020040449 0.044753835 -0.050965067
0.15971987 -0.068684824 -0.08632026 -0.09770963 -0.10101472 0.055090256 -0.14190029 -0.027147027
0.087493934 0.0050775125 0.030080032 -0.08609548 0.013481815 -0.09539612 -0.16863565 -0.022285521
-0.015726002 0.35286346 0.06368232 -0.028068418 0.12388873 0.29743427 0.05131595 0.18731076
-0.13391374 0.065816395 0.0577931 -0.10156342 0.0043912637 -0.41754293 -0.054010663 -0.0241037
0.10788562 -0.1262842 0.017768534 0.14336568 0.054556176 0.040325865 0.090473615 -0.06984098
-0.0017348 0.116237074 -0.008242205 -0.03352118 -0.074828416 -0.1510927 0.33879304 0.036245454
0.08885112 0.14472568 0.16172518 0.02843543 0.07366969 0.033679154 0.026153952 -0.069072135
0.007311568 0.15288801 0.090297975 -0.033853043 -0.014736542 0.031339813 -0.021537025 0.10449524
0.08129873 -0.2957604 0.1919182 0.03350124 -0.030253198 0.17526661 0.0009312283 0.049938783
0.23965292 0.10464451 0.1340854 0.030638056 0.049992684 -0.04385699 0.011140032 -0.0096514905
0.080038354 0.06036764 0.06124852 -0.022698842 0.06042955 0.03995016 0.062223114 0.039913133
-0.010083127 -0.066921964 -0.06950619 -0.054924607 0.049366288 -0.0027430651 -0.01623064 0.004289585
-0.072928846 -0.028806772 0.118232116 -0.1578923 -0.039805707 -0.1033462 0.004598835 -0.033368435
-0.046554305 0.07995851 -0.016162861 0.08792745 0.044221833 -0.104903236 0.08214067 -0.059559878
-0.027493577 -0.043446388 -0.048529312 -0.009770936 -0.08500496 0.042450473 -0.037717223 0.038894802
0.065883294 -0.063879535 0.07194172 -0.14151122 -0.03992356 0.0015886942 -0.16301881 -0.30856115
0.045242455 0.011741066 0.07390661 -0.074391186 -0.05752187 -0.04794347 -0.13682857 0.11067005
-0.10048269 -0.03697551 -0.13065353 -0.056366395 -0.0330318 0.15942033 0.050651826 0.10398917
0.1020014 0.13006842 -0.08471033 0.045530308 0.03854394 0.025297664 0.08957894 0.017359236
-0.027785532 -0.10031349 -0.053418033 0.08644853 0.06184932 -0.009256227 0.009394906 0.018598141
0.009861968 0.024943741 -0.061105344 0.08504338 -0.090531364 0.0055131027 -0.000765406 0.012341897
0.021650743 0.060584605 -0.04650694 -0.012285781 0.07853467 0.0664774 -0.104689606 0.042316042
0.09061958 -0.0043030772 0.06943444 -0.08934524 0.05523269 -0.017943462 0.06183966 0.057441227
0.02185614 -0.04510931 -0.10251962 -0.09287838 0.051491592 -0.16165745 -0.043760356 0.015214029

lstm.bias_ih_l0 f4 [512]
00000000: 4c62 8bbc be6b 933d ed7b 2a3e a251 4c3e
00000010: 8537 403e 1335 2f3c a071 a33c cd44 8d3d
00000020: 5f4f 8c3c 8e23 093d 2c28 173e 48fe ac3c
00000030: 689e 943d 1007 963d d03e e83c c236 873e
00000040: 9c25 df3d 62b8 a83d 612a 053e 0d32 333e
00000050: ab59 d73d 3e51 693e 0961 a33d fe09 d83d
00000060: 7ca5 313e a7a0 b2bb 3e09 033e 3f7e 79bb
00000070: d377 b73c 85e9 2a3e 4054 e43d 2f55 583e
00000080: cf92 08bb ddb7 823e 6352 e23c 32e8 29be
00000090: 88d8 fc3d 2486 bf3d 0009 f93c 21ff ebbb
000000a0: 9e92 c43d b2f6 163d c446 3e3e 51f2 8c3d
000000b0: 2fe1 513e 854f 043e de19 7b3b be86 643e
000000c0: ca97 0ebe 8814 ef3d 0121 91bd 5fe1 923d
000000d0: a50e 89bd 50dd b43d 6b04 363e c96c b73c
000000e0: afd5 8b3d e8e7 b6bb 0fb8 6b3e 70fa c63c
000000f0: a9e3 9f3e cea3 3d3e 16b9 bcbb 91fa 3cbc
00000100: 503e 023e f16f d13e 785d 003e 2131 013e
00000110: 2c52 4a3e 845e cebd ab9f 9a3d b259 e23d
00000120: dda3 663d 87a4 563e 009d 523d b484 d53d
00000130: 7cf8 a63e 9ba9 ab3d 172c 5c3d fe89 03bd
00000140: 360b 283e cc52 cc3d fe9f 853d a5eb 1f3e
00000150: f647 6e3c 8449 5b3c 32ae 31bd 987a 953d
00000160: 932f dd3d 618c 253e fe63 cd3d 58f5 f73d
00000170: c7b0 d6bd 135f 92bc b60f a1bc 29f7 f13c
00000180: 70cc df3d e9f2 8e3e 77d0 2abd 8448 e93d
00000190: b57f 523e ff64 dc3e 0589 053d 536f 8a3d
000001a0: d522 b43d 7736 8e3c 4bc8 083f bfc9 a13d
000001b0: 4320 693e fb29 e33d aef1 b9bd c6eb f73d
000001c0: 2245 0c3d 13a2 dd3d 03e5 103e ea54 123d
000001d0: f85e 86bc 70b5 ce3d b0c0 473e 5900 8e3e
000001e0: 9caf 21bc 751e 88bd 2a21 e83b 47a3 303e
000001f0: ce96 dc3c 9c9f 3e3e 6b9c 9abc 162d ca3d
00000200: 0555 883d b5dc 8b3c f974 17bd 19f0 5f3e
00000210: d622 053d 1b62 5e3d e265 a23d 7283 5f3c
00000220: 94da 883d 525b 293d 54ed 153d 71bd f9bd
00000230: 54d1 7b3d ce4f 373d 709a 7e3e ad27 393b
00000240: 73ab 8bbd c07a 2e3d 83f1 9f3d a866 0a3c
00000250: 4135 9c3c e34f dc3d f41c 73bd 80b1 2dbd
00000260: 9abb df3d e490 193d ec20 ec3d 526f d13a
00000270: ff9f e73d 0b77 43bd 7cb8 b03d fbe4 703d
00000280: a1f2 953c b80b 163e 09fe 073d 2101 43bd
00000290: c5b6 7f3d b165 1a3d b03d bcbd 6149 3d3e
000002a0: 83d7 ffbc 9c73 5a3d 23f2 2f3d 3d17 7a3b
000002b0: c185 4c3b 8b35 5f3d 9a3b a63d eb0b 5b3d
000002c0: 16c5 803d a0b5 6abd 1316 833b bc3b 6abb
000002d0: c60a 1f3d 3616 fe3d fd25 c13d bc5b d03c
000002e0: 3603 8e3c 9edf 223d 92e1 4f3c 0dbe 9abd
000002f0: 7dc0 cc3c bbf7 933c 7f7e c13d 26b9 e73d
00000300: 3b5b a33c eec3 a03e b80a 11bd 3e9b 1cbd
00000310: 5734 d63d 8eee 933d 2918 953d b5df cb3d
00000320: 911c ae3d b6a7 87bd 23b0 d83b cad2 4b3c
00000330: e7dd 193d 54fa e03d 4fe1 a43c 1406 873c
00000340: 7d20 80bc 4bc8 1c3e 8e0e e23d 6023 2c3d
00000350: 9f1b c6bc 7f89 d9bc f1a9 4e3e 28a6 503e
00000360: addd 353e 9ad7 febb 2e2c 983d 99a8 933c
00000370: 3ae1 e23d 3dcc f1ba 9e8a 9d3d 0384 473e
00000380: 5ecb f93d 162c fc3d 9a44 313c 7a52 863d
00000390: e0f6 ea3d 110b a43d c58a eb3d cdcb 313d
000003a0: c9e1 05bc 4309 733d c652 903c 247a 043d
000003b0: d5a9 7ebb 8226 303d d31b afbb fc9f ec3a
000003c0: 49da 033d 48d9 7dbc a74b 453a 6a00 103e
000003d0: a086 983d 03e1 143e aaca 873d 99c6 0c3e
000003e0: 8a2c 3b3e 8d65 13bd 8cee a53d b58d 343c
000003f0: ad24 6bbd 0469 4d3c 64f1 a83d 1e54 213e
-0.017014645 0.071982846 0.16648836 0.19953015 0.18771179 0.010693806 0.019951642 0.06897888
0.01712769 0.033481173 0.14761418 0.021117344 0.07256776 0.07325566 0.028350264 0.26408964
0.10895845 0.08238293 0.13004448 0.17499562 0.1051515 0.22784898 0.07977492 0.10548781
0.17348284 -0.00545128 0.12796494 -0.0038069633 0.022396004 0.16690643 0.11148882 0.21126245
-0.0020839458 0.25530902 0.027627176 -0.16592482 0.123459876 0.09351757 0.0303998 -0.0072020446
0.095982775 0.03685636 0.18581682 0.06882156 0.20496057 0.1292096 0.0038314979 0.22317025
-0.1392509 0.11673838 -0.07086373 0.071718924 -0.06692246 0.088312745 0.17775123 0.02239074
0.06827866 -0.0055818446 0.23019432 0.02428934 0.31228378 0.18519518 -0.0057593687 -0.011534349
0.12719083 0.40905717 0.12535655 0.12616397 0.19757909 -0.10076621 0.075499855 0.11052264
0.056308616 0.209612 0.051419258 0.10425702 0.32611454 0.08381959 0.053752985 -0.03211402
0.16410527 0.0997673 0.06524657 0.15617235 0.014543524 0.013384227 -0.043379016 0.072987735
0.1080009 0.16166832 0.100288376 0.121073425 -0.10482936 -0.0178676 -0.019660812 0.0295368
0.10927665 0.279197 -0.041702714 0.113907844 0.20556529 0.43045804 0.032601375 0.06759515
0.08795706 0.017359955 0.5343062 0.07899808 0.22766213 0.110919915 -0.090793 0.12105517
0.034245618 0.10821929 0.14149861 0.03572551 -0.016402707 0.100932 0.19507098 0.2773464
-0.009868529 -0.06646434 0.0070840316 0.17249785 0.026927378 0.18615574 -0.018873414 0.09871881
0.06656841 0.017073015 -0.03697679 0.21868934 0.032503925 0.05429278 0.07929589 0.013642179
0.066823155 0.041346855 0.036603287 -0.12194336 0.061478928 0.044753842 0.248636 0.0028252408
-0.06819811 0.042597532 0.078097366 0.008447327 0.019068362 0.10757425 -0.059353784 -0.042405605
0.10924454 0.037491694 0.11529717 0.0015978611 0.11309814 -0.04772095 0.086289376 0.058812123
0.018304171 0.14652908 0.03320125 -0.0476085 0.062430162 0.037694637 -0.091914535 0.18485023
-0.031230694 0.05333291 0.04295553 0.0038160824 0.0031207653 0.054494422 0.08116837 0.053478163
0.06287591 -0.057302117 0.004000434 -0.003574117 0.038828634 0.1240658 0.09431074 0.025434367
0.017335515 0.03976404 0.0126880575 -0.075557806 0.02499413 0.018062463 0.09447955 0.11314611
0.019940963 0.31399482 -0.035410613 -0.038233988 0.10459202 0.07223235 0.07279999 0.09954778
0.08501542 -0.06623785 0.006612794 0.012440393 0.03756514 0.10985246 0.020126967 0.01648239
-0.015640492 0.1531078 0.11037932 0.042025924 -0.024183093 -0.026554821 0.20182015 0.20375884
0.17760344 -0.0077771666 0.074303016 0.01802473 0.11078115 -0.0018447709 0.07692455 0.19483952
0.12196992 0.12313096 0.010819579 0.065587 0.11472869 0.08009923 0.115010776 0.04340725
-0.008171507 0.059335005 0.017617594 0.032343045 -0.0038858552 0.043005474 -0.005343893 0.001805305
0.032190595 -0.015493698 0.00075262267 0.14062658 0.07447553 0.1453896 0.06630452 0.13747634
0.18278709 -0.03598552 0.0810214 0.011020114 -0.057408024 0.012537245 0.082491666 0.15754744

lstm.bias_hh_l0 f4 [512]
00000000: 326a acbc d0df 34bc 6928 5c3e c9d6 613e
00000010: d282 243d d876 083e 9c23 7ebd b92f 5c3d
00000020: b317 b13d 6c01 483d 8a95 c83d 6ecc eb3d
00000030: 4eca 303e 0f6f 293d e225 2cbd 97da 7a3e
00000040: 1f98 033e 5be9 d13d bc43 2c3e e6b8 1c3e
00000050: fe63 323d 776c 1d3e fafe 283d 28b3 2fbd
00000060: e092 533e 645a 01bd ee3d 613e d057 103e
00000070: 2ec3 ee3d 0b30 da3d dcc9 243d 2437 fe3d
00000080: acba cf3d 09a4 163e c957 a93d 0da2 98bd
00000090: c511 023e a621 223e f139 823d 9809 e73d
000000a0: f444 203e 7332 92bc 76ba 853d 3130 b43d
000000b0: 094b e23d 26e2 503e 4140 013e fea6 a13d
000000c0: c490 94bd 0743 ec3d 75a9 993d 4cd8 023e
000000d0: 39ea 683d 7844 623c 4eeb 393e 230a 563d
000000e0: 1c94 193e 74d1 2cbd 2154 563e ba2e aabd
000000f0: 3acd 943e d7c2 133e 24ad ef3d de68 0f3d
00000100: a9af db3d cceb e53e ecee 2b3d c654 303e
00000110: d603 423e 8846 b3bd 98a9 183e 656e 213e
00000120: 057f 8ebd f4be 5c3e 0441 043e ae71 f53c
00000130: d475 963e d30c 3b3e ffe1 7a3d ba5b c0bd
00000140: a5d5 a53d d193 36bd 8c38 193e 4691 633d
00000150: 34ca 273d 3ac5 91bd b7c8 08bd ddb6 d33d
00000160: ba07 123e b613 3c3e 2b27 c83d 962f e63d
00000170: 11e5 99bd b8af 8a3d 9b31 a63c fef5 ccbb
00000180: 55f8 a83d 0079 ae3e 9516 8e3d cd06 2a3e
00000190: bb99 e43d f7cc c83e a040 6d3d d89e 3f3d
000001a0: f8ec f13c 6116 35bb f4b9 db3e ccdd 3d3e
000001b0: 3eb3 8b3e 1216 cd3d 3ebc 63bd 114d 2e3e
000001c0: 32aa 213e 55aa e73d 076f 093e fbd5 543b
000001d0: 18eb 953c 58c8 ca3d d68a 143e 6647 943e
000001e0: 3116 0bbd 0c24 f1bd 433d 103e 7dd7 f83d
000001f0: e38c fb3d fba3 473d 606c ae3d e969 1b3e
00000200: 0643 a8bd 76df 6e3d b669 833d 2220 703e
00000210: 7318 bebc 5eac a33d ed34 183e 74d2 b1bd
00000220: 80e4 873d ec60 47bc 7a15 d13d bd1d 10be
00000230: 7b58 ea3c d47f 113d 5c43 613e 68ac c73d
00000240: d6d0 543c 38c0 e1bc 5203 c9bc 5ab4 12bc
00000250: 10ec 40bd 5f32 1e3e 519c cdbd c887 87bc
00000260: 3249 db3d 1576 e3ba 74a3 42bc 6b8a f03d
00000270: a227 a43d 8a62 333c c39f c33d f709 49bd
00000280: 3c49 a73c 76d6 753d 17a3 b9bc f929 fabd
00000290: 41b2 ba3d e220 a93c 945f 5abd 2fc9 2e3e
000002a0: 57a5 1d3d e97b 48bd c459 b53d fed3 c93d
000002b0: 2dd8 26bd 5b4e 53bd f616 3cbd 89ca 983d
000002c0: f14f 28bc b4ba 14bd 045a 0dbe c053 00bd
000002d0: 8db9 283d 45df 5a3c 17a2 013d e84b e4bc
000002e0: e9cc 033e 3d8f 8f3d 2bea 133e af04 993d
000002f0: 1694 e03d 7760 9cbc bc06 e1bc 5f23 fb3d
00000300: 1a2a 1e3d eb9c a13e 89eb d7bd 872c d9ba
00000310: 7040 163e 65fe 163e 6551 e13c 5593 653a
00000320: 7aed 893c 03b7 3b3d 77b2 08bc ede8 00bc
00000330: 49fd 813d 9615 483e e274 163e d0f7 2fbd
00000340: 410c 80bc 3548 3f3d 9347 8f3d 00f8 6dbc
00000350: 0442 223c fca2 f7bd 941c dd3d 921d a33d
00000360: 12c2 503d 18c1 c13d e9dd 0cbd 1fa2 a93b
00000370: 1d37 d53d ec46 5a3d 4b27 dd3c 8750 083e
00000380: 82fd 443d 372f 3d3d 1fba 963d ea17 053e
00000390: efc3 023e 3e3d 103e 4238 af3c 8f3a b43b
000003a0: a627 323d 3fb7 593e e583 9f3d 194e b8bd
000003b0: cd8f a33d d522 cc3d 90be a73d a075 923d
000003c0: 8fca 2f3e a004 d93d e6e5 ba3d 9522 dfb9
000003d0: 70b4 2dbd 2cbe f33d e1b4 c63c 94d9 af3c
000003e0: f03b 633d 75d0 993d 325e e63d 598f 0c3e
000003f0: 52a6 67bd 7dfe c53c b3e6 dfbb 35ab 113e
-0.021046732 -0.011039689 0.2149979 0.2205459 0.040163822 0.13326585 -0.06204568 0.05375645
0.086470984 0.04882948 0.09794147 0.11513601 0.17264673 0.04136568 -0.042028315 0.24497448
0.12850998 0.10249587 0.16822714 0.15304908 0.04355239 0.15373407 0.04125879 -0.042895466
0.20661497 -0.031580344 0.2199628 0.14095998 0.11658321 0.10653695 0.04023157 0.12412861
0.10143027 0.14711012 0.08268697 -0.07452784 0.12702091 0.15833148 0.06358708 0.11281127
0.15651304 -0.017846322 0.06529705 0.08798254 0.11049468 0.20398769 0.12622167 0.07893179
-0.07254174 0.11536222 0.075030245 0.12777823 0.056863997 0.01381027 0.18156168 0.05225576
0.14997905 -0.042191938 0.2093053 -0.08309694 0.29062825 0.14429794 0.11702946 0.03501212
0.10726864 0.4490646 0.0419759 0.17219839 0.18946776 -0.08753687 0.14908445 0.15764768
-0.06957821 0.21557218 0.12915426 0.029961433 0.2938677 0.18266611 0.061250683 -0.093924955
0.0809739 -0.044574562 0.14962977 0.055558465 0.04096432 -0.07117696 -0.03339454 0.10337613
0.1426076 0.18366894 0.09773096 0.11239545 -0.07514394 0.06771797 0.020287326 -0.0062549105
0.082504906 0.3407669 0.06937901 0.16604157 0.11162134 0.39218876 0.05792296 0.046782345
0.02953194 -0.0027631747 0.42915308 0.1854164 0.27285188 0.10013975 -0.055599444 0.17021586
0.1578758 0.11311785 0.1342126 0.0032476175 0.018300578 0.09901494 0.14506087 0.28960723
-0.03395671 -0.117744535 0.1408587 0.12150476 0.122827314 0.04874037 0.08516765 0.1517712
-0.08215909 0.058318578 0.06416647 0.23449758 -0.023205018 0.07991861 0.1486394 -0.08682719
0.0663538 -0.012169104 0.102091745 -0.14073844 0.028606644 0.035522297 0.21998352 0.09749681
0.0129892435 -0.027557477 -0.024537716 -0.008954132 -0.047100127 0.15448903 -0.100395806 -0.016544238
0.1070732 -0.0017353917 -0.011879791 0.11745151 0.08015372 0.0109487865 0.095519565 -0.04908177
0.020420663 0.06001898 -0.022660775 -0.12215037 0.091160305 0.020645563 -0.053313807 0.17068933
0.03848776 -0.048946295 0.08855012 0.098548874 -0.040733505 -0.051588397 -0.045920335 0.074605055
-0.010272966 -0.036310866 -0.1380387 -0.03132987 0.04119258 0.013358896 0.03164872 -0.027868226
0.12871136 0.070097424 0.14444797 0.074715964 0.10965745 -0.019088967 -0.027469032 0.12262606
0.03861437 0.3156503 -0.10542972 -0.0016569056 0.14673018 0.14745481 0.027504632 0.0008757611
0.01683687 0.04582883 -0.008343331 -0.007868034 0.063471384 0.19539484 0.14693025 -0.04296094
-0.015630843 0.04669972 0.069960736 -0.01452446 0.009903435 -0.12091634 0.107964665 0.079646245
0.05096633 0.09460658 -0.034391318 0.005176797 0.10410903 0.053290293 0.026996275 0.13311969
0.048093326 0.046187606 0.073597185 0.12997404 0.12770055 0.14085862 0.02138913 0.005500145
0.043494843 0.21261309 0.07788829 -0.08999271 0.07986412 0.09967581 0.08190644 0.071513414
0.17167114 0.10596585 0.09125881 -0.0004255964 -0.042408407 0.11901507 0.024256172 0.021466054
0.055477083 0.07510463 0.11248435 0.13726558 -0.0565551 0.024169201 -0.0068329214 0.14225467

lstm.weight_ih_l1 f4 [512, 128]
00000000: d1a1 843c b835 e4bd de6b 403c 7d0b 41bd
00000010: 2331 02be 95e9 f33d da78 aebd 6b05 033d
00000020: 9f06 483e cbf8 8e3d 0a9b 4d3d fa5c 993c
00000030: 3d0f 21bd 432d 01be b56b 5cbe 1e45 813d
00000040: 7158 a3bd a6c1 07bd c0ef 813d 6418 493d
00000050: 742e 20be 3ba8 063e d14e 393d 9f27 0e3e
00000060: fdf2 31be 74a9 b4bc f1ff 29bd e49b c4bd
00000070: fbf3 173e 547b 6f3d 5f63 fabd e6f2 acbd
00000080: 126c bfbd 8180 ae3d b9ec c53d 8616 20be
00000090: 71a0 103d bca1 5b3c 974a f63d e337 3d3e
000000a0: 7ae2 b2bd a693 41bd 9796 1a3d 20c9 13be
000000b0: 68f5 613d 4ac7 96bd e2d0 ce3d a85b 7a3d
000000c0: bcfb 673e f2ef 04bd bf83 cfbd a46c 493c
000000d0: 0ace 0bbe fb10 22be a77c a23d 235d c2bd
000000e0: 68ef b3bd 5ad8 c2bb 7d96 f33d 3f2f 46bc
000000f0: 16f6 10bd 262c 773d a189 31bd 41ff 59be
00000100: b2ee 563b 7ed8 493e 14bc ec3c 9288 4abe
00000110: c8ec 1dbe 1b7a 673d e455 c4bc 819c d8bd
00000120: a74d 153e 268b 41be 389f cebc 2553 5b3d
00000130: 4cd8 d6bd ed11 453d 4506 983c 5c99 51bd
00000140: d03a 23be 1b7f c0bd 7859 53bd 301f c53d
00000150: 5907 debc 0cad e83d a139 373e 0da1 1f3e
00000160: df01 033e 04d0 d4bd d0c8 50be be3e e9bd
00000170: 11d7 303e f078 eebc 9c95 86be 0b44 4e3d
00000180: 04b9 8b3d ec03 9fbd f15a 89bd 9aaf 213d
00000190: 7dd1 73bc e051 f7bc 6184 d4bd 5dd6 b93d
000001a0: 6d38 51bd 0000 1d3e 80b9 11bd bfb6 623c
000001b0: cfd1 2a3e e805 44bb 4556 503d f3a1 f63d
000001c0: 4bb6 753c 1937 4ebc cf8e 11bd c4ff 4dbd
000001d0: d7e7 fd3d 9d93 003e 693e a23c d8df 143d
000001e0: f01c bcbd 70e0 383e 10b8 f0bd c286 953d
000001f0: 1851 5abb e30e 6ebd c1e0 093e 7fa0 f03d
00000200: 97a8 b83c c5e9 06bd 5337 4dbe 20ff 633d
00000210: 7f58 0dbc de5c 04bd 48d6 a93d c3b6 45bc
00000220: eed3 a7bd c104 38bd 8b5e b8bd 37f1 2d3e
00000230: 26e2 ecbc c972 163e 0e0c 69bd fc01 7cbc
00000240: fedf 94bd 46c9 8d3c c511 90bb 6056 dc3b
00000250: e571 2a3d 2d27 ae3c 9d11 e63c 0726 91bb
00000260: e8b2 7c3d 158b 4dbd 469a 543d 8bdb e43d
00000270: fa6d a23d 005a 8c3d a5ce fc3c b49c 2ebc
00000280: 7b1f 04be f479 21be b76b af3c d66e d1bd
00000290: 49fe 2bbd 9092 1b3a 3cd5 623d b55e 653e
000002a0: dfe3 cbbd 3ea8 dabd ccb3 f2bc 3dc4 193e
000002b0: a336 f5bd 5cd0 183d cdac 833d 1e93 c1bc
000002c0: ef0e 813d 448b 1fbd 60ea 78bd 9501 3fbd
000002d0: e99c 72bd 97f2 abbd 15bd f03b d364 b0bd
000002e0: 1f25 54bc e624 b03d ec35 253e b453 bc3d
000002f0: d5f3 79bd 2cbe 7ebd f0ff 54bd fb1c 6cbe
00000300: 407f ce3d 1a43 febd 6a68 9b3c f018 433e
00000310: b278 873c 9515 0d3e 13d1 003e 08e4 00be
00000320: 2edd 3ebd 8327 f83d d8f0 003d f8b7 dc3d
00000330: e1e0 603e e0d2 df3d fade a53d 015e 15bd
00000340: 0404 fa3d d6b7 a73d 88ba d23c d05a d2bb
00000350: dbfa 36bd 7e62 ed3d 8e9a 7e3b 9dfe 45bd
00000360: 730d 153c 9fe2 313d 6506 923d a58c a23d
00000370: 58df 693b c14a 3fbc f484 b9bd ab12 323e
00000380: a1ee a0bd 6398 f33d 56c6 92bd 122f 81bd
00000390: 99bb a7bc 4bb6 093e 1767 d7bd e9f0 913d
000003a0: 24dc 3d3d 4fda a1bd 8729 3d3c af79 e4bd
000003b0: ca69 123e 50c8 7e3d 5c33 0c3e daa7 adbd
000003c0: 41e2 5dbd 2cc5 093e f487 ccbc b7f5 9bbd
000003d0: 0e89 c5bd 2cb1 1dbe cf2e 1dbe 2cc4 cd3d
000003e0: 80ce 0dbe 038a 063e 8f0c aebd 33d5 ab3d
000003f0: 1a1a 4bbe 011b 22bc bf73 343e 68bf 1a3e
0.016190441 -0.111430585 0.011744468 -0.047130097 -0.12714057 0.119097866 -0.08519144 0.03198759
0.19533776 0.06981047 0.050196685 0.018721092 -0.039321173 -0.12614922 -0.21525462 0.06312011
-0.07975853 -0.033143662 0.06344557 0.049095526 -0.1564272 0.13150112 0.04524118 0.13882302
-0.17377849 -0.022053458 -0.04150385 -0.09600046 0.14839165 0.058467224 -0.12225985 -0.08444767
-0.09346785 0.08520604 0.09664292 -0.15633592 0.03530926 0.01340526 0.12025946 0.1847835
-0.08734603 -0.04725995 0.03774127 -0.14432192 0.05516568 -0.0736223 0.10098435 0.061122566
0.22654623 -0.032455392 -0.101325504 0.012293968 -0.13652816 -0.1582679 0.07933932 -0.09490421
-0.087858975 -0.0059462013 0.11893938 -0.012096225 -0.035390936 0.060344838 -0.043344144 -0.21288778
0.0032796082 0.19711491 0.028898276 -0.1977866 -0.15422356 0.056512933 -0.023966737 -0.10576726
0.14580403 -0.18900737 -0.025222406 0.05354609 -0.10490474 0.0481128 0.018557677 -0.051171646
-0.15940404 -0.093992434 -0.051598996 0.09625089 -0.027103113 0.11361131 0.17893077 0.1558878
0.12793683 -0.10391238 -0.20389104 -0.1138892 0.17269541 -0.029110402 -0.26286018 0.05035786
0.06822398 -0.0776442 -0.06706799 0.039474107 -0.014881489 -0.030190408 -0.10376812 0.0907409
-0.051079202 0.15332031 -0.035577297 0.013837515 0.16681598 -0.0029910747 0.050863523 0.12042608
0.014997075 -0.0125863785 -0.035536584 -0.050292745 0.123977356 0.1255631 0.01980515 0.036346287
-0.09185207 0.18054366 -0.11753857 0.07301094 -0.0033312496 -0.058119666 0.13464643 0.11749362
0.022541327 -0.032937784 -0.20040636 0.055663228 -0.008627056 -0.032315128 0.08292824 -0.0120675
-0.08194719 -0.04492641 -0.09002408 0.16986547 -0.02891643 0.14692225 -0.056896262 -0.0153813325
-0.072692856 0.017307889 -0.0043966495 0.006724164 0.041612525 0.021258915 0.02808457 -0.004429582
0.061694056 -0.050181467 0.05190494 0.11174687 0.079311326 0.06853104 0.030860255 -0.010657478
-0.12902634 -0.15769178 0.021413667 -0.102262184 -0.041990552 0.000593462 0.055379137 0.22399409
-0.09955572 -0.10676621 -0.02962675 0.15016265 -0.11973312 0.037308082 0.064294435 -0.023629721
0.063016765 -0.038951173 -0.060770392 -0.046632368 -0.059231672 -0.0839588 0.007346759 -0.08612981
-0.0129483035 0.08600788 0.16133851 0.091956526 -0.061023552 -0.06219308 -0.052001894 -0.2305793
0.10082865 -0.12415142 0.018970687 0.19052482 0.016537044 0.13777764 0.12579755 -0.12586987
-0.046597652 0.12116911 0.031479686 0.10777277 0.21960784 0.10928893 0.0809917 -0.036466602
0.12207797 0.08189361 0.02572371 -0.006419517 -0.04467283 0.115910515 0.0038849446 -0.04833852
0.009097445 0.043429013 0.07130126 0.07936982 0.0035686102 -0.011675538 -0.09058562 0.17389934
-0.07858015 0.118943 -0.07166736 -0.06307806 -0.020475196 0.13448445 -0.1051771 0.07126028
0.04635252 -0.07902967 0.011545545 -0.11156022 0.14298168 0.06220275 0.13691467 -0.08479281
-0.05417085 0.13454121 -0.024967171 -0.07615226 -0.09645282 -0.15399617 -0.15349887 0.100471824
-0.13848305 0.13138585 -0.08498489 0.08390274 -0.19834176 -0.009894134 0.17622279 0.15112078

lstm.weight_hh_l1 f4 [512, 128]
00000000: 42c0 833c bb1f e0bc df5b cd3c 15bf cbbd
00000010: c23c 00be 977d 3f3d 5a12 f13d 1403 603d
00000020: b799 80bc cd0c 9c3e 26c2 f13a 09c0 63bc
00000030: e282 04bd 08c7 bf3d 7f1c 89be 41dc 84bd
00000040: 0c1b 0e3e ef8f d1bc 8c81 d1bc a233 8f3c
00000050: 19c8 a73b 528c b13c 85e5 d93d b5cc d0bd
00000060: 42f0 29be 9777 0cbd 9fd4 f9bd e628 0a3d
00000070: 6aea 093e 7600 203d 2d88 39bd 5d10 263d
00000080: 0a04 8c3e 3736 233d b306 a3bd d4b2 93bc
00000090: 248d 713d dc15 41bd a0f6 573c 8995 ae3d
000000a0: e65c e13c 2978 b83d 6933 77bc 8608 233d
000000b0: 0d8f bdbd 031f 1abd f3c8 3cbe dabf b9bd
000000c0: 7862 6ebd 5260 f23d 06d1 09be a86e 11bd
000000d0: f729 383d 2dc1 64bd 3578 f73d 4705 0b3d
000000e0: 0dc9 5dbe 7e96 313e 8573 55bd 1d9a e0bc
000000f0: 7357 8e3c 29eb 303e 1cc7 1cbe 3868 cc3c
00000100: c276 33be 0b62 893d a6fe 8b3d eea6 0fbd
00000110: 12a9 27be e6ce dd3c fcc7 fabd 3310 163d
00000120: 8260 2e3d be55 f73b 4080 3bbd ecb6 f6bc
00000130: 86b7 8e3d 56cb 80bb c2c0 56be 673f a7be
00000140: 25fb 31bc 8d5d 44be d934 56bd f453 5e3e
00000150: 4466 b0bd 3576 733c aba2 c3bd 3f48 85bc
00000160: 3fea cfbd 13ca 973c b2ff 09be 80dd 043e
00000170: c3ff d83b ad50 80be e3c3 8e3d b2fc bc3d
00000180: fed8 503d 1109 2f3e e42c ab3d 38ac e5bc
00000190: b77e 99be ac1c 22be 4b36 a73d 6737 0ebb
000001a0: 2bf8 8b3c 386d 2cbd 3d82 5dbc 4d94 373d
000001b0: 8dd7 f9bb 95eb 603d c0fc babd a1ed 18be
000001c0: 0876 173d a1e4 a7bc 75f9 49bd 9f58 1b3e
000001d0: 2f66 a7bd 90bc 32be cd82 4d3d 90c3 953d
000001e0: ed5e 303e 699c 3fbe 8a5c bb3d 228f 163e
000001f0: 7e47 1fbd 64dd ad3b 330a 8e3d aa76 183d
00000200: 42b3 1abb d6b5 f73c c860 05bd b501 8dbe
00000210: 000c d2bd c43b c53d ca56 14be ceca efbd
00000220: 42d8 06be c278 cfbc 49fd 153d d285 0e3d
00000230: e6ed 1fbc a5ab 123e 13cd cbbc fc03 283c
00000240: 0ffc 373b a21c af3d 810b 2d3e 2c53 12bd
00000250: 2024 97bd 5644 bdbd d736 7c3e a754 9c3d
00000260: 4476 0c3e 6aca c13d 90ce 3b3e 879e eebc
00000270: 8c4c bfbd e098 4b3d f18e a5bc 6e1f 2cbd
00000280: ee42 c4bd 2b18 efbc e741 103d e0c6 40bb
00000290: cb5f d0bd df3b 15bd 7cb2 993d b4d4 89bc
000002a0: e113 363d 37bd 2dbd 60e2 133d 8fc8 6b3e
000002b0: 83a6 be3d 6945 c53d 0167 673d 78e2 c43d
000002c0: ae35 59bd 291a f53d 97e7 913d c961 223c
000002d0: 5d46 81bd 7696 08be 33cf 9b3d 8946 7abd
000002e0: 202f 063e 2c64 673c b5ba 893e eaa2 a0bd
000002f0: 2676 fdbd f245 d9bd 0c33 63be a8e0 19bd
00000300: c25c 41bd 58a6 d13d 7fe1 253e 873f c53d
00000310: 02d5 23bd 0e5f b8bc 11bb 4bbd 43ff f6bd
00000320: f1af debd a824 0abd d20a 77bc de01 dd3d
00000330: d7ea 4cbc 99e5 ccbd 5b72 5bbe fc15 97bc
00000340: aa14 e03d c7b4 d63d fda8 4cbe eefc da3d
00000350: 0516 3dbd 17be ae3d a3f2 2cbc 9d3d 733d
00000360: a438 a93d 5de8 1fbd 1a6f 2cbd 4a4d bc3d
00000370: e6d8 b83d 149d 0e3e 7d31 4fbe 91d6 bdbd
00000380: 8894 debd 14ed 2bbb 50ed f03d 8a51 0ebe
00000390: 936d cd3c 5331 40bd f7ee 3e3e 30c0 0cbd
000003a0: fecc a9bc e090 ea3d bd61 2b3e 140e 97bd
000003b0: 0320 1e3c c112 e1bc 25c4 5c3c 1a74 423d
000003c0: 9ec3 78bd 44a1 aabd 5532 57bd ea5a 78bd
000003d0: e07f a33d 8a4e 3b3d 0a57 1e3e 8535 96bd
000003e0: 1999 24be 2699 08be b569 be3c 510c a33d
000003f0: 2a3d 743e aa0d 8b3d e9df a33c f530 19bd
0.016082887 -0.02735888 0.025068222 -0.099485554 -0.12523177 0.04675063 0.117710784 0.054690436
-0.015698297 0.30478516 0.0018444702 -0.013900765 -0.032351382 0.09364134 -0.26779553 -0.064873226
0.13877505 -0.025581328 -0.025574468 0.017480675 0.005120289 0.021673355 0.106394805 -0.10195295
-0.16595557 -0.034293737 -0.121987574 0.03373041 0.13468328 0.03906294 -0.045295883 0.04054295
0.27346832 0.039846625 -0.07960262 -0.018029608 0.058972493 -0.047139987 0.013181359 0.08524615
0.027510118 0.09007294 -0.015087941 0.03980305 -0.092558004 -0.03762723 -0.18436031 -0.09069796
-0.058199376 0.11834778 -0.13458642 -0.03550592 0.044961896 -0.05584829 0.120834745 0.03394058
-0.21658726 0.17342564 -0.05211212 -0.027417237 0.017375683 0.17277206 -0.15310329 0.02495204
-0.17525771 0.06708153 0.0683568 -0.035071306 -0.16373089 0.027076196 -0.12245175 0.036636543
0.042572506 0.007548063 -0.045776606 -0.03011652 0.06968598 -0.0039304895 -0.20971969 -0.3266556
-0.0108631 -0.19176312 -0.052296493 0.21711713 -0.086132556 0.014859726 -0.09552511 -0.016269801
-0.10152101 0.018528974 -0.13476446 0.1297512 0.006622286 -0.2506155 0.06970956 0.09227885
0.05098819 0.17093302 0.083581716 -0.028036222 -0.29979488 -0.1583125 0.081646524 -0.0021700503
0.01708611 -0.042096347 -0.013519821 0.044819165 -0.0076245726 0.05491217 -0.091302395 -0.14934398
0.036977798 -0.020494761 -0.049310166 0.15170525 -0.08173787 -0.17454743 0.05017357 0.07312691
0.17223711 -0.1871201 0.0914851 0.14703038 -0.03888654 0.005305933 0.06935539 0.037222542
-0.002360538 0.030238073 -0.032563 -0.27540365 -0.10256195 0.0963054 -0.14486232 -0.11708604
-0.13168433 -0.025326136 0.036618505 0.03479559 -0.009761309 0.1432329 -0.02487806 0.010254856
0.0028073823 0.08550383 0.1689892 -0.03572385 -0.07379937 -0.0924155 0.24630295 0.07633334
0.1371699 0.094624355 0.18340516 -0.029128326 -0.09340772 0.04970634 -0.020209761 -0.04202216
-0.09583078 -0.029186329 0.0352191 -0.0029415414 -0.10174521 -0.03643405 0.07504746 -0.016825058
0.04445255 -0.042416777 0.03610456 0.23025726 0.09309103 0.096323796 0.056494717 0.09613508
-0.05302971 0.1196788 0.071242504 0.009911009 -0.06312249 -0.13338646 0.076078795 -0.061102424
0.13103914 0.014123004 0.2690026 -0.078435734 -0.12376051 -0.10609044 -0.22187442 -0.037567765
-0.0472076 0.10236806 0.16199301 0.096312575 -0.039998062 -0.022506263 -0.049738947 -0.12060406
-0.10873402 -0.033726364 -0.015078263 0.10791372 -0.012507162 -0.1000473 -0.21430342 -0.0184431
0.10941441 0.10483699 -0.19986339 0.10692774 -0.046163578 0.085323505 -0.010555896 0.05938493
0.082627565 -0.03903996 -0.042098142 0.09194429 0.09025745 0.13927108 -0.20233722 -0.09269441
-0.10868174 -0.002623384 0.11764014 -0.13898292 0.025076663 -0.04692204 0.18645845 -0.03436297
-0.02072763 0.11453414 0.16736503 -0.07375732 0.009651187 -0.027474763 0.013474499 0.047474004
-0.06073343 -0.0833154 -0.052538235 -0.060633577 0.079833746 0.045729198 0.1546289 -0.07334427
-0.16074027 -0.13339671 0.023243764 0.079613335 0.23851457 0.067897156 0.02000423 -0.037400205

lstm.bias_ih_l1 f4 [512]
00000000: 78e8 bb3d 9e70 e43b 8eb7 993d 1524 d23c
00000010: cbc4 973d b832 c73c c252 723c d4c5 f63d
00000020: 520e 07bd 83d4 bf3a f7eb 963b 82d7 313d
00000030: aa9a a43d 21de 563d b079 46bd 5965 363d
00000040: f75c 43bb 690b 51bc 3166 113e 4e50 063e
00000050: 022f 4d3d be10 ca3c 26bd c73d 46a0 c7bc
00000060: 2f69 ae3c a12a 7c3d 910a d0bc 52d3 663c
00000070: dfd6 c93c 9f4a 093d ee62 86bd cabf b13d
00000080: 3d54 ccbc ad92 57bc 8a6f 3a3d 3534 bfbc
00000090: f3c9 87bd 8a67 473d 49e6 8ebd 267d 353c
000000a0: 0862 30bc 48c6 5d3b a915 ddbd 193d a73d
000000b0: 4c8c 45bc c556 a63d 04b7 3f3d 60f8 6f3d
000000c0: a6af 7c3c 8c1c 843d a53f 343e a780 b2bc
000000d0: 5a77 c23d b296 80bd 21ed 80ba 5b8a 683c
000000e0: 7781 7f3d ebfe a63d e9e0 c53d 65d7 e13c
000000f0: 4786 e23c f58e 383e c318 eebc 7962 c7bd
00000100: b652 86bb 130b a33d ffd0 4b3d 39d2 a13c
00000110: ac1e 05bd 2c6e 713d 1e15 383c 9b96 1e3e
00000120: 5158 0f3e 07b7 3f3d 53ff e43d 4b50 5e3d
00000130: 0923 77bb 6b4c d03d f9e7 873d 8409 9f3d
00000140: 39d9 283d 6ee0 4e3d 1b81 0e3d ee3b 60bd
00000150: 1f0d 823d f389 e03d 0b41 15bb b33b 59bc
00000160: db8b 83bb 2bf1 133e 13a6 853d fd4d 523c
00000170: 551b 27bc e482 d93d 4afb ad3d c3f9 663d
00000180: 9f0d 153e 57f1 723d cbbc be3d e4ed 9f3d
00000190: 6f50 02be 3dcb 0e3d b997 61bd 267a 893d
000001a0: c4ae f0bc 8803 a53c 3bc6 0d3e 171a 61bc
000001b0: c8b0 8a3c 379f e03d 7aa3 86bc 1af5 a03c
000001c0: 0775 fd3d 2857 8a3d 0888 3e3b 814f ea3d
000001d0: d7f5 14bd d19b 1b3e 5eb8 b53b e028 9c3d
000001e0: 7111 acbd 9c41 873c a8b0 293e ac4a 693c
000001f0: 3413 3fbe 9337 9d3d 1e13 dfbc 9ffc af3d
00000200: ab35 2d3d 204d 933c c0c1 413b c2bc b2bc
00000210: 07f6 25bd a198 0a3c de93 3d3d c24c 5c3d
00000220: 9b79 75bd d176 323c b69e 3a3d c5f2 b03d
00000230: 28f4 243d 80bb bb3d 0604 a7bd b815 53bd
00000240: 055e 11bd a110 a93d ea6b 073d ad4b cdbb
00000250: 1136 7abd c69f f33d 17c2 52bd 59af 0c3d
00000260: bc21 983b 9cf1 2cbd ba65 d23d 023a bf3d
00000270: ca1e ea3c 6462 99bd f173 eb3b 0b8f 9f3c
00000280: efbc 6a3c 1007 cd3d b4b6 4c3d 893e 923d
00000290: e539 bb3c 72cf a03b 11df aabd fe96 a73d
000002a0: fd75 79bd b468 f3bc b80b 4d3d c87c 973c
000002b0: 6e6b 663d 4409 dd3d c4ac d63d 556a 9cbd
000002c0: 02f6 743d b21b babc 86bd ed3b 9565 ecbb
000002d0: dbac 233d 4df0 173e 0d46 69bd e59f f23c
000002e0: 28ce 893d 6420 cb3c c71a 133d fcdc 043d
000002f0: 6300 003d 0078 b6bd 0d53 10bd bae6 053c
00000300: edfb 703d dcbd ab3d 0e8d 803d 0b5e 783e
00000310: 85fd 76bc 6cf6 18bd 97d3 32bc 4fed 703d
00000320: 6ba0 333d 72f1 11bc dd32 a03d 3a9f 96bd
00000330: cfe0 6f39 3a2a ee3c fabf 85bd 548c f9bd
00000340: 8f4c 0a3e 4617 f43d 4638 113d 966d 473d
00000350: a3e8 ca3c 7281 e13b 12d1 ad3d 7618 813d
00000360: c80f 8b3d 9614 743d d6fb c73c 7817 9dbd
00000370: 7c5c d03d 28c0 d7bd 4440 4ebd 0a1f c03c
00000380: 8bc3 233d 1a48 673e 0afe 073d 01b8 223c
00000390: 1692 813e d5ce d73c fc6b 013c f1d2 a4bd
000003a0: 927d aebd 0e66 433d cc8e aa3d 4e1a c0bc
000003b0: 7deb 083e a0b0 61bd 28d7 303c 3db3 2abd
000003c0: 7518 03bd ad6e ae3d 1397 c23b facf b5ba
000003d0: fa76 3ebd 1187 34bc d6f4 b4bd 473c cdbc
000003e0: e7f9 433e 3203 e5bc a061 0c3e e1d6 5e3c
000003f0: e094 ea3d c6c9 81bd ba04 8bbd 357d 40bd
0.09175199 0.006971433 0.075057134 0.02565197 0.07410582 0.024316177 0.014790239 0.120494515
-0.03297264 0.0014635477 0.004605766 0.043418415 0.08037312 0.052457932 -0.048455894 0.044530246
-0.002981005 -0.012759068 0.14199139 0.13116571 0.05009366 0.024666186 0.09752874 -0.024368417
0.02129039 0.06156409 -0.025395663 0.014088469 0.024638591 0.03351843 -0.06561838 0.08679159
-0.024942512 -0.013157529 0.04551653 -0.023340324 -0.06630316 0.048682727 -0.06977517 0.011077201
-0.01076556 0.0033840109 -0.10795147 0.0816595 -0.012057375 0.08122019 0.046805397 0.05858648
0.015422737 0.064507574 0.17602403 -0.021789862 0.09495421 -0.06278743 -0.0009836295 0.014193143
0.062379327 0.081540905 0.09662039 0.027568528 0.027651919 0.18023284 -0.029064542 -0.09735579
-0.0040992154 0.079610966 0.04975986 0.019753562 -0.032499954 0.05894296 0.0112355035 0.15487139
0.13998534 0.046805408 0.11181512 0.054275792 -0.0037710092 0.101708256 0.06636042 0.07765487
0.041222785 0.050507 0.034791093 -0.054744653 0.06350159 0.10963812 -0.0022774364 -0.013258862
-0.004014475 0.14447467 0.06525817 0.012835977 -0.010199388 0.106206685 0.08495195 0.056390535
0.14555977 0.05931219 0.09313353 0.07809046 -0.12725995 0.034861792 -0.055076335 0.06712751
-0.02938021 0.020143285 0.1384515 -0.01373913 0.016929999 0.10967868 -0.016435374 0.019648124
0.12375837 0.06754905 0.002907278 0.114409454 -0.036367264 0.15196158 0.00554566 0.07624984
-0.08401764 0.016510777 0.16571295 0.014238995 -0.18659669 0.076766156 -0.027230795 0.085931055
0.04228751 0.017981112 0.0029564947 -0.021818522 -0.040517833 0.008459241 0.046283595 0.05378414
-0.059930425 0.010892586 0.045561515 0.086400546 0.040271908 0.09166622 -0.08155064 -0.051534384
-0.035490055 0.08255125 0.0330619 -0.006265125 -0.061086718 0.11895709 -0.05145463 0.034346912
0.0046426933 -0.042222604 0.10273309 0.09337236 0.028579134 -0.0748947 0.007185452 0.019477388
0.014327272 0.10011113 0.049978927 0.07140834 0.022854755 0.004907542 -0.08343328 0.08183096
-0.060903538 -0.029713012 0.050060004 0.018492118 0.056254797 0.10792783 0.10482171 -0.07637469
0.059804924 -0.022718284 0.007255259 -0.007214258 0.03995977 0.14837761 -0.05695157 0.02961726
0.06728774 0.024795718 0.03591421 0.03243731 0.03125037 -0.08909607 -0.035235453 0.008172685
0.058834005 0.08385822 0.06276904 0.24254625 -0.015075092 -0.03734438 -0.010914705 0.058820065
0.04385416 -0.008907663 0.078222014 -0.07354589 0.00022876564 0.02907287 -0.06530757 -0.121849686
0.13505767 0.119185016 0.035454057 0.048688494 0.024769133 0.006881886 0.084871426 0.06303494
0.067901194 0.059589945 0.024412077 -0.07670492 0.1017389 -0.10534698 -0.050354257 0.0234523
0.039981406 0.22586098 0.033201255 0.009931565 0.25306767 0.026343742 0.007899281 -0.080480464
-0.085200444 0.04770475 0.083280176 -0.023450043 0.13371082 -0.055100083 0.010793485 -0.04167484
-0.032005746 0.085172035 0.0059384196 -0.0013871186 -0.046500184 -0.0110185305 -0.08835761 -0.025053157
0.19138299 -0.027955625 0.13709116 0.013601036 0.11454177 -0.06337313 -0.06788011 -0.046994407

lstm.bias_hh_l1 f4 [512]
00000000: 50d4 d73d dd5d 093e 4a5a 413e c787 ad3d
00000010: 4652 b63c 1ff5 e1bc e6c1 93bc 1196 f93b
00000020: 9b99 d43d 5b9a 793b 3d4c e7bc 4e2b 153e
00000030: 9e86 623c b155 923c 331d 2c3d c8f6 87bd
00000040: d9e8 37bb dd1f e43c af75 653d 0a83 613d
00000050: 2bef c43d 0008 fd3d 220e 80bd 956e cc3c
00000060: 475d b63c 95d5 52bd 9e20 c23d d298 2b3c
00000070: fb35 7c3c 401b 0a3e 455f 8fbc aba5 b23d
00000080: 33c6 d03d f25f 29bc 4da9 0fbc e693 5fbd
00000090: b502 a7bd 06bb 033e 60ef 043d 3a9d 8dbc
000000a0: faaf 373d ba53 e43d ffed 81bd 6ad2 88bc
000000b0: 26d0 553d 305c 483d c2e5 b23c b138 a53d
000000c0: 9ae5 db3d a415 6fba 0017 c83d b5ce e1bc
000000d0: bf4a 8c3d aace e1bd 7321 b43d fe51 853d
000000e0: ef2a 0b3e 9201 103e dd56 9b3d c76c d13d
000000f0: 0d02 043c 420c 403e ec71 343d 844d 1d3d
00000100: f99d 1bbd ec17 35bd 87d7 1d3c 9bc8 9c3b
00000110: 20eb 35bd 3428 593d afca b43b bb81 3a3e
00000120: 3e55 bc3c a4b8 193e c744 d9bc e17e 983d
00000130: 92d2 023d 9161 4e3d cc60 9a3d 8655 d0bc
00000140: 677a 013d e773 413d 61f1 8e3d 9f65 8bbd
00000150: 7366 ea3c 8cb8 c23d 1b0b 74bb d49f 0b3d
00000160: 1779 7c3c e55f c33d a002 ae3d 29e1 a63d
00000170: 0367 183d b174 0c3e 3622 2f3e 3ce3 34bb
00000180: cd4b a23d 77a1 40bd 4881 bf3d cdc1 39bb
00000190: 1d5b 3fbe 585a a63d 1a84 da3c a0b8 873d
000001a0: 08db ec3d a921 d83c 1c44 5d3d bd10 8a3d
000001b0: 8aba bd3d 1905 143e 54a0 7938 0e85 923d
000001c0: b4dd 803d 3111 d03c 8896 2fbc b042 d4bb
000001d0: 21e6 983d 3ab3 c83d 5190 e63b cda1 d93d
000001e0: 89be bebd b89a c8bb bed8 b23d d123 b33d
000001f0: dedd a9bd edf6 743d b508 853d ef8d 223b
00000200: 2124 57bd c77d e73d 9a49 123d b08b 9c3d
00000210: 4d0d 6fbd 0bfc 5d3d fec7 a5bd 8f25 58bd
00000220: 1f1f 90bd 7f61 28bd ec37 3d3c d05d 09bc
00000230: 0454 26bd f41a 943d ca49 e13b ba01 f53c
00000240: 3fad 00bc b412 083d 2815 c53d 4306 013d
00000250: a8cc a83d 5209 c63d e2c3 cebd c554 113e
00000260: 4c86 483d 02b4 0c3c 1334 b03d 3419 a43d
00000270: 4130 da3d 6964 c3bc d543 61bd 7c91 eb3d
00000280: 05da 74bd c885 ef3d 9f79 d1bc bc80 27bd
00000290: 8526 633c 168b 893d 16be 043d 5ef0 ba3d
000002a0: 699e 0abd cae1 c3bc a087 ac3c 1a9a 9bbd
000002b0: cb2e 003d 123d 2b3d 2b4a 913d 9b58 4cbd
000002c0: d74e d33d 2306 543c c15b 2dbd 6057 a23d
000002d0: 91a3 5bbd 9a2d 123d 7013 923d acd8 d3bc
000002e0: 1cde c13d 8fa9 ea3d 592b a93c a073 c03c
000002f0: 2f34 13bd 353a bebc f6ba 4d3c 7a53 d0bc
00000300: 045a 213d b6c8 38bc 9d8e 5a3d e581 3f3e
00000310: c253 213a d02e 54bb d901 f83b 202b 963d
00000320: f247 b23c f0ad cf3d 399a 823c dcd9 533d
00000330: 8a3b ba3d 2b9d 6f3b 34e3 3d3d 18c0 08bc
00000340: 8ef7 9a3d e353 e33d bc54 1abd 88a4 cc3d
00000350: 54e1 a53d 197b 5ebc 697d 9a3b 94ec 773d
00000360: 02b2 fcbc 0d53 a83d dea9 d83c 45d7 223d
00000370: 32b8 243d 448e 343d 741f 53bd 9f8c 8b3d
00000380: 686d 7d3d 15c4 1f3e dd8a 3cbc ea23 a7bc
00000390: 574a 9a3e aba8 bf3d 2516 f23d 0aee 9ebc
000003a0: 0983 a03c a937 d93d a5d7 473b 5984 ca3d
000003b0: dedc 0b3e e03a 9f3d 702b 143d e9fa a73d
000003c0: 762e ce3c 6c46 8d3d a041 163e 10d5 7b3d
000003d0: 55fa 3b3d 4350 e43d 5ff3 143c 1112 493b
000003e0: 12f8 e03d edd2 90bc 8db2 b63d 1b9f f63d
000003f0: 662d 7e3d ced3 8cbd 7942 a0bc 5c3c d5bc
0.10538542 0.13414712 0.18882099 0.08473163 0.022256028 -0.027582703 -0.018036794 0.0076167663
0.103808604 0.0038086388 -0.028234595 0.145673 0.013826041 0.017863126 0.042020034 -0.06638867
-0.0028062372 0.027847225 0.056020435 0.05505661 0.0961593 0.123550415 -0.062526956 0.024955073
0.022261275 -0.05147322 0.094788775 0.010473447 0.015393729 0.13486958 -0.017501483 0.08723005
0.101940535 -0.010337817 -0.008768392 -0.054584406 -0.08154813 0.12864313 0.03245485 -0.017286886
0.04484556 0.11148782 -0.06344222 -0.016701896 0.05220046 0.04891604 0.021838073 0.08067454
0.107371524 -0.0009120351 0.09770012 -0.027564386 0.06850194 -0.11025746 0.087954424 0.065097794
0.13590597 0.14063099 0.07584927 0.10225826 0.00805713 0.18754676 0.044053957 0.038404003
-0.03799245 -0.044212267 0.009633905 0.004784656 -0.044413686 0.053016856 0.005517326 0.18213551
0.022989865 0.15011841 -0.026522053 0.07446075 0.031939097 0.050386015 0.07537994 -0.025431406
0.031610873 0.047229674 0.06979633 -0.06806492 0.028613305 0.09507856 -0.0037238065 0.03408797
0.015409729 0.09539775 0.084965944 0.08148415 0.037207615 0.13716389 0.17102894 -0.0027601263
0.07924614 -0.047028985 0.0935083 -0.0028344274 -0.186871 0.081227005 0.026674319 0.06627011
0.115652144 0.026383238 0.054020032 0.06741474 0.09264095 0.1445507 5.9515543e-05 0.071542844
0.062922865 0.025398823 -0.010717042 -0.0064776763 0.074657686 0.0979981 0.007036247 0.10626564
-0.093136854 -0.0061219595 0.087327465 0.08747066 -0.08294271 0.0598058 0.06495801 0.0024803837
-0.05252469 0.11303287 0.035714723 0.07643831 -0.058362294 0.054195445 -0.08094786 -0.052770194
-0.07037186 -0.041108605 0.011548977 -0.008384183 -0.040607467 0.072317034 0.0068752514 0.02990805
-0.007853805 0.03322096 0.09623176 0.031500112 0.0824216 0.096697465 -0.100959554 0.14192493
0.0489562 0.008587839 0.08603682 0.080126196 0.10653735 -0.02385159 -0.05499633 0.11502358
-0.059778232 0.116954386 -0.025570689 -0.040894255 0.013864164 0.06715982 0.032407843 0.09127878
-0.033842478 -0.023911376 0.021060765 -0.07597752 0.031294625 0.041806288 0.070942245 -0.04988919
0.10317772 0.012940916 -0.04232383 0.07926822 -0.053622786 0.03568802 0.07132614 -0.025860153
0.09466192 0.11458122 0.020650553 0.023492634 -0.035938438 -0.023221115 0.012556782 -0.02543043
0.039392486 -0.011278322 0.053358663 0.18701895 0.00061541435 -0.0032376535 0.0075685796 0.07332444
0.021762822 0.10140598 0.01594268 0.05172144 0.090933874 0.0036562185 0.046359256 -0.00834658
0.075667486 0.110999845 -0.037678465 0.09992319 0.080996186 -0.013579153 0.004714657 0.060528353
-0.0308466 0.08218966 0.026448186 0.03975608 0.040214725 0.044080988 -0.051543668 0.06813931
0.061871916 0.15602143 -0.011507717 -0.020402867 0.30134842 0.09358343 0.1182063 -0.019400615
0.019593732 0.106063195 0.0030493524 0.098885246 0.13658473 0.077749014 0.036174238 0.08202154
0.025168639 0.068981975 0.14673471 0.06148249 0.045893032 0.11148121 0.009091227 0.0030680934
0.10984816 -0.017678702 0.089207746 0.12042066 0.062055014 -0.06876336 -0.019562947 -0.026029758
