Lab4 - RNN text classifier/models/model_64_1_layer_40epochs_bidirectional.pth (torch, 72308 bytes, 6 tensors)

lstm.weight_ih_l0 f4 [256, 1]
0	0xbe57b6f9	-0.21065892
1	0x3d836e62	0.06417538
2	0xbc890891	-0.016727718
3	0x3f3edbd9	0.7455421
4	0xbec655e6	-0.3873741
5	0xbe676a25	-0.22599085
6	0x3d2b69c7	0.041848924
7	0xbdecbc7d	-0.11559389
8	0xbd99b8c8	-0.07505947
9	0x3de9b9fd	0.114124276
10	0x3daccfed	0.08438096
11	0xbe76e00d	-0.24108906
12	0xbdbd3726	-0.09239034
13	0x3d36fcbf	0.04467463
14	0x3d05983f	0.032615896
15	0x3bca0322	0.0061649242
16	0x3de548aa	0.111955
17	0xbe897d49	-0.26853397
18	0x3d6dd137	0.05806085
19	0xbe4ec49e	-0.20192191
20	0x3e9d4c9a	0.30722505
21	0xbd77e6c5	-0.060522813
22	0x3d557869	0.052116785
23	0xbd9dcd3d	-0.07705162
24	0xbe047614	-0.12935668
25	0xbe9bf33d	-0.30459014
26	0xbe02903b	-0.12750332
27	0x3dc6fa6e	0.097157344
28	0x3d9bd7f6	0.07609551
29	0xbda2322a	-0.07919724
30	0xbe4b9dab	-0.19884364
31	0x3ddb513f	0.10708856
32	0x3c2a4aa3	0.010393771
33	0xbe44150e	-0.19148657
34	0x3e8b5bad	0.2721838
35	0xbe062ba8	-0.13102591
36	0xbc763005	-0.015026097
37	0xbe89d98b	-0.26923785
38	0x3cde1840	0.027111173
39	0x3e09a3df	0.13441418
40	0x3b6b3890	0.0035891868
41	0x3d9d94e3	0.076944135
42	0xbccce475	-0.02501128
43	0x3d276d72	0.04087586
44	0xbe341e11	-0.17589594
45	0x3e8c78a1	0.27435783
46	0xbcdc8edf	-0.026923595
47	0xbcd1c289	-0.025605457
48	0x3ec9809d	0.39355937
49	0x3e0bebf6	0.1366423
50	0x3d1d2174	0.03836198
51	0x3d4e95b7	0.050435748
52	0xbd3383a3	-0.04382671
53	0x3db515e1	0.08842064
54	0x3c4ebb69	0.012617924
55	0x3c154438	0.009110503
56	0xbe4dec77	-0.20109735
57	0x3f7eb285	0.9949115
58	0x3d3d70ae	0.046250038
59	0x3d4298ad	0.047508884
60	0xbd69b2b0	-0.057055175
61	0xbded508a	-0.11587627
62	0x3dba60e0	0.09100509
63	0xbe1cb3aa	-0.15302911
64	0x3d1756f9	0.036948178
65	0x3e16c343	0.14722924
66	0x3de81482	0.113320366
67	0xbdc4f346	-0.09616713
68	0x3e059b63	0.13047557
69	0x3c422486	0.011849528
70	0xbe8103c5	-0.25198188
71	0xbb37d025	-0.0028047648
72	0x3c976dee	0.018485036
73	0x3dfce9ec	0.123493046
74	0x3e51713c	0.20453352
75	0xbc9341d6	-0.017975729
76	0xbc42aa76	-0.011881461
77	0x3e092c25	0.13395746
78	0xbc89c495	-0.01681737
79	0x3e026d1e	0.12736937
80	0xbe4db26a	-0.20087591
81	0x3e979e4b	0.29612955
82	0x3dd21b99	0.1025917
83	0x3daf74af	0.085671775
84	0xbc7e99b9	-0.01553958
85	0x3e800a78	0.25007987
86	0x3db829de	0.089923605
87	0x3dfcca76	0.12343304
88	0x3c27bc38	0.010237746
89	0x3d5c0d4f	0.05372363
90	0x3e537203	0.20648961
91	0x3e354612	0.17702511
92	0x3e3baca2	0.18327573
93	0xbe0c9fe3	-0.13732867
94	0x3cc39dc7	0.023878945
95	0xbce1d952	-0.027569447
96	0x3e67a161	0.22620155
97	0x3dde1446	0.108437106
98	0x3da2e242	0.079533115
99	0xbe3e4f23	-0.18584876
100	0x3d19a6e1	0.037512664
101	0x3e90eb3b	0.28304467
102	0xbcbed238	-0.0232936
103	0x3e3a2d04	0.18181235
104	0xbd31f795	-0.043449003
105	0xbe4192f7	-0.18903719
106	0x3bdb7dce	0.0066983467
107	0x3d12307d	0.035690773
108	0xbd66dfaa	-0.056365646
109	0x3d481a57	0.048853245
110	0x3e133e64	0.14379269
111	0x3d939787	0.07206636
112	0x3e4a2556	0.19740805
113	0xbeccb502	-0.39981848
114	0xbe6937a4	-0.22775131
115	0xbdacf929	-0.08445961
116	0xbd3be801	-0.045875553
117	0x3d7dfcdf	0.062008735
118	0x3e137705	0.14400871
119	0x3cf6be87	0.030120147
120	0xbe626116	-0.22107348
121	0xbd9618a2	-0.07328917
122	0x3e0ab73f	0.13546465
123	0x3c67f39a	0.0141572
124	0x3bcc4702	0.0062340507
125	0x3e7d8cdd	0.24760766
126	0xbe2c54bd	-0.168292
127	0x3e1d39fa	0.15354148
128	0xbda46dbd	-0.080287434
129	0xbda62cea	-0.081140354
130	0x3d535053	0.051590275
131	0xbd306fca	-0.04307536
132	0x3d016d25	0.03159823
133	0xbe8c61ee	-0.27418464
134	0xbcfaa09e	-0.030594166
135	0x3e950b53	0.29110202
136	0x3d3b63a4	0.04574932
137	0xbd86972d	-0.06571803
138	0xbd58fb88	-0.052974254
139	0xbe6b6574	-0.2298792
140	0xbd8eda97	-0.069752865
141	0xbf01e8f8	-0.5074611
142	0xbe26775a	-0.16256467
143	0x3e162dfc	0.14665979
144	0xbc168304	-0.00918651
145	0xbe504a67	-0.20340882
146	0x3db067ba	0.08613534
147	0xbd0e0010	-0.03466803
148	0xbe941678	-0.28923392
149	0xbe0dff97	-0.13867031
150	0xbd002047	-0.031280782
151	0x3dcf2bcd	0.10115776
152	0x3f0ac8cc	0.5421264
153	0x3e8d97e1	0.27654937
154	0x3dab2612	0.08356871
155	0x3d666381	0.056247238
156	0xbe313811	-0.17306544
157	0xbebc03e1	-0.3672171
158	0x3e4cffb7	0.20019422
159	0x3da4f377	0.0805425
160	0x3d383e9e	0.04498159
161	0xbf03f520	-0.51545906
162	0x3dd2e8cc	0.10298309
163	0xbee7e3be	-0.4529094
164	0x3e1ec1f5	0.15503676
165	0x3f28ecdd	0.65986425
166	0x3e1a7599	0.15083922
167	0x3c07e61e	0.00829461
168	0xbe8cb897	-0.2748458
169	0xbe3ed82d	-0.18637152
170	0xbe82d5eb	-0.2555383
171	0xbe06216b	-0.13098685
172	0xbe8e6233	-0.27809295
173	0x3d87b34b	0.06625994
174	0x3e2e6390	0.17030168
175	0x3e6bc76c	0.23025292
176	0x3e1cb045	0.15301616
177	0xbc5132e5	-0.012768482
178	0xbcf3858c	-0.029726766
179	0x3f182e61	0.5944577
180	0x3cf23aa3	0.029568976
181	0xbdb7ac04	-0.08968356
182	0x3bb68dc0	0.005571097
183	0x3cef5f2b	0.029220184
184	0x3eb92fe5	0.36169353
185	0x3e5164ae	0.20448563
186	0xbd8b01f4	-0.06787482
187	0xbd33815e	-0.043824546
188	0x3e900798	0.28130794
189	0x3e07ea91	0.13273074
190	0xbdadae8d	-0.084805585
191	0xbf94ef53	-1.1635536
192	0x3d51052f	0.051030334
193	0xbe54a004	-0.20764166
194	0x3daf2851	0.085526116
195	0xbb46a9f6	-0.0030313707
196	0xbda7961e	-0.081829295
197	0x3cf9b910	0.030483752
198	0x3d337658	0.043814033
199	0x3e02c59a	0.12770692
200	0x3e13c682	0.14431193
201	0x3d11975e	0.035544746
202	0xbe50b196	-0.20380244
203	0x3e911d37	0.28342602
204	0x3e0fa74a	0.1402866
205	0x3cd91dea	0.026503522
206	0x3e643a33	0.22287826
207	0x3d14df10	0.03634554
208	0x3e0ad1a8	0.1355654
209	0x3ddf713f	0.10910272
210	0xbd36de26	-0.04464545
211	0xbe7b2993	-0.24527578
212	0x3e252bec	0.16130036
213	0x3cc5c686	0.024142515
214	0x3d85f9dc	0.065417975
215	0x3cfa104b	0.030525347
216	0xbe25d226	-0.16193447
217	0xbdd10a4a	-0.102070406
218	0x3d7d10b0	0.061783493
219	0x3d90eddd	0.07076619
220	0x3d931c80	0.0718317
221	0xbe358532	-0.17726591
222	0x3e872ba2	0.26400477
223	0x3e265761	0.1624427
224	0x3cbbdccb	0.02293243
225	0x3d1f507f	0.038895126
226	0x3d7287b4	0.059211448
227	0x3de0570e	0.10954104
228	0x3d92387b	0.07139679
229	0xbe5d077d	-0.21584888
230	0xbded3902	-0.11583139
231	0x3d424dd0	0.04743749
232	0xbd94cc7a	-0.07265563
233	0x3d9cf46d	0.07663808
234	0x3ecd31b7	0.40076992
235	0xbca22e22	-0.019797388
236	0x3ee4d3dc	0.44692886
237	0xbe315e21	-0.17321064
238	0x3d25a8ca	0.040444173
239	0xbdb35502	-0.08756448
240	0x3e7c67e8	0.24649012
241	0x3d4d167f	0.050070282
242	0x3cc7155b	0.024302175
243	0xbcce3a78	-0.025174364
244	0xbcfe3a96	-0.031033795
245	0xbe5e9c50	-0.21739316
246	0xbddea31d	-0.10870955
247	0x3d195138	0.03743097
248	0xbd8b98dd	-0.06816266
249	0x3dde5ea8	0.10857898
250	0xbe336523	-0.1751905
251	0x3de99618	0.11405581
252	0x3ce20a9e	0.027592953
253	0x3e1cd0ab	0.15313976
254	0x3ea10e3d	0.31456175
255	0xbdb4ef93	-0.08834758

lstm.weight_hh_l0 f4 [256, 64]
0	0xbd70256f	-0.05862945
1	0x3d00ccfe	0.031445496
2	0xbe0d705a	-0.1381239
3	0xbcaa1583	-0.02076221
4	0x3d6dcc7c	0.05805634
5	0xbd830f28	-0.06399375
6	0xbd0b6ef6	-0.034041367
7	0x3e244d47	0.16045104
8	0x3da31b50	0.07964194
9	0xbc5d9901	-0.0135252485
10	0xbda64a6c	-0.081196636
11	0xbe1e6697	-0.15468822
12	0x3d889217	0.066684894
13	0x3d11b346	0.03557136
14	0xbdaba33a	-0.08380742
15	0xbba8f31c	-0.005155934
16	0x3d5b916a	0.053605475
17	0xbec3e55a	-0.3826092
18	0x3e825b34	0.25460207
19	0x3d7616c3	0.0600803
20	0xbe099b8d	-0.13438244
21	0x3ee67c47	0.4501669
22	0xbd8da572	-0.06916322
23	0x3e2353e7	0.15949975
24	0xbdb4ac15	-0.088218845
25	0xbde1c1cc	-0.11023292
26	0xbe19a896	-0.15005717
27	0x3cbbab29	0.022908764
28	0xbdacd7ad	-0.084395744
29	0x3bdd5e92	0.0067556584
30	0x3dffe0c0	0.124940395
31	0x3e2a3f1b	0.16625635
32	0x3e1d4f57	0.15362297
33	0x3d583b9b	0.05279122
34	0x3e241679	0.16024198
35	0xbcb4d83d	-0.022075767
36	0xbb3d3522	-0.002887078
37	0xbe0e120d	-0.13874073
38	0x3cb9d6de	0.022685464
39	0xbe57732c	-0.21040028
40	0x3dffc22e	0.12488209
41	0xbdc5b419	-0.096534915
42	0xbd1ed812	-0.03878028
43	0xbd47aec1	-0.048750643
44	0x3edaa758	0.42705798
45	0x3d6d91d4	0.0580004
46	0xbd016fa6	-0.031600617
47	0xbd0aba27	-0.033868935
48	0xbcc5cbf1	-0.024145098
49	0xbe651d31	-0.22374417
50	0xbd57909a	-0.052628137
51	0xbd8cb07b	-0.068695985
52	0x3e15dd5c	0.14635223
53	0xbe80f43a	-0.2518633
54	0x3dc469b8	0.09590477
55	0x3e0592e9	0.13044323
56	0xbd2e8940	-0.04261136
57	0xbd1b7174	-0.037949994
58	0xbcf673ac	-0.030084454
59	0x3d294738	0.041327685
60	0x3dbf6a27	0.09346419
61	0xbd643e36	-0.05572339
62	0x3cdc93fa	0.02692603
63	0x3e1b12cd	0.1514389
64	0x3a043fcc	0.0005044907
65	0x3dd30a7a	0.103047326
66	0xbcd44228	-0.025910452
67	0x3d7e87e8	0.06214133
68	0xbe07e24e	-0.13269922
69	0x3de0c871	0.10975731
70	0xbd915477	-0.070961885
71	0xbddeb893	-0.108750485
72	0xbd72104b	-0.05909757
73	0xbde3b713	-0.11118903
74	0x3d2d8cf7	0.042370763
75	0x3df651e8	0.12027341
76	0xbd8c7417	-0.0685808
77	0x3e1abc60	0.15110922
78	0x3e4dca63	0.20096736
79	0xbe135042	-0.14386085
80	0x3ce14ad7	0.027501507
81	0x3e178ef3	0.14800625
82	0xbd8b9d31	-0.06817091
83	0xbcf99498	-0.030466363
84	0x3d8f4891	0.06996263
85	0xbde345b3	-0.110972784
86	0xbda72492	-0.08161272
87	0x3e0f0b7e	0.13969228
88	0xbc5b692f	-0.013391777
89	0xbde8c8ea	-0.11366446
90	0x3d782172	0.06057877
91	0xbdb09a01	-0.08623124
92	0x3dedf9ad	0.116198875
93	0x3d88ad4b	0.06673678
94	0xbdf756dd	-0.12077115
95	0x3d692066	0.056915663
96	0xbd67a8eb	-0.056557577
97	0xbdad3e6a	-0.0845917
98	0xbbe06249	-0.006847654
99	0x3d2f6bee	0.04282754
100	0xbdd62084	-0.104554206
101	0xbd91dcdb	-0.07122203
102	0xbd8aef45	-0.06783918
103	0xbe07af7d	-0.13250537
104	0xbd98d096	-0.074616596
105	0x3e9cb664	0.30607903
106	0x3e90b8b4	0.28265917
107	0xbd02c233	-0.031923484
108	0x3e05ad9c	0.13054508
109	0xbce94de3	-0.028479522
110	0xbda0c6ec	-0.07850441
111	0xbe14c81f	-0.14529465
112	0xbdd8dd42	-0.105890766
113	0xbd0f6ab5	-0.035013873
114	0xbd6c2338	-0.057650775
115	0xbe71bb8a	-0.23606697
116	0x3d7f71ff	0.062364575
117	0xbd235e2a	-0.039884724
118	0x3d8625dc	0.0655019
119	0xbddf1557	-0.10892742
120	0xbdf28430	-0.11841619
121	0xbdef253a	-0.11677022
122	0xbd984eb8	-0.074368894
123	0xbc472c3d	-0.012156543
124	0xbe51f922	-0.20505193
125	0xbd2d5e42	-0.04232622
126	0x3e1ea9b1	0.1549442
127	0x3e5d032a	0.21583238
128	0x3a99ad9c	0.0011724713
129	0xbe06bd0b	-0.13158052
130	0x3c37b221	0.011211903
131	0xbc6d1253	-0.014469701
132	0x3dec4dae	0.11538254
133	0xbe0a6f1c	-0.13518947
134	0xbe780946	-0.24222288
135	0x3e47ec6f	0.19523786
136	0x3cc4d502	0.024027351
137	0xbdc06445	-0.09394125
138	0xbd1f4072	-0.03887982
139	0xbe5a6f39	-0.2133149
140	0xbd0f45e3	-0.03497876
141	0xbe299cb5	-0.16563685
142	0xbe251528	-0.16121352
143	0x3e00e85d	0.1258864
144	0xbe8549b6	-0.260328
145	0x3decf8bc	0.1157088
146	0x3e3802bf	0.17969798
147	0xbdbbb020	-0.091644526
148	0xbe56a829	-0.20962586
149	0xbeb41871	-0.35174897
150	0xbe36689c	-0.17813343
151	0x3c310e70	0.010806665
152	0xbdc01c88	-0.09380442
153	0xbd313a8b	-0.04326872
154	0x3ea5a179	0.32349756
155	0x3e231c27	0.15928708
156	0xbe1cec7b	-0.15324585
157	0xbd68b842	-0.056816347
158	0x3e0c0d02	0.13676837
159	0x3de373e6	0.1110609
160	0x3d404d00	0.046948433
161	0xbe861f93	-0.26195964
162	0x3dd87544	0.10569242
163	0x3dfea693	0.12434115
164	0x3d931130	0.07181013
165	0xbcc6baed	-0.024259055
166	0x3e02dc4c	0.12779349
167	0x3af5602d	0.0018720679
168	0x3c15f777	0.0091532385
169	0xbe6d17ee	-0.2315366
170	0xbd34287d	-0.043983925
171	0x3d15b5e3	0.036550414
172	0xbc77d17e	-0.01512563
173	0xbde8e0aa	-0.11370976
174	0x3e6334ff	0.22188185
175	0x3b708a68	0.003670359
176	0x3e9054b2	0.28189617
177	0xbea7a338	-0.32741714
178	0xbdbdee5f	-0.09273981
179	0x3e243370	0.16035247
180	0x3d784f92	0.06062276
181	0xbec4d242	-0.38441664
182	0xbb1a7970	-0.0023570918
183	0x3e699b07	0.22813044
184	0xbccf0703	-0.025271898
185	0x3e6e0801	0.23245241
186	0x3da77ce5	0.081781186
187	0xbe520cb4	-0.20512658
188	0x3d6ec7f7	0.05829617
189	0x3e245f92	0.16052082
190	0xbe058a4c	-0.13041037
191	0x3dbc464d	0.09193096
192	0x3ceff65d	0.02929228
193	0xbde9c5db	-0.11414691
194	0xbe083823	-0.13302664
195	0x3e94b7e7	0.29046556
196	0x3df8cfc7	0.121490054
197	0xbe52bff9	-0.20581044
198	0xbc156d64	-0.009120319
199	0x3ea2dac6	0.31807536
200	0x3d0453dc	0.032306537
201	0xbd1e0cad	-0.038586307
202	0x3d8653c2	0.06558944
203	0xbcfc6959	-0.030811952
204	0xbe63c0fb	-0.22241585
205	0xbe1d2368	-0.15345538
206	0x3c4ad88d	0.012380731
207	0x3d588ab8	0.052866668
208	0x3da3bafb	0.07994648
209	0xbcbc343d	-0.022974128
210	0x3e8472cc	0.25868833
211	0x3e539789	0.20663275
212	0xbe20f7a3	-0.15719466
213	0xbd87d51f	-0.066324465
214	0xbd0965e8	-0.03354445
215	0x3ebbd0ed	0.36682835
216	0xba36daa4	-0.0006975329
217	0x3d5e4299	0.05426273
218	0xbd1f562f	-0.03890055
219	0x3d2d8da1	0.042371396
220	0xbe236445	-0.15956219
221	0x3d9149a8	0.07094127
222	0x3e059092	0.1304343
223	0x3d770295	0.060305197
224	0x3d753f53	0.059874844
225	0x3cda3bd5	0.026639858
226	0x3c8584bf	0.01629865
227	0xbe9c7a0e	-0.3056187
228	0xbaf39de3	-0.0018586483
229	0x3e3280e9	0.17431988
230	0x3dbf2a34	0.093342215
231	0x3da30357	0.079596214
232	0x3e1afed7	0.15136276
233	0xbdec0300	-0.1152401
234	0xbdbc098e	-0.0918151
235	0x3d9d2402	0.076728836
236	0x3d8c98f6	0.068651125
237	0xbd981cd0	-0.074273705
238	0x3da383d3	0.07984128
239	0x3c8e5519	0.017374562
240	0x3e0767f3	0.13223247
241	0x3e0f2d95	0.13982232
242	0xbda437d2	-0.080184594
243	0xbd0df728	-0.034659535
244	0xbe49efc6	-0.19720373
245	0xbe04d0e2	-0.12970307
246	0xbca02f92	-0.019553933
247	0x3db1ed51	0.08687843
248	0x3e34078d	0.17581005
249	0xbdfb7272	-0.12277688
250	0xbe5c9f07	-0.21545039
251	0xbd863766	-0.06553535
252	0x3e936169	0.28785256
253	0xbe285aa4	-0.16440827
254	0x3db18dde	0.08669637
255	0xbeeee24a	-0.4665702

lstm.bias_ih_l0 f4 [256]
0	0x3dcb817b	0.09936806
1	0x3e97bee0	0.29637814
2	0x3df81f29	0.12115318
3	0x3c9d8b66	0.01923151
4	0xbdb39da8	-0.08770305
5	0x3d45ec1e	0.048320882
6	0xbdcdbad4	-0.100454
7	0x3e7de830	0.24795604
8	0x3e2b2707	0.16714107
9	0x3e4075f3	0.18794994
10	0x3cc7809c	0.024353318
11	0x3dba62fd	0.09100912
12	0x3df25fec	0.11834702
13	0x3ea57ca4	0.32321656
14	0x3e27e6f6	0.16396698
15	0x3ef62a4a	0.4807914
16	0x3d8578f8	0.065172136
17	0xbbda08fa	-0.006653902
18	0x3dc5c5ee	0.09656893
19	0x3d4c566d	0.04988711
20	0x3e235bcc	0.15952986
21	0x3d40758a	0.046987094
22	0x3f2d1b1b	0.67619485
23	0x3d39599d	0.045251478
24	0x3caf7250	0.021416813
25	0x3d0aa8a1	0.033852223
26	0xbd279e58	-0.040922493
27	0x3e505318	0.20344198
28	0x3ad99ec7	0.0016603105
29	0x3efacb2a	0.48983127
30	0x3e0cf396	0.13764796
31	0x3d97eaea	0.07417853
32	0xbcb3b5ce	-0.021937277
33	0x3d39f42d	0.04539888
34	0x3d976823	0.073929094
35	0x3e6b1ba6	0.22959766
36	0x3e3c44d6	0.18385634
37	0x3e76fa18	0.2411884
38	0x3e674b8b	0.22587411
39	0x3e22865b	0.15871565
40	0x3e5266d0	0.20547032
41	0x3d373fde	0.044738643
42	0x3e1dd106	0.15411767
43	0x3e40640c	0.18788165
44	0xbcbafe58	-0.022826359
45	0x3e7e5175	0.24835761
46	0x3e0da0e6	0.13830909
47	0x3ed2633a	0.4109133
48	0x3e105c30	0.14097667
49	0x3dcf675e	0.101271376
50	0xbe574149	-0.21020998
51	0x3ecabd7e	0.39597696
52	0x3ca34944	0.019932397
53	0x3d754b78	0.059886426
54	0x3f3a6bd3	0.72820777
55	0x3e1f273e	0.15542313
56	0x3e01fc41	0.12693883
57	0x3dbce7b2	0.0922388
58	0x3dea4634	0.114391714
59	0x3e15758e	0.14595625
60	0x3e34008a	0.1757833
61	0x3c633ff5	0.013870229
62	0x3e29a516	0.16566882
63	0x3e82585f	0.25458047
64	0xbd827918	-0.06370753
65	0x3db52193	0.088442944
66	0xbe08b317	-0.13349567
67	0xbcd9ac4f	-0.026571421
68	0x3e3c8f50	0.18414044
69	0x3d928268	0.07153779
70	0x3d1442ea	0.036196627
71	0xbd3f4831	-0.046699706
72	0xbc5c1663	-0.013433072
73	0x3c4e254d	0.012582135
74	0xbc074a36	-0.008257439
75	0x3e36e11e	0.17859313
76	0x3e458fba	0.19293109
77	0x3d9d5af6	0.07683365
78	0x3e010035	0.12597735
79	0x3d8987e3	0.067153715
80	0x3d845482	0.06461431
81	0x3e2d7404	0.16938788
82	0xbdac8512	-0.08423819
83	0xbd6b5b40	-0.05746007
84	0xbcc4d9b6	-0.024029594
85	0x3e81c0d2	0.25342423
86	0x3db863cd	0.090034105
87	0x3d0cdd1c	0.034390554
88	0x3d86958a	0.06571491
89	0x3e7c329c	0.24628681
90	0x3e3a492d	0.18191977
91	0x3df1a06f	0.117981784
92	0xbd51b200	-0.051195145
93	0x3e34cca7	0.17656194
94	0x3db728ee	0.089433536
95	0xbd9127f2	-0.07087697
96	0x3c6ce919	0.014459872
97	0x3e011cc3	0.12608628
98	0x3e40d7b2	0.18832281
99	0x3d6babdc	0.057536945
100	0x3e0964ed	0.13417406
101	0x3df634b8	0.12021774
102	0x3d8f02b5	0.06982938
103	0x3dffd61e	0.124920115
104	0x3e26a3fe	0.16273496
105	0xbdba02a7	-0.09082537
106	0xbcec0a6c	-0.028813563
107	0x3a4720a4	0.00075961114
108	0x3e34f565	0.17671736
109	0xbc8abdf8	-0.016936287
110	0x3da3ef3e	0.08004616
111	0xbd8c31e9	-0.06845457
112	0x3db4fc8c	0.08837232
113	0xbd1395f0	-0.036031663
114	0x3e08a28e	0.1334326
115	0xbcf295d5	-0.029612461
116	0x3cf94077	0.030426247
117	0xbdb77d3f	-0.08959436
118	0x3e67a206	0.22620401
119	0x3d7140f0	0.05889982
120	0x3e86e724	0.2634822
121	0x3ddd936e	0.108191356
122	0x3da81998	0.082080066
123	0x3a2b2166	0.0006528109
124	0x3d643a9d	0.05571996
125	0xbd51e24d	-0.051241208
126	0x3d474be8	0.048656374
127	0x3dde7a63	0.10863187
128	0xbe220782	-0.15823177
129	0x3d97ef65	0.07418708
130	0xbe28345e	-0.16426226
131	0xbdfdcce6	-0.12392597
132	0xbe10ef0c	-0.14153689
133	0x3dbedb1f	0.09319138
134	0xbd6da656	-0.05801996
135	0xbd93b4cc	-0.07212219
136	0x3c76f6cc	0.015073489
137	0x3d47e8bc	0.048805937
138	0x3e48689b	0.19571154
139	0xbde612a1	-0.11234022
140	0x3d61e272	0.055147596
141	0x3d3cea10	0.046121657
142	0x3d140b29	0.036143456
143	0xbd343eea	-0.044005312
144	0x3cbb3b63	0.022855466
145	0xbc03da22	-0.008047612
146	0xbb395a0e	-0.0028282437
147	0xbde9b51e	-0.114114985
148	0xbcc00ce2	-0.023443643
149	0x3d22f54c	0.039784715
150	0xbf0dc02a	-0.55371344
151	0x3d8f3925	0.06993321
152	0x3c267832	0.010160493
153	0xbd9b104d	-0.075714685
154	0xbe14d9bc	-0.14536184
155	0x3d0a517a	0.03376911
156	0xbdc23120	-0.09482026
157	0xbba6f128	-0.005094666
158	0x3ec75bf6	0.38937348
159	0x3d4ad40a	0.049518622
160	0xbe148758	-0.14504755
161	0x3e4ac205	0.19800575
162	0x3c57de9a	0.013175631
163	0x3d9ed91b	0.07756253
164	0x3d3a0f63	0.04542483
165	0xbda24f3d	-0.0792527
166	0x3c4fdb66	0.012686586
167	0xbd491d6e	-0.049100332
168	0xbd6049cf	-0.05475789
169	0x3d18c22b	0.037294548
170	0xbd987eb4	-0.07446042
171	0xbe2900c2	-0.16504195
172	0x3d5c957b	0.053853493
173	0xbdcc7f79	-0.09985251
174	0xbd269ac7	-0.04067495
175	0xbd985110	-0.074373364
176	0xbcceb3e7	-0.025232268
177	0x3d8151d0	0.063144326
178	0xbe1e0a5e	-0.15433642
179	0xbddd9c48	-0.10820824
180	0x3ce87810	0.028377563
181	0x3a1d8079	0.00060082186
182	0x3ea3793f	0.3192844
183	0x3dc2314f	0.09482061
184	0x3c96a8d3	0.018391049
185	0x3d45e515	0.048314173
186	0x3d107106	0.035264038
187	0xbcb37587	-0.021906627
188	0x3e435faa	0.19079462
189	0x3dd22c09	0.10262305
190	0xbc92558a	-0.017863054
191	0xbd611223	-0.054948937
192	0x3db29832	0.08720435
193	0x3e508f3d	0.20367141
194	0x3dc861af	0.09784257
195	0x3d92b997	0.07164305
196	0x3e9b1eb7	0.3029687
197	0x3d6164c7	0.05502775
198	0x3c5ae924	0.013361249
199	0x3cdc7f9c	0.026916318
200	0x3cda6be6	0.026662778
201	0x3e233cd7	0.15941177
202	0x3e0e1920	0.13876772
203	0x3dbdfa31	0.09276236
204	0x3e309153	0.17242937
205	0xbd622196	-0.05520781
206	0x3e943870	0.28949308
207	0x3dbacb45	0.09120802
208	0xbce97522	-0.028498236
209	0x3e173abc	0.14768499
210	0x3e822796	0.25420827
211	0x3d2b5e67	0.041838076
212	0x3d4e1e45	0.050321836
213	0x3ec1057b	0.37699494
214	0x3d460ebe	0.048353903
215	0x3d6a1dfb	0.057157498
216	0x3e057862	0.13034204
217	0x3d9d8a55	0.076924
218	0x3d88c630	0.06678426
219	0x3de1b5ed	0.11021028
220	0xbcf7e5b0	-0.03026089
221	0x3d1e65ca	0.038671292
222	0x3e25be0e	0.16185781
223	0xbd878b57	-0.06618374
224	0x3e0a9ede	0.13537166
225	0x3df0ab5c	0.11751434
226	0x3dccbe0e	0.099971876
227	0x3ea5a274	0.32350504
228	0x3d6a0e12	0.057142325
229	0x3e2e7cd1	0.17039801
230	0x3dbdbd3c	0.09264609
231	0x3e059187	0.13043796
232	0x3e2293aa	0.15876642
233	0xbbfb861b	-0.0076758987
234	0x3d8bda85	0.06828789
235	0x3ce20e0c	0.027594589
236	0xbcf4042d	-0.029787147
237	0x3d4b6358	0.04965529
238	0x3dcc6f15	0.09982125
239	0x3e3d890f	0.18509315
240	0x3e0d79b7	0.13815962
241	0x3e95ca3f	0.29255864
242	0x3db5288d	0.08845625
243	0x3dfb97a6	0.12284784
244	0x3e1bdb9e	0.15220496
245	0x3de4d9df	0.11174368
246	0x3e873af1	0.26412156
247	0xbd04aac9	-0.032389436
248	0x3e91f3cd	0.28506318
249	0x3d78bfa9	0.060729656
250	0x3dae2fcb	0.085052095
251	0x3e5afc78	0.21385372
252	0x3e2a5709	0.16634764
253	0x3e4465f1	0.19179513
254	0x3d655217	0.05598649
255	0x3edd2fa0	0.43200397

lstm.bias_hh_l0 f4 [256]
0	0x3e3b1363	0.18269114
1	0x3e9b89df	0.30378625
2	0x3e8b0e12	0.27159172
3	0x3cfc00db	0.030762127
4	0xbe3ed208	-0.18634808
5	0x3de1152a	0.10990365
6	0x3d63a005	0.05557253
7	0x3d6e5551	0.058186833
8	0x3e15233d	0.14564224
9	0x3d4ad34a	0.049517907
10	0x3dad1af9	0.0845241
11	0x3e55d288	0.20881093
12	0x3d95614b	0.07293948
13	0x3e345b5c	0.17612976
14	0x3eaf1d33	0.34201965
15	0x3ebc3cfb	0.36765274
16	0x3dc7f5f8	0.09763712
17	0xbdfc9a01	-0.123340614
18	0x3d295bb7	0.04134723
19	0x3db00c8e	0.085961446
20	0x3df07b28	0.1174224
21	0x3d942b7b	0.07234856
22	0x3f38ff40	0.7226448
23	0x3e2726d6	0.16323408
24	0x3d2ca78e	0.04215198
25	0x3db895df	0.09012961
26	0xbcf5a50c	-0.029985927
27	0x3dcbd13b	0.09952017
28	0x3e466383	0.19373898
29	0x3ec032ea	0.37538844
30	0x3e33fbbc	0.17576498
31	0x3e082744	0.13296229
32	0x3e2657ec	0.16244477
33	0x3e450101	0.19238664
34	0x3b930462	0.0044866065
35	0x3da08ebd	0.07839725
36	0x3eb07d2a	0.34470493
37	0x3e22d4b6	0.15901455
38	0x3d546be8	0.05186072
39	0x3dac8404	0.084236175
40	0x3e5ea6f1	0.2174337
41	0xbdaaac47	-0.083336405
42	0x3e85e12f	0.26148364
43	0x3ea2a17a	0.31763822
44	0x3dd43368	0.103613675
45	0x3e0cc37a	0.13746443
46	0x3ea58d09	0.32334164
47	0x3ece62cd	0.40309754
48	0x3e13795f	0.14401768
49	0xbcdb5604	-0.026774414
50	0xbe33fb9f	-0.17576455
51	0x3ebe0495	0.3711287
52	0x3e531d56	0.2061666
53	0xbc82fbc8	-0.0159892
54	0x3f394a0e	0.72378623
55	0x3de22635	0.11042444
56	0x3d5c738c	0.05382113
57	0x3d1a23ea	0.037631907
58	0x3cdbee56	0.026847046
59	0x3e11b52c	0.14229268
60	0x3d85cdde	0.06533407
61	0xbe2877b7	-0.16451918
62	0xbcccadd8	-0.024985239
63	0x3e115d05	0.1419564
64	0x3e1bb698	0.15206373
65	0x3e64ce5a	0.22344342
66	0xbbe4dfec	-0.0069847014
67	0xbd08b3bc	-0.033374533
68	0x3eb39f83	0.35082635
69	0x3e20f556	0.15718588
70	0x3daa3164	0.08310202
71	0x3e326f82	0.1742535
72	0xbb2e3503	-0.002658189
73	0x3dbfce40	0.09365511
74	0xbdd211fb	-0.10257336
75	0x3d6ba366	0.057528876
76	0x3e6c6677	0.23085962
77	0x3e0bc0ab	0.13647716
78	0x3e18fa7f	0.14939307
79	0x3de7f354	0.11325708
80	0x3c71c64a	0.014756748
81	0x3e6c5ddd	0.23082681
82	0x3afca675	0.0019275682
83	0xbd2d02cf	-0.042239007
84	0xbdb5cb5d	-0.08876679
85	0x3e9fe6fe	0.3123092
86	0x3e6a9771	0.22909333
87	0x3cb9a33a	0.02266084
88	0x3d80a5bf	0.062816136
89	0x3e2bcd44	0.16777521
90	0x3d20f2bd	0.039293993
91	0x3e043eba	0.12914553
92	0x3bb79d65	0.0056034797
93	0x3c8d813c	0.017273538
94	0x3e0376f8	0.12838352
95	0x3d673b46	0.056453012
96	0xbb10666c	-0.0022033704
97	0x3e4581de	0.19287822
98	0x3e4bd21d	0.1990437
99	0x3e06f3a3	0.13178878
100	0xbd8edaf0	-0.06975353
101	0x3d41bdc9	0.047300134
102	0x3e1c0b0c	0.15238589
103	0x3cc10d29	0.023565846
104	0x3d46dab6	0.048548423
105	0x39831beb	0.00025007068
106	0xbca610b5	-0.020271638
107	0x3e315951	0.17319228
108	0xbbee3248	-0.0072691776
109	0xbd94718f	-0.07248222
110	0x3e435da2	0.19078687
111	0xbd6fc7a6	-0.05854001
112	0x3c79f8a2	0.015257033
113	0x3e2a97c2	0.16659454
114	0x3e51ebf0	0.2050016
115	0xbe03d9fd	-0.12876125
116	0x3e804e6e	0.25059837
117	0x3cafa2cf	0.021439938
118	0x3d22bc3b	0.03973029
119	0x3c8e976f	0.017406194
120	0x3e85c27a	0.26124936
121	0x3e007f69	0.12548603
122	0x3e64c125	0.22339304
123	0x3d134ac7	0.035959985
124	0x3da5eab3	0.08101406
125	0x3e0745a9	0.13210167
126	0x3d966083	0.07342627
127	0x3d0a5ca2	0.033779748
128	0xbdb8a663	-0.09016111
129	0x3e4f026e	0.2021577
130	0xbe27f4b5	-0.16401942
131	0xbdda0f43	-0.10647442
132	0xbe2c7dda	-0.16844884
133	0x3c29d8c2	0.0103666205
134	0x3cc73fa8	0.024322346
135	0xbd90e784	-0.07075408
136	0x3daf2e05	0.085536994
137	0x3d656a13	0.056009363
138	0x3df201c7	0.11816745
139	0x3d885580	0.06656933
140	0xbc992ca2	-0.01869804
141	0xbce0e5ed	-0.027453387
142	0xbd9b25b6	-0.07575552
143	0xbdaca951	-0.08430732
144	0x3da9b70a	0.08286865
145	0x3cb31eee	0.021865334
146	0x3e1915a9	0.14949669
147	0x3c87ddba	0.01658522
148	0xbe07cddf	-0.13262127
149	0x3e45769c	0.19283527
150	0xbf1ab3c7	-0.6043057
151	0x3b0b20a4	0.0021229172
152	0x3d715926	0.05892291
153	0xbbb34622	-0.005471007
154	0x3d4cb4f3	0.049977254
155	0x3e56644f	0.20936702
156	0xbcfa2de7	-0.030539466
157	0xbdbfe065	-0.09368972
158	0x3e9d44ef	0.30716655
159	0x3e28a823	0.16470389
160	0xbcb9132a	-0.022592146
161	0x3e32bb63	0.17454295
162	0x3e5e1787	0.21688662
163	0x3d8166dc	0.06318447
164	0x3cd5e27b	0.02610897
165	0xbdaf4324	-0.08557728
166	0x3d42b785	0.0475383
167	0xbe42127d	-0.18952365
168	0xbe147d09	-0.14500822
169	0x3dddb4b9	0.10825486
170	0xbc610b02	-0.013735535
171	0xbe209065	-0.15680082
172	0xbd3ab21b	-0.04558001
173	0x3df373a1	0.11887289
174	0x3d2ddcd2	0.04244692
175	0xbc891f96	-0.016738694
176	0x3dbcc5f8	0.09217447
177	0x3cf5b73a	0.029994596
178	0xbe53acfd	-0.20671459
179	0x3d9327cd	0.07185326
180	0xbd95a378	-0.0730657
181	0xbd426a85	-0.047464866
182	0x3f00dec9	0.50339943
183	0x3e4c3e17	0.1994556
184	0x3e00823f	0.12549685
185	0xbc99fc6b	-0.01879712
186	0x3dc8fa56	0.09813373
187	0xbdc31cb6	-0.095269606
188	0xbc752467	-0.014962292
189	0xbde76d57	-0.11300152
190	0x3d75c9df	0.060006972
191	0xbca4cfe2	-0.020118657
192	0xbd728316	-0.059207045
193	0x3d7a8d5d	0.06116997
194	0xbd5b99dd	-0.053613532
195	0x3dfb3a00	0.12266922
196	0x3ebeb541	0.3724766
197	0x3d671c9a	0.05642376
198	0xbe076672	-0.13222674
199	0x3d953ab9	0.07286591
200	0x3bf9a187	0.0076181325
201	0x3d935b38	0.07195133
202	0x3e5f5843	0.21811013
203	0x3d7f4f0d	0.062331248
204	0x3dadabe7	0.084800534
205	0xbdd4e3fd	-0.10395048
206	0x3e915fe2	0.28393465
207	0x3e7aae54	0.24480563
208	0xbd2f0ef9	-0.04273889
209	0x3e44f19a	0.19232789
210	0x3e825a13	0.25459346
211	0x3e5621cf	0.20911334
212	0x3e0425eb	0.1290509
213	0x3e7c40fe	0.24634168
214	0x3d868bc1	0.06569625
215	0x3c2a36d6	0.0103890505
216	0x3e889de2	0.26682955
217	0x3e4de2db	0.2010607
218	0x3d86e1cd	0.06586037
219	0xbcdf5bbc	-0.027265422
220	0xbdd808a6	-0.105485246
221	0x3d851858	0.06498784
222	0x3b762b2e	0.0037562358
223	0x3d548a59	0.05188975
224	0x3dede6ad	0.116162635
225	0x3e999c66	0.30002135
226	0x3d21454b	0.039372724
227	0x3ec2aaf1	0.38021043
228	0x3c282d55	0.010264714
229	0x3e7a2d99	0.24431457
230	0x3e17c2f3	0.14820461
231	0xbd5de4c8	-0.05417326
232	0x3e246795	0.16055138
233	0xbc2d8907	-0.010591752
234	0x3e3c8087	0.18408404
235	0x3b3c813a	0.0028763548
236	0x3d0425c1	0.032262567
237	0x3c1bac2a	0.009501496
238	0xbc783e8f	-0.015151634
239	0x3e1aebdb	0.15129034
240	0xbc980475	-0.018556813
241	0x3ded0e31	0.115749724
242	0x3e18f997	0.14938961
243	0x3e835f61	0.25658706
244	0x3e41f3b3	0.1894062
245	0x3dc53b2f	0.09630429
246	0x3e421f7b	0.18957321
247	0xbd44401c	-0.047912702
248	0x3eb1f2d3	0.34755573
249	0x3dfc54e6	0.123208806
250	0x3e55f7c6	0.208953
251	0x3e1bff23	0.15234046
252	0x3df4a732	0.119459525
253	0x3e15e445	0.14637859
254	0x3e286d3c	0.1644792
255	0x3e77b0a7	0.24188481

fc.weight f4 [5, 64]
0	0xbe9593fd	-0.2921447
1	0xbd2c40f5	-0.042054135
2	0xbe04c35f	-0.12965153
3	0xbdc169de	-0.09444021
4	0xbc8753b0	-0.016519397
5	0xbeb8487e	-0.35992807
6	0xbd16c085	-0.036804695
7	0x3e9ad837	0.30243084
8	0x3eef0d31	0.46689752
9	0x3d641055	0.055679638
10	0x3e342854	0.17593509
11	0xbea0d0d5	-0.31409326
12	0x3ea8a30c	0.32936895
13	0xbdb80dc9	-0.08987004
14	0xbcccb9a3	-0.024990862
15	0x3d755313	0.05989368
16	0xbe866448	-0.26248384
17	0xbef6346b	-0.48086867
18	0xbe905bf6	-0.2819516
19	0x3dc99298	0.09842414
20	0x3e831f2f	0.2560973
21	0x3eca08bf	0.39459798
22	0xbe00bcdf	-0.12572049
23	0xbdbcb063	-0.092133306
24	0x3d621520	0.055195928
25	0x3dc88a4f	0.09792005
26	0x3e1ec261	0.15503837
27	0x3cf2cdb2	0.029639099
28	0xbcf0dc27	-0.029401852
29	0x3e2de7cc	0.16982955
30	0x3d3dc76f	0.046332773
31	0x3d126872	0.035744138
32	0xbec06432	-0.37576443
33	0xbe3c2ba6	-0.18376026
34	0x3de574e4	0.11203936
35	0x3defa39e	0.117011294
36	0xbd9225ff	-0.071361534
37	0x3da7045e	0.0815513
38	0xbcbe22a5	-0.02320988
39	0xbe66537b	-0.22492783
40	0x3e378395	0.17921288
41	0xbe042978	-0.12906444
42	0x3ef35085	0.4752237
43	0xbd93e026	-0.07220487
44	0x3e84ba8a	0.25923568
45	0x3db97bf3	0.090568446
46	0x3db6c28d	0.08923826
47	0x3d21551f	0.03938782
48	0xbd8db01d	-0.069183566
49	0xbe8422d1	-0.25807813
50	0xbe1173fe	-0.14204404
51	0xbe74934b	-0.23884313
52	0xbdab556d	-0.08365903
53	0x3e47ed71	0.1952417
54	0xbe09aa59	-0.13443889
55	0x3dfd9001	0.12380982
56	0xbd45617a	-0.048188664
57	0x3d92d31c	0.07169172
58	0xbc87403b	-0.01651012
59	0x3e5d1110	0.2158854
60	0xbe35ac10	-0.17741418
61	0x3e69fad2	0.22849587
62	0x3e19599d	0.14975591
63	0xbe237704	-0.1596337
64	0x3daf65af	0.085643165
65	0x3c357565	0.011075352
66	0xbe0e8dc5	-0.13921268
67	0xbdd61f18	-0.104551494
68	0xbdd91755	-0.10600153
69	0x3e9c949b	0.30582127
70	0x3e186b30	0.14884639
71	0x3dbc8da3	0.092067026
72	0xbebb2db5	-0.3655831
73	0x3dff72b1	0.124730475
74	0x3e50ce50	0.20391202
75	0xbeae1a2c	-0.34004343
76	0x3cc6e7c2	0.024280433
77	0x3e487993	0.19577627
78	0xbe15d3c3	-0.14631562
79	0x3dfa114e	0.12210332
80	0x3f23481a	0.63781893
81	0x3ed3061a	0.41215593
82	0x3e72dd1b	0.23717158
83	0xbec812b2	-0.39076763
84	0xbd7de573	-0.061986398
85	0x3e9d7f8c	0.30761373
86	0xbe0a2d91	-0.13493945
87	0xbdc47a0a	-0.095935896
88	0x3d6d08ae	0.057869606
89	0x3e14369c	0.14473957
90	0xbe90715c	-0.28211486
91	0x3e09a390	0.134413
92	0x3dece177	0.115664415
93	0xbe2f5209	-0.17121138
94	0x3ce04dad	0.027380789
95	0xbcfd2e22	-0.030905787
96	0xbe711f14	-0.23547012
97	0x3f53f784	0.82799554
98	0xbd89fec1	-0.067380436
99	0xbe09d7a0	-0.1346116
100	0xbd07a5f0	-0.033117235
101	0x3e2ae702	0.16689685
102	0xbe2def50	-0.16985822
103	0xbcfb17a5	-0.030650923
104	0xbe78dd0e	-0.24303076
105	0xbd286c8d	-0.041119147
106	0xbf050b16	-0.5197004
107	0xbe0ecb04	-0.13944632
108	0xbe8b93c5	-0.27261177
109	0x3e5b95e9	0.21443905
110	0x3e02da42	0.12778571
111	0x3d6ea855	0.058266003
112	0x3e21e798	0.15811002
113	0xbaf8df4b	-0.0018987445
114	0xbca839b9	-0.020535337
115	0x3dde8ed1	0.10867084
116	0xbef676f5	-0.48137632
117	0xbe061451	-0.13093688
118	0x3de362f8	0.11102861
119	0x3d981d34	0.07427445
120	0x3d550f6c	0.05201666
121	0x3e98080e	0.29693645
122	0xbe331c2c	-0.17491215
123	0xbe400511	-0.18751933
124	0x3e13ede6	0.1444622
125	0x3c77d29d	0.015125898
126	0x3dd3318d	0.103121854
127	0x3f20dc26	0.6283592
128	0x3e8d64c6	0.27615947
129	0xbcd0bb02	-0.025479797
130	0x3c00bddb	0.007857765
131	0x3d8c8426	0.06861143
132	0xbe556c5b	-0.20842116
133	0x3f11c492	0.5694057
134	0xbd881b3b	-0.06645819
135	0xbebab765	-0.36468044
136	0xbeea302b	-0.45739874
137	0xbe857c62	-0.2607146
138	0x3d90c9ce	0.07069741
139	0x3e5e5958	0.2171377
140	0x3ccf4207	0.025300039
141	0x3d7c3b8c	0.061580226
142	0x3e7c5c8d	0.2464468
143	0x3c3902a8	0.011292137
144	0x3d35c207	0.044374492
145	0x3d953ce6	0.07287006
146	0xbe598fe5	-0.21246298
147	0x3e7cb46c	0.246782
148	0xbe68bfb2	-0.22729376
149	0xbf17e0a5	-0.59327155
150	0x3c028f46	0.007968729
151	0x3d9cb4b6	0.076516554
152	0xbe20ea23	-0.15714316
153	0x3e3273f4	0.17427045
154	0x3e732468	0.23744357
155	0xbe122bcf	-0.14274524
156	0xbde33ec1	-0.11095954
157	0xbbce3fc7	-0.006294224
158	0x3e27a8a8	0.16372931
159	0xbe26d512	-0.16292217
160	0xbe0c2c15	-0.13688691
161	0x3e3ba688	0.18325245
162	0x39af5d4e	0.00033448118
163	0x3ea84fb5	0.32873312
164	0xbe155292	-0.1458228
165	0x3e389d51	0.18028761
166	0x3d50c3ce	0.050967984
167	0x3d7a0fc8	0.061050206
168	0xbeea94d1	-0.45816663
169	0x3dd20a97	0.10255926
170	0xbe469101	-0.19391252
171	0x3e89240a	0.26785308
172	0xbe9fc447	-0.31204435
173	0xbd9e2caf	-0.077233665
174	0xbdffd768	-0.12492257
175	0xbd4c0e15	-0.049818117
176	0x3d0a6df3	0.033796262
177	0xbd74982a	-0.059715427
178	0xbda5f637	-0.081036024
179	0xbd5e0c8c	-0.054211184
180	0x3dc7ce36	0.097561285
181	0xbc9bc648	-0.019015446
182	0xbb5b2f9f	-0.0033445132
183	0xbdbab50a	-0.09116562
184	0x3e3df014	0.18548614
185	0xbdfd3efa	-0.123655275
186	0x3e0f1b77	0.13975321
187	0xbdbb41c5	-0.09143404
188	0x3dc55794	0.09635845
189	0x3eeed840	0.4664936
190	0xbe4ddd81	-0.20104028
191	0x3ce4d6a6	0.027934384
192	0x3d9851ee	0.07437502
193	0xbd9bacb9	-0.076013036
194	0x3e9609b7	0.29304287
195	0x3e653d86	0.2238675
196	0xbd745147	-0.059647825
197	0xbd648389	-0.055789504
198	0x3d30f297	0.0432001
199	0xbf22aa35	-0.63540965
200	0xbd91d9da	-0.0712163
201	0x3d2abc33	0.041683387
202	0xbe172d87	-0.14763461
203	0x3f21c854	0.631963
204	0xbee9ca63	-0.4566222
205	0xbe53fb68	-0.20701373
206	0xbdee95fa	-0.116496995
207	0x3df2b71f	0.11851334
208	0xbeef48cf	-0.46735236
209	0xbe0ffcfd	-0.14061351
210	0x3eab5ff8	0.33471656
211	0x3dacf9d1	0.08446086
212	0xbda692d5	-0.08133475
213	0xbe8f8088	-0.2802775
214	0x3c525673	0.012837994
215	0xbd864e31	-0.065578826
216	0x3deedab2	0.116628066
217	0xbe8c7e10	-0.27439928
218	0x3ee88437	0.45413372
219	0xbda63c2a	-0.08116944
220	0x3d9cc6e3	0.07655122
221	0x3db3f828	0.087875664
222	0xbeb08419	-0.34475783
223	0x3df44909	0.11927993
224	0x3e940fcf	0.2891831
225	0xbe73145f	-0.2373824
226	0x3e16d248	0.14728653
227	0x3c0f2355	0.008736451
228	0x3c0f2ade	0.008738248
229	0x3e27d9db	0.16391699
230	0xbd4d9007	-0.050186183
231	0x3ea49b73	0.32149848
232	0x3ee31870	0.44354582
233	0xbe114663	-0.14187007
234	0xbe2268ae	-0.15860245
235	0xbe74a592	-0.23891285
236	0x3cf97226	0.030449938
237	0xbe648056	-0.22314581
238	0xbd0e4ccc	-0.034741208
239	0x3d292bc4	0.041301504
240	0xbd140581	-0.03613806
241	0xbe226d51	-0.15862013
242	0x3dedef2c	0.11617884
243	0xbe8b0223	-0.27150068
244	0x3ea1cd70	0.3160205
245	0xbe960be1	-0.29305938
246	0xbd38185f	-0.044945117
247	0xbbecd34a	-0.007227336
248	0x3d0fbdfa	0.035093285
249	0xbd8a778a	-0.067610815
250	0xbd5816c9	-0.052756105
251	0xbc57f41e	-0.013180761
252	0xbeb5d0f9	-0.35510996
253	0x3e47a4ec	0.19496506
254	0x3cee1064	0.02906055
255	0xbe1a932f	-0.15095209

fc.bias f4 [5]
0	0x3dacc4e2	0.0843599
1	0xbd14351c	-0.03618346
2	0xbdd5c099	-0.10437126
3	0xbdd04612	-0.10169615
4	0x3bb7dba9	0.0056109023
